results/jugglingRobotV1/JugglingRobotV1.onnx (onnx, 74695 bytes, 7 tensors)

action_model._continuous_distribution.log_sigma f4 [1, 3]
000000 da 6e dd bc bf 0e ea bc 3e 94 c0 bc
       -0.027030397 -0.028571485 -0.023508187

action_model._continuous_distribution.mu.bias f4 [3]
000000 18 16 69 3c 9a 1c 41 3c 18 4d 76 39
       0.014226459 0.011786604 0.00023489108

action_model._continuous_distribution.mu.weight f4 [3, 128]
000000 68 73 36 3a 83 d6 4c bd a9 25 1d 3a 81 03 86 3c
       0.0006959946 -0.05000926 0.00059946865 0.016359093
000010 53 4c 06 bd 5f a1 7f bc 42 db d6 bb 76 61 4d bb
       -0.032787632 -0.015602439 -0.0065568993 -0.0031338609
000020 ec a3 da bc a9 ca e4 3c 96 69 81 bb 19 48 17 3b
       -0.026689492 0.027928667 -0.0039493544 0.0023083745
000030 56 ee 69 bc d8 58 22 bd 78 07 d5 bb 4f f9 d9 bc
       -0.014278015 -0.03963551 -0.0065011345 -0.026608137
000040 c2 28 9d 3c 86 49 e5 bb 8b c9 b4 bc 98 9f c3 3c
       0.019184474 -0.00699729 -0.02206876 0.023879811
000050 ab 98 83 bc 78 45 10 3c 27 67 83 bc 36 b0 b4 bc
       -0.016064009 0.008805625 -0.016040398 -0.02205668
000060 3b 85 6b bd de 8e 98 bc f9 4b c2 bc 70 07 81 bc
       -0.057500105 -0.018622812 -0.023717867 -0.015750617
000070 ca b1 b9 3b 18 47 b8 bb e9 29 ab bc 05 2c 11 bc
       0.005666946 -0.0056237094 -0.020894008 -0.008860593
000080 d1 5e c8 ba 34 e9 90 3c e6 f7 b7 3c 36 77 95 3c
       -0.0015287047 0.017689325 0.022457074 0.01824532
000090 ab 12 b4 bb 36 7f 99 3c 89 6b 30 bc ad 99 03 3c
       -0.0054953895 0.018737417 -0.010767826 0.008032245
0000a0 06 e7 24 bc c1 ea 92 bc b0 b1 3a bd 4e 93 bf bb
       -0.010064846 -0.017934205 -0.045579612 -0.0058464175
0000b0 73 44 1a 3d e5 a3 c0 ba c6 7a 5f bc 1c 80 2c 39
       0.037662935 -0.0014697282 -0.013640111 0.00016450923
0000c0 f9 5e 46 bd c3 3a 98 39 c5 7e 02 bc 12 36 c5 bc
       -0.048430417 0.0002903548 -0.0079647945 -0.024073634
0000d0 5c eb 0d 3d e4 af d0 3b f0 ef e2 3c 24 35 66 bc
       0.034648284 0.006368624 0.027702302 -0.014050756
0000e0 88 81 52 bd 00 e7 c0 bc 88 da 98 bc bd 97 b5 3b
       -0.051393062 -0.02354765 -0.018658891 0.0055417703
0000f0 ba a4 ae 3b 15 69 9b 3c 00 a6 9e 3b 7e 29 24 3c
       0.0053296955 0.018971005 0.004841566 0.010019658
000100 c6 94 79 3c 1f ee 76 ba d6 a9 05 3c 1a 11 35 bc
       0.015233224 -0.0009419638 0.008158168 -0.011051441
000110 88 e5 98 3c 60 6d 53 bc c6 6e eb bc b9 57 bc bb
       0.018664137 -0.012904495 -0.028739344 -0.005747762
000120 a1 45 a5 bc c8 01 aa bb 29 f2 c7 bc 8e a7 11 bd
       -0.020174803 -0.0051882006 -0.024407463 -0.035560183
000130 e0 5f f8 3b f1 48 48 bd 1a f9 be bc 79 35 87 bc
       0.0075797886 -0.048897687 -0.02331214 -0.01650499
000140 32 a3 75 bc aa 82 42 bd 46 7b 5c 3c 96 bc bd 3c
       -0.014992522 -0.047487892 0.013457125 0.023161214
000150 39 e0 cb bc aa 2a ea 3c 46 b5 14 bd 02 d0 62 3c
       -0.024887191 0.028584797 -0.03630569 0.013843538
000160 9d a0 c3 3c 0b 6e c2 bc 39 32 b9 3c 4e c5 cf 3b
       0.023880297 -0.023734113 0.022606956 0.006340659
000170 a7 72 90 3c 49 a2 37 bc 00 4a 2f bc ce 97 fc 3c
       0.017632795 -0.011208125 -0.010698795 0.030834105
000180 8c 62 a2 3c c4 98 7f 3c 1a 2f f5 b9 8d 2d 8f bb
       0.019822381 0.015600387 -0.00046765135 -0.0043694437
000190 63 22 76 bc 74 33 40 bc 3d 1d 46 3c 42 67 dc 39
       -0.015022847 -0.011731017 0.012091932 0.00042038603
0001a0 1e 05 8f bb e0 44 3f bc 01 ec 5e bd d6 d2 d5 3c
       -0.0043646237 -0.011674136 -0.05442429 0.026101511
0001b0 e9 c6 43 3a 93 70 0e bd 37 c4 1c bd d4 e7 2a bc
       0.00074682996 -0.034775328 -0.038273063 -0.010431249
0001c0 d4 45 17 bd cb e3 f0 bc b1 10 da bc 50 d9 2e 3c
       -0.036931828 -0.029405495 -0.026619287 0.0106719285
0001d0 e6 8a 8d bb d3 e2 c0 bb 94 b4 88 3c 72 49 38 bb
       -0.0043195365 -0.0058864146 0.016687669 -0.0028119949
0001e0 0d d1 7d 3c 2d eb fd bc b4 bd c4 3b 0b d2 aa 3c
       0.015491736 -0.03099593 0.0060040597 0.02085211
0001f0 0c 5a a6 bc 88 a4 e4 bc c1 9b ad 3c 98 c0 d5 3b
       -0.02030661 -0.027910486 0.021192433 0.006523203
000200 91 f8 79 3c cf 35 c2 3c 9d 09 5f bc e8 bc 82 bc
       0.015257017 0.023707299 -0.013613132 -0.015959218
000210 9c 5a c2 bc df 6b 3c 3c 40 52 db ba 89 e3 a2 3b
       -0.023724847 0.011500328 -0.0016732886 0.004970972
000220 da fd e9 3a 9c d6 27 3c 22 cb 02 bb 9a 05 ab 3c
       0.0017852143 0.010244038 -0.0019957502 0.020876694
000230 c2 3f e0 3c 24 3d c4 bc 0a a9 00 bb 1f 32 16 3c
       0.027374152 -0.023954935 -0.0019632005 0.009167223
000240 f5 27 63 bd 91 21 db 3a b5 6f 8c 3c d2 14 10 bc
       -0.055458028 0.0016718378 0.01714311 -0.008794026
000250 8f a7 98 3c c0 74 04 3c cc f7 08 bc 8b 95 9d 3a
       0.018634586 0.008084476 -0.008359861 0.0012022717
000260 68 4e ab bd ee 46 c9 b9 35 3f db bc 9a 66 2f bd
       -0.08364564 -0.00038390554 -0.026763538 -0.042822458
000270 99 8c 99 3b a4 23 a3 3c fb 28 07 3d 5c 40 b6 bb
       0.00468595 0.019914456 0.032998066 -0.0055618715
000280 f3 20 5c bc d3 b6 06 bd 8a 7c 8a bc ce 4d e8 bc
       -0.01343559 -0.0328892 -0.016905088 -0.028357413
000290 a3 53 f0 3b ae 88 2a bd d5 42 0e bc c3 82 b5 3c
       0.007334189 -0.041634254 -0.008682926 0.022157079
0002a0 74 27 f2 ba d7 9d 55 3d cc 57 36 bb 35 64 1f bd
       -0.0018474893 0.05215248 -0.0027823327 -0.038913924
0002b0 12 7a 1f 3d d3 49 c9 bb 35 7c 49 3c 05 93 ce bc
       0.038934775 -0.0061428337 0.01229768 -0.025216589
0002c0 cb c5 40 bd 17 0c b6 bc 61 cd 42 bd 60 b1 af bc
       -0.04706363 -0.022222562 -0.047559146 -0.021446884
0002d0 72 04 02 3c e1 3e ca bb 36 03 95 bc 94 04 ba 3b
       0.00793563 -0.0061720465 -0.018190008 0.0056768153
0002e0 6f 97 7f bd a7 42 94 3c 1e a4 95 bc 97 47 c0 3c
       -0.062400278 0.018098189 -0.018266734 0.023471637
0002f0 27 69 f3 3c 68 03 19 bc 8f f0 b3 3c ce 6d 9e bc
       0.029713226 -0.009339191 0.021965293 -0.019339468
000300 b6 81 fc bb 29 ed 66 3c 18 ed 20 3c 6b c9 24 3c
       -0.0077058924 0.014094629 0.009822153 0.010057787
000310 a0 b1 0a 3d db 3c 84 3b 29 35 84 bc f9 74 45 bd
       0.033860803 0.004035575 -0.01613863 -0.048207257
000320 7f 9a 81 bd ec 22 02 bb 20 e2 20 bc 0f df 8b bd
       -0.06328296 -0.001985724 -0.009819537 -0.068296544
000330 e4 8a c2 bc e2 4d 62 bd 98 15 36 bc 90 4b 1c bc
       -0.023747869 -0.055250056 -0.011113547 -0.0095395
000340 3a c6 3f 3c e7 57 48 bd 77 20 7d bc 65 f1 f1 bc
       0.011704976 -0.048911955 -0.015449635 -0.029534051
000350 7a 99 a6 3b 30 98 83 3b 76 2f 50 3d f9 14 de 3c
       0.005084214 0.004015945 0.050826512 0.02710961
000360 f4 54 df bb e1 a8 fb bc 06 69 7e bb e1 a2 8c bd
       -0.006815547 -0.030720176 -0.0038819923 -0.06867004
000370 64 4e 9b 3c b4 68 d3 bc ac 73 48 3c ba bd 1b bc
       0.018958278 -0.025806762 0.01223461 -0.009505684
000380 38 ea 4a bc 4a bc 47 bd f0 9a 06 bc 23 51 14 bd
       -0.012384944 -0.04876355 -0.008215651 -0.03621019
000390 99 54 31 3c bd 24 c7 3c e3 80 82 ba c8 e9 c2 3c
       0.010823392 0.02430951 -0.0009956624 0.023793116
0003a0 42 c6 19 3b f6 0a 11 3c 8b 55 84 bc d6 bc a0 bc
       0.0023464118 0.008852711 -0.016154071 -0.019621294
0003b0 cf 1e 5c bc b6 78 3e bb b3 fd 31 3c e7 13 72 bc
       -0.01343508 -0.0029063649 0.010863709 -0.014775253
0003c0 46 35 8b bc 37 e8 11 bc af 6b 37 bd dc dc 21 bd
       -0.016993176 -0.008905462 -0.04478043 -0.03951727
0003d0 7c fa d9 3c 45 bc 12 bd cb 65 ff 3b 38 91 87 39
       0.026608698 -0.03582408 0.007794117 0.00025857403
0003e0 aa 0d fa bc b3 b0 c9 bc bf 71 1d 3d e5 75 30 bc
       -0.030524094 -0.02462039 0.038438555 -0.010770296
0003f0 3f 78 a0 3b b8 1f 3b bd d1 38 23 3b da 5e b0 bc
       0.004897147 -0.045684546 0.0024905691 -0.021529604

network_body._body_endoder.seq_layers.0.bias f4 [128]
000000 9f 40 a4 3c 87 ea 75 ba 33 da be 3b d1 73 1b bb
       0.020050345 -0.00093809556 0.005824351 -0.0023720155
000010 1e 82 69 bc 76 e6 c0 bb cc 21 50 bc ef f0 3c 3a
       -0.014252214 -0.005886848 -0.01270337 0.0007207533
000020 e9 0b 2f 3a 1f 91 bf 3b 42 30 89 bb 4e 87 55 3b
       0.0006677495 0.005846157 -0.004186661 0.0032581869
000030 50 82 a7 bb bf 7d e2 bb 18 c7 0b 3b 29 8e 04 3c
       -0.00511197 -0.0069119628 0.0021328386 0.008090534
000040 95 5a 9a 3b 8b 39 c3 bb e8 da 96 bb b0 4e 84 3c
       0.0047105053 -0.0059577874 -0.0046037324 0.016150802
000050 ef 18 33 bc 8f 65 84 3b 4f 0c 05 3b 0c 1b 42 3b
       -0.010931238 0.004040427 0.0020301526 0.0029618172
000060 b7 6c 50 3c 66 b8 3a 3b 2f c7 05 3c c1 41 41 ba
       0.012721232 0.0028491258 0.008165165 -0.0007372164
000070 e2 ef e8 3a 9a f5 91 bc 68 1a 35 bb 51 0c 56 3b
       0.0017771686 -0.017817307 -0.0027634148 0.003266115
000080 0b 02 38 3c 83 64 e0 3c 0c 6d 05 3c 03 5b 03 bc
       0.011230956 0.027391678 0.008143675 -0.008017304
000090 b7 09 9b bb 4d c2 d5 bc 2b 0e 3b 3b c1 30 83 b9
       -0.0047313827 -0.026093626 0.002854238 -0.00025022592
0000a0 c7 22 b0 bc 59 70 ad ba 36 88 a1 3b ab 0c e7 3b
       -0.021500958 -0.0013232335 0.0049295677 0.0070510707
0000b0 ae 62 7a 3a 3f 77 a9 39 75 8e 8b bc 59 42 1f 3b
       0.00095514476 0.00032323037 -0.017035702 0.002430102
0000c0 a5 92 ab ba 63 f4 2b bc 3b ee 87 bb e0 2b b8 3b
       -0.0013089968 -0.010495278 -0.0041482723 0.0056204647
0000d0 1e 1a 6b ba d6 65 2c bc 77 3b a6 bb 49 c5 26 bb
       -0.00089684303 -0.010522326 -0.0050730067 -0.002544718
0000e0 e7 a3 97 b9 dd 38 2e bb e1 6e ec bb 48 ef 26 3c
       -0.0002892308 -0.0026584186 -0.0072153662 0.010188885
0000f0 77 17 20 3c 57 ac 0b 3b 56 a1 40 bb b8 5f 13 3c
       0.009771219 0.002131244 -0.0029393039 0.008994989
000100 91 41 2e 3c 89 69 5a 3a ce 1c 6c bc e8 78 c3 b9
       0.010635749 0.0008331766 -0.014411164 -0.0003728338
000110 b6 fa 57 3b 7b 80 f7 bb 53 bd 1e 3c 09 40 88 3c
       0.0032955832 -0.007553158 0.009688693 0.016632097
000120 99 1a e3 3b a3 be 3e 3c 6f ba 61 3b 9f f6 31 bb
       0.006930661 0.011642131 0.0034443398 -0.0027155054
000130 4d f4 03 bb 7c 6e 10 3c db 48 cd 3b e6 9d 33 3a
       -0.0020134628 0.008815404 0.0062647886 0.0006851837
000140 90 88 89 3c 08 a9 b2 bc a1 81 79 bc d2 9b d8 bc
       0.01678875 -0.021809116 -0.01522866 -0.026441488
000150 3c 7e 84 b9 fa 10 f5 3c 79 d6 ae 3b 6a 16 29 bc
       -0.00025271054 0.029915322 0.0053356257 -0.010320285
000160 79 ae 3a 3d 25 1f 03 3c c6 d6 a6 3c 9e d3 87 bc
       0.045576546 0.008003031 0.020366084 -0.0165804
000170 8c a8 8e bc d7 bd c7 3c 67 e4 93 bb da 28 37 bc
       -0.017414354 0.024382515 -0.0045133117 -0.011179173
000180 95 a4 7c 3a 21 c8 00 3c d4 cf af 3b d2 d4 b1 3b
       0.0009637562 0.007860214 0.005365351 0.0054269815
000190 b0 3d ec 3b a3 bf a7 b9 d7 35 97 bb 4a a3 a0 bb
       0.007209502 -0.00031995503 -0.0046145725 -0.004902278
0001a0 e5 b5 a0 3b d0 6e c6 3b ee 5f e8 ba 5b 60 f8 bb
       0.004904496 0.0060556903 -0.0017728785 -0.007579846
0001b0 ec 34 e2 bb c6 11 a6 3c d5 b3 59 3c d7 69 bc b9
       -0.0069032814 0.020272147 0.013287504 -0.0003593701
0001c0 c4 bc 35 3c af 7a 52 3c fb af 44 38 1e 6e 02 bc
       0.0110923685 0.012846633 4.6893936e-05 -0.007960824
0001d0 03 6d 26 bc 85 99 d4 ba 87 c7 fd 3b 6f 3f 90 bb
       -0.010157826 -0.0016220069 0.007744733 -0.004402093
0001e0 a2 c5 a9 b9 5a 98 e7 3c 61 2b 1c bb 1c 51 8e ba
       -0.0003238144 0.02827089 -0.0023829567 -0.0010857913
0001f0 76 b3 29 3d 79 ba 19 bc 97 21 89 ba b2 c4 1c 3b
       0.041430913 -0.009382837 -0.0010462281 0.002392095

network_body._body_endoder.seq_layers.0.weight f4 [128, 9]
000000 00 98 44 3d 51 0c 00 bd cd 05 1e be 3c 16 84 bc
       0.04799652 -0.031261746 -0.154319 -0.016123883
000010 ce ba 71 3e da 7f cf 3c 94 d9 93 3e d6 6a cc 3d
       0.23606417 0.025329519 0.28876936 0.09981315
000020 09 8d 8f 3e 87 f7 93 3d ab f1 9d be 0f bc 3e 3d
       0.2803729 0.072249465 -0.3084844 0.046566065
000030 7e d6 23 3f 27 60 fb bb 09 e1 2d 3e aa ab f5 bb
       0.63999164 -0.0076713744 0.16980375 -0.0074972706
000040 b9 d1 d2 bd 0c 40 08 bd 7e 3a 44 bf 6d b8 08 3e
       -0.10293908 -0.033264205 -0.7665175 0.13351603
000050 38 7b 41 be 28 dd 11 3e 91 a5 a6 3e 78 f4 d8 3e
       -0.1889466 0.1424452 0.32548192 0.42374015
000060 68 d8 6b bd 98 8e 79 bd a2 a1 23 bf a2 54 1f be
       -0.057579428 -0.060927004 -0.6391851 -0.15559629
000070 83 37 0d be a5 a2 08 3d 6a 34 93 3d f4 99 2d 3e
       -0.13790707 0.033358235 0.071877316 0.1695326
000080 13 11 8f 3b d9 e7 2a be c5 7c 3e 3c 4d 17 cf 3d
       0.004366049 -0.16690005 0.011626427 0.10111866
000090 28 48 15 3f 37 03 8d be 56 24 9d be 0c 09 6e 3d
       0.58313227 -0.27541515 -0.30691785 0.058114097
0000a0 0a 4d 48 3e b5 f9 9c bd b6 86 5a 3e ff ba 20 3f
       0.19560638 -0.07664815 0.2134045 0.62785333
0000b0 a1 a5 03 3f 02 0a ae be 25 90 04 3f e4 2f c6 be
       0.51424605 -0.3399201 0.5178245 -0.38708413
0000c0 21 e7 33 3e 67 73 9d be d6 0e 0d 3f 17 74 8f 3e
       0.17568637 -0.30752108 0.5510076 0.28018257
0000d0 ab 58 f4 bd 94 92 d3 bd 64 d6 bc 3e b0 f0 22 bf
       -0.119309746 -0.10330692 0.36882317 -0.6364851
0000e0 d6 b1 f7 3e b3 5f 9e be 85 02 83 be f3 5f e4 bd
       0.48377866 -0.30932388 -0.2558786 -0.11151113
0000f0 c5 ef 0b 3d 73 be da be 64 5d 23 bd 62 4f be 3e
       0.03416421 -0.42723426 -0.039883986 0.3716994
000100 77 5b 9b be d1 4f e8 be 88 73 9d 3d b0 2d 33 bf
       -0.3034322 -0.45373395 0.076880515 -0.6999159
000110 99 9d f5 3e 66 2a 8a be 11 f9 19 3f 65 d9 b8 be
       0.479718 -0.26985472 0.6014567 -0.3610336
000120 17 84 cc be cc f5 ef bc f1 0d 27 bf 76 f5 45 be
       -0.39944527 -0.02929201 -0.6525565 -0.19331917
000130 90 00 1f 3e 65 50 c5 3d 3f 77 61 3d 68 00 fb be
       0.15527558 0.09634475 0.055045363 -0.49023747
000140 9c c2 0a 3d f9 59 d6 bd 56 f6 22 be 99 4c 69 3e
       0.033877 -0.1046638 -0.15914282 0.22783126
000150 b8 91 96 3e fe df dd 3e 0b 4a f1 3d 40 5e 40 be
       0.2940805 0.43334955 0.11781701 -0.18785954
000160 44 2a 00 3f fb 64 a2 3e fa a8 fd 3c b6 20 e8 be
       0.5006449 0.31717667 0.030964363 -0.45337456
000170 57 93 fa be b2 90 c5 bd e4 92 81 3e bb 35 bb 3d
       -0.48940536 -0.09646739 0.2530738 0.09141108
000180 10 c8 97 3e c8 31 e5 be 12 0e ab 3e b7 42 10 bf
       0.29644823 -0.44764543 0.33409172 -0.563518
000190 09 bf 24 3d 4f 82 38 3e 6a 8d 4e 3f 76 3e 52 3e
       0.040221248 0.18018459 0.8068453 0.2053164
0001a0 bc 39 32 bd 37 c3 1f 3e 87 54 31 3f 2d 19 43 3d
       -0.04351209 0.15601812 0.69269603 0.04763143
0001b0 af af cd be 0a db e3 3e 98 84 4c bd e3 92 1c bf
       -0.40173098 0.4450305 -0.04993114 -0.6116163
0001c0 9c 3f 28 3f c3 88 46 bb eb dc c3 3c 75 f9 dc bd
       0.6572206 -0.0030293919 0.023909053 -0.10789768
0001d0 20 c8 14 bf 8f ec da 3d 86 70 b4 be 5c 08 a8 bc
       -0.58117867 0.10689651 -0.352421 -0.020511799
0001e0 5f 0c 71 be d1 fa e5 3e 2c 82 1f 3f f6 a3 3b bd
       -0.23539875 0.4491792 0.62308 -0.045810662
0001f0 f3 ec 95 3e 78 b3 18 bf cd 2f 97 3c 24 34 8a 3d
       0.2928234 -0.5964885 0.01845541 0.06748226
000200 62 1f 8b 3e d4 ef 08 3d 60 cf 15 be 86 91 8e 3d
       0.2717238 0.033431843 -0.14629889 0.0696135
000210 92 ba 5b 3d bf d3 69 be a1 8e a5 3e 42 02 b1 3e
       0.053644724 -0.22834681 0.3233538 0.34572035
000220 bc 82 64 3e 85 3a 1e bf 75 b0 4d be 9d 14 cb 3e
       0.22315496 -0.61808044 -0.20086844 0.39664164
000230 3c c6 df be e7 bf 86 bd 9b db 41 3e 44 d6 63 3e
       -0.43705928 -0.06579571 0.18931429 0.22249705
000240 23 d4 2b 3d 53 eb a9 be 9d 1d 22 bf 61 76 67 3e
       0.041950356 -0.3318735 -0.63326436 0.22603752
000250 6e 00 0f 3e e1 d2 82 3e 85 79 e7 3d e5 33 2a 3e
       0.13965008 0.25551513 0.11302475 0.16621359
000260 02 9d cf be 9c d2 6a 3e f6 4e a3 3e 27 4b f4 3d
       -0.40549475 0.22931904 0.3189618 0.11928397
000270 18 ed 8a be 71 1c 08 bf f5 7a 16 3d 9b fc d2 be
       -0.27134013 -0.531684 0.036738355 -0.41208348
000280 10 a9 52 3e 74 5a a5 be b8 dc 71 be 8c f7 5a 3e
       0.20572305 -0.32295573 -0.23619354 0.21383494
000290 06 b2 59 3e 0e 35 b7 3d 7f e5 23 3e dc ce e3 3d
       0.21259317 0.08945666 0.16005515 0.1112344
0002a0 82 e0 1f bf 57 69 07 be 83 7f 6f 3e 61 b8 48 bd
       -0.62451947 -0.13223778 0.23388486 -0.049003962
0002b0 a1 b8 c2 3d 17 93 aa be 58 57 3e 3d 93 1a 42 bd
       0.095078714 -0.33315346 0.046470016 -0.047388624
0002c0 8a 85 1e 3e b9 c1 db 3e 3d 36 9f be c6 fb 64 bd
       0.15480629 0.42921236 -0.31096068 -0.055904172
0002d0 42 88 6e bd e8 de 05 be c4 ab ee bc 9e 5b bd 3d
       -0.058235414 -0.13073313 -0.029134639 0.0924599
0002e0 4f 2c 2a 3e 67 f1 2a bd b7 a0 a0 3d f3 96 cc be
       0.16618465 -0.041734125 0.07843154 -0.39958915
0002f0 f0 98 4d 3e cf 60 4d 3e 76 dd 21 bf 04 f7 df 3e
       0.20077872 0.20056461 -0.6322855 0.43743145
000300 1a 5b 9c be ae 35 0c bf c6 33 76 be ba 62 c9 be
       -0.30538255 -0.5476941 -0.24043187 -0.39333135
000310 ca 6e 15 3e ac 07 2d be a4 04 67 3e ca 01 4c 3e
       0.14593044 -0.16897458 0.22560364 0.19922557
000320 b7 8c af bc f9 44 b6 3d e0 40 0d be d3 92 c5 3e
       -0.021429403 0.08899874 -0.13794279 0.3858858
000330 fc 61 f8 be 4a dd 8f 3d 97 12 c9 3d ac 74 32 be
       -0.48512256 0.070246294 0.09817999 -0.1742732
000340 4b 4b 41 be cf 79 0f 3e 32 22 8f 3e ed b3 90 be
       -0.18876378 0.1401131 0.27955776 -0.28262272
000350 b7 54 92 3e ca c0 19 3e 7a ec 11 be 7a 4b 96 be
       0.28580257 0.1501495 -0.14250365 -0.2935446
000360 f6 3b 65 be 66 b6 f1 be 24 b6 22 3f 3a 2f 9c bc
       -0.22386155 -0.4720947 0.63559175 -0.019065488
000370 28 77 9b 3e c9 c1 5e bd 89 eb 01 3f 27 e4 25 bc
       0.30364347 -0.054384027 0.50750023 -0.010125197
000380 91 e6 53 3b cb 52 b6 be 32 e3 c8 3e 58 df 5a be
       0.0032333473 -0.3561004 0.39235836 -0.21374261
000390 f1 85 78 be d7 79 e3 3e 8d f3 4f 3e 20 0b ca be
       -0.24269845 0.44428894 0.20307751 -0.39461613
0003a0 81 2e 24 be 16 dc 2b 3e 90 c9 13 3e d2 dd f7 3e
       -0.16033365 0.16783175 0.14432359 0.48411423
0003b0 9e 29 58 be 0e 72 38 3e 76 3b 66 be 4c d9 63 be
       -0.21109626 0.18012258 -0.2248362 -0.22250861
0003c0 3f e3 3a be 7b e7 d3 3d 59 bd bb bd 7a a9 8f 3f
       -0.1825075 0.10346886 -0.091669746 1.1223595
0003d0 1b ef 17 bf 51 75 4a 3f d4 db 87 bd 1c ae a0 3e
       -0.5934922 0.7908526 -0.06633726 0.31382835
0003e0 22 b9 67 bd 0b 14 2e be d3 2b e1 3c e8 08 b6 3e
       -0.05657304 -0.16999833 0.027486717 0.3555367
0003f0 12 e4 f7 bd 57 86 d8 be 0f 69 65 be 1f 8a 7b 3f
       -0.12104048 -0.42289993 -0.22403358 0.9825763

network_body._body_endoder.seq_layers.2.bias f4 [128]
000000 43 8a 30 3c dc 34 4a 3b 7b a4 22 bc bd 95 e6 3b
       0.010775152 0.003085426 -0.0099269105 0.007036893
000010 c9 04 6f 3b 27 6f 8e 3b 03 19 76 bb 1f 11 04 b9
       0.0036471358 0.0043467465 -0.003755153 -0.00012594879
000020 a7 98 d3 bb b7 53 03 3c 4f b2 25 3b 67 9f c7 3c
       -0.0064574066 0.008015565 0.0025283282 0.024368001
000030 32 1d 26 3b c9 cd 79 bc 6f b8 42 bb d2 8c a1 bb
       0.0025346992 -0.015246817 -0.0029711982 -0.004930117
000040 9d 2c 8f 3c 58 4e 1b bc 9d 97 8d bb dd 3e 20 bc
       0.017477328 -0.009479128 -0.004321052 -0.009780613
000050 62 8a 50 bb 17 27 89 3c 16 57 60 bb 33 72 64 bc
       -0.0031820764 0.016742272 -0.0034231595 -0.013943243
000060 bb c0 f8 3c b3 ae 55 bc c4 a4 f9 bb 9e 03 12 bb
       0.030365339 -0.01304214 -0.0076185185 -0.0022279988
000070 0b 59 7f 3b 97 82 f7 3b 2b 2a a4 ba 22 94 95 bb
       0.0038962986 0.0075534093 -0.0012524774 -0.004564778
000080 41 1c ff bb f7 94 0d bb 6b 77 46 3b 51 2c 91 bc
       -0.0077853505 -0.0021603683 0.003028358 -0.017721327
000090 96 f8 8f ba b3 d9 19 b9 be c6 56 bc 3b 37 55 3c
       -0.0010984119 -0.00014672316 -0.013108907 0.013013656
0000a0 cf ec 2d bc 1e b4 3b 3d 54 cd c3 bb cd 28 00 bb
       -0.010615542 0.04582607 -0.0059754048 -0.001955557
0000b0 8e 7d ed 3c 9e 95 9a 3b 07 5c a1 ba 90 a2 fb bb
       0.028990533 0.004717543 -0.0012310751 -0.007679291
0000c0 3b 4a 4f bc 5a b6 0e bc 29 35 b9 bc 45 bf 49 bc
       -0.012651975 -0.008710468 -0.022608357 -0.012313669
0000d0 29 3d e6 39 1c 36 29 bc b6 33 7f 3b 8f f8 0a bc
       0.00043914586 -0.010327842 0.0038940734 -0.008482113
0000e0 11 d1 04 3c d5 ed b1 bb 56 b4 7a bc 9a 5d 9b 3b
       0.008106486 -0.005429963 -0.0153017845 0.004741383
0000f0 11 9d 0e 3c e0 77 83 3b ce 32 d4 3c 5a 2b 0f bc
       0.00870444 0.004012093 0.025903132 -0.008738363
000100 b1 19 ef 3b d8 05 7d 3c 44 ab 65 3c 13 16 c8 bb
       0.007296764 0.015443288 0.014017884 -0.006106147
000110 e4 ce cc 3c 4d f7 bd bb 88 9f fd 3a f8 00 73 bc
       0.025000997 -0.005797303 0.0019349912 -0.014831774
000120 59 34 17 bc 95 b1 cd bb 75 5c 02 bc d6 e0 c0 bc
       -0.009228789 -0.006277273 -0.007956614 -0.02354471
000130 b6 c4 b9 bb 16 94 c6 3c 4b d3 8c bc d5 fc b1 ba
       -0.0056692017 0.024240535 -0.017190596 -0.0013579378
000140 87 fb bf bb b0 34 f8 3c 4a cf f9 ba 1a ed 25 ba
       -0.005858842 0.03029856 -0.0019058969 -0.00063295814
000150 9a ba 0b bc 05 3e 7f 3b fd 9e 59 3b d1 64 8e 3b
       -0.008528376 0.0038946879 0.0033206337 0.0043455143
000160 ea 72 00 bc 1e de df 3a c5 59 a2 3b ec a1 8d bc
       -0.007839898 0.0017079746 0.004954549 -0.017289124
000170 b3 89 8a 3c e4 aa 80 3b 65 63 da ba 74 c5 24 3c
       0.016911363 0.0039266217 -0.0016661702 0.010056842
000180 68 2c bc bb 92 d7 93 bc 50 1c 9a bb 3e 4e 39 bc
       -0.0057425983 -0.018047128 -0.004703082 -0.011310158
000190 7e a4 d8 bb 4e 54 76 bb cf 56 1f 3c f2 da 31 3c
       -0.006611406 -0.003758687 0.009725287 0.010855423
0001a0 0c 79 d4 3a 3f 7b 8c bb 04 30 de bb 2a ca 3e bc
       0.0016210391 -0.004287153 -0.0067806263 -0.011644879
0001b0 ca 01 50 bb eb 02 c5 3b 33 57 47 39 6c 1d 63 ba
       -0.0031739348 0.0060123107 0.00019010603 -0.0008663747
0001c0 b4 b3 a8 3c 4e 74 fb bb 4b 74 a5 bb 81 c1 17 bc
       0.020593502 -0.0076737767 -0.0050492636 -0.0092624435
0001d0 b8 25 0b 3c b4 6c 7b 3b 46 f0 0a 3c a6 c9 ba bb
       0.00849288 0.0038364353 0.008480137 -0.005700308
0001e0 74 96 ba 3b 47 df b3 3b f7 ee 45 3c 76 7f e6 3b
       0.005694205 0.005489263 0.012080899 0.0070342375
0001f0 b8 c9 8c bc 01 c3 94 bc 97 55 1b bb 55 28 8b bb
       -0.01718603 -0.018159391 -0.0023702139 -0.0042467513

network_body._body_endoder.seq_layers.2.weight f4 [128, 128]
000000 37 43 a7 bd 23 74 07 be 1b 25 d0 3d 65 09 a4 3d
       -0.08167117 -0.13227896 0.10163327 0.08009604
000010 93 cf f7 bd aa 5a 62 3e 28 a9 c9 bc b6 95 b2 bc
       -0.121001385 0.22104898 -0.024616793 -0.021799903
000020 04 9d 68 bd 4d 34 10 be 8c 5e 43 3d b7 1f d1 bd
       -0.056790367 -0.14082451 0.04769759 -0.10211127
000030 74 6f e1 3d 1b 96 0f bd 77 a4 eb bd a7 79 9f 3d
       0.11007586 -0.03505526 -0.115059786 0.07786875
000040 e2 02 11 bc a2 5b 53 be 7f 0b 77 3d 47 c1 30 3d
       -0.008850785 -0.20640424 0.060313698 0.043153074
000050 b7 72 f0 bc 36 65 cb bd 86 50 cb 3d 08 1b 64 3d
       -0.029351575 -0.09931414 0.09927468 0.05568984
000060 da 70 d6 3c c4 97 09 3b 13 c1 76 bc 66 1a 46 3d
       0.026176859 0.0020995 -0.015060681 0.04836502
000070 10 0c 27 3d a5 bb 28 3d 8f 2a 03 bc 61 4e 27 3e
       0.040782988 0.041194577 -0.008005752 0.16338493
000080 11 0d 4e bd 67 a9 40 3e e9 e8 88 3b 25 26 4b 3b
       -0.05030543 0.18814622 0.0041781557 0.0030998078
000090 ab e7 88 3d 15 ee 33 3d 90 e5 d8 3d de f8 26 bd
       0.06684812 0.043928225 0.105906606 -0.040764682
0000a0 e2 97 e3 bc 71 d8 83 3c 8b 5a 18 3d a0 b1 35 3d
       -0.027782384 0.016094418 0.037195724 0.04435885
0000b0 b8 9a 5d 3e eb a9 c1 3a 88 9d 45 3d d7 0b 35 be
       0.21641052 0.0014775371 0.048245937 -0.17680298
0000c0 ad 1f df 3d 7f 3f 7f bd f6 08 18 3e f8 05 34 3c
       0.108947136 -0.062316414 0.14847168 0.010987751
0000d0 5f 39 8b bd 4b 35 84 bd a6 6a 9e 3d bf 48 75 bc
       -0.06798052 -0.06455477 0.07735185 -0.014970957
0000e0 1b f8 5e 3d 62 aa 6e bc a2 ea 12 bc 00 bd d7 3d
       0.05443583 -0.01456699 -0.008967074 0.10534096
0000f0 05 ae d3 bc f5 9c de 3d d7 f7 07 3d 68 f2 31 bd
       -0.025839815 0.10869781 0.033195343 -0.043444067
000100 a9 c3 07 be 40 b9 e4 3d a9 8e d8 bd 0e e0 07 be
       -0.13258232 0.11168146 -0.10574085 -0.13269064
000110 3e 8e 91 3d 81 64 65 3d a9 11 65 3d f9 54 a8 bc
       0.07107209 0.05600405 0.055925045 -0.02054833
000120 22 25 6d 3b cb be d6 3d 1d 24 6b bd 26 09 04 3e
       0.0036185463 0.104856096 -0.057407487 0.12894115
000130 ac de 51 3e df 8a d9 3d 68 68 25 bd f2 d8 fe 3c
       0.20495099 0.10622191 -0.040382773 0.031109307
000140 82 b0 3f 3d 94 b0 05 bd cc 6c bf bc 2d 95 fe bd
       0.04679919 -0.0326391 -0.023367308 -0.12430797
000150 4b 71 8e bd 74 cd 80 3d a0 86 82 bd d2 8f e3 3c
       -0.06955203 0.06289187 -0.06373334 0.02777854
000160 48 2c c5 3d d2 03 ca bd 00 68 ce bc f1 2b 61 3c
       0.096275866 -0.0986401 -0.025196075 0.013743387
000170 8a f5 0b bd b4 fc d7 3b 27 3b ab bc 50 db 94 ba
       -0.03416971 0.006591404 -0.02090223 -0.0011356864
000180 b3 4c 98 3d e2 73 c6 bc 04 4d ca 3d 78 eb 8b 3d
       0.07436504 -0.02422518 0.09877971 0.068320215
000190 bf a6 d3 3d 6a 68 2c 3e 51 df 11 be 92 08 ee bd
       0.10334539 0.16836706 -0.14245345 -0.116227284
0001a0 11 14 25 3e 48 94 16 3e 1a 00 b2 3b 61 3c c6 bd
       0.16120936 0.14705002 0.005432141 -0.09679485
0001b0 d4 d5 b4 bd 31 f9 94 bb 5e 5d 9a 3c 38 f5 fb 3c
       -0.08829847 -0.0045463075 0.01884335 0.030756578
0001c0 ca ca a8 3d d3 3b f9 3d d7 de 2e bd fa 63 62 3d
       0.08241804 0.12169614 -0.042692985 0.055271126
0001d0 2d 60 89 bb cf 9d b9 bc 97 b5 dd 3c c9 a6 42 3d
       -0.0041923732 -0.022658257 0.027064128 0.04752234
0001e0 7d e0 dd bd 2d b5 c3 bd d3 4c 9c bd 58 b7 ed bd
       -0.10833833 -0.09556041 -0.076318406 -0.11607236
0001f0 94 9a 3b bd 78 10 27 3d a5 bf 35 3c d2 16 81 3c
       -0.045801714 0.04078719 0.011093055 0.015757952
000200 cf 80 f7 bc 61 20 ff bc 7c 5e aa 3b 9d 30 3c bd
       -0.030212788 -0.03114337 0.0051992517 -0.0459448
000210 ae 41 92 bb aa 8f 92 bd 50 7a 32 3b e8 c8 ac bd
       -0.004463396 -0.07156308 0.0027233548 -0.08436757
000220 fb 58 e7 bc 26 bb e4 3d 6b 6f ff 3c 4f 15 39 be
       -0.028240671 0.11168508 0.031181058 -0.18074535
000230 9f 99 ee bd fa 46 bf 3c c0 92 88 bd d0 66 90 ba
       -0.11650395 0.023349274 -0.06668615 -0.0011016969
000240 a9 c0 1a be 41 b3 05 be 05 bf 38 3e 53 0d 8e bb
       -0.15112557 -0.13056661 0.18041618 -0.0043350845
000250 f7 3e 15 be 12 08 11 3b b9 ed d3 3d 8e 66 d4 bd
       -0.145748 0.0022130054 0.103480764 -0.10371123
000260 01 2b d6 bd 5d fe 93 bd ae f4 80 3c c1 cc f0 bd
       -0.10457421 -0.0722625 0.015741672 -0.11757804
000270 9d ca df bd 35 f9 20 3d 3b 00 aa bd 23 3b e6 3b
       -0.10927317 0.039300162 -0.08300825 0.0070260926
000280 1e db c6 bc 5c 69 dd bd bb a5 0b 3d aa dd 16 be
       -0.024274405 -0.10811111 0.0340936 -0.14732996
000290 a8 f8 04 bd f0 10 c7 3d da b0 87 3c 32 dd ed bb
       -0.0324637 0.097200274 0.016563822 -0.0072590346
0002a0 fa 87 d9 3c 16 c7 6a 3d 8d 09 34 be 3f a6 47 bd
       0.026554096 0.05731877 -0.17581768 -0.04874253
0002b0 88 53 0b 3d 74 9a d8 3c 02 fd ff bc 7c 03 3b bd
       0.03401521 0.026440836 -0.031248573 -0.04565762
0002c0 38 1f 15 be b2 0c 9b 3d ff 6f 21 bd 71 09 8d 3d
       -0.1456269 0.07570781 -0.03941345 0.068865664
0002d0 c3 1a 7e bd fa cd 53 3d 04 c0 01 be f8 1c a0 bd
       -0.06203724 0.051710106 -0.12670904 -0.07818025
0002e0 49 9e 2f bd a2 c6 26 be 1b ba cf 3c 22 b7 a4 3c
       -0.042875562 -0.1628671 0.025357297 0.020106856
0002f0 c6 b4 b1 bd 87 a6 d8 bd 13 58 20 3c d2 cd 8a bb
       -0.08677058 -0.105786376 0.0097866235 -0.0042359615
000300 2b 2d 30 3c 9d 4c 1b 3e be de 07 be 00 af 13 3d
       0.010752956 0.15165944 -0.13268563 0.036055565
000310 4f 67 83 3c 98 31 02 bb f6 f0 41 bd 03 3b 15 3c
       0.016040472 -0.0019865986 -0.04734894 0.009108308
000320 a3 3c bf 3c 99 09 12 bc 8a 1f 94 3d e6 38 8f bd
       0.023344344 -0.008913421 0.07232578 -0.069932744
000330 29 59 b4 3c 0a 9c 50 3c 82 11 e7 3c 8f 0f b5 bd
       0.022015171 0.012732515 0.02820659 -0.08840858
000340 4f 28 41 be 53 6d 0d 3e d6 e5 06 bc 86 8d b4 3d
       -0.18863033 0.13811235 -0.008233508 0.08816056
000350 1a 5f 04 bd 54 6c ff 3d 73 84 2f 3e 55 cd 6f bd
       -0.03231726 0.12471834 0.17140369 -0.05854543
000360 76 45 c1 3d 92 5f 11 bd 62 12 ae 3c a3 61 12 3e
       0.09437077 -0.035491534 0.021249 0.14295058
000370 f6 cf 94 3d 0d 2d e5 3c 64 5b a0 bd 0a 26 19 bb
       0.07266228 0.027975583 -0.078299314 -0.002336862
000380 99 ba 1b 3d 88 6d 4a 3e 90 ef 32 3e 19 db 17 be
       0.03801975 0.19768345 0.17474198 -0.14829673
000390 4b 15 b5 3d 6f 47 25 bd d2 c1 c6 3c 1f 5f f4 bc
       0.08841952 -0.040351328 0.024262343 -0.029830514
0003a0 b0 23 c0 3d 02 d0 a6 3c 2b 6b bd bc 7a ce 78 bd
       0.09381807 0.020362858 -0.02312239 -0.060743786
0003b0 e3 3d 43 bd 9e fd 9b bc 1f 56 e1 3b 32 e7 87 bd
       -0.04766644 -0.019041833 0.0068767215 -0.06635894
0003c0 02 b7 79 3b 48 b3 63 bc a5 0f 9c 3b 80 41 92 3d
       0.0038103466 -0.013897724 0.004762607 0.071413994
0003d0 68 f5 1a 3e c5 64 a3 bd 3b 99 18 3e 92 90 22 3e
       0.15132678 -0.07978205 0.14902203 0.15875462
0003e0 91 41 17 3e a6 59 c4 bd 99 e6 29 3c 55 50 80 bd
       0.14771105 -0.095874116 0.01036992 -0.06265322
0003f0 f4 66 35 bd eb bb 27 3d 98 03 f7 3d 44 dc 26 3e
       -0.044287637 0.040950697 0.12061232 0.16294962
