results/jugglingRobotV1/JugglingRobotV1/JugglingRobotV1-343925.pt (torch, 449951 bytes, 36 tensors)

network_body._body_endoder.seq_layers.0.weight f4 [128, 9]
00000000: 0098 443d 510c 00bd cd05 1ebe 3c16 84bc
00000010: ceba 713e da7f cf3c 94d9 933e d66a cc3d
00000020: 098d 8f3e 87f7 933d abf1 9dbe 0fbc 3e3d
00000030: 7ed6 233f 2760 fbbb 09e1 2d3e aaab f5bb
00000040: b9d1 d2bd 0c40 08bd 7e3a 44bf 6db8 083e
00000050: 387b 41be 28dd 113e 91a5 a63e 78f4 d83e
00000060: 68d8 6bbd 988e 79bd a2a1 23bf a254 1fbe
00000070: 8337 0dbe a5a2 083d 6a34 933d f499 2d3e
00000080: 1311 8f3b d9e7 2abe c57c 3e3c 4d17 cf3d
00000090: 2848 153f 3703 8dbe 5624 9dbe 0c09 6e3d
000000a0: 0a4d 483e b5f9 9cbd b686 5a3e ffba 203f
000000b0: a1a5 033f 020a aebe 2590 043f e42f c6be
000000c0: 21e7 333e 6773 9dbe d60e 0d3f 1774 8f3e
000000d0: ab58 f4bd 9492 d3bd 64d6 bc3e b0f0 22bf
000000e0: d6b1 f73e b35f 9ebe 8502 83be f35f e4bd
000000f0: c5ef 0b3d 73be dabe 645d 23bd 624f be3e
00000100: 775b 9bbe d14f e8be 8873 9d3d b02d 33bf
00000110: 999d f53e 662a 8abe 11f9 193f 65d9 b8be
00000120: 1784 ccbe ccf5 efbc f10d 27bf 76f5 45be
00000130: 9000 1f3e 6550 c53d 3f77 613d 6800 fbbe
00000140: 9cc2 0a3d f959 d6bd 56f6 22be 994c 693e
00000150: b891 963e fedf dd3e 0b4a f13d 405e 40be
00000160: 442a 003f fb64 a23e faa8 fd3c b620 e8be
00000170: 5793 fabe b290 c5bd e492 813e bb35 bb3d
00000180: 10c8 973e c831 e5be 120e ab3e b742 10bf
00000190: 09bf 243d 4f82 383e 6a8d 4e3f 763e 523e
000001a0: bc39 32bd 37c3 1f3e 8754 313f 2d19 433d
000001b0: afaf cdbe 0adb e33e 9884 4cbd e392 1cbf
000001c0: 9c3f 283f c388 46bb ebdc c33c 75f9 dcbd
000001d0: 20c8 14bf 8fec da3d 8670 b4be 5c08 a8bc
000001e0: 5f0c 71be d1fa e53e 2c82 1f3f f6a3 3bbd
000001f0: f3ec 953e 78b3 18bf cd2f 973c 2434 8a3d
00000200: 621f 8b3e d4ef 083d 60cf 15be 8691 8e3d
00000210: 92ba 5b3d bfd3 69be a18e a53e 4202 b13e
00000220: bc82 643e 853a 1ebf 75b0 4dbe 9d14 cb3e
00000230: 3cc6 dfbe e7bf 86bd 9bdb 413e 44d6 633e
00000240: 23d4 2b3d 53eb a9be 9d1d 22bf 6176 673e
00000250: 6e00 0f3e e1d2 823e 8579 e73d e533 2a3e
00000260: 029d cfbe 9cd2 6a3e f64e a33e 274b f43d
00000270: 18ed 8abe 711c 08bf f57a 163d 9bfc d2be
00000280: 10a9 523e 745a a5be b8dc 71be 8cf7 5a3e
00000290: 06b2 593e 0e35 b73d 7fe5 233e dcce e33d
000002a0: 82e0 1fbf 5769 07be 837f 6f3e 61b8 48bd
000002b0: a1b8 c23d 1793 aabe 5857 3e3d 931a 42bd
000002c0: 8a85 1e3e b9c1 db3e 3d36 9fbe c6fb 64bd
000002d0: 4288 6ebd e8de 05be c4ab eebc 9e5b bd3d
000002e0: 4f2c 2a3e 67f1 2abd b7a0 a03d f396 ccbe
000002f0: f098 4d3e cf60 4d3e 76dd 21bf 04f7 df3e
00000300: 1a5b 9cbe ae35 0cbf c633 76be ba62 c9be
00000310: ca6e 153e ac07 2dbe a404 673e ca01 4c3e
00000320: b78c afbc f944 b63d e040 0dbe d392 c53e
00000330: fc61 f8be 4add 8f3d 9712 c93d ac74 32be
00000340: 4b4b 41be cf79 0f3e 3222 8f3e edb3 90be
00000350: b754 923e cac0 193e 7aec 11be 7a4b 96be
00000360: f63b 65be 66b6 f1be 24b6 223f 3a2f 9cbc
00000370: 2877 9b3e c9c1 5ebd 89eb 013f 27e4 25bc
00000380: 91e6 533b cb52 b6be 32e3 c83e 58df 5abe
00000390: f185 78be d779 e33e 8df3 4f3e 200b cabe
000003a0: 812e 24be 16dc 2b3e 90c9 133e d2dd f73e
000003b0: 9e29 58be 0e72 383e 763b 66be 4cd9 63be
000003c0: 3fe3 3abe 7be7 d33d 59bd bbbd 7aa9 8f3f
000003d0: 1bef 17bf 5175 4a3f d4db 87bd 1cae a03e
000003e0: 22b9 67bd 0b14 2ebe d32b e13c e808 b63e
000003f0: 12e4 f7bd 5786 d8be 0f69 65be 1f8a 7b3f
0.04799652 -0.031261746 -0.154319 -0.016123883 0.23606417 0.025329519 0.28876936 0.09981315
0.2803729 0.072249465 -0.3084844 0.046566065 0.63999164 -0.0076713744 0.16980375 -0.0074972706
-0.10293908 -0.033264205 -0.7665175 0.13351603 -0.1889466 0.1424452 0.32548192 0.42374015
-0.057579428 -0.060927004 -0.6391851 -0.15559629 -0.13790707 0.033358235 0.071877316 0.1695326
0.004366049 -0.16690005 0.011626427 0.10111866 0.58313227 -0.27541515 -0.30691785 0.058114097
0.19560638 -0.07664815 0.2134045 0.62785333 0.51424605 -0.3399201 0.5178245 -0.38708413
0.17568637 -0.30752108 0.5510076 0.28018257 -0.119309746 -0.10330692 0.36882317 -0.6364851
0.48377866 -0.30932388 -0.2558786 -0.11151113 0.03416421 -0.42723426 -0.039883986 0.3716994
-0.3034322 -0.45373395 0.076880515 -0.6999159 0.479718 -0.26985472 0.6014567 -0.3610336
-0.39944527 -0.02929201 -0.6525565 -0.19331917 0.15527558 0.09634475 0.055045363 -0.49023747
0.033877 -0.1046638 -0.15914282 0.22783126 0.2940805 0.43334955 0.11781701 -0.18785954
0.5006449 0.31717667 0.030964363 -0.45337456 -0.48940536 -0.09646739 0.2530738 0.09141108
0.29644823 -0.44764543 0.33409172 -0.563518 0.040221248 0.18018459 0.8068453 0.2053164
-0.04351209 0.15601812 0.69269603 0.04763143 -0.40173098 0.4450305 -0.04993114 -0.6116163
0.6572206 -0.0030293919 0.023909053 -0.10789768 -0.58117867 0.10689651 -0.352421 -0.020511799
-0.23539875 0.4491792 0.62308 -0.045810662 0.2928234 -0.5964885 0.01845541 0.06748226
0.2717238 0.033431843 -0.14629889 0.0696135 0.053644724 -0.22834681 0.3233538 0.34572035
0.22315496 -0.61808044 -0.20086844 0.39664164 -0.43705928 -0.06579571 0.18931429 0.22249705
0.041950356 -0.3318735 -0.63326436 0.22603752 0.13965008 0.25551513 0.11302475 0.16621359
-0.40549475 0.22931904 0.3189618 0.11928397 -0.27134013 -0.531684 0.036738355 -0.41208348
0.20572305 -0.32295573 -0.23619354 0.21383494 0.21259317 0.08945666 0.16005515 0.1112344
-0.62451947 -0.13223778 0.23388486 -0.049003962 0.095078714 -0.33315346 0.046470016 -0.047388624
0.15480629 0.42921236 -0.31096068 -0.055904172 -0.058235414 -0.13073313 -0.029134639 0.0924599
0.16618465 -0.041734125 0.07843154 -0.39958915 0.20077872 0.20056461 -0.6322855 0.43743145
-0.30538255 -0.5476941 -0.24043187 -0.39333135 0.14593044 -0.16897458 0.22560364 0.19922557
-0.021429403 0.08899874 -0.13794279 0.3858858 -0.48512256 0.070246294 0.09817999 -0.1742732
-0.18876378 0.1401131 0.27955776 -0.28262272 0.28580257 0.1501495 -0.14250365 -0.2935446
-0.22386155 -0.4720947 0.63559175 -0.019065488 0.30364347 -0.054384027 0.50750023 -0.010125197
0.0032333473 -0.3561004 0.39235836 -0.21374261 -0.24269845 0.44428894 0.20307751 -0.39461613
-0.16033365 0.16783175 0.14432359 0.48411423 -0.21109626 0.18012258 -0.2248362 -0.22250861
-0.1825075 0.10346886 -0.091669746 1.1223595 -0.5934922 0.7908526 -0.06633726 0.31382835
-0.05657304 -0.16999833 0.027486717 0.3555367 -0.12104048 -0.42289993 -0.22403358 0.9825763

network_body._body_endoder.seq_layers.0.bias f4 [128]
00000000: 9f40 a43c 87ea 75ba 33da be3b d173 1bbb
00000010: 1e82 69bc 76e6 c0bb cc21 50bc eff0 3c3a
00000020: e90b 2f3a 1f91 bf3b 4230 89bb 4e87 553b
00000030: 5082 a7bb bf7d e2bb 18c7 0b3b 298e 043c
00000040: 955a 9a3b 8b39 c3bb e8da 96bb b04e 843c
00000050: ef18 33bc 8f65 843b 4f0c 053b 0c1b 423b
00000060: b76c 503c 66b8 3a3b 2fc7 053c c141 41ba
00000070: e2ef e83a 9af5 91bc 681a 35bb 510c 563b
00000080: 0b02 383c 8364 e03c 0c6d 053c 035b 03bc
00000090: b709 9bbb 4dc2 d5bc 2b0e 3b3b c130 83b9
000000a0: c722 b0bc 5970 adba 3688 a13b ab0c e73b
000000b0: ae62 7a3a 3f77 a939 758e 8bbc 5942 1f3b
000000c0: a592 abba 63f4 2bbc 3bee 87bb e02b b83b
000000d0: 1e1a 6bba d665 2cbc 773b a6bb 49c5 26bb
000000e0: e7a3 97b9 dd38 2ebb e16e ecbb 48ef 263c
000000f0: 7717 203c 57ac 0b3b 56a1 40bb b85f 133c
00000100: 9141 2e3c 8969 5a3a ce1c 6cbc e878 c3b9
00000110: b6fa 573b 7b80 f7bb 53bd 1e3c 0940 883c
00000120: 991a e33b a3be 3e3c 6fba 613b 9ff6 31bb
00000130: 4df4 03bb 7c6e 103c db48 cd3b e69d 333a
00000140: 9088 893c 08a9 b2bc a181 79bc d29b d8bc
00000150: 3c7e 84b9 fa10 f53c 79d6 ae3b 6a16 29bc
00000160: 79ae 3a3d 251f 033c c6d6 a63c 9ed3 87bc
00000170: 8ca8 8ebc d7bd c73c 67e4 93bb da28 37bc
00000180: 95a4 7c3a 21c8 003c d4cf af3b d2d4 b13b
00000190: b03d ec3b a3bf a7b9 d735 97bb 4aa3 a0bb
000001a0: e5b5 a03b d06e c63b ee5f e8ba 5b60 f8bb
000001b0: ec34 e2bb c611 a63c d5b3 593c d769 bcb9
000001c0: c4bc 353c af7a 523c fbaf 4438 1e6e 02bc
000001d0: 036d 26bc 8599 d4ba 87c7 fd3b 6f3f 90bb
000001e0: a2c5 a9b9 5a98 e73c 612b 1cbb 1c51 8eba
000001f0: 76b3 293d 79ba 19bc 9721 89ba b2c4 1c3b
0.020050345 -0.00093809556 0.005824351 -0.0023720155 -0.014252214 -0.005886848 -0.01270337 0.0007207533
0.0006677495 0.005846157 -0.004186661 0.0032581869 -0.00511197 -0.0069119628 0.0021328386 0.008090534
0.0047105053 -0.0059577874 -0.0046037324 0.016150802 -0.010931238 0.004040427 0.0020301526 0.0029618172
0.012721232 0.0028491258 0.008165165 -0.0007372164 0.0017771686 -0.017817307 -0.0027634148 0.003266115
0.011230956 0.027391678 0.008143675 -0.008017304 -0.0047313827 -0.026093626 0.002854238 -0.00025022592
-0.021500958 -0.0013232335 0.0049295677 0.0070510707 0.00095514476 0.00032323037 -0.017035702 0.002430102
-0.0013089968 -0.010495278 -0.0041482723 0.0056204647 -0.00089684303 -0.010522326 -0.0050730067 -0.002544718
-0.0002892308 -0.0026584186 -0.0072153662 0.010188885 0.009771219 0.002131244 -0.0029393039 0.008994989
0.010635749 0.0008331766 -0.014411164 -0.0003728338 0.0032955832 -0.007553158 0.009688693 0.016632097
0.006930661 0.011642131 0.0034443398 -0.0027155054 -0.0020134628 0.008815404 0.0062647886 0.0006851837
0.01678875 -0.021809116 -0.01522866 -0.026441488 -0.00025271054 0.029915322 0.0053356257 -0.010320285
0.045576546 0.008003031 0.020366084 -0.0165804 -0.017414354 0.024382515 -0.0045133117 -0.011179173
0.0009637562 0.007860214 0.005365351 0.0054269815 0.007209502 -0.00031995503 -0.0046145725 -0.004902278
0.004904496 0.0060556903 -0.0017728785 -0.007579846 -0.0069032814 0.020272147 0.013287504 -0.0003593701
0.0110923685 0.012846633 4.6893936e-05 -0.007960824 -0.010157826 -0.0016220069 0.007744733 -0.004402093
-0.0003238144 0.02827089 -0.0023829567 -0.0010857913 0.041430913 -0.009382837 -0.0010462281 0.002392095

network_body._body_endoder.seq_layers.2.weight f4 [128, 128]
00000000: 3743 a7bd 2374 07be 1b25 d03d 6509 a43d
00000010: 93cf f7bd aa5a 623e 28a9 c9bc b695 b2bc
00000020: 049d 68bd 4d34 10be 8c5e 433d b71f d1bd
00000030: 746f e13d 1b96 0fbd 77a4 ebbd a779 9f3d
00000040: e202 11bc a25b 53be 7f0b 773d 47c1 303d
00000050: b772 f0bc 3665 cbbd 8650 cb3d 081b 643d
00000060: da70 d63c c497 093b 13c1 76bc 661a 463d
00000070: 100c 273d a5bb 283d 8f2a 03bc 614e 273e
00000080: 110d 4ebd 67a9 403e e9e8 883b 2526 4b3b
00000090: abe7 883d 15ee 333d 90e5 d83d def8 26bd
000000a0: e297 e3bc 71d8 833c 8b5a 183d a0b1 353d
000000b0: b89a 5d3e eba9 c13a 889d 453d d70b 35be
000000c0: ad1f df3d 7f3f 7fbd f608 183e f805 343c
000000d0: 5f39 8bbd 4b35 84bd a66a 9e3d bf48 75bc
000000e0: 1bf8 5e3d 62aa 6ebc a2ea 12bc 00bd d73d
000000f0: 05ae d3bc f59c de3d d7f7 073d 68f2 31bd
00000100: a9c3 07be 40b9 e43d a98e d8bd 0ee0 07be
00000110: 3e8e 913d 8164 653d a911 653d f954 a8bc
00000120: 2225 6d3b cbbe d63d 1d24 6bbd 2609 043e
00000130: acde 513e df8a d93d 6868 25bd f2d8 fe3c
00000140: 82b0 3f3d 94b0 05bd cc6c bfbc 2d95 febd
00000150: 4b71 8ebd 74cd 803d a086 82bd d28f e33c
00000160: 482c c53d d203 cabd 0068 cebc f12b 613c
00000170: 8af5 0bbd b4fc d73b 273b abbc 50db 94ba
00000180: b34c 983d e273 c6bc 044d ca3d 78eb 8b3d
00000190: bfa6 d33d 6a68 2c3e 51df 11be 9208 eebd
000001a0: 1114 253e 4894 163e 1a00 b23b 613c c6bd
000001b0: d4d5 b4bd 31f9 94bb 5e5d 9a3c 38f5 fb3c
000001c0: caca a83d d33b f93d d7de 2ebd fa63 623d
000001d0: 2d60 89bb cf9d b9bc 97b5 dd3c c9a6 423d
000001e0: 7de0 ddbd 2db5 c3bd d34c 9cbd 58b7 edbd
000001f0: 949a 3bbd 7810 273d a5bf 353c d216 813c
00000200: cf80 f7bc 6120 ffbc 7c5e aa3b 9d30 3cbd
00000210: ae41 92bb aa8f 92bd 507a 323b e8c8 acbd
00000220: fb58 e7bc 26bb e43d 6b6f ff3c 4f15 39be
00000230: 9f99 eebd fa46 bf3c c092 88bd d066 90ba
00000240: a9c0 1abe 41b3 05be 05bf 383e 530d 8ebb
00000250: f73e 15be 1208 113b b9ed d33d 8e66 d4bd
00000260: 012b d6bd 5dfe 93bd aef4 803c c1cc f0bd
00000270: 9dca dfbd 35f9 203d 3b00 aabd 233b e63b
00000280: 1edb c6bc 5c69 ddbd bba5 0b3d aadd 16be
00000290: a8f8 04bd f010 c73d dab0 873c 32dd edbb
000002a0: fa87 d93c 16c7 6a3d 8d09 34be 3fa6 47bd
000002b0: 8853 0b3d 749a d83c 02fd ffbc 7c03 3bbd
000002c0: 381f 15be b20c 9b3d ff6f 21bd 7109 8d3d
000002d0: c31a 7ebd facd 533d 04c0 01be f81c a0bd
000002e0: 499e 2fbd a2c6 26be 1bba cf3c 22b7 a43c
000002f0: c6b4 b1bd 87a6 d8bd 1358 203c d2cd 8abb
00000300: 2b2d 303c 9d4c 1b3e bede 07be 00af 133d
00000310: 4f67 833c 9831 02bb f6f0 41bd 033b 153c
00000320: a33c bf3c 9909 12bc 8a1f 943d e638 8fbd
00000330: 2959 b43c 0a9c 503c 8211 e73c 8f0f b5bd
00000340: 4f28 41be 536d 0d3e d6e5 06bc 868d b43d
00000350: 1a5f 04bd 546c ff3d 7384 2f3e 55cd 6fbd
00000360: 7645 c13d 925f 11bd 6212 ae3c a361 123e
00000370: f6cf 943d 0d2d e53c 645b a0bd 0a26 19bb
00000380: 99ba 1b3d 886d 4a3e 90ef 323e 19db 17be
00000390: 4b15 b53d 6f47 25bd d2c1 c63c 1f5f f4bc
000003a0: b023 c03d 02d0 a63c 2b6b bdbc 7ace 78bd
000003b0: e33d 43bd 9efd 9bbc 1f56 e13b 32e7 87bd
000003c0: 02b7 793b 48b3 63bc a50f 9c3b 8041 923d
000003d0: 68f5 1a3e c564 a3bd 3b99 183e 9290 223e
000003e0: 9141 173e a659 c4bd 99e6 293c 5550 80bd
000003f0: f466 35bd ebbb 273d 9803 f73d 44dc 263e
-0.08167117 -0.13227896 0.10163327 0.08009604 -0.121001385 0.22104898 -0.024616793 -0.021799903
-0.056790367 -0.14082451 0.04769759 -0.10211127 0.11007586 -0.03505526 -0.115059786 0.07786875
-0.008850785 -0.20640424 0.060313698 0.043153074 -0.029351575 -0.09931414 0.09927468 0.05568984
0.026176859 0.0020995 -0.015060681 0.04836502 0.040782988 0.041194577 -0.008005752 0.16338493
-0.05030543 0.18814622 0.0041781557 0.0030998078 0.06684812 0.043928225 0.105906606 -0.040764682
-0.027782384 0.016094418 0.037195724 0.04435885 0.21641052 0.0014775371 0.048245937 -0.17680298
0.108947136 -0.062316414 0.14847168 0.010987751 -0.06798052 -0.06455477 0.07735185 -0.014970957
0.05443583 -0.01456699 -0.008967074 0.10534096 -0.025839815 0.10869781 0.033195343 -0.043444067
-0.13258232 0.11168146 -0.10574085 -0.13269064 0.07107209 0.05600405 0.055925045 -0.02054833
0.0036185463 0.104856096 -0.057407487 0.12894115 0.20495099 0.10622191 -0.040382773 0.031109307
0.04679919 -0.0326391 -0.023367308 -0.12430797 -0.06955203 0.06289187 -0.06373334 0.02777854
0.096275866 -0.0986401 -0.025196075 0.013743387 -0.03416971 0.006591404 -0.02090223 -0.0011356864
0.07436504 -0.02422518 0.09877971 0.068320215 0.10334539 0.16836706 -0.14245345 -0.116227284
0.16120936 0.14705002 0.005432141 -0.09679485 -0.08829847 -0.0045463075 0.01884335 0.030756578
0.08241804 0.12169614 -0.042692985 0.055271126 -0.0041923732 -0.022658257 0.027064128 0.04752234
-0.10833833 -0.09556041 -0.076318406 -0.11607236 -0.045801714 0.04078719 0.011093055 0.015757952
-0.030212788 -0.03114337 0.0051992517 -0.0459448 -0.004463396 -0.07156308 0.0027233548 -0.08436757
-0.028240671 0.11168508 0.031181058 -0.18074535 -0.11650395 0.023349274 -0.06668615 -0.0011016969
-0.15112557 -0.13056661 0.18041618 -0.0043350845 -0.145748 0.0022130054 0.103480764 -0.10371123
-0.10457421 -0.0722625 0.015741672 -0.11757804 -0.10927317 0.039300162 -0.08300825 0.0070260926
-0.024274405 -0.10811111 0.0340936 -0.14732996 -0.0324637 0.097200274 0.016563822 -0.0072590346
0.026554096 0.05731877 -0.17581768 -0.04874253 0.03401521 0.026440836 -0.031248573 -0.04565762
-0.1456269 0.07570781 -0.03941345 0.068865664 -0.06203724 0.051710106 -0.12670904 -0.07818025
-0.042875562 -0.1628671 0.025357297 0.020106856 -0.08677058 -0.105786376 0.0097866235 -0.0042359615
0.010752956 0.15165944 -0.13268563 0.036055565 0.016040472 -0.0019865986 -0.04734894 0.009108308
0.023344344 -0.008913421 0.07232578 -0.069932744 0.022015171 0.012732515 0.02820659 -0.08840858
-0.18863033 0.13811235 -0.008233508 0.08816056 -0.03231726 0.12471834 0.17140369 -0.05854543
0.09437077 -0.035491534 0.021249 0.14295058 0.07266228 0.027975583 -0.078299314 -0.002336862
0.03801975 0.19768345 0.17474198 -0.14829673 0.08841952 -0.040351328 0.024262343 -0.029830514
0.09381807 0.020362858 -0.02312239 -0.060743786 -0.04766644 -0.019041833 0.0068767215 -0.06635894
0.0038103466 -0.013897724 0.004762607 0.071413994 0.15132678 -0.07978205 0.14902203 0.15875462
0.14771105 -0.095874116 0.01036992 -0.06265322 -0.044287637 0.040950697 0.12061232 0.16294962

network_body._body_endoder.seq_layers.2.bias f4 [128]
00000000: 438a 303c dc34 4a3b 7ba4 22bc bd95 e63b
00000010: c904 6f3b 276f 8e3b 0319 76bb 1f11 04b9
00000020: a798 d3bb b753 033c 4fb2 253b 679f c73c
00000030: 321d 263b c9cd 79bc 6fb8 42bb d28c a1bb
00000040: 9d2c 8f3c 584e 1bbc 9d97 8dbb dd3e 20bc
00000050: 628a 50bb 1727 893c 1657 60bb 3372 64bc
00000060: bbc0 f83c b3ae 55bc c4a4 f9bb 9e03 12bb
00000070: 0b59 7f3b 9782 f73b 2b2a a4ba 2294 95bb
00000080: 411c ffbb f794 0dbb 6b77 463b 512c 91bc
00000090: 96f8 8fba b3d9 19b9 bec6 56bc 3b37 553c
000000a0: cfec 2dbc 1eb4 3b3d 54cd c3bb cd28 00bb
000000b0: 8e7d ed3c 9e95 9a3b 075c a1ba 90a2 fbbb
000000c0: 3b4a 4fbc 5ab6 0ebc 2935 b9bc 45bf 49bc
000000d0: 293d e639 1c36 29bc b633 7f3b 8ff8 0abc
000000e0: 11d1 043c d5ed b1bb 56b4 7abc 9a5d 9b3b
000000f0: 119d 0e3c e077 833b ce32 d43c 5a2b 0fbc
00000100: b119 ef3b d805 7d3c 44ab 653c 1316 c8bb
00000110: e4ce cc3c 4df7 bdbb 889f fd3a f800 73bc
00000120: 5934 17bc 95b1 cdbb 755c 02bc d6e0 c0bc
00000130: b6c4 b9bb 1694 c63c 4bd3 8cbc d5fc b1ba
00000140: 87fb bfbb b034 f83c 4acf f9ba 1aed 25ba
00000150: 9aba 0bbc 053e 7f3b fd9e 593b d164 8e3b
00000160: ea72 00bc 1ede df3a c559 a23b eca1 8dbc
00000170: b389 8a3c e4aa 803b 6563 daba 74c5 243c
00000180: 682c bcbb 92d7 93bc 501c 9abb 3e4e 39bc
00000190: 7ea4 d8bb 4e54 76bb cf56 1f3c f2da 313c
000001a0: 0c79 d43a 3f7b 8cbb 0430 debb 2aca 3ebc
000001b0: ca01 50bb eb02 c53b 3357 4739 6c1d 63ba
000001c0: b4b3 a83c 4e74 fbbb 4b74 a5bb 81c1 17bc
000001d0: b825 0b3c b46c 7b3b 46f0 0a3c a6c9 babb
000001e0: 7496 ba3b 47df b33b f7ee 453c 767f e63b
000001f0: b8c9 8cbc 01c3 94bc 9755 1bbb 5528 8bbb
0.010775152 0.003085426 -0.0099269105 0.007036893 0.0036471358 0.0043467465 -0.003755153 -0.00012594879
-0.0064574066 0.008015565 0.0025283282 0.024368001 0.0025346992 -0.015246817 -0.0029711982 -0.004930117
0.017477328 -0.009479128 -0.004321052 -0.009780613 -0.0031820764 0.016742272 -0.0034231595 -0.013943243
0.030365339 -0.01304214 -0.0076185185 -0.0022279988 0.0038962986 0.0075534093 -0.0012524774 -0.004564778
-0.0077853505 -0.0021603683 0.003028358 -0.017721327 -0.0010984119 -0.00014672316 -0.013108907 0.013013656
-0.010615542 0.04582607 -0.0059754048 -0.001955557 0.028990533 0.004717543 -0.0012310751 -0.007679291
-0.012651975 -0.008710468 -0.022608357 -0.012313669 0.00043914586 -0.010327842 0.0038940734 -0.008482113
0.008106486 -0.005429963 -0.0153017845 0.004741383 0.00870444 0.004012093 0.025903132 -0.008738363
0.007296764 0.015443288 0.014017884 -0.006106147 0.025000997 -0.005797303 0.0019349912 -0.014831774
-0.009228789 -0.006277273 -0.007956614 -0.02354471 -0.0056692017 0.024240535 -0.017190596 -0.0013579378
-0.005858842 0.03029856 -0.0019058969 -0.00063295814 -0.008528376 0.0038946879 0.0033206337 0.0043455143
-0.007839898 0.0017079746 0.004954549 -0.017289124 0.016911363 0.0039266217 -0.0016661702 0.010056842
-0.0057425983 -0.018047128 -0.004703082 -0.011310158 -0.006611406 -0.003758687 0.009725287 0.010855423
0.0016210391 -0.004287153 -0.0067806263 -0.011644879 -0.0031739348 0.0060123107 0.00019010603 -0.0008663747
0.020593502 -0.0076737767 -0.0050492636 -0.0092624435 0.00849288 0.0038364353 0.008480137 -0.005700308
0.005694205 0.005489263 0.012080899 0.0070342375 -0.01718603 -0.018159391 -0.0023702139 -0.0042467513

action_model._continuous_distribution.log_sigma f4 [1, 3]
00000000: da6e ddbc bf0e eabc 3e94 c0bc
-0.027030397 -0.028571485 -0.023508187

action_model._continuous_distribution.mu.weight f4 [3, 128]
00000000: 6873 363a 83d6 4cbd a925 1d3a 8103 863c
00000010: 534c 06bd 5fa1 7fbc 42db d6bb 7661 4dbb
00000020: eca3 dabc a9ca e43c 9669 81bb 1948 173b
00000030: 56ee 69bc d858 22bd 7807 d5bb 4ff9 d9bc
00000040: c228 9d3c 8649 e5bb 8bc9 b4bc 989f c33c
00000050: ab98 83bc 7845 103c 2767 83bc 36b0 b4bc
00000060: 3b85 6bbd de8e 98bc f94b c2bc 7007 81bc
00000070: cab1 b93b 1847 b8bb e929 abbc 052c 11bc
00000080: d15e c8ba 34e9 903c e6f7 b73c 3677 953c
00000090: ab12 b4bb 367f 993c 896b 30bc ad99 033c
000000a0: 06e7 24bc c1ea 92bc b0b1 3abd 4e93 bfbb
000000b0: 7344 1a3d e5a3 c0ba c67a 5fbc 1c80 2c39
000000c0: f95e 46bd c33a 9839 c57e 02bc 1236 c5bc
000000d0: 5ceb 0d3d e4af d03b f0ef e23c 2435 66bc
000000e0: 8881 52bd 00e7 c0bc 88da 98bc bd97 b53b
000000f0: baa4 ae3b 1569 9b3c 00a6 9e3b 7e29 243c
00000100: c694 793c 1fee 76ba d6a9 053c 1a11 35bc
00000110: 88e5 983c 606d 53bc c66e ebbc b957 bcbb
00000120: a145 a5bc c801 aabb 29f2 c7bc 8ea7 11bd
00000130: e05f f83b f148 48bd 1af9 bebc 7935 87bc
00000140: 32a3 75bc aa82 42bd 467b 5c3c 96bc bd3c
00000150: 39e0 cbbc aa2a ea3c 46b5 14bd 02d0 623c
00000160: 9da0 c33c 0b6e c2bc 3932 b93c 4ec5 cf3b
00000170: a772 903c 49a2 37bc 004a 2fbc ce97 fc3c
00000180: 8c62 a23c c498 7f3c 1a2f f5b9 8d2d 8fbb
00000190: 6322 76bc 7433 40bc 3d1d 463c 4267 dc39
000001a0: 1e05 8fbb e044 3fbc 01ec 5ebd d6d2 d53c
000001b0: e9c6 433a 9370 0ebd 37c4 1cbd d4e7 2abc
000001c0: d445 17bd cbe3 f0bc b110 dabc 50d9 2e3c
000001d0: e68a 8dbb d3e2 c0bb 94b4 883c 7249 38bb
000001e0: 0dd1 7d3c 2deb fdbc b4bd c43b 0bd2 aa3c
000001f0: 0c5a a6bc 88a4 e4bc c19b ad3c 98c0 d53b
00000200: 91f8 793c cf35 c23c 9d09 5fbc e8bc 82bc
00000210: 9c5a c2bc df6b 3c3c 4052 dbba 89e3 a23b
00000220: dafd e93a 9cd6 273c 22cb 02bb 9a05 ab3c
00000230: c23f e03c 243d c4bc 0aa9 00bb 1f32 163c
00000240: f527 63bd 9121 db3a b56f 8c3c d214 10bc
00000250: 8fa7 983c c074 043c ccf7 08bc 8b95 9d3a
00000260: 684e abbd ee46 c9b9 353f dbbc 9a66 2fbd
00000270: 998c 993b a423 a33c fb28 073d 5c40 b6bb
00000280: f320 5cbc d3b6 06bd 8a7c 8abc ce4d e8bc
00000290: a353 f03b ae88 2abd d542 0ebc c382 b53c
000002a0: 7427 f2ba d79d 553d cc57 36bb 3564 1fbd
000002b0: 127a 1f3d d349 c9bb 357c 493c 0593 cebc
000002c0: cbc5 40bd 170c b6bc 61cd 42bd 60b1 afbc
000002d0: 7204 023c e13e cabb 3603 95bc 9404 ba3b
000002e0: 6f97 7fbd a742 943c 1ea4 95bc 9747 c03c
000002f0: 2769 f33c 6803 19bc 8ff0 b33c ce6d 9ebc
00000300: b681 fcbb 29ed 663c 18ed 203c 6bc9 243c
00000310: a0b1 0a3d db3c 843b 2935 84bc f974 45bd
00000320: 7f9a 81bd ec22 02bb 20e2 20bc 0fdf 8bbd
00000330: e48a c2bc e24d 62bd 9815 36bc 904b 1cbc
00000340: 3ac6 3f3c e757 48bd 7720 7dbc 65f1 f1bc
00000350: 7a99 a63b 3098 833b 762f 503d f914 de3c
00000360: f454 dfbb e1a8 fbbc 0669 7ebb e1a2 8cbd
00000370: 644e 9b3c b468 d3bc ac73 483c babd 1bbc
00000380: 38ea 4abc 4abc 47bd f09a 06bc 2351 14bd
00000390: 9954 313c bd24 c73c e380 82ba c8e9 c23c
000003a0: 42c6 193b f60a 113c 8b55 84bc d6bc a0bc
000003b0: cf1e 5cbc b678 3ebb b3fd 313c e713 72bc
000003c0: 4635 8bbc 37e8 11bc af6b 37bd dcdc 21bd
000003d0: 7cfa d93c 45bc 12bd cb65 ff3b 3891 8739
000003e0: aa0d fabc b3b0 c9bc bf71 1d3d e575 30bc
000003f0: 3f78 a03b b81f 3bbd d138 233b da5e b0bc
0.0006959946 -0.05000926 0.00059946865 0.016359093 -0.032787632 -0.015602439 -0.0065568993 -0.0031338609
-0.026689492 0.027928667 -0.0039493544 0.0023083745 -0.014278015 -0.03963551 -0.0065011345 -0.026608137
0.019184474 -0.00699729 -0.02206876 0.023879811 -0.016064009 0.008805625 -0.016040398 -0.02205668
-0.057500105 -0.018622812 -0.023717867 -0.015750617 0.005666946 -0.0056237094 -0.020894008 -0.008860593
-0.0015287047 0.017689325 0.022457074 0.01824532 -0.0054953895 0.018737417 -0.010767826 0.008032245
-0.010064846 -0.017934205 -0.045579612 -0.0058464175 0.037662935 -0.0014697282 -0.013640111 0.00016450923
-0.048430417 0.0002903548 -0.0079647945 -0.024073634 0.034648284 0.006368624 0.027702302 -0.014050756
-0.051393062 -0.02354765 -0.018658891 0.0055417703 0.0053296955 0.018971005 0.004841566 0.010019658
0.015233224 -0.0009419638 0.008158168 -0.011051441 0.018664137 -0.012904495 -0.028739344 -0.005747762
-0.020174803 -0.0051882006 -0.024407463 -0.035560183 0.0075797886 -0.048897687 -0.02331214 -0.01650499
-0.014992522 -0.047487892 0.013457125 0.023161214 -0.024887191 0.028584797 -0.03630569 0.013843538
0.023880297 -0.023734113 0.022606956 0.006340659 0.017632795 -0.011208125 -0.010698795 0.030834105
0.019822381 0.015600387 -0.00046765135 -0.0043694437 -0.015022847 -0.011731017 0.012091932 0.00042038603
-0.0043646237 -0.011674136 -0.05442429 0.026101511 0.00074682996 -0.034775328 -0.038273063 -0.010431249
-0.036931828 -0.029405495 -0.026619287 0.0106719285 -0.0043195365 -0.0058864146 0.016687669 -0.0028119949
0.015491736 -0.03099593 0.0060040597 0.02085211 -0.02030661 -0.027910486 0.021192433 0.006523203
0.015257017 0.023707299 -0.013613132 -0.015959218 -0.023724847 0.011500328 -0.0016732886 0.004970972
0.0017852143 0.010244038 -0.0019957502 0.020876694 0.027374152 -0.023954935 -0.0019632005 0.009167223
-0.055458028 0.0016718378 0.01714311 -0.008794026 0.018634586 0.008084476 -0.008359861 0.0012022717
-0.08364564 -0.00038390554 -0.026763538 -0.042822458 0.00468595 0.019914456 0.032998066 -0.0055618715
-0.01343559 -0.0328892 -0.016905088 -0.028357413 0.007334189 -0.041634254 -0.008682926 0.022157079
-0.0018474893 0.05215248 -0.0027823327 -0.038913924 0.038934775 -0.0061428337 0.01229768 -0.025216589
-0.04706363 -0.022222562 -0.047559146 -0.021446884 0.00793563 -0.0061720465 -0.018190008 0.0056768153
-0.062400278 0.018098189 -0.018266734 0.023471637 0.029713226 -0.009339191 0.021965293 -0.019339468
-0.0077058924 0.014094629 0.009822153 0.010057787 0.033860803 0.004035575 -0.01613863 -0.048207257
-0.06328296 -0.001985724 -0.009819537 -0.068296544 -0.023747869 -0.055250056 -0.011113547 -0.0095395
0.011704976 -0.048911955 -0.015449635 -0.029534051 0.005084214 0.004015945 0.050826512 0.02710961
-0.006815547 -0.030720176 -0.0038819923 -0.06867004 0.018958278 -0.025806762 0.01223461 -0.009505684
-0.012384944 -0.04876355 -0.008215651 -0.03621019 0.010823392 0.02430951 -0.0009956624 0.023793116
0.0023464118 0.008852711 -0.016154071 -0.019621294 -0.01343508 -0.0029063649 0.010863709 -0.014775253
-0.016993176 -0.008905462 -0.04478043 -0.03951727 0.026608698 -0.03582408 0.007794117 0.00025857403
-0.030524094 -0.02462039 0.038438555 -0.010770296 0.004897147 -0.045684546 0.0024905691 -0.021529604

action_model._continuous_distribution.mu.bias f4 [3]
00000000: 1816 693c 9a1c 413c 184d 7639
0.014226459 0.011786604 0.00023489108

exp_avg f4 [128, 9]
00000000: e5cf c238 ca17 43b5 8167 14b9 ef54 d038
00000010: 9171 06b6 b96e 28b9 c153 ba34 31fa b4b7
00000020: 2f07 56b7 86a3 afb9 72f3 9db8 8f00 6bba
00000030: 551e c0b9 06c7 eab8 c161 77ba 2221 b7b6
00000040: d6bf 0c39 2bf3 9436 047a 2fb8 a793 c0b8
00000050: 5050 e3ba e7dd 1ab8 f53c 0db9 2e7b e2ba
00000060: ed1e 3038 2a03 af38 8e2c 3638 903c aa39
00000070: 48ea b2b8 d2a1 e1ba 58b8 c739 460c dab8
00000080: 1469 deba 247a 5bb8 8517 3e39 3626 7cb8
00000090: 4d73 c2b9 8e46 28b8 da52 1637 ba41 c8b9
000000a0: 2811 6ab8 8065 98b7 9d8d 21b6 2dc5 8138
000000b0: e876 b3b4 7cd1 ba37 1a6d 7038 499c ee39
000000c0: 3e1a a8b7 a148 a537 0fb3 c739 6ba9 6eb7
000000d0: 3849 dbb8 dee6 1038 c65e efb9 f189 1439
000000e0: d951 eb3a ba85 f7b9 aa81 4039 727b f13a
000000f0: 362b 5ab7 86d8 9eb8 6003 1b36 898b cfb9
00000100: b537 5c36 2bfd 3fba f361 ddb9 a4dd fb38
00000110: 7f9f 34ba 504b 2638 b919 b338 4fd2 e9b7
00000120: 283d 99b8 de34 a437 47a2 8f38 9fa0 90b8
00000130: d7cc 0137 a335 2a38 7d93 d836 0628 46b8
00000140: 2499 bdb6 a794 fab8 4ba2 06b7 8cd6 88ba
00000150: 0246 3ab9 37c2 c3b7 34bd 85ba 7670 fb38
00000160: 53c7 9eb9 f7f5 7d38 0bbd 5c39 ab46 8f38
00000170: bdf3 8837 e2f4 6d39 7002 4038 872f 4936
00000180: 761a a536 21ac 25b9 886f 08b7 89e6 0737
00000190: 167a 08b7 6c3b 03b9 5a1e 8938 c7e5 71b5
000001a0: 70c4 adb6 440d b437 0128 5035 91b9 0537
000001b0: cdd3 a0b9 3843 ab38 b184 983a 8d29 6db9
000001c0: db1e 4138 ad4f a13a 9799 10b8 6e01 e5b8
000001d0: e797 89b8 4b80 1438 34ae 7b37 ff1f c9b9
000001e0: eba6 b737 0b5e dab6 377a e2b9 91b2 ebb8
000001f0: 6d06 6638 fa21 d4b8 7d04 1eb9 10b2 54b9
00000200: cfa0 28bb 9bbc 96b9 62ed 91b9 efc4 34bb
00000210: 66a3 e5b7 7a36 2c39 6f66 1038 ba02 c039
00000220: 0bc4 0c38 0866 3337 2b4d c739 31c8 3c38
00000230: a2ce 9f37 6cc3 ac37 8e64 b0b7 c886 6637
00000240: 07c0 3239 a379 9b37 4376 ceb8 3376 3139
00000250: 33ca 2e38 d5dc d3b8 a858 4536 5e6f f2b6
00000260: 1a15 7bb6 0e50 2138 4361 f6b7 910e 3ab9
00000270: 32ee 43b8 ab7f 3838 3211 60b9 12e3 c837
00000280: 0dc3 4c38 68a6 6f38 cb76 b839 97a3 a6b8
00000290: e303 93ba 728f b139 f790 22b9 5ced 9aba
000002a0: 2161 b3b6 7e78 f238 7f89 3c38 e62e 1639
000002b0: 01f7 ba36 d725 e3b8 7c34 1b39 6655 5537
000002c0: 808d 04b9 0238 5337 bbe2 b736 8466 dfb4
000002d0: 0fa9 0139 3842 eeb7 a112 cab9 741e dd38
000002e0: 5192 ccb7 b547 d9b9 6cbb 96b7 ec01 e338
000002f0: 12ad 17b7 b6e2 a2b9 20bd 6138 bee0 ad39
00000300: 9ddf 92b9 c7cf 9138 36ac c039 db43 a8b8
00000310: 32bb d9b7 223d e3b8 90e4 c3b9 6013 cbb7
00000320: f7f4 7db9 09f5 d2b9 e74b a7b8 7df4 a2b9
00000330: 7d6a 8db7 4b56 a6b8 ac91 84b7 f824 b9b8
00000340: 81e1 b2b8 43ae 3fba df5e 30b9 fed9 adb8
00000350: 7aca 5cba 1ce5 8b38 9823 3e38 5874 ac38
00000360: 2981 a5b9 b275 63b8 e372 28ba 6de5 abb9
00000370: f83f 0bb9 e6b8 37ba cd4a 3c37 da49 78b8
00000380: fee5 a037 ce44 ac38 d9e5 c4b7 59b5 2aba
00000390: 3c7b 2e38 929b deb7 4a16 38ba 0521 e4b7
000003a0: 8d9f 8138 4202 25b8 bf49 98b8 c040 2e37
000003b0: 2690 dbb8 3314 81b8 5212 9936 0c11 f1b8
000003c0: 55cd 8937 19ab 1e37 6c36 3736 4282 d439
000003d0: 9244 a6b8 2b4e 94ba 3248 e439 2ad8 f2b8
000003e0: 5359 97ba 6e74 afb8 3594 2439 a055 7eb8
000003f0: d1cd 173a 6141 dc37 23a2 b739 78e7 193a
9.289364e-05 -7.267778e-07 -0.00014152938 9.934033e-05 -2.003366e-06 -0.00016062976 3.470614e-07 -2.1574177e-05
-1.27570665e-05 -0.00033500436 -7.5316886e-05 -0.0008964622 -0.00036643693 -0.000111950605 -0.0009436869 -5.457682e-06
0.00013422905 4.439052e-06 -4.1836887e-05 -9.182776e-05 -0.001734266 -3.6923124e-05 -0.00013469516 -0.0017279142
4.199047e-05 8.3452396e-05 4.3433676e-05 0.0003247005 -8.53134e-05 -0.0017214364 0.00038093585 -0.00010397336
-0.0016968572 -5.232742e-05 0.00018128574 -6.011707e-05 -0.0003708847 -4.012003e-05 8.959987e-06 -0.00038195943
-5.5805926e-05 -1.8167077e-05 -2.40733e-06 6.187926e-05 -3.3427864e-07 2.2270477e-05 5.7322068e-05 0.0004551134
-2.003938e-05 1.9703353e-05 0.00038089647 -1.4225351e-05 -0.00010456372 3.4547287e-05 -0.00045656244 0.00014165767
0.001795347 -0.00047211145 0.0001835885 0.001842363 -1.3003873e-05 -7.574358e-05 2.3098764e-06 -0.00039586078
3.281498e-06 -0.0007323797 -0.00042225383 0.000120098965 -0.0006890222 3.9647624e-05 8.540176e-05 -2.7873697e-05
-7.307e-05 1.9574942e-05 6.848998e-05 -6.896373e-05 7.736692e-06 4.058111e-05 6.4544715e-06 -4.7244153e-05
-5.650467e-06 -0.000119486176 -8.024809e-06 -0.0010439917 -0.00017764422 -2.333625e-05 -0.0010203482 0.0001198956
-0.00030284617 6.0548973e-05 0.00021051259 6.831934e-05 1.6325963e-05 0.00022693307 4.5778637e-05 2.9978999e-06
4.9204637e-06 -0.00015799749 -8.1322e-06 8.100303e-06 -8.134657e-06 -0.0001251527 6.5383225e-05 -9.0113866e-07
-5.17867e-06 2.146385e-05 7.754425e-07 7.970623e-06 -0.00030675382 8.166436e-05 0.0011636225 -0.0002261756
4.6043522e-05 0.001230707 -3.4475317e-05 -0.00010919837 -6.560963e-05 3.5405432e-05 1.5001326e-05 -0.00038361546
2.1893027e-05 -6.5078543e-06 -0.00043197136 -0.00011238934 5.4842258e-05 -0.000101152764 -0.00015069726 -0.00020284229
-0.0025730615 -0.00028750752 -0.0002783342 -0.0027583202 -2.7375016e-05 0.00016423492 3.4427674e-05 0.00036623125
3.356118e-05 1.0692987e-05 0.00038013732 4.5009136e-05 1.9050498e-05 2.0594998e-05 -2.102766e-05 1.37404495e-05
0.00017046939 1.8534081e-05 -9.8448734e-05 0.00016924068 4.1673145e-05 -0.00010102397 2.9406892e-06 -7.225127e-06
-3.7414197e-06 3.8459948e-05 -2.9370776e-05 -0.00017743769 -4.671346e-05 4.398792e-05 -0.0002136871 2.3947596e-05
4.8819045e-05 5.713702e-05 0.00035183723 -7.945968e-05 -0.0011216368 0.00033866946 -0.00015503528 -0.0011820006
-5.345923e-06 0.00011561903 4.4950746e-05 0.00014322586 5.571987e-06 -0.00010831252 0.00014801504 1.2715673e-05
-0.00012641214 1.258962e-05 5.48022e-06 -4.1611577e-07 0.00012365378 -2.8402646e-05 -0.00038542322 0.000105437735
-2.4386829e-05 -0.0004144289 -1.7968669e-05 0.000108245615 -9.040597e-06 -0.0003106796 5.3820317e-05 0.00033164577
-0.00028013895 6.95284e-05 0.000367494 -8.023503e-05 -2.5955585e-05 -0.000108355904 -0.0003736359 -2.4208508e-05
-0.00024219217 -0.00040236887 -7.9773185e-05 -0.00031081206 -1.6858097e-05 -7.93157e-05 -1.580346e-05 -8.8283734e-05
-8.529705e-05 -0.0007312039 -0.0001682001 -8.289887e-05 -0.00084225053 6.6707114e-05 4.533268e-05 8.22327e-05
-0.00031567484 -5.423063e-05 -0.0006425811 -0.00032786597 -0.00013279903 -0.0007008448 1.1223089e-05 -5.9196587e-05
1.9180585e-05 8.214415e-05 -2.3472052e-05 -0.0006512008 4.1599604e-05 -2.6536905e-05 -0.00070223643 -2.7195094e-05
6.180918e-05 -3.934117e-05 -7.261661e-05 1.0386284e-05 -0.000104695835 -6.154962e-05 4.561888e-06 -0.00011494951
1.6427288e-05 9.457371e-06 2.7300803e-06 0.0004053284 -7.928269e-05 -0.00113148 0.00043541339 -0.00011579723
-0.0011547006 -8.366337e-05 0.0001569547 -6.0638064e-05 0.0005790862 2.6256488e-05 0.0003502528 0.00058709783

exp_avg_sq f4 [128, 9]
00000000: 2d3a 6c35 47e5 2632 4408 c133 4ccd 7535
00000010: 1e03 9432 5511 c033 c020 ba31 6f83 be32
00000020: cefe 8a31 ece1 b036 a476 e333 c531 aa37
00000030: 5539 b536 3114 d333 719a a437 0d68 7b31
00000040: e469 a934 2f59 b831 e0a1 9835 0aeb ba33
00000050: e784 af37 6a04 8c35 123f c133 72eb ac37
00000060: 4086 9531 f37c 8734 4471 4b31 8074 3636
00000070: ed99 3234 2ffa 1c38 b73a 2936 1638 4634
00000080: 5549 1b38 5ea6 9232 ec3f e734 830d 3532
00000090: 41eb 4236 00ca e532 205d f335 ab18 4336
000000a0: 1375 2e33 a569 ed35 083d e030 6cd4 8d33
000000b0: 51f4 4f31 a64b 3d37 e0f7 9e34 e2fd 7538
000000c0: 3278 4137 4087 8a34 edd6 6e38 9502 8d32
000000d0: 9cca 3f35 5520 8d32 d16e 0037 9e64 6f34
000000e0: 5fec 2338 e379 fa36 e7ea 5c34 1e86 2138
000000f0: 2344 dc32 199d 1c35 db44 6e32 f203 fc37
00000100: ba62 e234 9879 8d38 ef1a 0038 dd90 b734
00000110: e204 8838 fa62 de32 d520 8f35 483f 0b33
00000120: e7e0 0f35 2d07 8032 9b06 ab34 7d54 0c35
00000130: f736 e932 6761 af34 b4f3 1731 e61c 5033
00000140: 942f 2130 97be 2e38 0de4 7435 9afc 2d39
00000150: 8bdc 3138 4fcc 5635 d3ab 2839 6ebb 5033
00000160: c416 1d36 f3f2 4333 ec72 fb34 376b 5932
00000170: ba96 8031 3c51 fe34 9d98 9c32 cde7 7131
00000180: 775e 2b31 1f35 9433 a335 0d31 7b64 0138
00000190: 0c4a 1935 d9f5 dc38 58bb 0338 44ce 1a35
000001a0: 6616 d738 7f28 2233 08e4 c235 63aa 2833
000001b0: 01c0 4136 15b1 1c34 b0dc b637 b9c2 2e36
000001c0: 2438 4634 759f b637 6950 7232 9860 c834
000001d0: b776 aa31 44d6 1537 245b 8934 44ca 6a38
000001e0: 1080 1637 9502 7f34 56d8 6438 ad08 9232
000001f0: 44a7 3235 22bb 8532 08e3 1238 7377 6d35
00000200: 38db 3839 0d67 1538 7de3 5035 f825 3439
00000210: 53b3 6433 3796 1b36 6911 6f33 ddb6 a335
00000220: ad6b 9032 d41f 0b31 ce52 a535 8a33 0033
00000230: e1cc 0c31 6785 3131 79cf 3833 02eb 0e31
00000240: 1a73 4036 a4cc bb32 7a2a c034 06f8 4036
00000250: ccf3 1e33 36ba c234 f9f3 9a31 431d 8633
00000260: c197 9631 16f5 2937 3960 6d34 5df7 3e38
00000270: a5a1 2c37 5f6c 4e34 ebbd 3938 4a77 7e32
00000280: 6156 1435 6fa3 5f32 a24b 9237 eb96 df34
00000290: 47f2 b338 e7a7 9537 17e6 c434 4c92 ae38
000002a0: 1659 bb32 893b 9135 5f0a d332 f3aa 5e35
000002b0: 12c3 9132 47c8 6333 f4b4 5c35 130e c732
000002c0: d490 6633 c503 b030 0ca5 a133 3a54 b430
000002d0: e24e c936 eba6 d233 fa7e a736 8ce1 c936
000002e0: 7599 d233 3454 9d36 ceb0 1332 9327 f934
000002f0: 0347 f431 ae31 5836 acac f033 1858 cc37
00000300: 5954 5536 c317 cc33 9b2e c937 2c61 8732
00000310: f686 7934 3d4d 2d32 c51f 4a37 c42e 2b34
00000320: f592 c837 6487 4b37 325e 2334 f141 c237
00000330: 0529 1b32 8b8d f334 cbd5 4832 80fd 2c37
00000340: 2b96 9334 f7c1 5d38 f84b 2d37 b535 8a34
00000350: bf5d 5938 0c1f ac32 ce65 3e35 c4ca 8132
00000360: b58b b536 1d88 c233 4f41 8637 954a b736
00000370: 1f2c b233 d7eb 8137 cc70 d231 dd6d 8834
00000380: 22da e531 fcc4 cc35 2258 8c33 9ab4 ef36
00000390: eb2c c035 141b d333 7d62 ee36 7942 fb31
000003a0: 931f 3634 1802 7631 eb82 1f36 4df4 9b32
000003b0: 61f6 c634 0f97 1e36 caa5 de32 7d47 c034
000003c0: 1482 3f31 3562 9e33 76ac 6b31 0867 1e37
000003d0: 5472 8834 0e33 5038 2457 1e37 bce4 7c34
000003e0: 0acd 4b38 cd81 a532 7f83 2935 6f0b 9232
000003f0: 2932 5737 d5e9 1434 631a 5a37 daf6 5837
8.800151e-07 9.714603e-09 8.988766e-08 9.156836e-07 1.7230885e-08 8.9438494e-08 5.4170357e-09 2.217868e-08
4.0452965e-09 5.2715095e-06 1.0592092e-07 2.0288755e-05 5.4008947e-06 9.829126e-08 1.962224e-05 3.6584453e-09
3.155575e-07 5.365244e-09 1.1371994e-06 8.704053e-08 2.0923513e-05 1.0432097e-06 8.998735e-08 2.0613636e-05
4.351733e-09 2.5236622e-07 2.9604772e-09 2.7187925e-06 1.663354e-07 3.74263e-05 2.521714e-06 1.8460591e-07
3.7023176e-05 1.7072292e-08 4.3073612e-07 1.0538659e-08 2.9045189e-06 2.6750968e-08 1.8132014e-06 2.9071623e-06
4.061901e-08 1.7688623e-06 1.6315491e-09 6.6044635e-08 3.0261342e-09 1.1282891e-05 2.9610146e-07 5.8649e-05
1.1531682e-05 2.580291e-07 5.6943787e-05 1.6415735e-08 7.144788e-07 1.6429263e-08 7.655196e-06 2.2295214e-07
3.9082366e-05 7.46477e-06 2.0574554e-07 3.8510298e-05 2.5642356e-08 5.8343136e-07 1.3869079e-08 3.0042578e-05
4.2167613e-07 6.7460525e-05 3.0542662e-05 3.4191808e-07 6.485895e-05 2.588921e-08 1.0663886e-06 3.2421013e-08
5.359893e-07 1.4904424e-08 3.1856038e-07 5.227701e-07 2.7149765e-08 3.266716e-07 2.2111921e-09 4.8455057e-08
5.863907e-10 4.1662333e-05 9.122894e-07 0.00016592667 4.2405485e-05 8.001852e-07 0.00016085738 4.859924e-08
2.3408074e-06 4.5622937e-08 4.683601e-07 1.265544e-08 3.742426e-09 4.7370293e-07 1.823019e-08 3.520188e-09
2.4937472e-09 6.90145e-08 2.054869e-09 3.0849576e-05 5.7104694e-07 0.0001053621 3.140731e-05 5.7669627e-07
0.00010256171 3.7755395e-08 1.4520492e-06 3.9270514e-08 2.8871002e-06 1.4593054e-07 2.1798856e-05 2.6041364e-06
1.8460611e-07 2.1770344e-05 1.4104537e-08 3.7323184e-07 4.9611475e-09 8.93098e-06 2.5584552e-07 5.5978322e-05
8.970514e-06 2.3749665e-07 5.4560915e-05 1.7000582e-08 6.655357e-07 1.5568336e-08 3.5020552e-05 8.84632e-07
0.00017629273 3.562034e-05 7.781708e-07 0.00017180282 5.324848e-08 2.3184236e-06 5.566236e-08 1.2197667e-06
1.6812772e-08 2.0245254e-09 1.2317557e-06 2.9849197e-08 2.0489141e-09 2.583272e-09 4.3029534e-08 2.0797306e-09
2.8677227e-06 2.1862725e-08 3.5793693e-07 2.8754598e-06 3.7008974e-08 3.6270802e-07 4.5097264e-09 6.245184e-08
4.382827e-09 1.01302485e-05 2.210735e-07 4.5529905e-05 1.0289635e-05 1.922467e-07 4.4284312e-05 1.4811869e-08
5.5259994e-07 1.3017469e-08 1.7439776e-05 4.1646794e-07 8.580513e-05 1.784037e-05 3.6675257e-07 8.3242165e-05
2.1810177e-08 1.0820669e-06 2.456835e-08 8.295021e-07 1.696893e-08 5.3034707e-08 8.221971e-07 2.317305e-08
5.368277e-08 1.2806757e-09 7.5271686e-08 1.3120662e-09 5.99945e-06 9.809249e-08 4.99177e-06 6.016524e-06
9.806801e-08 4.688767e-06 8.596727e-09 4.6408658e-07 7.1094077e-09 3.2215426e-06 1.120728e-07 2.4359717e-05
3.178857e-06 9.5038125e-08 2.398277e-05 1.5760257e-08 2.323903e-07 1.0087487e-08 1.2047535e-05 1.5942629e-07
2.391029e-05 1.2131266e-05 1.5214826e-07 2.3157309e-05 9.031514e-09 4.5365263e-07 1.1690143e-08 1.03110215e-05
2.7490145e-07 5.287115e-05 1.0329291e-05 2.574358e-07 5.182414e-05 2.0037554e-08 7.092866e-07 1.5109784e-08
5.4104844e-06 9.058588e-08 1.6004456e-05 5.4625075e-06 8.2967965e-08 1.548782e-05 6.124628e-09 2.541191e-07
6.689576e-09 1.5256514e-06 6.535289e-08 7.14378e-06 1.4318188e-06 9.8303786e-08 7.1044183e-06 7.3126185e-09
1.6961557e-07 3.5798902e-09 2.376905e-06 1.815547e-08 3.7059638e-07 2.3631762e-06 2.5919594e-08 3.5814801e-07
2.78681e-09 7.375312e-08 3.4295033e-09 9.441523e-06 2.541516e-07 4.9638613e-05 9.437823e-06 2.3552542e-07
4.858993e-05 1.9267555e-08 6.314876e-07 1.7001836e-08 1.2826677e-05 1.3868642e-07 1.2999956e-05 1.2932078e-05

exp_avg f4 [128]
00000000: ded8 4935 8e36 1bb8 b491 11b8 17b0 37b8
00000010: ad54 a1b7 7c71 7937 3b7c 7938 d333 be37
00000020: 88f4 c836 9c34 e437 be23 f337 4bbf 60b6
00000030: b6bf 9737 a382 26b7 4167 bab8 7d4a 7937
00000040: 9f64 4037 1ce4 b4b5 dea9 35b8 07d6 9f35
00000050: 3a92 75b7 4bb4 5337 8d9f 80b7 472d d7b7
00000060: 514a f4b7 10fc 58b7 939e b735 26d3 43b8
00000070: 7e83 2737 1a8b 84b5 7344 6b38 1ee8 d2b7
00000080: b2cf 40b7 a8ab 44b8 38f1 af36 7474 eab7
00000090: bb0d 8337 508d ed37 0c9a 1238 33a0 ef37
000000a0: 445a df36 2181 06b5 28df ab37 fc64 eb37
000000b0: 125c 69b7 ca22 c937 3120 0e38 772a cb37
000000c0: 05e8 81b7 fdc8 3437 f617 27b8 81ff 8c37
000000d0: 54b3 0eb7 2c81 a537 9873 b137 7d7f 3db8
000000e0: 4283 2138 9cee 96b6 8859 0937 b7b6 a2b7
000000f0: b1ee cdb7 225a 05b7 be94 23b6 49fa 67b6
00000100: 8780 db36 8376 c137 975d 5536 64ce 0038
00000110: fdc7 d535 fae1 1b38 c604 b537 e238 bdb6
00000120: 51f7 b537 ea51 2137 e151 16b8 2b04 82b7
00000130: 8030 92b6 d08c 8a37 7e59 7337 71ab 0a34
00000140: a4dc 0138 af63 03b6 e9b4 0137 e2e1 0e37
00000150: bbfa 2c38 62aa 88b7 cd2d 9fb5 fa27 efb6
00000160: f4e0 e6b8 f770 61b7 a987 35b8 0b85 8d38
00000170: 91ca d037 9f75 8d36 e7b3 85b7 0c5b 9037
00000180: 204a c1b6 13a1 81b6 fd95 48b8 be68 0fb8
00000190: c970 01b8 cea0 3435 e5a0 d735 fc00 9f38
000001a0: 4568 a535 45eb c5b7 05eb e7b7 7776 f737
000001b0: 50a4 0036 9963 98b7 a881 89b7 48a4 9fb7
000001c0: 75b6 d336 11b1 6db7 3da0 dab7 d227 9f36
000001d0: a30e 0837 cbac 0635 0aab 5eb6 423a 8d37
000001e0: e70b 9737 f0ba 3c35 0a44 72b7 133b 98b6
000001f0: 1301 3f35 4fdd ac37 c5a2 6836 8cef edb6
7.519392e-07 -3.7005688e-05 -3.470639e-05 -4.3794596e-05 -1.9232126e-05 1.4867979e-05 5.9481925e-05 2.2673898e-05
5.9889317e-06 2.7204216e-05 2.8984501e-05 -3.3489948e-06 1.8089875e-05 -9.924787e-06 -8.888404e-05 1.48589e-05
1.14675195e-05 -1.3477434e-06 -4.3311964e-05 1.1908713e-06 -1.4637184e-05 1.2618558e-05 -1.5333086e-05 -2.5651081e-05
-2.9121673e-05 -1.2933291e-05 1.3680714e-06 -4.668827e-05 9.984591e-06 -9.87525e-07 5.6092114e-05 -2.5142039e-05
-1.149245e-05 -4.688991e-05 5.243488e-06 -2.7949201e-05 1.562281e-05 2.8318405e-05 3.495258e-05 2.8565619e-05
6.656426e-06 -5.01068e-07 2.0488704e-05 2.8061208e-05 -1.3909319e-05 2.3977267e-05 3.388542e-05 2.421926e-05
-1.548604e-05 1.0775632e-05 -3.9838218e-05 1.6808279e-05 -8.505613e-06 1.9729683e-05 2.1153872e-05 -4.5179844e-05
3.8507635e-05 -4.498126e-06 8.186682e-06 -1.9396988e-05 -2.4549054e-05 -7.948403e-06 -2.4375472e-06 -3.4567367e-06
6.541671e-06 2.306258e-05 3.179395e-06 3.0709794e-05 1.5927941e-06 3.7165337e-05 2.1579104e-05 -5.639261e-06
2.1692047e-05 9.61542e-06 -3.5839043e-05 -1.5499149e-05 -4.356785e-06 1.6516453e-05 1.4504765e-05 1.2914622e-07
3.0961484e-05 -1.9578545e-06 7.731121e-06 8.516452e-06 4.1241507e-05 -1.6291804e-05 -1.1859753e-06 -7.127409e-06
-0.000110091554 -1.3437347e-05 -4.3280106e-05 6.748185e-05 2.488986e-05 4.2158204e-06 -1.5938609e-05 1.7208535e-05
-5.7604775e-06 -3.863251e-06 -4.7823403e-05 -3.4191406e-05 -3.0861036e-05 6.7289227e-07 1.6065575e-06 7.581894e-05
1.2323804e-06 -2.3593786e-05 -2.7646785e-05 2.9499859e-05 1.9169129e-06 -1.816619e-05 -1.6392049e-05 -1.9030776e-05
6.309531e-06 -1.4167527e-05 -2.6062242e-05 4.743205e-06 8.10964e-06 5.0170337e-07 -3.3180136e-06 1.6835638e-05
1.8006145e-05 7.030749e-07 -1.4440166e-05 -4.53683e-06 7.115461e-07 2.0607053e-05 3.4665438e-06 -7.0910373e-06

exp_avg_sq f4 [128]
00000000: aeec 0a31 504c 8a32 3db5 6b32 3172 e132
00000010: bcc7 af31 1d39 3233 2c11 0633 68bd 7633
00000020: 6e3c 6631 01be 0934 2ca5 4831 138d be33
00000030: 1d80 d432 fe70 2233 00b5 0934 b7c5 7931
00000040: 7e34 a831 c7fc 0433 d8e5 8033 7abc 7731
00000050: 3e31 9232 3052 7732 f644 cf32 7aef 2933
00000060: a678 6032 730d 5332 6e9f 8831 efac 1f33
00000070: a011 cb32 3df3 4932 4f82 4033 215b cd31
00000080: b6e6 8a31 9ed3 1f33 26c4 9832 a30b b932
00000090: 4e68 8432 a9c4 a931 e108 5133 0f92 ae32
000000a0: 62fc ae31 1a25 d230 1e14 0b33 cabe 8f32
000000b0: df58 9c32 d623 bb32 f833 5332 7216 5c32
000000c0: 8110 6632 6ec1 c331 bdc1 8333 ada0 fc31
000000d0: 0f91 bd31 e450 4233 d833 1f33 d1b4 9c32
000000e0: 47eb c432 2ac0 1831 151e 0333 0797 8332
000000f0: 4d21 0632 3f15 7530 ed48 8233 cf50 ec2f
00000100: c01f 6131 35a2 6a32 5a35 f631 e437 cf32
00000110: ed32 ee30 8fe2 4a33 3996 d031 bd18 e531
00000120: 9a0b b431 584f 9231 2252 9132 b90c 8232
00000130: e231 c331 7cf6 a632 de7b bb32 ef47 f02f
00000140: 3a9b 2c32 bf53 1c32 947f c82f 1173 3431
00000150: c8a7 ae33 dd8f 0c32 ec66 6132 3a87 7832
00000160: 4dad 0334 ec24 7b32 75ec 9333 2cb4 1033
00000170: a108 aa31 6bea f030 1868 8833 1e6d 3f33
00000180: cad7 d732 e411 2932 3ba8 2532 210e 4333
00000190: 6462 5b33 1ac6 8531 502e d432 4cfd f133
000001a0: 75be 1233 040c f931 a72d 2e32 2233 3032
000001b0: 2cbb 9132 beb2 a632 139c 8931 9253 e930
000001c0: a077 6730 f848 b432 33a3 b732 4cf2 0f32
000001d0: 1a6b 9f32 de6d 5932 2e34 6031 2f8f 1832
000001e0: 2011 ab33 0e32 042e 459c 6032 c7ec 4031
000001f0: 02e7 3a31 ca22 c232 317c e332 1477 1e31
2.021618e-09 1.6100017e-08 1.3720009e-08 2.6245376e-08 5.1158775e-09 4.14958e-08 3.1214924e-08 5.7448602e-08
3.3503755e-09 1.2828242e-07 2.919772e-09 8.873226e-08 2.4738307e-08 3.782133e-08 1.2824967e-07 3.6346657e-09
4.895411e-09 3.0963545e-08 6.002273e-08 3.6050367e-09 1.701903e-08 1.43959795e-08 2.4129331e-08 3.956618e-08
1.3065948e-08 1.22848745e-08 3.976246e-09 3.7177355e-08 2.3640325e-08 1.1755046e-08 4.4822e-08 5.9766454e-09
4.0425574e-09 3.7212537e-08 1.7784327e-08 2.1542126e-08 1.5414255e-08 4.940905e-09 4.866968e-08 2.0322686e-08
5.092759e-09 1.5290056e-09 3.2381756e-08 1.6734152e-08 1.8201204e-08 2.1785961e-08 1.2293633e-08 1.2810789e-08
1.3391515e-08 5.6972373e-09 6.135404e-08 7.352432e-09 5.517115e-09 4.5242714e-08 3.7067224e-08 1.8243016e-08
2.2924395e-08 2.2228144e-09 3.0528174e-08 1.5319086e-08 7.807398e-09 8.9160673e-10 6.066862e-08 4.2985568e-10
3.2759857e-09 1.3657474e-08 7.1656077e-09 2.4123388e-08 1.7331253e-09 4.7237844e-08 6.070675e-09 6.6675896e-09
5.2400084e-09 4.2581796e-09 1.6917571e-08 1.5139777e-08 5.680918e-09 1.9437032e-08 2.1825993e-08 4.3706858e-10
1.0047012e-08 9.099437e-09 3.6470438e-10 2.6258855e-09 8.1330256e-08 8.181783e-09 1.3120125e-08 1.4466247e-08
1.2263372e-07 1.4618518e-08 6.888232e-08 3.3691478e-08 4.948632e-09 1.7528924e-09 6.351928e-08 4.4569894e-08
2.5127424e-08 9.8411626e-09 9.642515e-09 4.5414826e-08 5.1079397e-08 3.893331e-09 2.4701109e-08 1.12685115e-07
3.4166494e-08 7.24822e-09 1.0138513e-08 1.0256175e-08 1.6965338e-08 1.9406226e-08 4.0049684e-09 1.6976733e-09
8.420731e-10 2.098794e-08 2.1378218e-08 8.378787e-09 1.855874e-08 1.2656043e-08 3.262595e-09 8.880121e-09
7.965923e-08 3.0057783e-11 1.3074048e-08 2.807427e-09 2.7197875e-09 2.2600393e-08 2.6482754e-08 2.3059714e-09
