results/jugglingRobotV1/JugglingRobotV1/JugglingRobotV1-0.onnx (onnx, 76231 bytes, 7 tensors)

action_model._continuous_distribution.log_sigma f4 [1, 3]
0.0 0.0 0.0
00000000: 0000 0000 0000 0000 0000 0000

action_model._continuous_distribution.mu.bias f4 [3]
0.0 0.0 0.0
00000000: 0000 0000 0000 0000 0000 0000

action_model._continuous_distribution.mu.weight f4 [3, 128]
-0.037080657 -0.034077015 0.0037105472 0.011137615 0.028312072 0.021421509 -0.008068311 -0.0022346422
-0.007822013 0.016525926 -0.028754175 0.012053846 -0.019913485 0.009515432 -0.010343812 0.0035572425
-0.013822499 -0.020569896 -0.033886537 0.010466643 0.010710018 -0.0019995489 -0.008107475 -0.024711756
0.03880429 -0.00084751536 -0.02303878 -0.0043301107 0.00459321 0.01606483 -0.009839105 -0.0062937774
-0.027287511 -0.0014648847 0.010549423 0.019085113 0.0052550486 -0.0034366928 0.021635054 -0.0017790253
-0.009038131 0.003966762 -0.021648558 0.0075449483 0.036064472 -0.014482738 -0.0067985035 0.021940937
0.0016219318 0.005550075 -0.02961651 -0.0066094436 -0.011798245 0.018475167 0.018488908 0.0145038245
-0.024431257 0.009159078 0.042355232 -0.0009958106 0.009565737 -0.0010794997 0.0031200743 -0.017135648
0.010184887 0.05083471 -0.044668168 -0.018184526 -0.0247739 -0.008949297 -0.0014996001 -0.016165117
0.0040730536 -0.0061915456 0.015188818 0.031171862 0.013064985 -0.01880405 0.014260048 -0.018293157
-0.013195961 0.052232783 -0.025339453 0.013498944 0.0011341531 0.006919011 -0.010136603 -0.025635509
0.02740092 0.016145652 0.025784284 0.0057481974 -0.03282358 -0.016063174 -0.019006493 -0.0005420935
-0.014802386 0.013778756 0.0054190825 -0.0023681913 -0.023885911 0.030511856 0.017693644 0.000627236
0.017455777 0.0036950514 0.031767998 -0.020208826 -0.033472225 -0.009049308 0.007584875 0.013640913
-0.0019275725 -0.01987618 -0.008293835 -0.00035506394 -0.007442809 -0.01014817 -0.046799626 0.00649822
-0.016923906 -0.013281523 -0.026928296 0.029019972 -0.0013437216 -0.01994211 -0.00011758645 0.0028867936
0.004054595 0.019549727 -0.02152901 0.01755555 -0.0018200595 -0.0014735748 0.021078898 0.030351356
-0.04771775 -0.020937538 -0.017282797 0.010554823 -0.0040726312 -0.0062744967 -0.0072781923 0.008337255
-0.0053335894 0.020576533 0.016786013 0.007028976 -0.00402373 0.0031716705 -0.010878936 -0.028075347
-0.0011226804 -0.0005300367 -0.019230938 -0.03658638 6.335903e-05 0.00471143 -0.003926129 0.018054832
-0.012413988 0.007312581 -0.032677744 0.011972051 -0.00566494 0.015085568 -0.008770532 -0.016595399
-0.014576036 0.009358808 -0.002208756 -0.016513474 0.009099389 -0.0023444525 0.0147243235 0.027703447
0.0051764357 0.022497168 -0.031493604 0.011963903 0.027589425 -0.0037864519 0.009564842 -0.005179159
-0.036462374 -0.018016553 0.00623478 0.022402262 0.0022444879 -0.0016800578 0.027137665 0.0068874406
0.030324731 0.021211205 0.007381993 -0.03021278 0.019988628 -0.0013763391 -0.0023004818 -0.002789313
-0.012003863 -0.0069398596 -0.0032109253 -0.03175875 0.044320133 0.0130567355 -0.04226227 0.0033293103
0.012159607 -0.014016764 -0.020020265 -0.017899508 0.0007235146 0.020963984 -0.02547258 0.029114122
-0.016051166 -0.023753693 -0.017533163 0.028947566 0.00522297 -0.016015092 -0.04216756 0.022121249
0.0332147 -0.008116335 0.032861 0.0046591824 0.021627575 -0.009152802 0.0057932097 -0.021227164
-0.019386888 -0.012051004 0.02404089 -0.0015158922 0.006549028 -0.022131247 0.0072033047 0.012727618
-0.0110348575 0.013548552 -0.00033951044 -0.027782677 -0.0028042651 -0.039681826 0.013411892 -0.014831635
0.0040385425 -0.0038572138 0.02130949 -0.018158963 -0.01400949 0.019940026 -0.0012904573 -0.018752912
00000000: e3e1 17bd 5794 0bbd a72c 733b 8b7a 363c
00000010: b8ee e73c 297c af3c f330 04bc 1373 12bb
00000020: e727 00bc 6161 873c e08d ebbc 7f7d 453c
00000030: 9b21 a3bc 9de6 1b3c 1879 29bc a020 693b
00000040: c377 62bc 3382 a8bc 9ccc 0abd 487c 2b3c
00000050: 1279 2f3c dd0a 03bb 37d5 04bc 4f70 cabc
00000060: 3ff1 1e3d cb2b 5eba d3bb bcbc 9ae3 8dbb
00000070: a382 963b 649a 833c 3334 21bc 083c cebb
00000080: 0f8a dfbc 6001 c0ba 7dd7 2c3c 6258 9c3c
00000090: 8b32 ac3b 233a 61bb ff3b b13c 2f2e e9ba
000000a0: ab14 14bc 9dfb 813b 5158 b1bc 9d3b f73b
000000b0: 57b8 133d 0249 6dbc fbc5 debb 7bbd b33c
000000c0: 0097 d43a 67dd b53b 539e f2bc 0894 d8bb
000000d0: 6d4d 41bc 3c59 973c 0d76 973c 73a1 6d3c
000000e0: 0f24 c8bc f50f 163c ae7c 2d3d dc85 82ba
000000f0: 9cb9 1c3c 007e 8dba 297a 4c3b 0f60 8cbc
00000100: 83de 263c 0f38 503d f8f5 36bd b7f7 94bc
00000110: a2f2 cabc 12a0 12bc 3b8e c4ba b56c 84bc
00000120: 4077 853b 73e2 cabb 85da 783c 225c ff3c
00000130: 850e 563c f30a 9abc faa2 693c 88db 95bc
00000140: df33 58bc 0bf2 553d af94 cfbc ad2a 5d3c
00000150: dda7 943a dfb8 e23b ff13 26bc 8f01 d2bc
00000160: e577 e03c e343 843c 9039 d33c 605b bc3b
00000170: 0572 06bd eb96 83bc 81b3 9bbc 471b 0eba
00000180: b585 72bc 4bc0 613c 8f92 b13b a833 1bbb
00000190: 63ac c3bc 00f4 f93c 43f2 903c 186d 243a
000001a0: 6bff 8e3c ad28 723b 291f 023d fb8c a5bc
000001b0: 2c1a 09bd 8c43 14bc 8b8a f83b 237e 5f3c
000001c0: 9aa6 fcba 5fd3 a2bc dee2 07bc e027 bab9
000001d0: cfe2 f3bb 8344 26bc f7b0 3fbd 05ef d43b
000001e0: 01a4 8abc bf9a 59bc bb98 dcbc 4bbb ed3c
000001f0: d11f b0ba a35d a3bc bf98 f6b8 5c30 3d3b
00000200: 68dc 843b c026 a03c 9b5d b0bc a8d0 8f3c
00000210: 108f eeba f724 c1ba a7ad ac3c 68a3 f83c
00000220: b073 43bd 3385 abbc a794 8dbc 23ee 2c3c
00000230: b573 85bb 4b9a cdbb e77d eebb fb98 083c
00000240: 64c5 aebb 1e90 a83c d282 893c 5353 e63b
00000250: 7ed9 83bb cddb 4f3b 913d 32bc 45fe e5bc
00000260: e726 93ba 29f2 0aba 338a 9dbc 9adb 15bd
00000270: 9fdf 8438 5762 9a3b c2a6 80bb bae7 933c
00000280: 0a64 4bbc 609e ef3b 19d9 05bd 6c26 443c
00000290: f6a0 b9bb 7529 773c 47b2 0fbc 13f3 87bc
000002a0: 53d0 6ebc b055 193c c7c0 10bb 4447 87bc
000002b0: 9b15 153c 63a5 19bb 4a3e 713c 57f2 e23c
000002c0: 179f a93b fb4b b83c 70ff 00bd 3f04 443c
000002d0: 3803 e23c 1f26 78bb dbb5 1c3c efb5 a9bb
000002e0: 9259 15bd 7397 93bc 204d cc3b f384 b73c
000002f0: 4218 133b 6335 dcba cf4f de3c 0ab0 e13b
00000300: 926b f83c 1fc3 ad3c a5e4 f13b cb80 f7bc
00000310: 31bf a33c 4766 b4ba aec3 16bb e8cc 36bb
00000320: daab 44bc c367 e3bb 636e 52bb 7715 02bd
00000330: 0789 353d ebeb 553c 341b 2dbd 8f30 5a3b
00000340: 1739 473c 92a6 65bc 8a01 a4bc fda1 92bc
00000350: 3eaa 3d3a a9bc ab3c dfab d0bc bd80 ee3c
00000360: bc7d 83bc 1b97 c2bc b5a1 8fbc 7223 ed3c
00000370: 7325 ab3b 1532 83bc e4b7 2cbd 9f37 b53c
00000380: 230c 083d 60fa 04bc 4299 063d 0eac 983b
00000390: 502c b13c a2f5 15bc f7d4 bd3b 97e4 adbc
000003a0: 40d1 9ebc 9371 45bc 67f1 c43c e7b0 c6ba
000003b0: 3b99 d63b 974c b5bc b309 ec3b 8087 503c
000003c0: 8ccb 34bc bffa 5d3c 5200 b2b9 7f98 e3bc
000003d0: c3c7 37bb 6989 22bd 8dbd 5b3c 6300 73bc
000003e0: c055 843b 4fc9 7cbb 3d91 ae3c 1bc2 94bc
000003f0: 0f88 65bc 4459 a33c 9024 a9ba b59f 99bc

network_body._body_endoder.seq_layers.0.bias f4 [128]
0.0 0.0 0.0 0.0 0.0 0.0 0.0 0.0
0.0 0.0 0.0 0.0 0.0 0.0 0.0 0.0
0.0 0.0 0.0 0.0 0.0 0.0 0.0 0.0
0.0 0.0 0.0 0.0 0.0 0.0 0.0 0.0
0.0 0.0 0.0 0.0 0.0 0.0 0.0 0.0
0.0 0.0 0.0 0.0 0.0 0.0 0.0 0.0
0.0 0.0 0.0 0.0 0.0 0.0 0.0 0.0
0.0 0.0 0.0 0.0 0.0 0.0 0.0 0.0
0.0 0.0 0.0 0.0 0.0 0.0 0.0 0.0
0.0 0.0 0.0 0.0 0.0 0.0 0.0 0.0
0.0 0.0 0.0 0.0 0.0 0.0 0.0 0.0
0.0 0.0 0.0 0.0 0.0 0.0 0.0 0.0
0.0 0.0 0.0 0.0 0.0 0.0 0.0 0.0
0.0 0.0 0.0 0.0 0.0 0.0 0.0 0.0
0.0 0.0 0.0 0.0 0.0 0.0 0.0 0.0
0.0 0.0 0.0 0.0 0.0 0.0 0.0 0.0
00000000: 0000 0000 0000 0000 0000 0000 0000 0000
00000010: 0000 0000 0000 0000 0000 0000 0000 0000
00000020: 0000 0000 0000 0000 0000 0000 0000 0000
00000030: 0000 0000 0000 0000 0000 0000 0000 0000
00000040: 0000 0000 0000 0000 0000 0000 0000 0000
00000050: 0000 0000 0000 0000 0000 0000 0000 0000
00000060: 0000 0000 0000 0000 0000 0000 0000 0000
00000070: 0000 0000 0000 0000 0000 0000 0000 0000
00000080: 0000 0000 0000 0000 0000 0000 0000 0000
00000090: 0000 0000 0000 0000 0000 0000 0000 0000
000000a0: 0000 0000 0000 0000 0000 0000 0000 0000
000000b0: 0000 0000 0000 0000 0000 0000 0000 0000
000000c0: 0000 0000 0000 0000 0000 0000 0000 0000
000000d0: 0000 0000 0000 0000 0000 0000 0000 0000
000000e0: 0000 0000 0000 0000 0000 0000 0000 0000
000000f0: 0000 0000 0000 0000 0000 0000 0000 0000
00000100: 0000 0000 0000 0000 0000 0000 0000 0000
00000110: 0000 0000 0000 0000 0000 0000 0000 0000
00000120: 0000 0000 0000 0000 0000 0000 0000 0000
00000130: 0000 0000 0000 0000 0000 0000 0000 0000
00000140: 0000 0000 0000 0000 0000 0000 0000 0000
00000150: 0000 0000 0000 0000 0000 0000 0000 0000
00000160: 0000 0000 0000 0000 0000 0000 0000 0000
00000170: 0000 0000 0000 0000 0000 0000 0000 0000
00000180: 0000 0000 0000 0000 0000 0000 0000 0000
00000190: 0000 0000 0000 0000 0000 0000 0000 0000
000001a0: 0000 0000 0000 0000 0000 0000 0000 0000
000001b0: 0000 0000 0000 0000 0000 0000 0000 0000
000001c0: 0000 0000 0000 0000 0000 0000 0000 0000
000001d0: 0000 0000 0000 0000 0000 0000 0000 0000
000001e0: 0000 0000 0000 0000 0000 0000 0000 0000
000001f0: 0000 0000 0000 0000 0000 0000 0000 0000

network_body._body_endoder.seq_layers.0.weight f4 [128, 12]
-0.033467308 -0.051255256 -0.45123607 -0.2643329 -0.16308337 -0.09650299 -0.21263331 0.24570453
0.10686167 -0.0856084 0.005263248 0.23855092 0.22170724 0.005157669 0.09301732 -0.033520862
-0.19270459 -0.20164458 0.36549383 -0.043026727 0.22830382 0.14477305 0.15656583 0.11033313
0.29901886 0.2986043 -0.5220394 -0.31389 -0.013482273 0.14280245 0.3099405 -0.292883
-0.26835355 -0.36620197 0.25178793 0.48990571 0.036962803 -0.516875 -0.329541 0.1453337
-0.17692424 -0.03984608 0.1284174 0.731047 0.20527627 -0.13077493 -0.123622745 -0.009254889
0.12152372 0.3356625 -0.29823443 -0.09651188 0.32174033 -0.025819968 -0.07926303 0.12274189
0.069145165 -0.28378126 0.49775136 0.3960346 -0.090281464 -0.011472826 0.17755164 -0.006451544
0.15705824 -0.19966361 -0.1455854 0.13734332 -0.046462394 0.20220245 -0.52780366 0.6172191
-0.7470306 -0.22901195 -0.0029355732 0.12843807 -0.20925179 0.31163904 -0.75631875 -0.33138528
-0.0005850469 -0.02716122 0.48983452 -0.16182184 -0.13239214 0.40595552 0.03484234 -0.12829366
0.44280845 -0.33544564 0.43540603 -0.30457848 0.11470078 -0.5955439 0.25514376 -0.16063023
-0.35231745 0.40943432 -0.32244226 0.021807732 0.30179602 0.18475822 -0.0718359 -0.057446238
0.08699492 0.087642886 -0.079220265 -0.0070988713 -0.4227026 -0.0004313372 -0.25037557 0.5939593
0.038000092 0.06396298 0.5681995 0.034157645 -0.0198297 -0.0033853054 0.3429205 -0.31313995
-0.5027861 0.18670407 0.07855922 0.13460967 -0.30974603 0.19719742 -0.07439405 0.3319748
-0.07292787 0.40991467 -0.31293356 0.50271314 -0.25608128 0.24371916 -0.20563565 -0.28794858
0.08473835 0.5439312 0.12976024 0.3708399 0.026433406 0.17402418 -0.29704273 0.005729958
-0.12022114 -0.20161918 0.1605346 0.04114 0.07403957 0.57073635 0.22051333 -0.2762774
0.88064694 0.1616658 0.028137852 0.1296169 -0.121708974 -0.25326276 0.31477004 -0.027187934
-0.25827396 0.16612905 -0.0057957913 0.013237784 0.021848653 -0.093997866 -0.043517355 -0.0774281
0.07704079 0.040094808 -0.22292306 -0.30731255 -0.030633055 -0.21871693 -0.4105503 0.69827145
0.19262122 0.9861259 0.06483751 -0.18433517 0.055235595 0.01322875 0.5270197 0.011606616
-0.07592679 -0.1667854 0.5679424 0.2756624 -0.18115789 0.20221516 -0.00079154276 0.44982848
-0.091710575 0.25859013 0.06040506 0.32133585 0.62703496 -0.1370916 -0.34364513 -0.10945452
0.19215956 0.13373363 0.62669706 0.29628646 0.55958354 0.5142622 -0.23012748 -0.07302464
0.34363008 0.21893148 0.18722746 0.46625632 0.10846287 -0.17623651 0.20836861 -0.26185176
0.3830141 -0.528845 0.23364528 -0.071284324 0.21302767 -0.043305926 -0.07753305 0.6631186
-0.28877395 -0.21585137 0.27851108 0.43070257 -0.17712955 -0.31012687 -0.036175676 0.23598304
0.36281818 0.038565177 -0.21815737 -0.24380821 0.41847953 -0.7058726 -0.81959826 -0.5966217
0.092404954 0.25121826 -0.22478025 0.2916683 0.044340737 -0.46251035 -0.2244369 0.27180034
0.11384697 0.11811609 -0.063469306 0.3698142 -0.0936795 0.27741477 -0.083027594 0.08306838
00000000: 0415 09bd 08f1 51bd 6a08 e7be a456 87be
00000010: 54ff 26be 5ca3 c5bd 8cbc 59be f899 7b3e
00000020: 4bda da3d 7553 afbd 5377 ac3b b146 743e
00000030: 3907 633e aa01 a93b dd7f be3d 2c4d 09bd
00000040: 5a54 45be eb7b 4ebe 0222 bb3e cb3c 30bd
00000050: 7ac8 693e 633f 143e cb52 203e 56f6 e13d
00000060: 0019 993e aae2 983e 60a4 05bf 31b6 a0be
00000070: c0e4 5cbc ce3a 123e 85b0 9e3e c3f4 95be
00000080: a365 89be d37e bbbe 59ea 803e ecd4 fa3e
00000090: 4f66 173d ec51 04bf 99b9 a8be 5cd2 143e
000000a0: a12b 35be a535 23bd da7f 033e e525 3b3f
000000b0: f133 523e dde9 05be ec2d fdbd d1a1 17bc
000000c0: 6ee1 f83d f5db ab3e 2fb2 98be 05a8 c5bd
000000d0: 26bb a43e 6684 d3bc a854 a2bd 1a60 fb3d
000000e0: fb9b 8d3d c74b 91be 44d9 fe3e 0cc5 ca3e
000000f0: 7de5 b8bd 85f8 3bbc 19d0 353e 7967 d3bb
00000100: e0d3 203e 9e74 4cbe 5714 15be baa3 0c3e
00000110: 5a4f 3ebd 290e 4f3e 241e 07bf 1202 1e3f
00000120: 663d 3fbf 1c82 6abe bf62 40bb 4585 033e
00000130: 1a46 56be 278f 9f3e 1b9e 41bf 55ab a9be
00000140: d55d 19ba 3581 debc 97cb fa3e a0b4 25be
00000150: ce91 07be 67d9 cf3e d7b6 0e3d 6a5f 03be
00000160: cab7 e23e 88bf abbe 8aed de3e b6f1 9bbe
00000170: 3ee8 ea3d 9175 18bf 34a2 823e 407c 24be
00000180: f462 b4be 60a1 d13e 2717 a5be 21a6 b23c
00000190: 0285 9a3e 4231 3d3e b31e 93bd bf4c 6bbd
000001a0: 652a b23d 1d7e b33d 3c3e a2bd a69d e8bb
000001b0: 7a6c d8be 1925 e2b9 3a31 80be b70d 183f
000001c0: fca5 1b3d 06ff 823d 8675 113f e3e8 0b3d
000001d0: e571 a2bc 00dc 5dbb 4793 af3e e153 a0be
000001e0: 97b6 00bf 5a2f 3f3e a8e3 a03d 1ed7 093e
000001f0: 0897 9ebe 1fee 493e e85b 98bd 9af8 a93e
00000200: 355b 95bd 56e0 d13e d438 a0be cfb1 003f
00000210: 161d 83be 8491 793e 2792 52be ff6d 93be
00000220: 4d8b ad3d 133f 0b3f dedf 043e bade bd3e
00000230: df8a d83c 6533 323e fc15 98be 5fc2 bb3b
00000240: 8036 f6bd 4275 4ebe 2f63 243e 6b82 283d
00000250: 0fa2 973d c71b 123f 3fce 613e 3b74 8dbe
00000260: 1472 613f b88b 253e 5a81 e63c 4bba 043e
00000270: 8e42 f9bd a8ab 81be 8a29 a13e 3bb9 debc
00000280: 7c3c 84be bc1d 2a3e 9fea bdbb 4ae3 583c
00000290: f2fb b23c f481 c0bd 413f 32bd a092 9ebd
000002a0: 90c7 9d3d 743a 243d f145 64be 1258 9dbe
000002b0: 2cf2 fabc 55f7 5fbe a633 d2be ebc1 323f
000002c0: 7f3e 453e bf72 7c3f 87c9 843d 5cc2 3cbe
000002d0: b83e 623d 66bd 583c c3ea 063f ad29 3e3c
000002e0: 817f 9bbd cbc9 2abe ac64 113f 9f23 8d3e
000002f0: 7481 39be 7e11 4f3e 897f 4fba eb4f e63e
00000300: c1d2 bbbd ed65 843e 4c6b 773d 2286 a43e
00000310: 5d85 203f be61 0cbe 41f2 afbe b129 e0bd
00000320: 7ac5 443e 78f1 083e 386f 203f dcb2 973e
00000330: de40 0f3f b0a6 033f 8aa6 6bbe f18d 95bd
00000340: 48f0 af3e 932f 603e 8eb8 3f3e 26b9 ee3e
00000350: c821 de3d 5877 34be 955e 553e 6f11 86be
00000360: 6d1a c43e 6362 07bf b540 6f3e 84fd 91bd
00000370: ed23 5a3e 8e61 31bd a6c9 9ebd 24c2 293f
00000380: 2eda 93be 2408 5dbe 0199 8e3e 0c85 dc3e
00000390: 7361 35be f3c8 9ebe f22c 14bd 8aa5 713e
000003a0: 4ec3 b93e 85f6 1d3d a564 5fbe dca8 79be
000003b0: f342 d63e 11b4 34bf 31d1 51bf 33bc 18bf
000003c0: cf3e bd3d ae9f 803e cb2c 66be 8c55 953e
000003d0: a29e 353d 28ce ecbe c9d2 65be 6a29 8b3e
000003e0: 9a28 e93d d9e6 f13d 32fc 81bd 4958 bd3e
000003f0: 0adb bfbd 4f09 8e3e 5f0a aabd c11f aa3d

network_body._body_endoder.seq_layers.2.bias f4 [128]
0.0 0.0 0.0 0.0 0.0 0.0 0.0 0.0
0.0 0.0 0.0 0.0 0.0 0.0 0.0 0.0
0.0 0.0 0.0 0.0 0.0 0.0 0.0 0.0
0.0 0.0 0.0 0.0 0.0 0.0 0.0 0.0
0.0 0.0 0.0 0.0 0.0 0.0 0.0 0.0
0.0 0.0 0.0 0.0 0.0 0.0 0.0 0.0
0.0 0.0 0.0 0.0 0.0 0.0 0.0 0.0
0.0 0.0 0.0 0.0 0.0 0.0 0.0 0.0
0.0 0.0 0.0 0.0 0.0 0.0 0.0 0.0
0.0 0.0 0.0 0.0 0.0 0.0 0.0 0.0
0.0 0.0 0.0 0.0 0.0 0.0 0.0 0.0
0.0 0.0 0.0 0.0 0.0 0.0 0.0 0.0
0.0 0.0 0.0 0.0 0.0 0.0 0.0 0.0
0.0 0.0 0.0 0.0 0.0 0.0 0.0 0.0
0.0 0.0 0.0 0.0 0.0 0.0 0.0 0.0
0.0 0.0 0.0 0.0 0.0 0.0 0.0 0.0
00000000: 0000 0000 0000 0000 0000 0000 0000 0000
00000010: 0000 0000 0000 0000 0000 0000 0000 0000
00000020: 0000 0000 0000 0000 0000 0000 0000 0000
00000030: 0000 0000 0000 0000 0000 0000 0000 0000
00000040: 0000 0000 0000 0000 0000 0000 0000 0000
00000050: 0000 0000 0000 0000 0000 0000 0000 0000
00000060: 0000 0000 0000 0000 0000 0000 0000 0000
00000070: 0000 0000 0000 0000 0000 0000 0000 0000
00000080: 0000 0000 0000 0000 0000 0000 0000 0000
00000090: 0000 0000 0000 0000 0000 0000 0000 0000
000000a0: 0000 0000 0000 0000 0000 0000 0000 0000
000000b0: 0000 0000 0000 0000 0000 0000 0000 0000
000000c0: 0000 0000 0000 0000 0000 0000 0000 0000
000000d0: 0000 0000 0000 0000 0000 0000 0000 0000
000000e0: 0000 0000 0000 0000 0000 0000 0000 0000
000000f0: 0000 0000 0000 0000 0000 0000 0000 0000
00000100: 0000 0000 0000 0000 0000 0000 0000 0000
00000110: 0000 0000 0000 0000 0000 0000 0000 0000
00000120: 0000 0000 0000 0000 0000 0000 0000 0000
00000130: 0000 0000 0000 0000 0000 0000 0000 0000
00000140: 0000 0000 0000 0000 0000 0000 0000 0000
00000150: 0000 0000 0000 0000 0000 0000 0000 0000
00000160: 0000 0000 0000 0000 0000 0000 0000 0000
00000170: 0000 0000 0000 0000 0000 0000 0000 0000
00000180: 0000 0000 0000 0000 0000 0000 0000 0000
00000190: 0000 0000 0000 0000 0000 0000 0000 0000
000001a0: 0000 0000 0000 0000 0000 0000 0000 0000
000001b0: 0000 0000 0000 0000 0000 0000 0000 0000
000001c0: 0000 0000 0000 0000 0000 0000 0000 0000
000001d0: 0000 0000 0000 0000 0000 0000 0000 0000
000001e0: 0000 0000 0000 0000 0000 0000 0000 0000
000001f0: 0000 0000 0000 0000 0000 0000 0000 0000

network_body._body_endoder.seq_layers.2.weight f4 [128, 128]
0.12802848 0.024272844 0.011506205 -0.037506424 0.012431428 -0.12485466 -0.12512797 0.08864246
0.012896878 0.05828105 -0.022601543 -0.060825083 -0.0065421676 0.024931584 -0.03324228 -0.06831296
0.14019182 -0.013369424 -0.049231708 0.046477158 0.05643997 0.078907385 0.049249675 -0.14312392
-0.13880369 -0.099380806 0.031084986 0.07146978 0.20294037 0.015643032 0.0020311726 0.0759005
-0.06597302 -0.012699122 -0.107621744 0.056728244 0.15632768 0.07491372 0.11223458 -0.022859557
-0.04318222 -0.16807233 -0.041044503 0.01158011 0.07926778 0.063246705 -0.033212386 -0.101207465
-0.026725201 -0.048468597 -0.16663244 -0.017413633 0.08185449 0.12215862 0.03876706 -0.0079143485
-0.01183815 -0.13000956 0.21935862 -0.06773728 0.02659365 -0.07451012 0.010182277 -0.040713627
0.08656999 -0.07275856 0.011037518 0.06391886 -0.018363567 -0.0008629211 0.07518617 -0.12067598
0.06050346 -0.05295842 -4.021724e-05 -0.12176993 0.0010372797 0.062019493 0.043386605 0.08578304
-0.007986894 -0.0022381803 -0.13311252 0.046469383 -0.12174697 -0.21041197 0.057253618 0.1237793
-0.034419183 0.08978736 0.06709649 -0.05854349 0.13274807 -0.01821192 0.047842853 0.028605012
-0.0728432 0.18716909 -0.082496606 -0.057807658 0.019399373 -0.06613969 -0.023477873 0.007039493
0.002669828 0.0803758 -0.11441217 0.029882722 0.07123106 -0.07755763 -0.06847828 0.06500333
0.016413018 0.040661294 0.028214999 -0.047009226 0.07309869 0.08950799 -0.07919973 0.009379137
0.06410134 -0.10889421 -0.08494058 -0.08048375 -0.018456098 0.055920642 -0.068598114 -0.13504411
0.16778705 0.06873767 -0.032598224 0.13647208 -0.11711473 0.0060877474 0.011974354 0.09314554
-0.0015179194 0.043112513 0.05427818 0.065878965 0.0073219873 -0.044884827 0.044807088 0.21314502
0.026772471 0.0019239626 -0.1608818 0.0032316349 0.045311097 -0.008567284 -0.03364369 0.1402202
-0.02150749 -0.09055441 0.009964319 -0.033734698 0.047323946 -0.027722763 0.01519446 0.020887202
-0.09473334 0.022688344 0.014330593 -0.14599542 0.01958674 0.005876089 0.12589356 -0.07862409
-0.03224874 0.06779774 -0.0060707773 -0.018697724 0.084367976 0.16733786 0.25435853 0.07995444
-0.0816877 -0.054633215 -0.19881698 -0.033969585 0.15221679 -0.041548528 -0.02488426 -0.13011122
0.058828887 -0.013395715 -0.15599307 -0.06333466 0.062330183 0.08250196 -0.10157321 0.05233324
0.013106778 -0.04758572 0.03127039 -0.0917945 0.22227716 -0.120559074 0.15122072 0.11515591
0.10167597 -0.009769121 0.034785096 0.058521774 -0.062491648 -0.008775706 -0.07383472 0.014831119
0.08645683 0.07918244 0.02175203 0.025485165 0.06373519 -0.0048826714 -0.035923045 -0.02990273
-0.02486551 -0.037462354 0.15170276 0.031530056 -0.0873606 -0.07709142 0.005722483 -0.053984914
-0.078195184 -0.0658338 -0.081829414 0.02758178 -0.058955733 -0.05444897 0.041252602 -0.019492956
0.11169875 0.06699215 0.0010888814 0.04513587 -0.08320796 0.101875454 -0.0023550512 -0.1545452
-0.11460223 0.027542923 -0.11291496 0.07690939 0.10157236 0.16568686 0.1319825 -0.028542308
0.05994948 -0.0011289379 -0.004963524 -0.047828212 0.036994703 -0.015533412 0.15847318 -0.057263725
00000000: e619 033e d8d7 c63c 8684 3c3c 56a0 19bd
00000010: 30ad 4b3c cdb3 ffbd 8c21 00be 2e8a b53d
00000020: 6d4d 533c 1cb8 6e3d df26 b9bc b923 79bd
00000030: ae5f d6bb 523d cc3c 0f29 08bd aae7 8bbd
00000040: 728e 0f3e 6e0b 5bbc 30a7 49bd d55e 3e3d
00000050: 992d 673d 329a a13d 07ba 493d 148f 12be
00000060: 8e22 0ebe 2a88 cbbd f1a5 fe3c bf5e 923d
00000070: 9acf 4f3e d125 803c 6c1d 053b b971 9b3d
00000080: dd1c 87bd fa0f 50bc ca68 dcbd e05b 683d
00000090: 5d14 203e 5d6c 993d 3edb e53d f743 bbbc
000000a0: d7df 30bd 271b 2cbe 481e 28bd 80ba 3d3c
000000b0: 2557 a23d 7d87 813d b609 08bd dc45 cfbd
000000c0: cfee dabc 0287 46bd b2a1 2abe 09a7 8ebc
000000d0: 54a3 a73d 4c2e fa3d 35ca 1e3d 2fab 01bc
000000e0: cdf4 41bc 3a21 05be 8c9f 603e d8b9 8abd
000000f0: edda d93c c398 98bd 91d3 263c 55c3 26bd
00000100: 9b4b b13d 7102 95bd b5d6 343c e4e7 823d
00000110: 316f 96bc a835 62ba 35fb 993d f824 f7bd
00000120: 7ad2 773d eeea 58bd efae 28b8 8362 f9bd
00000130: 55f5 873a 2708 7e3d 27b6 313d 05af af3d
00000140: 76db 02bc 6fae 12bb a64e 08be ae56 3e3d
00000150: 7a56 f9bd 3c76 57be c582 6a3d 0080 fd3d
00000160: 21fb 0cbd 6fe2 b73d e269 893d 4ccb 6fbd
00000170: 1cef 073e 2a31 95bc def6 433d 0f55 ea3c
00000180: d12e 95bd 41a9 3f3e fbf3 a8bd b9c7 6cbd
00000190: 6feb 9e3c 3f74 87bd ab54 c0bc 8cab e63b
000001a0: 48f8 2e3b 119c a43d ee50 eabd 9ccc f43c
000001b0: 97e1 913d 89d6 9ebd 573e 8cbd 7720 853d
000001c0: 9874 863c 758c 263d 2423 e73c bf8c 40bd
000001d0: c4b4 953d f74f b73d 7833 a2bd f4aa 193c
000001e0: 9047 833d ed03 dfbd 54f5 adbd aad4 a4bd
000001f0: 3e31 97bc 0b0d 653d 2b7d 8cbd 0149 0abe
00000200: 5ed0 2b3e 56c6 8c3d b785 05bd 56bf 0b3e
00000210: d9d9 efbd ba7b c73b 1530 443c 17c3 be3d
00000220: ecf4 c6ba bf96 303d cc52 5e3d 8deb 863d
00000230: 48ed ef3b 27d9 37bd a387 373d b042 5a3e
00000240: f151 db3c 792d fc3a 33be 24be d6c9 533b
00000250: 2198 393d cb5d 0cbc f7cd 09bd e295 0f3e
00000260: 7a30 b0bc 9774 b9bd 6241 233c 652d 0abd
00000270: c1d6 413d d91a e3bc 2ff2 783c a31b ab3c
00000280: 8e03 c2bd e8dc b93c ddca 6a3c d37f 15be
00000290: 5f74 a03c 358c c03b 3eea 003e ab05 a1bd
000002a0: 4117 04bd 8bd9 8a3d 5fed c6bb f82b 99bc
000002b0: 1ec9 ac3d 9e5a 2b3e 483b 823e 27bf a33d
000002c0: e14b a7bd 14c7 5fbd ae96 4bbe b123 0bbd
000002d0: b8de 1b3e ca2e 2abd 13da cbbc e03b 05be
000002e0: 8ff6 703d b379 5bbc a6bc 1fbe 9ab5 81bd
000002f0: ef4d 7f3d caf6 a83d 9d05 d0bd 615b 563d
00000300: d0bd 563c 3ee9 42bd 6115 003d c1fe bbbd
00000310: a09c 633e ade7 f6bd 9bd9 1a3e ddd6 eb3d
00000320: 7e3b d03d aa0e 20bc d17a 0e3d 87b4 6f3d
00000330: 3ef7 7fbd fbc7 0fbc a836 97bd 39fe 723c
00000340: 4710 b13d 672a a23d 5031 b23c 44c6 d03c
00000350: 9887 823d d1fe 9fbb 0b24 13bd 92f6 f4bc
00000360: c1b2 cbbc 2072 19bd f857 1b3e a925 013d
00000370: 1dea b2bd 1be2 9dbd ab83 bb3b 491f 5dbd
00000380: cc24 a0bd dfd3 86bd 2e96 a7bd 2ff3 e13c
00000390: 917b 71bd e205 5fbd 7df8 283d b1af 9fbc
000003a0: 50c2 e43d 2e33 893d ccb8 8e3a 64e0 383d
000003b0: ef68 aabd 14a4 d03d 3457 1abb 1941 1ebe
000003c0: 93b4 eabd b2a1 e13c f53f e7bd ac82 9d3d
000003d0: 2b05 d03d d1a9 293e 6c26 073e 8fd1 e9bc
000003e0: 968d 753d dff8 93ba 0fa5 a2bb 84e7 43bd
000003f0: c287 173d da7f 7ebc cb46 223e 5e8d 6abd
