results/jugglingRobotV1/JugglingRobotV1/JugglingRobotV1-18840.onnx (onnx, 74695 bytes, 7 tensors)

action_model._continuous_distribution.log_sigma f4 [1, 3]
00000000: 0634 41bb 2e94 093b a88f d73b
-0.0029480471 0.0020992863 0.0065784045

action_model._continuous_distribution.mu.bias f4 [3]
00000000: 901b 0439 62ef 99b9 e4ef 9639
0.00012598769 -0.00029360788 0.00028788962

action_model._continuous_distribution.mu.weight f4 [3, 128]
00000000: 360c 213b f923 cbbb 8cfa 21bb 8c07 a23c
00000010: 38f1 833a 4320 28bc adf9 783b a5f3 953b
00000020: 820d 573c fe2c 983a a0e8 653c 63dc 31bc
00000030: 6a84 1cbc 1233 72bc cf9f 99bc 2be2 33bd
00000040: d8eb a5bc 5a16 003d 4269 ad3c 6aa5 523c
00000050: edad d8bc 90a4 8a3b 8fe9 b03c a3ce 5a3c
00000060: 3dc4 c23c e733 0f3d 61b2 9f3c fbd0 b7bc
00000070: 855d c63c d615 103d 29ab 99bc 6006 5f3c
00000080: 58e4 13bc 581f 203d 76d5 5abb a8a8 3d3b
00000090: 7992 d0bc b866 cabc 954f 8e3c 77c5 b93b
000000a0: cc3d 0fbc 387b 9a3b f501 06bd b973 37bc
000000b0: 8f16 babb c2c4 d03b f5cf 87b9 2eaf 6d3c
000000c0: 3018 3c3b 78b7 97bc 82e7 fb3c 9a0b b6bc
000000d0: cce9 11bb d01a e83c 476c cebb f2cb f13a
000000e0: c14d 8abb 140b 683a e954 bd3b 6ac0 9a3a
000000f0: 4549 12bc 6de9 2b3d cb52 39bc 31fe e1ba
00000100: 8cf0 47bb ea92 123c 2455 cbba 0e1e 823c
00000110: 5433 8d3c 4d1f 43bc ac07 763c 4685 20bb
00000120: eaf6 ef3a e273 fd3b 2497 fb3b 2325 af3c
00000130: d1d8 6abb 55f8 663c e5cb c4bc 0c9d 853c
00000140: 0382 0ebd 35f4 14bb bb45 65bc cb1e cf3c
00000150: 5238 c439 9f70 80bc c2c1 b9bc 51d6 fd3b
00000160: d8f9 d13c 5b14 7ebc d097 8dbc 7d6e 663b
00000170: a683 b0bc a29a b23c 11ca 2f3c c845 7e3c
00000180: 7cc5 363c 8161 93bc ce6e 93bc 8d2c 593c
00000190: 702d 55ba 3065 a1bc 940b 8b3c 1568 ac3c
000001a0: f65b 00bc bc69 c6bb fa0a 19bc 7e7b 6c3c
000001b0: 6c1a 183b 37b4 87bc 6495 ec3c 39ce f8bc
000001c0: e7b4 403b 32f1 ad3b 0bf9 b8bc a569 ee3c
000001d0: ff0e 9abb 04a6 013c 5e31 df3b 8068 adbc
000001e0: f59f efbb 274d d83c 69f9 a03c 3931 7abb
000001f0: 0839 733c 4997 dd3c 2152 55bc 63c3 26bc
00000200: dd2c debb 2289 cc3b 7cbf 843c 0d2a 963b
00000210: 6384 983c e1a3 1f3c be13 d9bc f9c9 8a39
00000220: a4f3 a43c 59f2 b0ba f254 9c3c f1e2 173c
00000230: 96a0 25bb a3ed f13b d6b2 0b3c 88d6 e03c
00000240: 9b53 b6bc 9303 513c 7558 963a 5536 c33b
00000250: b6b8 8ebc d095 c83a bdac 24ba 9380 a03c
00000260: 1c67 473c 63bd 5a3c 0077 82bc 2832 f539
00000270: b6d6 953c 0e86 10bc 3c17 eabc 92fa a5bc
00000280: 1caa 2ebb 21ac 1c3d b39d e2bb 89d4 e1bc
00000290: 7bbf ef3c f09f 0f3a 2ffb 0a3d eae0 f43b
000002a0: 8729 de3c 55ab 193d f5a6 4839 f9ea ce3b
000002b0: d618 6c39 30e6 38bc 16e7 9fbc e185 1dbc
000002c0: b83a 92bc 4d50 e33b 5ea4 91bc 026e 093c
000002d0: 214e 38bc b7f3 f1bc 899e 04ba cb51 7e3c
000002e0: 376f 2fbc 26f0 b93b 6292 6bbc e5fb c13c
000002f0: 2ec5 22bc 672a 87bc 7cd1 53bc 16b2 f43b
00000300: 296e 82bb cb94 aa3c 438b 803b 0832 8abc
00000310: f771 d23b 40a5 24bb 06ca b73a b804 423c
00000320: af14 31bd 8625 413c c287 ca3c 4f5a 10bb
00000330: 1c8b b9bc 8066 f8bb 0ad9 8dbb f58f 593c
00000340: 667a 5ebc 2e77 a9bc 0974 e0bb 4611 ad3c
00000350: 1541 fe3a 7201 15bc 9750 953b 43bb 10bc
00000360: 2b22 153d 1477 0fbd 6750 bf3b 5921 793c
00000370: 9c99 55bc c073 77bc 6862 bdbc d069 d5bc
00000380: 07dd 813c ee2c 403b 68ff 373c 1b8d e43b
00000390: d554 c4bc 3dc2 733c bc1e 9c3c 0666 5abc
000003a0: 43ae 07bc 68a8 84bb 4ed1 b33c 9ad9 80bc
000003b0: e411 3e3c 573c fe3c 348e a4bc 6b6a 8dbb
000003c0: 11fc c6bc f216 763a a4fe 0c3b eb3f 0ebb
000003d0: ba54 5b3c bd34 7bbc 1a23 e33c feb4 35bb
000003e0: c245 a4bc 81f2 c33b 632c ed3c d11a 973b
000003f0: 9c54 0b3d 2338 d9bb 38f0 29bb 6c97 703a
0.0024573929 -0.0061993566 -0.0024715988 0.01977899 0.0010066396 -0.010261598 0.0037990615 0.004576164
0.013125779 0.0011610088 0.014032513 -0.010855767 -0.009553054 -0.014782684 -0.01875296 -0.043916862
-0.02025406 0.031271316 0.021168355 0.012856821 -0.026450122 0.004231043 0.021595744 0.01335493
0.023775214 0.034961607 0.019494237 -0.022438517 0.024214515 0.035177074 -0.018758373 0.01361236
-0.009026609 0.03909239 -0.0033391393 0.0028939638 -0.025460469 -0.024707183 0.017371932 0.0056692916
-0.008742761 0.004714396 -0.03271671 -0.011197024 -0.0056789587 0.0063711116 -0.00025904147 0.014507098
0.002870094 -0.018520102 0.03075004 -0.022222329 -0.0022264598 0.028333098 -0.0062995288 0.0018447621
-0.004220695 0.00088517484 0.0057779443 0.0011806611 -0.008928602 0.04197066 -0.011311243 -0.0017241893
-0.0030508367 0.00894616 -0.0015513045 0.015883472 0.01723639 -0.011909318 0.015016478 -0.00244935
0.0018307839 0.0077347616 0.0076779295 0.021380013 -0.00358348 0.014097293 -0.024023006 0.016310237
-0.034791958 -0.0022728567 -0.013993676 0.025283238 0.00037425995 -0.015678702 -0.022675399 0.007746496
0.02563183 -0.015507783 -0.017284304 0.003516107 -0.02154715 0.02180225 0.010729329 0.015519567
0.011155482 -0.01799083 -0.017997172 0.013255251 -0.0008132076 -0.01970157 0.016973294 0.021045724
-0.007834425 -0.006055085 -0.009340996 0.01443374 0.0023209108 -0.016565425 0.028879829 -0.030371772
0.0029404701 0.0053082937 -0.02257969 0.02910311 -0.0047014947 0.007913116 0.006811305 -0.021167994
-0.0073127695 0.026403977 0.019650178 -0.0038176312 0.01484514 0.027049677 -0.013020069 -0.01017842
-0.0067802505 0.0062419334 0.016204588 0.0045826496 0.018617814 0.009743662 -0.026498672 0.00026471892
0.020135708 -0.001349996 0.019083474 0.009270416 -0.0025272719 0.007383065 0.0085265245 0.027446046
-0.022256663 0.0127572 0.0011470454 0.0059574046 -0.017422061 0.0015303437 -0.00062818435 0.019592559
0.012170579 0.013350817 -0.015925884 0.0004676741 0.018290859 -0.008821024 -0.028575532 -0.020261083
-0.0026651686 0.038250092 -0.006915772 -0.027567165 0.02926611 0.00054788496 0.033930954 0.007473101
0.027119411 0.03751691 0.00019135683 0.006314632 0.00022515966 -0.01128535 -0.01951937 -0.009614439
-0.017850265 0.006937063 -0.017778572 0.008388044 -0.011249096 -0.029535158 -0.0005059024 0.015522431
-0.010707668 0.00567438 -0.014378162 0.023679683 -0.009934707 -0.016499711 -0.012928363 0.0074675186
-0.0039804173 0.020822903 0.0039228513 -0.01686956 0.006422277 -0.002512291 0.0014022 0.011841945
-0.043232616 0.011788731 0.024722937 -0.0022026484 -0.02264934 -0.0075805783 -0.0043288516 0.013278951
-0.013578987 -0.020686712 -0.00684977 0.0211264 0.0019398058 -0.009094583 0.004556726 -0.008833709
0.03640954 -0.03502567 0.005838442 0.015205705 -0.013037112 -0.015103281 -0.023118213 -0.026051432
0.015852464 0.0029323655 0.011230327 0.006974829 -0.023966232 0.014877853 0.019057624 -0.013329988
-0.008281293 -0.004048396 0.02195039 -0.01572876 0.011600945 0.031034632 -0.020087339 -0.0043156645
-0.024290117 0.00093875744 0.0021514082 -0.0021705579 0.0133869 -0.015332398 0.027726699 -0.0027726288
-0.020052794 0.0059798365 0.02895183 0.004611351 0.034016237 -0.0066290065 -0.0025930535 0.0009177837

network_body._body_endoder.seq_layers.0.bias f4 [128]
00000000: 76f1 b039 d5bf d3b9 3c9d 033a 2189 6a3a
00000010: d48b d8b7 0b4a 1f3a 6ce6 fd3a 0583 63b9
00000020: 6d96 0bbb 578a 653a 32b6 8bb9 6930 34ba
00000030: 929b edb9 6b8e 103a 057b 87ba 89c2 de3a
00000040: 85c2 7b3a 1f91 90b9 ac8b be39 a770 313a
00000050: ce3e 08ba 8664 1bba bb2d e4b9 a617 a2ba
00000060: fb22 63b9 7795 fa3a b1c6 64ba 00eb c8b7
00000070: 79ee 043a 23b3 963a 96c1 ce39 3422 39ba
00000080: 30f4 873b 4b44 963a e3f8 d837 1db6 1a3a
00000090: f2a0 6dba 5e6d e739 dd98 c23a 7a5b a8b9
000000a0: b0a4 853a f8bb 77ba 0e76 bb3a 17c5 44ba
000000b0: 6d16 f83a 1eb2 c8b9 4f7e 953b c934 aeba
000000c0: add4 bfba cc38 25ba a7e9 e4b9 378d da39
000000d0: 37a0 3b3b f4e3 dab8 455d 3bba 48a1 5bba
000000e0: 78ac 44ba 386a 88b8 5c08 bbba eb3b 753a
000000f0: f4f5 d6ba eff6 6b3a 3639 8db8 0afe 2ab9
00000100: fc3c e639 0641 073b 1a28 9139 d45a 15bb
00000110: 48e5 d73a eb05 d5ba 01f6 b139 fb56 413b
00000120: 4145 dd39 b19f 3e38 73f9 4db9 2fa6 ae3a
00000130: 87d1 b53a 2920 133b 64cf a7b9 26ea 39bb
00000140: d2a6 0aba 0615 a0ba 982a 403a 8388 0739
00000150: c7e3 b83a bc23 2dba 6ef8 b13a 6615 70b9
00000160: 5205 4f3a 1361 cc39 8dfe 5e38 b3b2 4bba
00000170: 8580 8538 5018 8bba 8fbd 283b c0ee 78b9
00000180: a2ca 49ba d814 04bb e988 163a 3729 86ba
00000190: cc2b c9b8 ad32 8c39 1889 053a afa1 76ba
000001a0: 35d0 34ba 4427 0eba 489e b7ba b7e3 10ba
000001b0: 0f6f 6c3a b591 73ba 0881 1f39 5ca3 3f3b
000001c0: cc27 0e3a 0f15 9dba b745 d0b9 e4d0 23bb
000001d0: 0a2b cdba 8bcc 8639 e92a c1b9 74b2 56bb
000001e0: 390d 9b3a 012b 58b9 304d 8eba a5c7 a339
000001f0: 977a 3a3a 86ca b23a 5409 e3ba 625c 0eba
0.00033749238 -0.00040387982 0.0005020683 0.00089468254 -2.5814319e-05 0.0006076402 0.0019371039 -0.00021697216
-0.0021299378 0.0008756271 -0.00026647892 -0.0006873669 -0.00045320072 0.0005514386 -0.0010336345 0.0016995232
0.0009603876 -0.00027573944 0.00036343688 0.00067688007 -0.0005197347 -0.000592776 -0.0004352162 -0.0012366667
-0.00021661438 0.001911803 -0.0008727117 -2.3951288e-05 0.00050709356 0.0011497479 0.00039435615 -0.00070622866
0.0041489825 0.0011464445 2.5865103e-05 0.0005901771 -0.0009064815 0.00044141238 0.0014846582 -0.00032111612
0.0010196175 -0.0009450312 0.0014302151 -0.00075061753 0.0018927582 -0.0003827968 0.0045621763 -0.0013290878
-0.0014635526 -0.0006302714 -0.00043661633 0.00041685413 0.002862943 -0.000104375096 -0.0007147382 -0.000837822
-0.00075025065 -6.50477e-05 -0.0014269459 0.0009354937 -0.0016400204 0.00090013345 -6.73406e-05 -0.000163071
0.00043914455 0.0020638122 0.00027686433 -0.0022789733 0.0016471529 -0.0016252374 0.00033943358 0.0029501307
0.00042204003 4.5448254e-05 -0.0001964325 0.0013324673 0.0013871648 0.002244959 -0.0003200724 -0.0028368323
-0.00052891404 -0.0012213297 0.0007330566 0.00012925458 0.0014105969 -0.0006604751 0.0013578066 -0.00022896155
0.0007897216 0.00038982238 5.3165993e-05 -0.00077704637 6.365873e-05 -0.0010612104 0.0025747751 -0.00023740064
-0.0007697736 -0.0020154025 0.0005742447 -0.0010235672 -9.592585e-05 0.00026740637 0.0005093976 -0.0009408248
-0.00068974803 -0.0005422721 -0.0014008963 -0.0005527096 0.00090192346 -0.00092914264 0.0001521149 0.0029241657
0.00054228003 -0.0011984425 -0.00039724793 -0.0024996335 -0.0015653085 0.00025710868 -0.000368438 -0.0032760175
0.0011829502 -0.00020615385 -0.0010856744 0.0003123853 0.0007113604 0.0013640679 -0.0017321506 -0.0005430636

network_body._body_endoder.seq_layers.0.weight f4 [128, 9]
00000000: fabf 553f 9fc0 c1bd 273d a03c 07e5 fa3e
00000010: f45f 063f fde6 123b 60e9 afbe 1738 ca3e
00000020: ffb4 733e a171 71bb d15a ad3d 6667 373e
00000030: 5332 2a3f d4c5 a93d 32f1 06bf ba5b ca3d
00000040: 53c2 68be 8226 f53c bea7 09be 8d9b 19bc
00000050: 5e74 49be 1493 263f 1c96 88bd 2663 223e
00000060: 376f 50bd 2f07 7bbe d1a8 01bd 8b26 243e
00000070: 5508 8f3e fef5 03bc e393 1abe 6335 e7bd
00000080: 1f24 c6bc dcd0 53bd 4cb0 d13e 5a0b 383e
00000090: 6a0e ae3e 3f24 a7be bbce f7be aa11 9c3d
000000a0: 111f 083f 916b 35be 063e 71be e455 cd3e
000000b0: 5a32 febd be6c 32be 059a 913e bd0d 34be
000000c0: 0967 08be 1bea 77be c7a7 6f3d 014a 873d
000000d0: 54f2 9e3e cf6f 063e 70fc f43d 76cc 183e
000000e0: 10e2 953e 2a1e 0cbe 81ac 07be 7a31 7e3d
000000f0: a79f 04be f692 0fbd d584 b8bc dee2 593d
00000100: 95d7 0abf f494 5c3d 7948 dfbd 6f6d b2be
00000110: 63e6 b23e 5316 c2bd df1f dcbd a8f9 a5be
00000120: f176 ac3e 413c 24be db31 8abb be1e b2be
00000130: f9f8 803c 7631 0dbe 40a8 94be 58f2 ff3d
00000140: bee6 d3bd 14ac ddbe 7e73 b6bc 41e8 be3e
00000150: a03f 14be 722e f53e 6cd4 1abe f78c 0dbe
00000160: 187e dabe d8dc 313e b3ae 293e 0c7b d63e
00000170: 300f 993b a43e c53e e27f 38be ec8c d4be
00000180: 365a 2fbe e422 133d bd06 a0be de3d 34be
00000190: dad7 1f3f b238 383e f244 50be 75a4 3a3e
000001a0: d144 1a3f f94c 963d b450 e9bd d564 6cbe
000001b0: 6361 54be 2464 ca3d b328 0ebf 0c4d 1fbe
000001c0: 98c8 b13e 31f8 d8be 77ab 50bf 8a24 6dbd
000001d0: d0ec 2a3e 7e36 f93e 021e 933d 9e07 443e
000001e0: 19d3 1b3d 6b82 193e 19ad 5fbd 1b9e 52bf
000001f0: 464a 58be 1591 213e 60dd 91be 32f5 efbd
00000200: 4605 d0be 1f82 5ebd b970 dcbe 3caa dfbe
00000210: 8f6b 08be 41b6 d33e 174f 203e 57ab 08be
00000220: 439b d43d f4a0 b7be 39ed 033d d2e9 8cbe
00000230: e91c 8f3e 8fd5 223c a216 83be b6d0 7cbe
00000240: 068e 03be 93e4 0cbf 9efb 8c3e bfdf a2be
00000250: 120c 6bbe 3f88 8b3d 66dc e0be c4eb a1be
00000260: e9a6 a13e 7f6b 0abe 53fa 6e3d 28cd 223f
00000270: 8e6e 9c3e 21dd 04bf f5f5 49be 6ae2 ed3e
00000280: b2b7 823e 8c2c 0b3e 8a7d 003e 4ee2 973c
00000290: 3f9b b03e 47a4 44be 1d34 cf3e 4715 0dbe
000002a0: bbaa a6be 979e 623e 9919 073f 7fcf dcbe
000002b0: b713 1fbf eb13 db3d cdda f8be d3f0 f53e
000002c0: d7f2 fdbe 94c3 e4bd 7cca e2bd 43a5 ce3e
000002d0: 28c3 d83d 75e6 91be d4e2 063e 8d96 8b3d
000002e0: 8d7b e73e 052f 9dbd a75f b9be 57bb db3e
000002f0: 3e45 843e 604f 853e 3d07 a4be f913 a33d
00000300: c3d0 1c3e 7b19 64be 421a 79be 90fd ba3e
00000310: f40d ffbd 4e6c 2a3e 2326 e13d 0f3a b43e
00000320: 4b03 4fbe 3363 db3e c483 ff3d 2210 ecbd
00000330: 8c77 5e3d 044f 9ebe e13a 63be 6cc8 32bf
00000340: c532 2f3f 9681 14be ac65 ca3e 4ae3 db3e
00000350: 3c72 113d 592b 86be 48ec 353e 3ded f13e
00000360: 3d52 043d fbf8 1abe 38f3 f5be 41b9 73be
00000370: 0bee 48be 27ea babd 927a 03be 7d80 dbbe
00000380: ca53 af3e 1641 19bf faa3 743e d9ca eabd
00000390: 016d 793e 585d 8fbe f6e0 443f 18fc cebd
000003a0: 4548 f4bc ea66 243f bd54 143f 348a 283e
000003b0: 55cc 9f3e 5717 a73e 48bd 253e a808 64bd
000003c0: db42 fabd 2d98 91be 063f 27bf c4e6 adbc
000003d0: 92f3 9e3e 4694 173e 14c5 a1be 4b5b b8bd
000003e0: 27a5 0f3c a345 973e 5a34 91be 90fe 01bf
000003f0: ba51 393e db74 f9bc 76b5 153e ca3e 3b3e
0.8349606 -0.09460568 0.01956041 0.4900286 0.5249016 0.0022415512 -0.34357738 0.39495918
0.23799513 -0.003684141 0.084645875 0.17910537 0.6648304 0.08289686 -0.52711785 0.09880777
-0.22730379 0.029925589 -0.13442895 -0.009375465 -0.19673297 0.65068173 -0.06669256 0.15858135
-0.050887313 -0.24514459 -0.031655136 0.16030328 0.27936044 -0.008054255 -0.15095477 -0.112894796
-0.024187146 -0.051712856 0.40954816 0.1797308 0.33995372 -0.3264484 -0.4839991 0.07620557
0.53172404 -0.17716815 -0.23558816 0.40104592 -0.124119475 -0.17424294 0.2843782 -0.17583366
-0.13320555 -0.24210398 0.058509614 0.06605912 0.31044257 0.13128589 0.11962211 0.14921746
0.29274035 -0.13683382 -0.13249399 0.062058903 -0.12951528 -0.035052262 -0.022524277 0.053194873
-0.542352 0.05385299 -0.10902495 -0.34849116 0.34941396 -0.09476914 -0.107482664 -0.32417035
0.33684495 -0.1603861 -0.004217369 -0.3478908 0.01574372 -0.13788399 -0.29034615 0.12497395
-0.10346745 -0.43295348 -0.022271868 0.3728657 -0.14477396 0.47886997 -0.15120095 -0.13823305
-0.42674327 0.17369401 0.16570549 0.41890752 0.004671 0.38524354 -0.18017533 -0.41513765
-0.17124256 0.035921946 -0.3125514 -0.17601725 0.6243874 0.17990378 -0.203388 0.18226798
0.60261256 0.073389 -0.11392346 -0.2308534 -0.20740275 0.098823816 -0.5553085 -0.15556735
0.34723353 -0.42376855 -0.81511635 -0.057896174 0.166919 0.48674387 0.07183458 0.1914353
0.038043115 0.14991157 -0.05460844 -0.822725 -0.21122083 0.15778 -0.28489208 -0.11716689
-0.40629023 -0.054323312 -0.4305475 -0.43684566 -0.1332228 0.41349986 0.1565517 -0.13346611
0.10381176 -0.35864985 0.032208655 -0.2752214 0.27951744 0.009938612 -0.25603205 -0.24688992
-0.12847146 -0.55036277 0.2753572 -0.3181133 -0.22953823 0.06813096 -0.4391815 -0.31625187
0.31572655 -0.13517569 0.058344197 0.63594294 0.30553097 -0.51899916 -0.19722731 0.46461803
0.25530773 0.13591212 0.1254789 0.018540528 0.34493443 -0.19203292 0.40469447 -0.13777648
-0.32552132 0.2213081 0.52773434 -0.43127057 -0.6213946 0.106971584 -0.48604432 0.48035297
-0.49599335 -0.11170116 -0.11073777 0.4036046 0.10584098 -0.28496137 0.13172466 0.06815825
0.4521145 -0.07674984 -0.3620579 0.42916366 0.25834078 0.2603712 -0.32036772 0.07962794
0.15314011 -0.22275345 -0.24326423 0.36521578 -0.12453833 0.16642877 0.10993602 0.35200545
-0.202161 0.4284912 0.12476304 -0.115265146 0.054313228 -0.3091966 -0.2219043 -0.6983707
0.68436843 -0.14502558 0.39530694 0.42946845 0.035509333 -0.26204947 0.17765915 0.4725131
0.03230499 -0.15134041 -0.48037124 -0.23801138 -0.19622056 -0.09126692 -0.12839726 -0.42871466
0.34243613 -0.5986494 0.23890677 -0.11464471 0.24357988 -0.28000903 0.76905763 -0.10106677
-0.029819617 0.64219534 0.579418 0.1645897 0.3121058 0.32634994 0.16185486 -0.055672318
-0.12219783 -0.28436413 -0.6533054 -0.021228202 0.31045204 0.14802656 -0.3159567 -0.09001788
0.008767403 0.29545316 -0.28360254 -0.50779057 0.18097582 -0.030451229 0.14620003 0.18285671

network_body._body_endoder.seq_layers.2.bias f4 [128]
00000000: 8b7a 23b9 9f72 8fba 814e 5a3a 230b 79b9
00000010: 072c 03ba 072e 8f3a 7642 7839 6004 0cbb
00000020: b8b5 e2b9 f6c0 3bba 1650 7cb9 2a12 45ba
00000030: 0b18 c6b9 2809 ebb9 a24a 0138 afeb fb3a
00000040: effe efba e7a2 a5ba 7168 5bb6 c40f d4b9
00000050: e286 e0ba 5424 ddba 6461 0038 68bb 61ba
00000060: 4d1e 91ba f7b8 e93a c730 7739 0061 e239
00000070: 0e17 d23a f836 8d39 2c70 65b9 31d1 343a
00000080: b974 cfb9 c433 653a 9003 84ba 2c54 78ba
00000090: 2df4 3d39 bbd6 fcb9 ddf2 57b9 1fcd 6b37
000000a0: b02e 67ba 0181 90b9 53b9 68b9 bafc 9139
000000b0: 6ca3 9f3a 72a5 3039 83b0 4eb9 75f7 1e39
000000c0: 02a2 fe38 0ce0 7039 c62c af37 0906 aeb9
000000d0: c135 723a b546 8739 b54d 6cba edbb b3ba
000000e0: ab6e fd3a 1c6e d3ba 98ac 3339 06cd 51b8
000000f0: 4ac0 d53a 5e88 5ebb eabe a5b9 a1c2 c735
00000100: 89cc b6ba 83bc 62bb a6dc 0b3a 3698 883a
00000110: bab1 48ba 15d4 fcb9 e810 f439 d5f2 d6ba
00000120: 8268 893a fcae bcb9 ddbd 41b7 7186 8439
00000130: 1a18 06b8 c739 3cba 5ef3 fab8 839b f2ba
00000140: f063 ceb9 fb5f 96b9 43be a538 f41c 07ba
00000150: fd0e b5ba 8176 4cba 2a0c edb8 305b b8b9
00000160: a058 70ba 9ade 443a e88a 07bb 9ab2 94ba
00000170: bf69 32ba 92e8 293a 6f7e 2e39 9f36 f039
00000180: 337a a33a c4fc e339 e9d2 e4ba 9fc6 5c39
00000190: 9f1e e0ba 2ecb c2b9 6a85 3aba eed9 17ba
000001a0: 11ca f0b8 6238 6039 305a 1939 a6bd 2fbb
000001b0: d4b5 8a39 4072 ae38 bf69 abb9 8c55 7537
000001c0: 13ef 5239 285b 4dba e9bd f2b7 9306 8bba
000001d0: bb36 4dba dfec d3ba c14f bcba 51c1 10bb
000001e0: f03a a63a 739c e338 25b6 e037 eedd 383a
000001f0: afa6 93ba 9a72 6239 0bc7 99ba 35af 303a
-0.00015590542 -0.0010944194 0.0008327738 -0.00023750639 -0.0005003814 0.0010923751 0.00023675882 -0.0021364912
-0.0004324147 -0.00071622373 -0.00024062427 -0.000751766 -0.00037783416 -0.00044829515 3.0825504e-05 0.001922002
-0.0018310229 -0.001263705 -3.2694336e-06 -0.00040447537 -0.0017130042 -0.0016871789 3.060828e-05 -0.00086109946
-0.0011071652 0.0017831613 0.00023573927 0.0004317835 0.0016028599 0.0002693457 -0.00021880929 0.0006897627
-0.00039569082 0.00087433704 -0.0010071862 -0.0009472992 0.00018115407 -0.00048225172 -0.00020594471 1.405485e-05
-0.00088189077 -0.00027561936 -0.00022194283 0.0002784485 0.0012179441 0.00016846301 -0.00019711447 0.00015160239
0.0001214184 0.00022971648 2.0882475e-05 -0.00033192363 0.00092395773 0.00025801887 -0.0009014265 -0.0013712622
0.001933535 -0.0016130838 0.00017135066 -5.0020426e-05 0.0016307917 -0.0033955793 -0.00031613495 1.48833e-06
-0.0013946454 -0.0034597225 0.00053353084 0.0010421339 -0.0007655878 -0.000482232 0.00046551903 -0.0016399274
0.0010483416 -0.00035988528 -1.1547902e-05 0.0002527717 -3.1970536e-05 -0.00071802404 -0.000119662596 -0.0018509481
-0.0003936584 -0.0002868174 7.903252e-05 -0.00051541557 -0.0013813671 -0.0007799641 -0.000113033064 -0.00035163155
-0.00091684796 0.0007509977 -0.002068216 -0.0011344731 -0.00068059185 0.0006481494 0.00016641033 0.00045817063
0.0012472331 0.0004348514 -0.0017457876 0.00021054827 -0.001709897 -0.00037153944 -0.0007115217 -0.0005792667
-0.000114817296 0.00021383309 0.00014624815 -0.002681592 0.00026456884 8.318247e-05 -0.0003269445 1.4623056e-05
0.00020116223 -0.0007833713 -2.8937082e-05 -0.0010606818 -0.0007828285 -0.0016168616 -0.001436703 -0.0022087882
0.001268236 0.000108533444 2.6787699e-05 0.0007052113 -0.0011264886 0.00021595732 -0.0011732293 0.0006739975

network_body._body_endoder.seq_layers.2.weight f4 [128, 128]
00000000: 1c0f 6b3c 9b32 4a3d 5ac9 c63d e872 82bc
00000010: 6b1e 943d 0a34 0a3e ddd6 10bd 3911 8c3b
00000020: 0790 adbd e8d1 d0bc 8b8e ed3d 363d 263e
00000030: 6b76 873d 13f6 1a3e 72ee da3c 5404 0abd
00000040: 1b5c d7bd 114a b8bc 46f8 4abb 69ed f43d
00000050: 6810 243d ff84 68bd 40e7 113c a221 c8bd
00000060: c2fd 6ebd fdb5 253d 19f2 d4bd f76d c3bc
00000070: c9f5 c4bc 0eb6 943d 1be6 edbd b678 3cbd
00000080: 9207 04be 767f 11bd 73f4 b9bd e099 963d
00000090: 496f 553d bbf7 d23c f087 95bd 73b1 8e3d
000000a0: e94c f5bc bbf8 dcbc 76cb e03c 6ec5 ecbd
000000b0: 08e1 e5bd 3949 953d c91b 283c 182d c63c
000000c0: 72ee efbd 80df 1ebd 1763 d33d 27af 423e
000000d0: 55f7 683c 9f60 8f3d 21d3 133e ed3c df3d
000000e0: 1bc2 f03d 8aa0 7abd 769b 6ebd 136d c4bd
000000f0: cc01 4dbd b65c 9cbb 65ac 3b3e 9606 a6bd
00000100: 437f 513d 1f9c 36bd 8397 c23d b7fb 09bd
00000110: 6a1a 8fbd d045 44bd 586a 4abc cfad 2fbe
00000120: a17d f43c b266 213d ed00 4ebd 7613 5a3e
00000130: c797 7d3d a4b0 d53c 01ed 093e 554a e8bb
00000140: a6ab 8e3c 0d55 fd3d 2f7d 953d dfad dc3c
00000150: b223 84bd 0664 88bd 035d 9abd b10c ea3c
00000160: 2653 b4bd 0d74 a9bd 79c4 68bd 138d eebc
00000170: dc7a be3c d813 8f3d d978 1f3e cfab 243d
00000180: 2de5 c7bd ceb7 21be 3dca 4b3c eb4b 5abc
00000190: 5ca4 7fbd acd8 59bd d25d 01bd 6a34 133d
000001a0: 620e 33bc 5beb a63c 3bd5 99bd 9d63 b8bd
000001b0: f1ca c93b d435 c8bc e065 2abd 6aab a73d
000001c0: cd5f 483a 7264 4ebd b38c d23c f4fd ee3d
000001d0: 3418 1ebe 59ec 8a3d ea90 9bbc ddd3 bc3c
000001e0: 52d5 ad3c c0a6 91bd 9941 8b3d e27c bd3d
000001f0: 492b 85bd f984 1f3e 204b 6b3d 321a fe3c
00000200: 8c8a ea3c 47e4 6fbd 9ab3 d8bd 32ce c8bb
00000210: b13b 29bd 2c11 31bc 53c0 eebc e5e8 543d
00000220: e67d 90bc 6b46 223e 4fcf 49bd aa74 3e3d
00000230: fbab 6a3d 9984 d43c fc79 a0bb f08e 963d
00000240: 5c95 f93d 473f e4bc a440 a2bd 5b87 86bd
00000250: 0da9 75bd b088 dcbd 58e2 713d 8cce 0e3e
00000260: a2af 323d 6cc3 e93d fc22 2f3e 0b9b 043d
00000270: b055 1bbe d360 30bd 3998 2bbd 29d4 293e
00000280: 78da c83d 7c44 973d 80ea d8bc 0ede ebbd
00000290: d1f1 d23d 6556 2bbc 84ee ca3c bf07 2b3c
000002a0: 31fb 2e3d 7f6a 8fbc e6b3 1f3d 02fe e9bd
000002b0: 6730 f43d fb03 373e b354 c93d f022 66bc
000002c0: 2bb4 073d cfae 563e ffec 20bd acd6 81bd
000002d0: 1c5a 083e 9ca8 86bd bb76 54bb 8b8d fd3c
000002e0: e953 f4bd 6f78 47bd 4089 903d 11d4 e73c
000002f0: b841 07bc 670e 273d 5a2c acbd 361e eb3d
00000300: 845e 323c 6c7d ccbd 7cfb b4bd 7b0f f4bd
00000310: 3a77 393e c90e a5bd d46b 73bd 3eb3 513d
00000320: e066 ba3d a910 b13d 80d5 39bd 9aac 47be
00000330: f8c9 f53d 70dc e6bd 3327 5c3d 5ef2 97bd
00000340: 173e c3bd 4518 dfbd 0144 323e d61b c6bd
00000350: 22b0 913c 5173 073e 95d4 413e b584 2c3e
00000360: 723b 653d f72d 3f3d 208e 1cbc 0444 b63d
00000370: 9553 bcbd 2adb e63c ed97 463c 0b0a 7a3d
00000380: 516e 9ebd c163 87bc 5764 84bd 89ae ea3d
00000390: 729f b23d 517c 50bc b316 09be 1297 03bd
000003a0: 7832 d8bc 93eb a93b 7a95 c93d c15a b2bd
000003b0: 1a23 283e f6b3 5e3d 14e8 f03c f5d4 f13d
000003c0: a6cb 07bd 2904 f8bd 1bf7 c8bd 87d7 a23c
000003d0: f367 7a3d 8227 69bd ccca 24bc 3468 d33d
000003e0: fe4d b1bd cbc5 36bc 357f 2f3e 481d 153d
000003f0: 8155 21be 7024 f1bc 6230 81bc 54a3 623d
0.014346864 0.049364667 0.097063735 -0.015923932 0.07232364 0.13496414 -0.03536116 0.004274514
-0.08474737 -0.025490716 0.115994535 0.16234288 0.06614383 0.15132932 0.026725028 -0.033695534
-0.105156146 -0.022496255 -0.0030970736 0.11959345 0.04005471 -0.05676746 0.008905232 -0.0977204
-0.05834747 0.04045676 -0.10397739 -0.023856146 -0.02404298 0.07261287 -0.11616155 -0.046013556
-0.12893513 -0.035521947 -0.09079828 0.07353568 0.052108083 0.025752893 -0.07301319 0.069674395
-0.0299439 -0.026974073 0.027440768 -0.11561094 -0.11224562 0.07289357 0.010260531 0.024191424
-0.11715402 -0.038787365 0.10321634 0.19012128 0.014219125 0.07000851 0.14436008 0.109002925
0.11755773 -0.06118826 -0.058253728 -0.09591117 -0.05005054 -0.004771794 0.18327482 -0.08106725
0.051146757 -0.044582482 0.09501555 -0.03368732 -0.0698746 -0.04791814 -0.012354456 -0.17156146
0.02984506 0.03940458 -0.05029385 0.21296486 0.061912324 0.026085205 0.13469316 -0.007088939
0.017415833 0.12369738 0.072992675 0.026938377 -0.06452121 -0.06659703 -0.07537272 0.028570505
-0.08804922 -0.08274088 -0.056827996 -0.029120004 0.023251943 0.06986207 0.15573443 0.040202912
-0.09760509 -0.15792772 0.012438354 -0.013323764 -0.062412605 -0.05318515 -0.031583615 0.035938658
-0.010928722 0.020375898 -0.075113736 -0.09003375 0.0061582257 -0.02443973 -0.04160106 0.081869915
0.000764367 -0.05038876 0.025701856 0.116695315 -0.1543892 0.06783361 -0.018989999 0.023050243
0.021219883 -0.07111883 0.06799621 0.09252335 -0.065023966 0.15578069 0.05744469 0.03101835
0.028630517 -0.05856731 -0.10581131 -0.006128096 -0.04131669 -0.010807317 -0.029144442 0.051979918
-0.017638158 0.15847175 -0.04926997 0.04649798 0.05729292 0.025942134 -0.004897354 0.07351482
0.12186691 -0.027862204 -0.079224855 -0.06568786 -0.059975673 -0.107682586 0.05905375 0.13945979
0.043624528 0.11414227 0.17103189 0.032374423 -0.15169406 -0.04306109 -0.041893218 0.16584839
0.098072946 0.07386109 -0.026479006 -0.11516963 0.10300029 -0.01045761 0.024771936 0.0104388585
0.042720024 -0.017506836 0.038989924 -0.11425401 0.119232945 0.17872612 0.09830608 -0.014046416
0.033130806 0.20965122 -0.039288517 -0.063397735 0.13315624 -0.065751284 -0.0032419402 0.030951282
-0.11930067 -0.04869884 0.07057428 0.028299363 -0.008255415 0.04078522 -0.08406897 0.11480372
0.010886792 -0.0998486 -0.08837029 -0.11917015 0.18111888 -0.08059461 -0.059429005 0.05119633
0.09101653 0.08645756 -0.045369625 -0.19499436 0.12001413 -0.11272514 0.05374832 -0.07419275
-0.09533327 -0.10893301 0.17408754 -0.09673278 0.017784182 0.13227583 0.1892875 0.16847499
0.055964895 0.046674695 -0.00955537 0.08899692 -0.091956295 0.028180677 0.012121183 0.061044734
-0.07735885 -0.016527059 -0.06464451 0.11459071 0.08721818 -0.012724952 -0.13387565 -0.032126494
-0.026391253 0.0051855533 0.098429635 -0.08708716 0.1641964 0.054370843 0.029407538 0.118081965
-0.0331532 -0.121101685 -0.09812757 0.019878162 0.06113429 -0.056922443 -0.010058116 0.103226095
-0.08657454 -0.011155556 0.1713837 0.036404878 -0.15755273 -0.02943632 -0.015770141 0.055331543
