results/jugglingRobotV1/JugglingRobotV1/JugglingRobotV1-0.pt (torch, 156175 bytes, 12 tensors)

network_body._body_endoder.seq_layers.0.weight f4 [128, 12]
000000 04 15 09 bd 08 f1 51 bd 6a 08 e7 be a4 56 87 be
       -0.033467308 -0.051255256 -0.45123607 -0.2643329
000010 54 ff 26 be 5c a3 c5 bd 8c bc 59 be f8 99 7b 3e
       -0.16308337 -0.09650299 -0.21263331 0.24570453
000020 4b da da 3d 75 53 af bd 53 77 ac 3b b1 46 74 3e
       0.10686167 -0.0856084 0.005263248 0.23855092
000030 39 07 63 3e aa 01 a9 3b dd 7f be 3d 2c 4d 09 bd
       0.22170724 0.005157669 0.09301732 -0.033520862
000040 5a 54 45 be eb 7b 4e be 02 22 bb 3e cb 3c 30 bd
       -0.19270459 -0.20164458 0.36549383 -0.043026727
000050 7a c8 69 3e 63 3f 14 3e cb 52 20 3e 56 f6 e1 3d
       0.22830382 0.14477305 0.15656583 0.11033313
000060 00 19 99 3e aa e2 98 3e 60 a4 05 bf 31 b6 a0 be
       0.29901886 0.2986043 -0.5220394 -0.31389
000070 c0 e4 5c bc ce 3a 12 3e 85 b0 9e 3e c3 f4 95 be
       -0.013482273 0.14280245 0.3099405 -0.292883
000080 a3 65 89 be d3 7e bb be 59 ea 80 3e ec d4 fa 3e
       -0.26835355 -0.36620197 0.25178793 0.48990571
000090 4f 66 17 3d ec 51 04 bf 99 b9 a8 be 5c d2 14 3e
       0.036962803 -0.516875 -0.329541 0.1453337
0000a0 a1 2b 35 be a5 35 23 bd da 7f 03 3e e5 25 3b 3f
       -0.17692424 -0.03984608 0.1284174 0.731047
0000b0 f1 33 52 3e dd e9 05 be ec 2d fd bd d1 a1 17 bc
       0.20527627 -0.13077493 -0.123622745 -0.009254889
0000c0 6e e1 f8 3d f5 db ab 3e 2f b2 98 be 05 a8 c5 bd
       0.12152372 0.3356625 -0.29823443 -0.09651188
0000d0 26 bb a4 3e 66 84 d3 bc a8 54 a2 bd 1a 60 fb 3d
       0.32174033 -0.025819968 -0.07926303 0.12274189
0000e0 fb 9b 8d 3d c7 4b 91 be 44 d9 fe 3e 0c c5 ca 3e
       0.069145165 -0.28378126 0.49775136 0.3960346
0000f0 7d e5 b8 bd 85 f8 3b bc 19 d0 35 3e 79 67 d3 bb
       -0.090281464 -0.011472826 0.17755164 -0.006451544
000100 e0 d3 20 3e 9e 74 4c be 57 14 15 be ba a3 0c 3e
       0.15705824 -0.19966361 -0.1455854 0.13734332
000110 5a 4f 3e bd 29 0e 4f 3e 24 1e 07 bf 12 02 1e 3f
       -0.046462394 0.20220245 -0.52780366 0.6172191
000120 66 3d 3f bf 1c 82 6a be bf 62 40 bb 45 85 03 3e
       -0.7470306 -0.22901195 -0.0029355732 0.12843807
000130 1a 46 56 be 27 8f 9f 3e 1b 9e 41 bf 55 ab a9 be
       -0.20925179 0.31163904 -0.75631875 -0.33138528
000140 d5 5d 19 ba 35 81 de bc 97 cb fa 3e a0 b4 25 be
       -0.0005850469 -0.02716122 0.48983452 -0.16182184
000150 ce 91 07 be 67 d9 cf 3e d7 b6 0e 3d 6a 5f 03 be
       -0.13239214 0.40595552 0.03484234 -0.12829366
000160 ca b7 e2 3e 88 bf ab be 8a ed de 3e b6 f1 9b be
       0.44280845 -0.33544564 0.43540603 -0.30457848
000170 3e e8 ea 3d 91 75 18 bf 34 a2 82 3e 40 7c 24 be
       0.11470078 -0.5955439 0.25514376 -0.16063023
000180 f4 62 b4 be 60 a1 d1 3e 27 17 a5 be 21 a6 b2 3c
       -0.35231745 0.40943432 -0.32244226 0.021807732
000190 02 85 9a 3e 42 31 3d 3e b3 1e 93 bd bf 4c 6b bd
       0.30179602 0.18475822 -0.0718359 -0.057446238
0001a0 65 2a b2 3d 1d 7e b3 3d 3c 3e a2 bd a6 9d e8 bb
       0.08699492 0.087642886 -0.079220265 -0.0070988713
0001b0 7a 6c d8 be 19 25 e2 b9 3a 31 80 be b7 0d 18 3f
       -0.4227026 -0.0004313372 -0.25037557 0.5939593
0001c0 fc a5 1b 3d 06 ff 82 3d 86 75 11 3f e3 e8 0b 3d
       0.038000092 0.06396298 0.5681995 0.034157645
0001d0 e5 71 a2 bc 00 dc 5d bb 47 93 af 3e e1 53 a0 be
       -0.0198297 -0.0033853054 0.3429205 -0.31313995
0001e0 97 b6 00 bf 5a 2f 3f 3e a8 e3 a0 3d 1e d7 09 3e
       -0.5027861 0.18670407 0.07855922 0.13460967
0001f0 08 97 9e be 1f ee 49 3e e8 5b 98 bd 9a f8 a9 3e
       -0.30974603 0.19719742 -0.07439405 0.3319748
000200 35 5b 95 bd 56 e0 d1 3e d4 38 a0 be cf b1 00 3f
       -0.07292787 0.40991467 -0.31293356 0.50271314
000210 16 1d 83 be 84 91 79 3e 27 92 52 be ff 6d 93 be
       -0.25608128 0.24371916 -0.20563565 -0.28794858
000220 4d 8b ad 3d 13 3f 0b 3f de df 04 3e ba de bd 3e
       0.08473835 0.5439312 0.12976024 0.3708399
000230 df 8a d8 3c 65 33 32 3e fc 15 98 be 5f c2 bb 3b
       0.026433406 0.17402418 -0.29704273 0.005729958
000240 80 36 f6 bd 42 75 4e be 2f 63 24 3e 6b 82 28 3d
       -0.12022114 -0.20161918 0.1605346 0.04114
000250 0f a2 97 3d c7 1b 12 3f 3f ce 61 3e 3b 74 8d be
       0.07403957 0.57073635 0.22051333 -0.2762774
000260 14 72 61 3f b8 8b 25 3e 5a 81 e6 3c 4b ba 04 3e
       0.88064694 0.1616658 0.028137852 0.1296169
000270 8e 42 f9 bd a8 ab 81 be 8a 29 a1 3e 3b b9 de bc
       -0.121708974 -0.25326276 0.31477004 -0.027187934
000280 7c 3c 84 be bc 1d 2a 3e 9f ea bd bb 4a e3 58 3c
       -0.25827396 0.16612905 -0.0057957913 0.013237784
000290 f2 fb b2 3c f4 81 c0 bd 41 3f 32 bd a0 92 9e bd
       0.021848653 -0.093997866 -0.043517355 -0.0774281
0002a0 90 c7 9d 3d 74 3a 24 3d f1 45 64 be 12 58 9d be
       0.07704079 0.040094808 -0.22292306 -0.30731255
0002b0 2c f2 fa bc 55 f7 5f be a6 33 d2 be eb c1 32 3f
       -0.030633055 -0.21871693 -0.4105503 0.69827145
0002c0 7f 3e 45 3e bf 72 7c 3f 87 c9 84 3d 5c c2 3c be
       0.19262122 0.9861259 0.06483751 -0.18433517
0002d0 b8 3e 62 3d 66 bd 58 3c c3 ea 06 3f ad 29 3e 3c
       0.055235595 0.01322875 0.5270197 0.011606616
0002e0 81 7f 9b bd cb c9 2a be ac 64 11 3f 9f 23 8d 3e
       -0.07592679 -0.1667854 0.5679424 0.2756624
0002f0 74 81 39 be 7e 11 4f 3e 89 7f 4f ba eb 4f e6 3e
       -0.18115789 0.20221516 -0.00079154276 0.44982848
000300 c1 d2 bb bd ed 65 84 3e 4c 6b 77 3d 22 86 a4 3e
       -0.091710575 0.25859013 0.06040506 0.32133585
000310 5d 85 20 3f be 61 0c be 41 f2 af be b1 29 e0 bd
       0.62703496 -0.1370916 -0.34364513 -0.10945452
000320 7a c5 44 3e 78 f1 08 3e 38 6f 20 3f dc b2 97 3e
       0.19215956 0.13373363 0.62669706 0.29628646
000330 de 40 0f 3f b0 a6 03 3f 8a a6 6b be f1 8d 95 bd
       0.55958354 0.5142622 -0.23012748 -0.07302464
000340 48 f0 af 3e 93 2f 60 3e 8e b8 3f 3e 26 b9 ee 3e
       0.34363008 0.21893148 0.18722746 0.46625632
000350 c8 21 de 3d 58 77 34 be 95 5e 55 3e 6f 11 86 be
       0.10846287 -0.17623651 0.20836861 -0.26185176
000360 6d 1a c4 3e 63 62 07 bf b5 40 6f 3e 84 fd 91 bd
       0.3830141 -0.528845 0.23364528 -0.071284324
000370 ed 23 5a 3e 8e 61 31 bd a6 c9 9e bd 24 c2 29 3f
       0.21302767 -0.043305926 -0.07753305 0.6631186
000380 2e da 93 be 24 08 5d be 01 99 8e 3e 0c 85 dc 3e
       -0.28877395 -0.21585137 0.27851108 0.43070257
000390 73 61 35 be f3 c8 9e be f2 2c 14 bd 8a a5 71 3e
       -0.17712955 -0.31012687 -0.036175676 0.23598304
0003a0 4e c3 b9 3e 85 f6 1d 3d a5 64 5f be dc a8 79 be
       0.36281818 0.038565177 -0.21815737 -0.24380821
0003b0 f3 42 d6 3e 11 b4 34 bf 31 d1 51 bf 33 bc 18 bf
       0.41847953 -0.7058726 -0.81959826 -0.5966217
0003c0 cf 3e bd 3d ae 9f 80 3e cb 2c 66 be 8c 55 95 3e
       0.092404954 0.25121826 -0.22478025 0.2916683
0003d0 a2 9e 35 3d 28 ce ec be c9 d2 65 be 6a 29 8b 3e
       0.044340737 -0.46251035 -0.2244369 0.27180034
0003e0 9a 28 e9 3d d9 e6 f1 3d 32 fc 81 bd 49 58 bd 3e
       0.11384697 0.11811609 -0.063469306 0.3698142
0003f0 0a db bf bd 4f 09 8e 3e 5f 0a aa bd c1 1f aa 3d
       -0.0936795 0.27741477 -0.083027594 0.08306838

network_body._body_endoder.seq_layers.0.bias f4 [128]
000000 00 00 00 00 00 00 00 00 00 00 00 00 00 00 00 00
       0.0 0.0 0.0 0.0
000010 00 00 00 00 00 00 00 00 00 00 00 00 00 00 00 00
       0.0 0.0 0.0 0.0
000020 00 00 00 00 00 00 00 00 00 00 00 00 00 00 00 00
       0.0 0.0 0.0 0.0
000030 00 00 00 00 00 00 00 00 00 00 00 00 00 00 00 00
       0.0 0.0 0.0 0.0
000040 00 00 00 00 00 00 00 00 00 00 00 00 00 00 00 00
       0.0 0.0 0.0 0.0
000050 00 00 00 00 00 00 00 00 00 00 00 00 00 00 00 00
       0.0 0.0 0.0 0.0
000060 00 00 00 00 00 00 00 00 00 00 00 00 00 00 00 00
       0.0 0.0 0.0 0.0
000070 00 00 00 00 00 00 00 00 00 00 00 00 00 00 00 00
       0.0 0.0 0.0 0.0
000080 00 00 00 00 00 00 00 00 00 00 00 00 00 00 00 00
       0.0 0.0 0.0 0.0
000090 00 00 00 00 00 00 00 00 00 00 00 00 00 00 00 00
       0.0 0.0 0.0 0.0
0000a0 00 00 00 00 00 00 00 00 00 00 00 00 00 00 00 00
       0.0 0.0 0.0 0.0
0000b0 00 00 00 00 00 00 00 00 00 00 00 00 00 00 00 00
       0.0 0.0 0.0 0.0
0000c0 00 00 00 00 00 00 00 00 00 00 00 00 00 00 00 00
       0.0 0.0 0.0 0.0
0000d0 00 00 00 00 00 00 00 00 00 00 00 00 00 00 00 00
       0.0 0.0 0.0 0.0
0000e0 00 00 00 00 00 00 00 00 00 00 00 00 00 00 00 00
       0.0 0.0 0.0 0.0
0000f0 00 00 00 00 00 00 00 00 00 00 00 00 00 00 00 00
       0.0 0.0 0.0 0.0
000100 00 00 00 00 00 00 00 00 00 00 00 00 00 00 00 00
       0.0 0.0 0.0 0.0
000110 00 00 00 00 00 00 00 00 00 00 00 00 00 00 00 00
       0.0 0.0 0.0 0.0
000120 00 00 00 00 00 00 00 00 00 00 00 00 00 00 00 00
       0.0 0.0 0.0 0.0
000130 00 00 00 00 00 00 00 00 00 00 00 00 00 00 00 00
       0.0 0.0 0.0 0.0
000140 00 00 00 00 00 00 00 00 00 00 00 00 00 00 00 00
       0.0 0.0 0.0 0.0
000150 00 00 00 00 00 00 00 00 00 00 00 00 00 00 00 00
       0.0 0.0 0.0 0.0
000160 00 00 00 00 00 00 00 00 00 00 00 00 00 00 00 00
       0.0 0.0 0.0 0.0
000170 00 00 00 00 00 00 00 00 00 00 00 00 00 00 00 00
       0.0 0.0 0.0 0.0
000180 00 00 00 00 00 00 00 00 00 00 00 00 00 00 00 00
       0.0 0.0 0.0 0.0
000190 00 00 00 00 00 00 00 00 00 00 00 00 00 00 00 00
       0.0 0.0 0.0 0.0
0001a0 00 00 00 00 00 00 00 00 00 00 00 00 00 00 00 00
       0.0 0.0 0.0 0.0
0001b0 00 00 00 00 00 00 00 00 00 00 00 00 00 00 00 00
       0.0 0.0 0.0 0.0
0001c0 00 00 00 00 00 00 00 00 00 00 00 00 00 00 00 00
       0.0 0.0 0.0 0.0
0001d0 00 00 00 00 00 00 00 00 00 00 00 00 00 00 00 00
       0.0 0.0 0.0 0.0
0001e0 00 00 00 00 00 00 00 00 00 00 00 00 00 00 00 00
       0.0 0.0 0.0 0.0
0001f0 00 00 00 00 00 00 00 00 00 00 00 00 00 00 00 00
       0.0 0.0 0.0 0.0

network_body._body_endoder.seq_layers.2.weight f4 [128, 128]
000000 e6 19 03 3e d8 d7 c6 3c 86 84 3c 3c 56 a0 19 bd
       0.12802848 0.024272844 0.011506205 -0.037506424
000010 30 ad 4b 3c cd b3 ff bd 8c 21 00 be 2e 8a b5 3d
       0.012431428 -0.12485466 -0.12512797 0.08864246
000020 6d 4d 53 3c 1c b8 6e 3d df 26 b9 bc b9 23 79 bd
       0.012896878 0.05828105 -0.022601543 -0.060825083
000030 ae 5f d6 bb 52 3d cc 3c 0f 29 08 bd aa e7 8b bd
       -0.0065421676 0.024931584 -0.03324228 -0.06831296
000040 72 8e 0f 3e 6e 0b 5b bc 30 a7 49 bd d5 5e 3e 3d
       0.14019182 -0.013369424 -0.049231708 0.046477158
000050 99 2d 67 3d 32 9a a1 3d 07 ba 49 3d 14 8f 12 be
       0.05643997 0.078907385 0.049249675 -0.14312392
000060 8e 22 0e be 2a 88 cb bd f1 a5 fe 3c bf 5e 92 3d
       -0.13880369 -0.099380806 0.031084986 0.07146978
000070 9a cf 4f 3e d1 25 80 3c 6c 1d 05 3b b9 71 9b 3d
       0.20294037 0.015643032 0.0020311726 0.0759005
000080 dd 1c 87 bd fa 0f 50 bc ca 68 dc bd e0 5b 68 3d
       -0.06597302 -0.012699122 -0.107621744 0.056728244
000090 5d 14 20 3e 5d 6c 99 3d 3e db e5 3d f7 43 bb bc
       0.15632768 0.07491372 0.11223458 -0.022859557
0000a0 d7 df 30 bd 27 1b 2c be 48 1e 28 bd 80 ba 3d 3c
       -0.04318222 -0.16807233 -0.041044503 0.01158011
0000b0 25 57 a2 3d 7d 87 81 3d b6 09 08 bd dc 45 cf bd
       0.07926778 0.063246705 -0.033212386 -0.101207465
0000c0 cf ee da bc 02 87 46 bd b2 a1 2a be 09 a7 8e bc
       -0.026725201 -0.048468597 -0.16663244 -0.017413633
0000d0 54 a3 a7 3d 4c 2e fa 3d 35 ca 1e 3d 2f ab 01 bc
       0.08185449 0.12215862 0.03876706 -0.0079143485
0000e0 cd f4 41 bc 3a 21 05 be 8c 9f 60 3e d8 b9 8a bd
       -0.01183815 -0.13000956 0.21935862 -0.06773728
0000f0 ed da d9 3c c3 98 98 bd 91 d3 26 3c 55 c3 26 bd
       0.02659365 -0.07451012 0.010182277 -0.040713627
000100 9b 4b b1 3d 71 02 95 bd b5 d6 34 3c e4 e7 82 3d
       0.08656999 -0.07275856 0.011037518 0.06391886
000110 31 6f 96 bc a8 35 62 ba 35 fb 99 3d f8 24 f7 bd
       -0.018363567 -0.0008629211 0.07518617 -0.12067598
000120 7a d2 77 3d ee ea 58 bd ef ae 28 b8 83 62 f9 bd
       0.06050346 -0.05295842 -4.021724e-05 -0.12176993
000130 55 f5 87 3a 27 08 7e 3d 27 b6 31 3d 05 af af 3d
       0.0010372797 0.062019493 0.043386605 0.08578304
000140 76 db 02 bc 6f ae 12 bb a6 4e 08 be ae 56 3e 3d
       -0.007986894 -0.0022381803 -0.13311252 0.046469383
000150 7a 56 f9 bd 3c 76 57 be c5 82 6a 3d 00 80 fd 3d
       -0.12174697 -0.21041197 0.057253618 0.1237793
000160 21 fb 0c bd 6f e2 b7 3d e2 69 89 3d 4c cb 6f bd
       -0.034419183 0.08978736 0.06709649 -0.05854349
000170 1c ef 07 3e 2a 31 95 bc de f6 43 3d 0f 55 ea 3c
       0.13274807 -0.01821192 0.047842853 0.028605012
000180 d1 2e 95 bd 41 a9 3f 3e fb f3 a8 bd b9 c7 6c bd
       -0.0728432 0.18716909 -0.082496606 -0.057807658
000190 6f eb 9e 3c 3f 74 87 bd ab 54 c0 bc 8c ab e6 3b
       0.019399373 -0.06613969 -0.023477873 0.007039493
0001a0 48 f8 2e 3b 11 9c a4 3d ee 50 ea bd 9c cc f4 3c
       0.002669828 0.0803758 -0.11441217 0.029882722
0001b0 97 e1 91 3d 89 d6 9e bd 57 3e 8c bd 77 20 85 3d
       0.07123106 -0.07755763 -0.06847828 0.06500333
0001c0 98 74 86 3c 75 8c 26 3d 24 23 e7 3c bf 8c 40 bd
       0.016413018 0.040661294 0.028214999 -0.047009226
0001d0 c4 b4 95 3d f7 4f b7 3d 78 33 a2 bd f4 aa 19 3c
       0.07309869 0.08950799 -0.07919973 0.009379137
0001e0 90 47 83 3d ed 03 df bd 54 f5 ad bd aa d4 a4 bd
       0.06410134 -0.10889421 -0.08494058 -0.08048375
0001f0 3e 31 97 bc 0b 0d 65 3d 2b 7d 8c bd 01 49 0a be
       -0.018456098 0.055920642 -0.068598114 -0.13504411
000200 5e d0 2b 3e 56 c6 8c 3d b7 85 05 bd 56 bf 0b 3e
       0.16778705 0.06873767 -0.032598224 0.13647208
000210 d9 d9 ef bd ba 7b c7 3b 15 30 44 3c 17 c3 be 3d
       -0.11711473 0.0060877474 0.011974354 0.09314554
000220 ec f4 c6 ba bf 96 30 3d cc 52 5e 3d 8d eb 86 3d
       -0.0015179194 0.043112513 0.05427818 0.065878965
000230 48 ed ef 3b 27 d9 37 bd a3 87 37 3d b0 42 5a 3e
       0.0073219873 -0.044884827 0.044807088 0.21314502
000240 f1 51 db 3c 79 2d fc 3a 33 be 24 be d6 c9 53 3b
       0.026772471 0.0019239626 -0.1608818 0.0032316349
000250 21 98 39 3d cb 5d 0c bc f7 cd 09 bd e2 95 0f 3e
       0.045311097 -0.008567284 -0.03364369 0.1402202
000260 7a 30 b0 bc 97 74 b9 bd 62 41 23 3c 65 2d 0a bd
       -0.02150749 -0.09055441 0.009964319 -0.033734698
000270 c1 d6 41 3d d9 1a e3 bc 2f f2 78 3c a3 1b ab 3c
       0.047323946 -0.027722763 0.01519446 0.020887202
000280 8e 03 c2 bd e8 dc b9 3c dd ca 6a 3c d3 7f 15 be
       -0.09473334 0.022688344 0.014330593 -0.14599542
000290 5f 74 a0 3c 35 8c c0 3b 3e ea 00 3e ab 05 a1 bd
       0.01958674 0.005876089 0.12589356 -0.07862409
0002a0 41 17 04 bd 8b d9 8a 3d 5f ed c6 bb f8 2b 99 bc
       -0.03224874 0.06779774 -0.0060707773 -0.018697724
0002b0 1e c9 ac 3d 9e 5a 2b 3e 48 3b 82 3e 27 bf a3 3d
       0.084367976 0.16733786 0.25435853 0.07995444
0002c0 e1 4b a7 bd 14 c7 5f bd ae 96 4b be b1 23 0b bd
       -0.0816877 -0.054633215 -0.19881698 -0.033969585
0002d0 b8 de 1b 3e ca 2e 2a bd 13 da cb bc e0 3b 05 be
       0.15221679 -0.041548528 -0.02488426 -0.13011122
0002e0 8f f6 70 3d b3 79 5b bc a6 bc 1f be 9a b5 81 bd
       0.058828887 -0.013395715 -0.15599307 -0.06333466
0002f0 ef 4d 7f 3d ca f6 a8 3d 9d 05 d0 bd 61 5b 56 3d
       0.062330183 0.08250196 -0.10157321 0.05233324
000300 d0 bd 56 3c 3e e9 42 bd 61 15 00 3d c1 fe bb bd
       0.013106778 -0.04758572 0.03127039 -0.0917945
000310 a0 9c 63 3e ad e7 f6 bd 9b d9 1a 3e dd d6 eb 3d
       0.22227716 -0.120559074 0.15122072 0.11515591
000320 7e 3b d0 3d aa 0e 20 bc d1 7a 0e 3d 87 b4 6f 3d
       0.10167597 -0.009769121 0.034785096 0.058521774
000330 3e f7 7f bd fb c7 0f bc a8 36 97 bd 39 fe 72 3c
       -0.062491648 -0.008775706 -0.07383472 0.014831119
000340 47 10 b1 3d 67 2a a2 3d 50 31 b2 3c 44 c6 d0 3c
       0.08645683 0.07918244 0.02175203 0.025485165
000350 98 87 82 3d d1 fe 9f bb 0b 24 13 bd 92 f6 f4 bc
       0.06373519 -0.0048826714 -0.035923045 -0.02990273
000360 c1 b2 cb bc 20 72 19 bd f8 57 1b 3e a9 25 01 3d
       -0.02486551 -0.037462354 0.15170276 0.031530056
000370 1d ea b2 bd 1b e2 9d bd ab 83 bb 3b 49 1f 5d bd
       -0.0873606 -0.07709142 0.005722483 -0.053984914
000380 cc 24 a0 bd df d3 86 bd 2e 96 a7 bd 2f f3 e1 3c
       -0.078195184 -0.0658338 -0.081829414 0.02758178
000390 91 7b 71 bd e2 05 5f bd 7d f8 28 3d b1 af 9f bc
       -0.058955733 -0.05444897 0.041252602 -0.019492956
0003a0 50 c2 e4 3d 2e 33 89 3d cc b8 8e 3a 64 e0 38 3d
       0.11169875 0.06699215 0.0010888814 0.04513587
0003b0 ef 68 aa bd 14 a4 d0 3d 34 57 1a bb 19 41 1e be
       -0.08320796 0.101875454 -0.0023550512 -0.1545452
0003c0 93 b4 ea bd b2 a1 e1 3c f5 3f e7 bd ac 82 9d 3d
       -0.11460223 0.027542923 -0.11291496 0.07690939
0003d0 2b 05 d0 3d d1 a9 29 3e 6c 26 07 3e 8f d1 e9 bc
       0.10157236 0.16568686 0.1319825 -0.028542308
0003e0 96 8d 75 3d df f8 93 ba 0f a5 a2 bb 84 e7 43 bd
       0.05994948 -0.0011289379 -0.004963524 -0.047828212
0003f0 c2 87 17 3d da 7f 7e bc cb 46 22 3e 5e 8d 6a bd
       0.036994703 -0.015533412 0.15847318 -0.057263725

network_body._body_endoder.seq_layers.2.bias f4 [128]
000000 00 00 00 00 00 00 00 00 00 00 00 00 00 00 00 00
       0.0 0.0 0.0 0.0
000010 00 00 00 00 00 00 00 00 00 00 00 00 00 00 00 00
       0.0 0.0 0.0 0.0
000020 00 00 00 00 00 00 00 00 00 00 00 00 00 00 00 00
       0.0 0.0 0.0 0.0
000030 00 00 00 00 00 00 00 00 00 00 00 00 00 00 00 00
       0.0 0.0 0.0 0.0
000040 00 00 00 00 00 00 00 00 00 00 00 00 00 00 00 00
       0.0 0.0 0.0 0.0
000050 00 00 00 00 00 00 00 00 00 00 00 00 00 00 00 00
       0.0 0.0 0.0 0.0
000060 00 00 00 00 00 00 00 00 00 00 00 00 00 00 00 00
       0.0 0.0 0.0 0.0
000070 00 00 00 00 00 00 00 00 00 00 00 00 00 00 00 00
       0.0 0.0 0.0 0.0
000080 00 00 00 00 00 00 00 00 00 00 00 00 00 00 00 00
       0.0 0.0 0.0 0.0
000090 00 00 00 00 00 00 00 00 00 00 00 00 00 00 00 00
       0.0 0.0 0.0 0.0
0000a0 00 00 00 00 00 00 00 00 00 00 00 00 00 00 00 00
       0.0 0.0 0.0 0.0
0000b0 00 00 00 00 00 00 00 00 00 00 00 00 00 00 00 00
       0.0 0.0 0.0 0.0
0000c0 00 00 00 00 00 00 00 00 00 00 00 00 00 00 00 00
       0.0 0.0 0.0 0.0
0000d0 00 00 00 00 00 00 00 00 00 00 00 00 00 00 00 00
       0.0 0.0 0.0 0.0
0000e0 00 00 00 00 00 00 00 00 00 00 00 00 00 00 00 00
       0.0 0.0 0.0 0.0
0000f0 00 00 00 00 00 00 00 00 00 00 00 00 00 00 00 00
       0.0 0.0 0.0 0.0
000100 00 00 00 00 00 00 00 00 00 00 00 00 00 00 00 00
       0.0 0.0 0.0 0.0
000110 00 00 00 00 00 00 00 00 00 00 00 00 00 00 00 00
       0.0 0.0 0.0 0.0
000120 00 00 00 00 00 00 00 00 00 00 00 00 00 00 00 00
       0.0 0.0 0.0 0.0
000130 00 00 00 00 00 00 00 00 00 00 00 00 00 00 00 00
       0.0 0.0 0.0 0.0
000140 00 00 00 00 00 00 00 00 00 00 00 00 00 00 00 00
       0.0 0.0 0.0 0.0
000150 00 00 00 00 00 00 00 00 00 00 00 00 00 00 00 00
       0.0 0.0 0.0 0.0
000160 00 00 00 00 00 00 00 00 00 00 00 00 00 00 00 00
       0.0 0.0 0.0 0.0
000170 00 00 00 00 00 00 00 00 00 00 00 00 00 00 00 00
       0.0 0.0 0.0 0.0
000180 00 00 00 00 00 00 00 00 00 00 00 00 00 00 00 00
       0.0 0.0 0.0 0.0
000190 00 00 00 00 00 00 00 00 00 00 00 00 00 00 00 00
       0.0 0.0 0.0 0.0
0001a0 00 00 00 00 00 00 00 00 00 00 00 00 00 00 00 00
       0.0 0.0 0.0 0.0
0001b0 00 00 00 00 00 00 00 00 00 00 00 00 00 00 00 00
       0.0 0.0 0.0 0.0
0001c0 00 00 00 00 00 00 00 00 00 00 00 00 00 00 00 00
       0.0 0.0 0.0 0.0
0001d0 00 00 00 00 00 00 00 00 00 00 00 00 00 00 00 00
       0.0 0.0 0.0 0.0
0001e0 00 00 00 00 00 00 00 00 00 00 00 00 00 00 00 00
       0.0 0.0 0.0 0.0
0001f0 00 00 00 00 00 00 00 00 00 00 00 00 00 00 00 00
       0.0 0.0 0.0 0.0

action_model._continuous_distribution.log_sigma f4 [1, 3]
000000 00 00 00 00 00 00 00 00 00 00 00 00
       0.0 0.0 0.0

action_model._continuous_distribution.mu.weight f4 [3, 128]
000000 e3 e1 17 bd 57 94 0b bd a7 2c 73 3b 8b 7a 36 3c
       -0.037080657 -0.034077015 0.0037105472 0.011137615
000010 b8 ee e7 3c 29 7c af 3c f3 30 04 bc 13 73 12 bb
       0.028312072 0.021421509 -0.008068311 -0.0022346422
000020 e7 27 00 bc 61 61 87 3c e0 8d eb bc 7f 7d 45 3c
       -0.007822013 0.016525926 -0.028754175 0.012053846
000030 9b 21 a3 bc 9d e6 1b 3c 18 79 29 bc a0 20 69 3b
       -0.019913485 0.009515432 -0.010343812 0.0035572425
000040 c3 77 62 bc 33 82 a8 bc 9c cc 0a bd 48 7c 2b 3c
       -0.013822499 -0.020569896 -0.033886537 0.010466643
000050 12 79 2f 3c dd 0a 03 bb 37 d5 04 bc 4f 70 ca bc
       0.010710018 -0.0019995489 -0.008107475 -0.024711756
000060 3f f1 1e 3d cb 2b 5e ba d3 bb bc bc 9a e3 8d bb
       0.03880429 -0.00084751536 -0.02303878 -0.0043301107
000070 a3 82 96 3b 64 9a 83 3c 33 34 21 bc 08 3c ce bb
       0.00459321 0.01606483 -0.009839105 -0.0062937774
000080 0f 8a df bc 60 01 c0 ba 7d d7 2c 3c 62 58 9c 3c
       -0.027287511 -0.0014648847 0.010549423 0.019085113
000090 8b 32 ac 3b 23 3a 61 bb ff 3b b1 3c 2f 2e e9 ba
       0.0052550486 -0.0034366928 0.021635054 -0.0017790253
0000a0 ab 14 14 bc 9d fb 81 3b 51 58 b1 bc 9d 3b f7 3b
       -0.009038131 0.003966762 -0.021648558 0.0075449483
0000b0 57 b8 13 3d 02 49 6d bc fb c5 de bb 7b bd b3 3c
       0.036064472 -0.014482738 -0.0067985035 0.021940937
0000c0 00 97 d4 3a 67 dd b5 3b 53 9e f2 bc 08 94 d8 bb
       0.0016219318 0.005550075 -0.02961651 -0.0066094436
0000d0 6d 4d 41 bc 3c 59 97 3c 0d 76 97 3c 73 a1 6d 3c
       -0.011798245 0.018475167 0.018488908 0.0145038245
0000e0 0f 24 c8 bc f5 0f 16 3c ae 7c 2d 3d dc 85 82 ba
       -0.024431257 0.009159078 0.042355232 -0.0009958106
0000f0 9c b9 1c 3c 00 7e 8d ba 29 7a 4c 3b 0f 60 8c bc
       0.009565737 -0.0010794997 0.0031200743 -0.017135648
000100 83 de 26 3c 0f 38 50 3d f8 f5 36 bd b7 f7 94 bc
       0.010184887 0.05083471 -0.044668168 -0.018184526
000110 a2 f2 ca bc 12 a0 12 bc 3b 8e c4 ba b5 6c 84 bc
       -0.0247739 -0.008949297 -0.0014996001 -0.016165117
000120 40 77 85 3b 73 e2 ca bb 85 da 78 3c 22 5c ff 3c
       0.0040730536 -0.0061915456 0.015188818 0.031171862
000130 85 0e 56 3c f3 0a 9a bc fa a2 69 3c 88 db 95 bc
       0.013064985 -0.01880405 0.014260048 -0.018293157
000140 df 33 58 bc 0b f2 55 3d af 94 cf bc ad 2a 5d 3c
       -0.013195961 0.052232783 -0.025339453 0.013498944
000150 dd a7 94 3a df b8 e2 3b ff 13 26 bc 8f 01 d2 bc
       0.0011341531 0.006919011 -0.010136603 -0.025635509
000160 e5 77 e0 3c e3 43 84 3c 90 39 d3 3c 60 5b bc 3b
       0.02740092 0.016145652 0.025784284 0.0057481974
000170 05 72 06 bd eb 96 83 bc 81 b3 9b bc 47 1b 0e ba
       -0.03282358 -0.016063174 -0.019006493 -0.0005420935
000180 b5 85 72 bc 4b c0 61 3c 8f 92 b1 3b a8 33 1b bb
       -0.014802386 0.013778756 0.0054190825 -0.0023681913
000190 63 ac c3 bc 00 f4 f9 3c 43 f2 90 3c 18 6d 24 3a
       -0.023885911 0.030511856 0.017693644 0.000627236
0001a0 6b ff 8e 3c ad 28 72 3b 29 1f 02 3d fb 8c a5 bc
       0.017455777 0.0036950514 0.031767998 -0.020208826
0001b0 2c 1a 09 bd 8c 43 14 bc 8b 8a f8 3b 23 7e 5f 3c
       -0.033472225 -0.009049308 0.007584875 0.013640913
0001c0 9a a6 fc ba 5f d3 a2 bc de e2 07 bc e0 27 ba b9
       -0.0019275725 -0.01987618 -0.008293835 -0.00035506394
0001d0 cf e2 f3 bb 83 44 26 bc f7 b0 3f bd 05 ef d4 3b
       -0.007442809 -0.01014817 -0.046799626 0.00649822
0001e0 01 a4 8a bc bf 9a 59 bc bb 98 dc bc 4b bb ed 3c
       -0.016923906 -0.013281523 -0.026928296 0.029019972
0001f0 d1 1f b0 ba a3 5d a3 bc bf 98 f6 b8 5c 30 3d 3b
       -0.0013437216 -0.01994211 -0.00011758645 0.0028867936
000200 68 dc 84 3b c0 26 a0 3c 9b 5d b0 bc a8 d0 8f 3c
       0.004054595 0.019549727 -0.02152901 0.01755555
000210 10 8f ee ba f7 24 c1 ba a7 ad ac 3c 68 a3 f8 3c
       -0.0018200595 -0.0014735748 0.021078898 0.030351356
000220 b0 73 43 bd 33 85 ab bc a7 94 8d bc 23 ee 2c 3c
       -0.04771775 -0.020937538 -0.017282797 0.010554823
000230 b5 73 85 bb 4b 9a cd bb e7 7d ee bb fb 98 08 3c
       -0.0040726312 -0.0062744967 -0.0072781923 0.008337255
000240 64 c5 ae bb 1e 90 a8 3c d2 82 89 3c 53 53 e6 3b
       -0.0053335894 0.020576533 0.016786013 0.007028976
000250 7e d9 83 bb cd db 4f 3b 91 3d 32 bc 45 fe e5 bc
       -0.00402373 0.0031716705 -0.010878936 -0.028075347
000260 e7 26 93 ba 29 f2 0a ba 33 8a 9d bc 9a db 15 bd
       -0.0011226804 -0.0005300367 -0.019230938 -0.03658638
000270 9f df 84 38 57 62 9a 3b c2 a6 80 bb ba e7 93 3c
       6.335903e-05 0.00471143 -0.003926129 0.018054832
000280 0a 64 4b bc 60 9e ef 3b 19 d9 05 bd 6c 26 44 3c
       -0.012413988 0.007312581 -0.032677744 0.011972051
000290 f6 a0 b9 bb 75 29 77 3c 47 b2 0f bc 13 f3 87 bc
       -0.00566494 0.015085568 -0.008770532 -0.016595399
0002a0 53 d0 6e bc b0 55 19 3c c7 c0 10 bb 44 47 87 bc
       -0.014576036 0.009358808 -0.002208756 -0.016513474
0002b0 9b 15 15 3c 63 a5 19 bb 4a 3e 71 3c 57 f2 e2 3c
       0.009099389 -0.0023444525 0.0147243235 0.027703447
0002c0 17 9f a9 3b fb 4b b8 3c 70 ff 00 bd 3f 04 44 3c
       0.0051764357 0.022497168 -0.031493604 0.011963903
0002d0 38 03 e2 3c 1f 26 78 bb db b5 1c 3c ef b5 a9 bb
       0.027589425 -0.0037864519 0.009564842 -0.005179159
0002e0 92 59 15 bd 73 97 93 bc 20 4d cc 3b f3 84 b7 3c
       -0.036462374 -0.018016553 0.00623478 0.022402262
0002f0 42 18 13 3b 63 35 dc ba cf 4f de 3c 0a b0 e1 3b
       0.0022444879 -0.0016800578 0.027137665 0.0068874406
000300 92 6b f8 3c 1f c3 ad 3c a5 e4 f1 3b cb 80 f7 bc
       0.030324731 0.021211205 0.007381993 -0.03021278
000310 31 bf a3 3c 47 66 b4 ba ae c3 16 bb e8 cc 36 bb
       0.019988628 -0.0013763391 -0.0023004818 -0.002789313
000320 da ab 44 bc c3 67 e3 bb 63 6e 52 bb 77 15 02 bd
       -0.012003863 -0.0069398596 -0.0032109253 -0.03175875
000330 07 89 35 3d eb eb 55 3c 34 1b 2d bd 8f 30 5a 3b
       0.044320133 0.0130567355 -0.04226227 0.0033293103
000340 17 39 47 3c 92 a6 65 bc 8a 01 a4 bc fd a1 92 bc
       0.012159607 -0.014016764 -0.020020265 -0.017899508
000350 3e aa 3d 3a a9 bc ab 3c df ab d0 bc bd 80 ee 3c
       0.0007235146 0.020963984 -0.02547258 0.029114122
000360 bc 7d 83 bc 1b 97 c2 bc b5 a1 8f bc 72 23 ed 3c
       -0.016051166 -0.023753693 -0.017533163 0.028947566
000370 73 25 ab 3b 15 32 83 bc e4 b7 2c bd 9f 37 b5 3c
       0.00522297 -0.016015092 -0.04216756 0.022121249
000380 23 0c 08 3d 60 fa 04 bc 42 99 06 3d 0e ac 98 3b
       0.0332147 -0.008116335 0.032861 0.0046591824
000390 50 2c b1 3c a2 f5 15 bc f7 d4 bd 3b 97 e4 ad bc
       0.021627575 -0.009152802 0.0057932097 -0.021227164
0003a0 40 d1 9e bc 93 71 45 bc 67 f1 c4 3c e7 b0 c6 ba
       -0.019386888 -0.012051004 0.02404089 -0.0015158922
0003b0 3b 99 d6 3b 97 4c b5 bc b3 09 ec 3b 80 87 50 3c
       0.006549028 -0.022131247 0.0072033047 0.012727618
0003c0 8c cb 34 bc bf fa 5d 3c 52 00 b2 b9 7f 98 e3 bc
       -0.0110348575 0.013548552 -0.00033951044 -0.027782677
0003d0 c3 c7 37 bb 69 89 22 bd 8d bd 5b 3c 63 00 73 bc
       -0.0028042651 -0.039681826 0.013411892 -0.014831635
0003e0 c0 55 84 3b 4f c9 7c bb 3d 91 ae 3c 1b c2 94 bc
       0.0040385425 -0.0038572138 0.02130949 -0.018158963
0003f0 0f 88 65 bc 44 59 a3 3c 90 24 a9 ba b5 9f 99 bc
       -0.01400949 0.019940026 -0.0012904573 -0.018752912

action_model._continuous_distribution.mu.bias f4 [3]
000000 00 00 00 00 00 00 00 00 00 00 00 00
       0.0 0.0 0.0

network_body._body_endoder.seq_layers.0.weight f4 [128, 12]
000000 91 37 8c 3e 2c 29 7f 3e 7f 8a 1e 3c f1 61 37 be
       0.27386144 0.2491805 0.009676575 -0.17908455
000010 e1 79 dc bd d4 12 17 bd 0d bc 92 be 6b c2 79 be
       -0.10765434 -0.03688319 -0.28659096 -0.24390571
000020 e3 e3 00 bf 40 c1 6c 3e 31 df ad bc 7d b3 46 bd
       -0.5034773 0.23120594 -0.02122459 -0.048511017
000030 d5 63 10 be c8 29 3e 3d 9a 70 16 3d a1 ec 20 3e
       -0.14100583 0.046426564 0.03672848 0.15715267
000040 6a 0a 38 3e 09 15 87 be 72 9b 80 bd f2 ce 86 be
       0.17972723 -0.26383236 -0.06279649 -0.26329762
000050 a3 c3 18 be d2 c0 2e 3e 64 f3 c0 be 14 de 06 bf
       -0.1491838 0.17065743 -0.37685692 -0.52682614
000060 d6 80 66 3d 10 f4 de 3e 08 aa 94 3d f8 d5 c3 3d
       0.05627521 0.4354558 0.072589934 0.09562296
000070 7d cf 9a bc ca fe a2 bd 9e 03 ee bd 25 63 03 3e
       -0.018897766 -0.079587534 -0.11621784 0.1283079
000080 24 1a 40 bd af f2 a8 bc 16 54 8b 3c fc cf 31 3e
       -0.04689993 -0.020623533 0.017007869 0.17364496
000090 17 17 07 be c2 d8 88 3e f4 11 51 be 30 f1 2c bf
       -0.13192402 0.26727873 -0.20417005 -0.6755552
0000a0 b0 59 09 be 04 47 c1 bd 2e f3 db 3e f4 8d 8c 3d
       -0.1341312 -0.09437373 0.4295897 0.06863013
0000b0 ec 16 4a 3e db 2c 84 be 0b 53 83 3e 02 94 85 be
       0.19735307 -0.25815472 0.25649294 -0.26089483
0000c0 2c 08 bd 3e 06 e6 60 3d 2e 64 0a bf 7b 19 5f bd
       0.36920297 0.054906867 -0.5405911 -0.05446766
0000d0 ed 14 dd 3e ec 2b 3f 3b 9c 31 14 3e e7 19 a9 be
       0.43180028 0.0029170467 0.1447205 -0.33027574
0000e0 18 a3 0f bf 09 3d 0c 3d b3 3b 96 be 1f 07 b0 3e
       -0.56108236 0.034237895 -0.29342422 0.34380433
0000f0 6d 55 25 bd 36 3a 65 bc ed 98 9f be 52 8b c9 3d
       -0.04036467 -0.013990929 -0.3117136 0.09841026
000100 03 5d 2e 3d 56 7a e6 3c 3e da 19 3e 14 d2 63 3e
       0.04256917 0.028134506 0.15024659 0.22248107
000110 6d 1e ae be b3 b9 36 3e 8e f8 76 be d8 b2 8f be
       -0.34007588 0.17844276 -0.24118254 -0.28066134
000120 a9 fa 96 bd a0 91 00 3f 96 2b 4f be 8a 65 5f 3e
       -0.073720284 0.50222206 -0.2023147 0.21816078
000130 c5 6d 6c be a3 04 d1 be 44 be 26 3e 34 62 aa 3d
       -0.23088749 -0.4082385 0.16283518 0.08319512
000140 d1 af 5f 3d f5 82 28 3d 51 d1 5b 3e 74 df f8 bd
       0.05461103 0.041140515 0.21466567 -0.12151995
000150 55 98 7e be f7 17 24 be 04 dc 57 3d 28 ec 9b 3e
       -0.24862798 -0.16024767 0.052700058 0.3045361
000160 a9 32 3c 3c c9 57 7d 3d 01 55 6f 3e c3 1a e0 be
       0.011486688 0.061851297 0.2337227 -0.43770418
000170 3f e4 e7 bd 72 62 dc be 53 74 19 bf a7 8d 3e 3d
       -0.11322831 -0.43043858 -0.5994312 0.04652181
000180 d3 7e 89 be 13 6a a5 be f3 13 0f 3e ea 21 bb be
       -0.26854572 -0.3230749 0.13972454 -0.36549312
000190 e8 b9 08 3f 84 2f 61 be 98 c1 3f 3e 20 59 83 be
       0.5340867 -0.21990782 0.18726194 -0.25653934
0001a0 67 c5 ad bd c9 32 35 3f eb 86 c7 3e 99 89 86 3e
       -0.08484917 0.70780617 0.38970122 0.26276854
0001b0 b3 93 b7 3d 50 c5 13 bf 75 29 d1 3e a8 6c c7 bb
       0.08963718 -0.5772295 0.40851942 -0.006085951
0001c0 a4 6d ee be 45 67 e3 bd 7b 69 d1 3e 68 33 59 3e
       -0.46568024 -0.111036815 0.40900788 0.21211016
0001d0 bb 6b 20 bd 2b 69 90 3e 13 29 71 be 76 68 33 be
       -0.03916524 0.28205237 -0.23550825 -0.17520317
0001e0 91 22 5e be 73 31 92 3e 44 c4 ad 3d 71 36 14 be
       -0.21692874 0.28553352 0.084847 -0.14473893
0001f0 d0 f3 b5 be 96 a6 62 bd 6c 4f 2c be 9b 38 95 3d
       -0.35537577 -0.05533465 -0.16827172 0.07286187
000200 e4 22 0c bd 56 28 94 bd aa c3 5e 3e 7b 68 f5 bc
       -0.03421296 -0.07234256 0.21754327 -0.029957047
000210 f5 2c 3a bd a8 53 9d 3e 2c 5f 05 bf 12 b9 49 3d
       -0.04545303 0.30727887 -0.52098346 0.049248762
000220 1f 1d ea 3c 11 33 d4 bc 3f 2f 7b bd 02 f8 d7 be
       0.02857834 -0.025903257 -0.061324354 -0.42181402
000230 9b d2 c7 be d4 39 6c 3e 55 fc aa be c5 31 7e be
       -0.39027867 0.23068935 -0.3339564 -0.24823673
000240 06 c3 d4 bd 47 a2 52 bd d5 da 47 bd 27 c7 90 be
       -0.1038876 -0.05142429 -0.04879268 -0.2827694
000250 ae bc 22 3e 82 11 1d bd f9 11 14 be 01 b4 8f 3e
       0.15892288 -0.038346775 -0.14459981 0.2806702
000260 f6 c4 82 be 1c 77 49 3f 46 00 0a 3d a7 d1 bb 3d
       -0.25540894 0.7869737 0.033691667 0.091708474
000270 80 e0 67 3d 41 16 c5 bd fd 82 e7 bd 18 fe 7d be
       0.056610584 -0.09623385 -0.11304281 -0.2480396
000280 0a f0 01 3d 10 a5 19 bf 06 01 6d 3e 58 7b da 3e
       0.03172306 -0.6001749 0.23144922 0.4267223
000290 57 5b 21 bf 97 29 23 be 7b 65 2e 3e a2 8a 50 be
       -0.6303 -0.15933834 0.17030899 -0.20365384
0002a0 76 c5 b9 be be fa 99 3e 5a d3 1d 3e 36 d2 06 bf
       -0.36283463 0.30074114 0.15412655 -0.52664506
0002b0 53 56 58 bf d8 9b 90 bd 43 60 86 be e9 da a8 3d
       -0.8450672 -0.07060975 -0.26245317 0.08244879
0002c0 c4 1a 1d 3e 83 fb 2d be ce 68 fe bd 3b d6 02 bf
       0.15342242 -0.16990475 -0.12422334 -0.5110814
0002d0 77 04 8c be d8 df a5 3e 2c 8b fd be 32 78 f8 3e
       -0.27347156 0.32397342 -0.49520242 0.48529202
0002e0 48 f5 5c be d4 df df 3d 98 e7 b5 3e d6 da 3c bd
       -0.21577942 0.10931364 0.35528255 -0.046107136
0002f0 67 53 46 bd ed e4 b3 3e 57 42 2d be 45 e4 b7 bd
       -0.048419382 0.35135594 -0.16919838 -0.08979086
000300 e4 b1 76 3e 33 2b cd 3d 06 bb d0 3e 7a 4c 9f be
       0.24091297 0.10018005 0.40767688 -0.31113034
000310 bf 57 a1 3e d3 ea f8 3e 3c 69 24 bd 8b 54 9c bc
       0.31512257 0.48616657 -0.04013942 -0.019083282
000320 7b 24 2a 3e 7e b3 13 bd ca d5 47 3e 50 19 30 bd
       0.16615479 -0.03605985 0.19515148 -0.04299289
000330 e5 2e 5d 3d 6c 26 a1 3e c5 81 69 3e 45 b4 a2 3c
       0.0539998 0.31474626 0.2280341 0.01986135
000340 e7 61 6d be f1 65 b1 3e 69 1b 85 be e9 9d b9 3e
       -0.23181878 0.34648088 -0.25997475 0.36253288
000350 c1 f7 55 be 59 30 d0 bd c1 d3 1a 3f ff 25 c1 3e
       -0.20895292 -0.101654716 0.6047936 0.377243
000360 3a b9 95 3b c0 57 b9 be cc b8 71 be 5e 46 37 3e
       0.0045692 -0.3619976 -0.2360565 0.17897937
000370 83 af 40 3e 3f f3 60 be b0 cf 08 3f 15 07 4b bf
       0.18816952 -0.21967791 0.53441906 -0.7930768
000380 be c0 28 be 24 c2 ee 3c 43 58 13 be e4 32 6b be
       -0.16479775 0.029145308 -0.14389138 -0.22968632
000390 33 19 6e 3e d3 25 67 3e ad 9b ce 3e 64 a5 9a bd
       0.232518 0.22573023 0.40353146 -0.07551077
0003a0 1c 9c 22 bd 56 89 69 3d 58 97 07 3b 1a 0e 1e 3e
       -0.03969966 0.05701574 0.0020689573 0.15435067
0003b0 f9 40 85 3e cd 30 2e be c1 f9 58 be 47 67 2e be
       0.26026133 -0.17010804 -0.21189024 -0.17031585
0003c0 3c a6 7b be 42 4c 0c be 53 bb ea 3d d7 78 cb 3e
       -0.24575132 -0.13700965 0.114615105 0.3974063
0003d0 77 0d 4a be 44 7e 1e bf 39 55 20 3e 4a 4e 65 3e
       -0.19731699 -0.61911416 0.1565751 0.22393146
0003e0 ad d4 0a be 9f 13 12 be 91 57 c6 3e e0 4d 3a 3e
       -0.13557692 -0.14265297 0.38738683 0.1819377
0003f0 44 23 8c 3d 57 d6 be bc d5 fe 8c bd e4 19 cf be
       0.06842664 -0.023295565 -0.06884543 -0.4044944

network_body._body_endoder.seq_layers.0.bias f4 [128]
000000 00 00 00 00 00 00 00 00 00 00 00 00 00 00 00 00
       0.0 0.0 0.0 0.0
000010 00 00 00 00 00 00 00 00 00 00 00 00 00 00 00 00
       0.0 0.0 0.0 0.0
000020 00 00 00 00 00 00 00 00 00 00 00 00 00 00 00 00
       0.0 0.0 0.0 0.0
000030 00 00 00 00 00 00 00 00 00 00 00 00 00 00 00 00
       0.0 0.0 0.0 0.0
000040 00 00 00 00 00 00 00 00 00 00 00 00 00 00 00 00
       0.0 0.0 0.0 0.0
000050 00 00 00 00 00 00 00 00 00 00 00 00 00 00 00 00
       0.0 0.0 0.0 0.0
000060 00 00 00 00 00 00 00 00 00 00 00 00 00 00 00 00
       0.0 0.0 0.0 0.0
000070 00 00 00 00 00 00 00 00 00 00 00 00 00 00 00 00
       0.0 0.0 0.0 0.0
000080 00 00 00 00 00 00 00 00 00 00 00 00 00 00 00 00
       0.0 0.0 0.0 0.0
000090 00 00 00 00 00 00 00 00 00 00 00 00 00 00 00 00
       0.0 0.0 0.0 0.0
0000a0 00 00 00 00 00 00 00 00 00 00 00 00 00 00 00 00
       0.0 0.0 0.0 0.0
0000b0 00 00 00 00 00 00 00 00 00 00 00 00 00 00 00 00
       0.0 0.0 0.0 0.0
0000c0 00 00 00 00 00 00 00 00 00 00 00 00 00 00 00 00
       0.0 0.0 0.0 0.0
0000d0 00 00 00 00 00 00 00 00 00 00 00 00 00 00 00 00
       0.0 0.0 0.0 0.0
0000e0 00 00 00 00 00 00 00 00 00 00 00 00 00 00 00 00
       0.0 0.0 0.0 0.0
0000f0 00 00 00 00 00 00 00 00 00 00 00 00 00 00 00 00
       0.0 0.0 0.0 0.0
000100 00 00 00 00 00 00 00 00 00 00 00 00 00 00 00 00
       0.0 0.0 0.0 0.0
000110 00 00 00 00 00 00 00 00 00 00 00 00 00 00 00 00
       0.0 0.0 0.0 0.0
000120 00 00 00 00 00 00 00 00 00 00 00 00 00 00 00 00
       0.0 0.0 0.0 0.0
000130 00 00 00 00 00 00 00 00 00 00 00 00 00 00 00 00
       0.0 0.0 0.0 0.0
000140 00 00 00 00 00 00 00 00 00 00 00 00 00 00 00 00
       0.0 0.0 0.0 0.0
000150 00 00 00 00 00 00 00 00 00 00 00 00 00 00 00 00
       0.0 0.0 0.0 0.0
000160 00 00 00 00 00 00 00 00 00 00 00 00 00 00 00 00
       0.0 0.0 0.0 0.0
000170 00 00 00 00 00 00 00 00 00 00 00 00 00 00 00 00
       0.0 0.0 0.0 0.0
000180 00 00 00 00 00 00 00 00 00 00 00 00 00 00 00 00
       0.0 0.0 0.0 0.0
000190 00 00 00 00 00 00 00 00 00 00 00 00 00 00 00 00
       0.0 0.0 0.0 0.0
0001a0 00 00 00 00 00 00 00 00 00 00 00 00 00 00 00 00
       0.0 0.0 0.0 0.0
0001b0 00 00 00 00 00 00 00 00 00 00 00 00 00 00 00 00
       0.0 0.0 0.0 0.0
0001c0 00 00 00 00 00 00 00 00 00 00 00 00 00 00 00 00
       0.0 0.0 0.0 0.0
0001d0 00 00 00 00 00 00 00 00 00 00 00 00 00 00 00 00
       0.0 0.0 0.0 0.0
0001e0 00 00 00 00 00 00 00 00 00 00 00 00 00 00 00 00
       0.0 0.0 0.0 0.0
0001f0 00 00 00 00 00 00 00 00 00 00 00 00 00 00 00 00
       0.0 0.0 0.0 0.0

network_body._body_endoder.seq_layers.2.weight f4 [128, 128]
000000 d9 a9 16 bd ed 78 f7 3d ca 8f 8a bd fe 36 58 3d
       -0.036783073 0.12083612 -0.06765707 0.05278682
000010 e9 a4 a2 bd 9d f8 18 3e 7a 45 2b be c1 43 18 3d
       -0.0794161 0.14938588 -0.16725722 0.03717399
000020 fe 46 a8 3d d8 33 23 3d 71 08 b1 3d 6e ed 3a bb
       0.08216666 0.039844364 0.08644188 -0.0028522867
000030 ff d9 91 bd 21 83 48 be a0 74 3c 3d 2f 81 19 bb
       -0.071216576 -0.19581272 0.04600966 -0.0023422947
000040 15 e6 a3 bc f9 98 f2 bd 3e fb 69 3d dc 48 8a bd
       -0.020007173 -0.118455835 0.05712437 -0.06752178
000050 ef 05 20 3e 08 a9 43 3e c3 8d 84 be 30 bb aa 3d
       0.15627263 0.19107449 -0.25889406 0.083364844
000060 01 a2 fe bc d7 52 1d 3e 0f ec 0b bd 07 1a 56 bd
       -0.031083109 0.15363632 -0.03416067 -0.052270915
000070 50 6b a2 3c 17 f6 09 3e c1 9d ec bd e9 c7 86 3d
       0.019826561 0.13472782 -0.11553527 0.065810986
000080 8e 41 67 bd 08 d7 5f 3c f6 ce 0e 3e 27 06 71 bd
       -0.056459002 0.013662107 0.13946137 -0.058843758
000090 fe 53 ac bd 56 bc 20 be 85 84 7e 3c 38 c2 97 bd
       -0.08414458 -0.15696844 0.015534525 -0.07410091
0000a0 af 88 fd 3d 8b 95 dc 3d 69 5a 50 bd cf 35 16 3e
       0.12379586 0.107707106 -0.05086747 0.14668964
0000b0 ba f2 82 bd 36 86 e9 3d 36 da d6 3d d8 8f 13 be
       -0.06393953 0.11402552 0.10490839 -0.14410341
0000c0 97 a9 bc 3d f1 b8 d0 bd d9 b7 b0 3b b3 a0 32 3d
       0.09212034 -0.10191525 0.00539301 0.043610286
0000d0 20 c2 6c bd db 57 d7 bd 98 6a 13 bd 79 0c e2 bd
       -0.05780232 -0.10514804 -0.035990328 -0.11037535
0000e0 7f ec 86 bd aa 9d 0f 3e fe bb b7 bd c4 6b 57 3c
       -0.06588077 0.14024988 -0.089714035 0.013148252
0000f0 59 c3 a0 bd fe d7 4d bc b8 fa b7 bc f9 fa b6 bc
       -0.078497596 -0.012563704 -0.02245842 -0.02233647
000100 58 5b 95 bc a2 cb 42 3c dd 26 a7 bc 55 8d c9 3c
       -0.018232033 0.01188937 -0.020404274 0.024603525
000110 c0 28 8a 3c 2b 77 f4 3d 44 b3 0c bd 25 19 96 bd
       0.016865134 0.11936792 -0.03435065 -0.07329015
000120 88 05 0d 3d 8d 64 66 bd 33 50 ab bd 61 2b 45 3d
       0.034429103 -0.056248236 -0.08364906 0.048137072
000130 c6 39 7a bd 97 5f 7a 3d 6e 1f 7d bd 11 c5 37 bc
       -0.061090253 0.061126318 -0.06179755 -0.011216418
000140 85 1c 9f 3d 9a 38 0a bc 5a 22 9a bb 3f 37 7d bc
       0.077691115 -0.008436346 -0.004703802 -0.015455066
000150 7b fd d8 bd 26 34 93 3d c9 de 51 bd 6c 9a 24 3d
       -0.105952226 0.07187681 -0.051237855 0.04018633
000160 ed 52 7a 3d de dd 41 3d eb 24 a7 3d 8d 3b c3 3c
       0.06111424 0.04733073 0.081613384 0.023832107
000170 c4 70 9a bd 5c c4 88 bd bf a6 f9 3d 97 17 3a bd
       -0.075410396 -0.066780776 0.121900074 -0.045432653
000180 84 7b c1 bc 76 9f 29 bd c5 f9 53 3d 14 54 2e bd
       -0.023618467 -0.04141184 0.05175187 -0.042560652
000190 23 9d 31 bc 47 2e 48 3d b9 ee 25 bd 8c b1 06 3e
       -0.010840687 0.04887226 -0.040510867 0.13153666
0001a0 8d e7 77 bd 47 9d eb 3d 23 32 75 3c 09 7d cb 3d
       -0.06052356 0.11504608 0.014965567 0.09935958
0001b0 9f 11 dd bc 3a 21 df 3c 44 39 3c bd d4 4f 97 bc
       -0.026985941 0.027237523 -0.04595305 -0.018470682
0001c0 81 31 49 bd 58 d2 8c bd 3c 80 f8 bd 42 c8 9a 3d
       -0.049119476 -0.068760574 -0.12133834 0.075577274
0001d0 81 28 e3 bd 03 d2 3e 3d 9a fe 90 bc da 83 cc 3c
       -0.1109171 0.046587 -0.017699528 0.024965215
0001e0 ff fc 69 3d f5 22 47 3d 29 5f 0e 3d bf 97 9f 3c
       0.05712604 0.048617322 0.03475872 0.019481538
0001f0 88 91 4e 3c 1d 89 15 be a2 2e ec bb 98 27 60 3b
       0.01260794 -0.14603086 -0.0072077075 0.0034203287
000200 b4 d2 e3 3d a5 dc 0f 3e 9d f4 28 3d b2 5e b5 3d
       0.11124173 0.14049013 0.041248906 0.08855952
000210 c0 98 99 3d 78 b2 68 3d 82 04 a3 3d 2b f8 20 3e
       0.07499838 0.056810826 0.07959844 0.15719669
000220 cc 0c e3 3c 9c 1d b8 3d 7f e9 df bd 78 7b 01 be
       0.027716063 0.089900225 -0.10933208 -0.12644756
000230 6b 5f d5 3d 5e 15 f3 bd c0 c9 ed 3d d3 92 76 bd
       0.1041859 -0.1186931 0.116107464 -0.060198616
000240 b2 15 d1 3c e1 33 82 be db 60 ed 3d b5 70 d2 bc
       0.02552304 -0.25430205 0.11590739 -0.025688509
000250 d1 cf 37 3d 71 1f 22 be 5a b8 4b be 4e d0 ba bb
       0.044875924 -0.15832306 -0.19894543 -0.0057011014
000260 e2 d3 0d be f9 43 41 bd 94 22 65 bd 17 71 f9 bd
       -0.13850358 -0.047183964 -0.05594118 -0.12179773
000270 9b 4f f7 3d 22 97 ec bd 26 47 90 bd a4 63 86 be
       0.120757304 -0.11552264 -0.070448205 -0.26247895
000280 9c 6b b0 3b a2 1b be bb c3 ec 99 3d c5 88 a4 bd
       0.005383922 -0.005801634 0.07515862 -0.08033899
000290 b9 41 c8 3d 52 fc c7 bd f3 6f 07 3d 68 9a 9e bd
       0.097781606 -0.09764923 0.033065747 -0.077442944
0002a0 b3 bd 24 be 0a a7 50 3e 82 a7 22 3e 38 31 17 3e
       -0.1608799 0.2037622 0.15884212 0.14764869
0002b0 01 7c f7 3d 69 41 09 be d8 22 76 bd 14 68 94 3c
       0.12084199 -0.13403858 -0.060091823 0.018116035
0002c0 43 e2 91 3d 97 bd 8a bd e8 7b d6 3a 69 2d f3 3c
       0.07123234 -0.06774443 0.0016363831 0.02968474
0002d0 1d ca 89 3d 04 f0 0c be 91 57 d3 3d 4c 73 ae 3c
       0.06728003 -0.13763434 0.10319436 0.021295212
0002e0 7f eb 08 bc 4d 06 17 bb a3 e2 8a bd 2d ea a4 bd
       -0.008356928 -0.0023044527 -0.06781509 -0.08052478
0002f0 e3 8e ca bc b2 64 c8 3b 32 44 a6 3d 61 4d a0 bc
       -0.024726337 0.0061155194 0.08118476 -0.019568147
000300 8f 51 a1 3d 6f b9 9c 3d 98 ce a5 bc ae c6 5a 3e
       0.07876884 0.07652556 -0.020240113 0.21364853
000310 1c 59 95 bd ff 4f ad bc e8 23 b6 bd 43 91 72 bd
       -0.07292387 -0.02115631 -0.08893567 -0.059220564
000320 65 7c e1 bd 4d cc 45 3e 2b 70 9e bd a2 b9 16 3e
       -0.110100545 0.19316216 -0.07736238 0.14719251
000330 d4 9b 4a 3e 91 14 e4 3c a3 75 00 bd f3 13 0e be
       0.19786006 0.027841838 -0.031362187 -0.13874798
000340 a3 cc 52 bd 42 9a d5 bc 70 9f 85 3d 21 86 15 be
       -0.051464688 -0.026074532 0.06524551 -0.14601947
000350 c8 ad b4 3d fa 1e 65 3d be fb bf bc d9 b8 be 3d
       0.08822209 0.055937745 -0.02343547 0.09312601
000360 ee b6 43 bd 43 96 65 bd ac aa 1f be 17 c1 5f be
       -0.047781877 -0.056051504 -0.1559245 -0.21851002
000370 5f 12 c4 bc fb 4c 25 be a6 8d b0 bc c4 2d 96 bd
       -0.023934541 -0.16142647 -0.021551918 -0.07332948
000380 75 66 d5 3c 16 e3 1c bc ed 43 11 3e 84 91 97 be
       0.026049832 -0.009575626 0.14186068 -0.29603207
000390 8a f7 59 bd 3d 05 0c 3e f6 0b 7d 3d f5 a9 bd bc
       -0.053214587 0.13673873 0.061778985 -0.02315233
0003a0 d3 a3 80 3d 00 e7 0f bd c4 d2 a4 bd 39 06 1a bd
       0.06281247 -0.03513241 -0.08048013 -0.03760359
0003b0 f7 36 b5 3c 2e e5 a8 bd c8 a0 41 bd c9 30 63 bc
       0.022120936 -0.082468376 -0.047272474 -0.013866612
0003c0 c5 bf 27 3e 76 ff 86 be 9d 6a 23 3d c9 94 1e 3e
       0.16381748 -0.26366776 0.039896596 0.15486445
0003d0 a2 7e c7 bd 9e 9c 1e bc 03 d2 72 bd 9c 5c ab 3c
       -0.0974095 -0.009680895 -0.059282314 0.020918183
0003e0 fd f0 79 3d cf 7a 32 3d e4 7a 09 be 2f b1 35 3d
       0.06102084 0.04357415 -0.13425785 0.04435843
0003f0 9d 06 01 be 83 1d 02 be 16 ae ec bb f4 52 f9 3c
       -0.12600179 -0.1270657 -0.007222901 0.030435063

network_body._body_endoder.seq_layers.2.bias f4 [128]
000000 00 00 00 00 00 00 00 00 00 00 00 00 00 00 00 00
       0.0 0.0 0.0 0.0
000010 00 00 00 00 00 00 00 00 00 00 00 00 00 00 00 00
       0.0 0.0 0.0 0.0
000020 00 00 00 00 00 00 00 00 00 00 00 00 00 00 00 00
       0.0 0.0 0.0 0.0
000030 00 00 00 00 00 00 00 00 00 00 00 00 00 00 00 00
       0.0 0.0 0.0 0.0
000040 00 00 00 00 00 00 00 00 00 00 00 00 00 00 00 00
       0.0 0.0 0.0 0.0
000050 00 00 00 00 00 00 00 00 00 00 00 00 00 00 00 00
       0.0 0.0 0.0 0.0
000060 00 00 00 00 00 00 00 00 00 00 00 00 00 00 00 00
       0.0 0.0 0.0 0.0
000070 00 00 00 00 00 00 00 00 00 00 00 00 00 00 00 00
       0.0 0.0 0.0 0.0
000080 00 00 00 00 00 00 00 00 00 00 00 00 00 00 00 00
       0.0 0.0 0.0 0.0
000090 00 00 00 00 00 00 00 00 00 00 00 00 00 00 00 00
       0.0 0.0 0.0 0.0
0000a0 00 00 00 00 00 00 00 00 00 00 00 00 00 00 00 00
       0.0 0.0 0.0 0.0
0000b0 00 00 00 00 00 00 00 00 00 00 00 00 00 00 00 00
       0.0 0.0 0.0 0.0
0000c0 00 00 00 00 00 00 00 00 00 00 00 00 00 00 00 00
       0.0 0.0 0.0 0.0
0000d0 00 00 00 00 00 00 00 00 00 00 00 00 00 00 00 00
       0.0 0.0 0.0 0.0
0000e0 00 00 00 00 00 00 00 00 00 00 00 00 00 00 00 00
       0.0 0.0 0.0 0.0
0000f0 00 00 00 00 00 00 00 00 00 00 00 00 00 00 00 00
       0.0 0.0 0.0 0.0
000100 00 00 00 00 00 00 00 00 00 00 00 00 00 00 00 00
       0.0 0.0 0.0 0.0
000110 00 00 00 00 00 00 00 00 00 00 00 00 00 00 00 00
       0.0 0.0 0.0 0.0
000120 00 00 00 00 00 00 00 00 00 00 00 00 00 00 00 00
       0.0 0.0 0.0 0.0
000130 00 00 00 00 00 00 00 00 00 00 00 00 00 00 00 00
       0.0 0.0 0.0 0.0
000140 00 00 00 00 00 00 00 00 00 00 00 00 00 00 00 00
       0.0 0.0 0.0 0.0
000150 00 00 00 00 00 00 00 00 00 00 00 00 00 00 00 00
       0.0 0.0 0.0 0.0
000160 00 00 00 00 00 00 00 00 00 00 00 00 00 00 00 00
       0.0 0.0 0.0 0.0
000170 00 00 00 00 00 00 00 00 00 00 00 00 00 00 00 00
       0.0 0.0 0.0 0.0
000180 00 00 00 00 00 00 00 00 00 00 00 00 00 00 00 00
       0.0 0.0 0.0 0.0
000190 00 00 00 00 00 00 00 00 00 00 00 00 00 00 00 00
       0.0 0.0 0.0 0.0
0001a0 00 00 00 00 00 00 00 00 00 00 00 00 00 00 00 00
       0.0 0.0 0.0 0.0
0001b0 00 00 00 00 00 00 00 00 00 00 00 00 00 00 00 00
       0.0 0.0 0.0 0.0
0001c0 00 00 00 00 00 00 00 00 00 00 00 00 00 00 00 00
       0.0 0.0 0.0 0.0
0001d0 00 00 00 00 00 00 00 00 00 00 00 00 00 00 00 00
       0.0 0.0 0.0 0.0
0001e0 00 00 00 00 00 00 00 00 00 00 00 00 00 00 00 00
       0.0 0.0 0.0 0.0
0001f0 00 00 00 00 00 00 00 00 00 00 00 00 00 00 00 00
       0.0 0.0 0.0 0.0

value_heads.value_heads.extrinsic.weight f4 [1, 128]
000000 c9 bf 13 be 0f 95 bc bb d5 4c 43 be 8a 6b 40 be
       -0.14428629 -0.005755074 -0.19072278 -0.18791023
000010 7c 80 4d 3d c6 73 17 be d4 ec fe ba 3d 9d 24 3d
       0.05017136 -0.14790258 -0.0019449242 0.040189017
000020 a8 7f 52 be db 5c 15 3c 58 0c 38 be 8e 35 2e 3e
       -0.2055651 0.009116377 -0.17973459 0.17012617
000030 c4 81 59 3e dc e0 2a 3e 23 e7 d6 3d ea 63 77 bc
       0.21240908 0.1668734 0.104933046 -0.015099505
000040 6d f2 18 3e be 7c b9 3d c2 ae 43 be f3 be cb bd
       0.14936228 0.09056996 -0.19109634 -0.0994853
000050 a7 65 c1 3d 98 6d 0c be dd be 15 bd df 2a 0b 3d
       0.09443217 -0.13713682 -0.036558975 0.033976432
000060 fc cd 24 be 0a 7d f4 3d 61 b1 54 3d 21 73 34 3c
       -0.16094202 0.11937912 0.051926974 0.011013777
000070 5a 4c 51 bd 13 1d 39 3e 55 21 5a 3e 39 47 ec bd
       -0.051098205 0.18077497 0.21301778 -0.11537022
000080 38 e5 5f 3c 93 e5 ee bb 6f bf e8 bd a8 f4 cb bd
       0.01366549 -0.007290551 -0.11364638 -0.09958774
000090 cf c4 84 bd 10 2d 89 3d 2d 98 b0 bd 90 16 0d 3e
       -0.06482851 0.06698048 -0.08622775 0.13778138
0000a0 4f b1 9a bd f5 37 b9 3d b0 58 29 be 1e 49 49 3e
       -0.0755335 0.09043876 -0.16537738 0.19656798
0000b0 70 e7 68 3c 85 07 8d bc 50 98 53 3e 2a 90 dc bd
       0.014215335 -0.0172155 0.20663571 -0.107696846
0000c0 ca bf 14 3e 7f 08 c7 3b 2d 06 5a 3e a8 5b d8 3b
       0.14526287 0.006074011 0.21291418 0.006602723
0000d0 45 85 04 3c 0d f0 36 3e b7 91 30 be c4 22 24 bc
       0.008088415 0.1786501 -0.17243086 -0.010018054
0000e0 ae 40 7c 3d 6a 1a 13 bd 50 52 17 be 04 35 09 bb
       0.06158512 -0.035913862 -0.14777493 -0.002093614
0000f0 e0 e9 92 3d 32 99 d7 3d de 9c 95 3d 30 8f 0e 3e
       0.07173514 0.105272666 0.07305311 0.13921809
000100 a7 fc cd 3c e4 90 3b be 17 7d 11 3e 64 f9 2a 3e
       0.025144888 -0.1831699 0.14207874 0.16696697
000110 c5 c1 6c bd bd f7 4b be ac e2 ec bc 0d 88 9a bd
       -0.05780198 -0.19918723 -0.02891668 -0.07545481
000120 c6 eb b3 3d 02 b9 42 3e 2f f7 30 3e 6a c5 32 bd
       0.087852046 0.19015887 0.17281793 -0.0436453
000130 23 25 23 3e e4 12 ef 3d fe 02 2a be 56 ab 09 3d
       0.15932135 0.11673525 -0.16602704 0.033610664
000140 d5 54 71 bd ee 59 38 3e f3 68 52 bd 76 e8 fe 3c
       -0.058918793 0.18003055 -0.05136962 0.031116705
000150 0f a1 f5 bd 2f 29 41 3e e2 4e 3c 3e 18 7f 35 3e
       -0.1199361 0.18863367 0.18389466 0.17724264
000160 67 76 ed bd cb 95 55 bc 0f 6a 4c 3d fc 28 56 be
       -0.11594849 -0.013036202 0.049905833 -0.20914072
000170 36 53 1a 3e 19 06 a1 3d 4d 01 fa 3d d3 a9 21 be
       0.15070805 0.07862491 0.12207279 -0.15787439
000180 80 1d 1d be 64 b7 ec 3d 20 0b 36 be cb 1c 52 3e
       -0.15343285 0.115584165 -0.17777681 0.20518796
000190 73 36 d1 3d be 6b 4a be 3b 82 43 3e 37 35 c8 bc
       0.102154635 -0.19767663 0.19092648 -0.024439437
0001a0 fa c8 3c 3e 6c 19 36 3e 35 b4 03 3e 85 ba 15 3e
       0.18436041 0.17783135 0.12861712 0.14621933
0001b0 43 5c 90 3d cc 89 55 3e 4c b6 bc 3d 6e 5f 19 3e
       0.070488475 0.20853347 0.09214458 0.1497781
0001c0 e9 6a 64 bd 18 6c 24 be 4f 06 1b 3e 83 aa ca 3d
       -0.05576602 -0.1605686 0.15139125 0.09895804
0001d0 0f ff 6c bd 92 2c d1 3c a4 34 3a be 40 11 b8 bc
       -0.05786043 0.025533948 -0.18184143 -0.022469163
0001e0 30 7a 51 3e 4c 3a db 3d d4 3e 27 be c0 0b 66 bd
       0.20456767 0.107044786 -0.16332561 -0.05616355
0001f0 fa 02 38 bd 8c dd 16 3d 26 c6 25 be 9d 79 f6 bd
       -0.044924714 0.036832377 -0.16188869 -0.12034915
