results/jugglingRobotV1/JugglingRobotV1/JugglingRobotV1-49327.pt (torch, 449887 bytes, 36 tensors)

network_body._body_endoder.seq_layers.0.weight f4 [128, 9]
00000000: 08bb c6be 3ef0 2c3e ad0e 803e fc50 00be
00000010: 3a51 1c3e f0ca d63d 0147 2b3f 6478 543e
00000020: 4b8e b03c d723 edbe 7a20 af3e 6bd7 95be
00000030: 12b7 303e 11a8 c23d 2d5b 8d3e f468 703e
00000040: 3488 8c3e 3949 463d 24fd 99be 468c a93e
00000050: ad92 27be 66e7 eabd 9375 1cbf 27a9 8fbd
00000060: 4f32 373e 00bb e7be d74f 01bf 9b24 ff3d
00000070: b6dd e2be db31 38bf 3a67 f33d 9120 0b3f
00000080: dd05 153f fd88 703d f24e 04be c64e de3e
00000090: 80b1 f0be 6973 aebe 1368 63be a38b 65be
000000a0: cf1e 093f 13dd f2be e0d3 91be 9c3c f8be
000000b0: 9c11 2b3e 4fef 8ebe cdc0 92be 030a bc3e
000000c0: 8f72 eebe fa3b 363d 5bae 343d abb6 bdbe
000000d0: ec8d 25bf 0cf9 acbe 581c f2bc 122f d0be
000000e0: 1706 d8bc 858b ef3c 0784 733e 7edb f93d
000000f0: 7158 c4be 13df f3be 192e b23e c3f0 74be
00000100: dd66 acbe abf7 9bbe 2844 923e e42b 033f
00000110: 9915 53be 8cf1 f0be fd71 dc3e 4240 bf3d
00000120: d8aa a03e 6568 183e 5162 7d3e 3843 57bc
00000130: 622c 1c3f ecb2 1bbe 63d4 3a3e 5b95 fb3e
00000140: b242 d8be 7d02 86bd 8db6 5cbe 8ab7 4cbe
00000150: a4fe c8be 472c d83e 8319 0ebd b5d2 fabd
00000160: 191c 6a3e c576 153f d0b8 473f 0b3b 2c3f
00000170: 730b 80bc 035c 63bc 981f a93e 9ee3 1fbf
00000180: 51f2 b6be 98e0 9dbd 005f 673d 43a2 67be
00000190: 1366 fbbb 1013 1cbe 87da 213e 1d87 a73e
000001a0: b71c f83e be3c 7c3e d258 eebe dffa bd3d
000001b0: 04ad 1abe d979 f6be 035d 143e f722 51bf
000001c0: 1ccd f5be c900 843d 6274 3e3e be16 98be
000001d0: 48be a7be 9947 193f 9254 88be 06a6 a0be
000001e0: 2540 2abe c44a 2fbf 69a2 97be 0294 f1be
000001f0: 2021 c43d 00d5 35be 6369 7cbd 9e01 b93e
00000200: 02e9 0c3e 87c5 ecbd 1b5f e93e e0c4 223f
00000210: a750 bc3e 3fe7 fdbe fc0f 543e ed23 97bd
00000220: aa0f f0be c204 463e 214c fd3e 569c 17bf
00000230: d1ea 97be 2f31 953e 89fa 6f3d 16d7 f7be
00000240: f03b 16bf 5091 30be 0acb 56bd d13e 09bf
00000250: 6eb2 8ebe 1147 c83e 41f1 033e 03cc 0dbc
00000260: 67b2 673d 6951 17be d799 b8be 2914 953e
00000270: 34b3 293f 5dc9 1e3f c2c6 8dbe 2fda 0bbd
00000280: 91e0 cebd 0f6e 833e 7fdd 0abf f94a b5be
00000290: 68cb aebe 294c 293f c900 983e 68ad 1b3f
000002a0: 1a09 25be fc35 903e f32f dcbd afe7 293e
000002b0: b3e9 41bf 46e0 883d fb7d 41be 5d57 ba3c
000002c0: c92c a8bc 5766 313e 221e 93bc 5ecc 13bf
000002d0: e170 acbe 25d8 0cbf 4754 81bd 4d76 77be
000002e0: c1b8 b93e 591c d13e c2f0 ebbe 2d39 19be
000002f0: 2232 febd 39aa 59bd d6f1 8dbd af56 823d
00000300: ec67 acbe 9912 f73e 6015 e7be ed59 093f
00000310: 0b74 943d 1f02 edbe b2b8 f53d a70a 9ebe
00000320: 6408 e9bd 6588 773d b318 f6bc 8ef5 a5be
00000330: 5c55 8b3e ce23 0ebe c92b 1dbf f556 7abd
00000340: 638a bbbe a417 b3be 722d 623e e63f 8fbb
00000350: 60f0 5ebe 4563 a53d cdcc 8c3e c107 48be
00000360: 5ac7 a03e 3e86 d73e b078 88be 94e8 e63d
00000370: 3ab1 d2be 82a0 81bd 0c97 f53d acb6 193e
00000380: 0fca 2e3f 7852 2cbd c392 66be 9d23 123f
00000390: 719a b93e f968 d03e 956b 913d 8f24 c53e
000003a0: 1300 383e ac02 943b bcc3 c73e 2c2c c33e
000003b0: a205 373f 9bfa be3e a11e acbc f3f0 c0be
000003c0: ef3a e0be 5494 4b3e 97a2 0f3e ea2f 09bf
000003d0: c782 223f 99b7 2ebd e1af c6be 9244 9b3e
000003e0: 91fa 06bf faa0 b4be 3263 493c 4bef 77bf
000003f0: 110d 373e eabf d6be 0df9 09be 87e8 2a3e
-0.3881457 0.1688852 0.25011197 -0.12530893 0.1526536 0.10487926 0.6690522 0.2074905
0.021552226 -0.46316406 0.34204465 -0.29265913 0.17257336 0.095047124 0.27608624 0.23477536
0.27447665 0.048409674 -0.30075943 0.33114833 -0.16364546 -0.11469917 -0.61116904 -0.07014685
0.17890285 -0.45259857 -0.5051245 0.12458154 -0.44309777 -0.71951073 0.11884923 0.5434657
0.5821207 0.058724392 -0.1292074 0.43419474 -0.47010422 -0.34072426 -0.2220767 -0.22416548
0.53562635 -0.4743429 -0.2848196 -0.4848374 0.16705936 -0.27916953 -0.2866272 0.36726388
-0.46571776 0.04449079 0.04411159 -0.37053427 -0.6466968 -0.33783758 -0.029554531 -0.40660912
-0.026370091 0.029241333 0.23780833 0.12200068 -0.38348725 -0.4763113 0.34800795 -0.23919968
-0.33672228 -0.30462393 0.28567624 0.51238847 -0.20613708 -0.47059286 0.43055716 0.09338428
0.31380343 0.14883573 0.24744536 -0.013138585 0.6100522 -0.15204972 0.18245082 0.49137387
-0.42238384 -0.06543443 -0.21554013 -0.1999189 -0.39256775 0.4222128 -0.0346923 -0.122472204
0.22862281 0.5838435 0.78016376 0.6727759 -0.01563046 -0.013876918 0.33031917 -0.6245669
-0.35731748 -0.077088535 0.056487083 -0.22620492 -0.0076720803 -0.15241647 0.15806018 0.3272027
0.48459408 0.24632546 -0.4655214 0.092763655 -0.15105063 -0.48139837 0.14488606 -0.8169398
-0.4800805 0.06445462 0.18599084 -0.2970485 -0.3276236 0.59874874 -0.26627022 -0.31376666
-0.16626032 -0.6847346 -0.29616097 -0.47183233 0.095766306 -0.17757034 -0.061623942 0.36134046
0.1376076 -0.11561113 0.45580372 0.6358166 0.36780283 -0.4959049 0.20709223 -0.07379899
-0.4688695 0.19337752 0.49472144 -0.59222925 -0.29671338 0.29139087 0.05858854 -0.48406285
-0.5868521 -0.17242932 -0.052439727 -0.53611475 -0.27870506 0.3911672 0.12885 -0.008654597
0.056566622 -0.1477715 -0.3605487 0.29116943 0.6628907 0.62026006 -0.27690703 -0.034143623
-0.101014264 0.25669906 -0.54244226 -0.35408762 -0.34139562 0.66131836 0.296881 0.6081147
-0.16116753 0.28166187 -0.10751333 0.16592287 -0.7574722 0.06683402 -0.18895714 0.022746736
-0.020529168 0.17324196 -0.017958704 -0.57733715 -0.3367987 -0.5501731 -0.06314903 -0.24166222
0.3627377 0.4084194 -0.4608212 -0.14963217 -0.12411906 -0.053140853 -0.06930892 0.0636419
-0.33673036 0.48256376 -0.45133495 0.5365284 0.07248696 -0.4629068 0.119981185 -0.30867502
-0.113785535 0.06043281 -0.030041074 -0.32413906 0.27213562 -0.13880846 -0.61394936 -0.061118085
-0.36629018 -0.34978974 0.22087649 -0.004371631 -0.21771383 0.08075575 0.275 -0.19534208
0.31402093 0.42094606 -0.26654577 0.112748295 -0.41150838 -0.063294426 0.119917005 0.1501109
0.68277067 -0.042070836 -0.22516923 0.5708559 0.36250642 0.40705088 0.07100598 0.38504454
0.17968778 0.00451692 0.3901652 0.38119638 0.7149297 0.37300572 -0.021010699 -0.3768383
-0.43794963 0.19880801 0.14026867 -0.53588736 0.634808 -0.04265556 -0.3880606 0.30325752
-0.52726084 -0.35279065 0.012291716 -0.9684951 0.17876078 -0.41943294 -0.13473912 0.16690265

network_body._body_endoder.seq_layers.0.bias f4 [128]
00000000: 0e79 fb39 f249 8dba 8395 2dbc dffb db3b
00000010: f597 8bbb 67fe c6bb e7e5 0e3b 8e6e b938
00000020: 476f 5b3b 6485 a9ba 8f4b f2bb 5fc6 013c
00000030: 0fe3 1cbb 0d61 0c3b f829 fa3b 75a6 3aba
00000040: 0b60 0abb 58e1 d439 6d31 9cba 52f8 68ba
00000050: 8f6a 1fba abb6 7a3c 1d22 60bc 7224 24bc
00000060: 089d ce39 4f20 8b3a 743e fe3a 0eed 3a3c
00000070: 9081 183a dc24 163c d1d1 b6ba 9c62 35ba
00000080: 33ab d0ba dfc0 d4bb 3de2 33bc b464 d2bb
00000090: a3b9 8e3b a7e7 493a f446 653b db57 3f3b
000000a0: e74c 893b 30c4 533b e5a7 733c fb74 c0ba
000000b0: 00ea d5b8 fb1b 13bc 2a6a 403b 80ae 15ba
000000c0: 0ac8 263b f0a5 3139 92d1 64bb 4ed9 1b3b
000000d0: e624 93bb fd78 d23a 98b3 3438 a92d ac39
000000e0: 7c49 2d3b 3cf6 8a3c d51e 0bba ff77 43bc
000000f0: acfb 103c 23e8 0cbb bfd7 9439 8574 463b
00000100: 2dba 453c 85de 53ba a1e1 a8bb 5cdf b23b
00000110: 083a 0abb 1ae2 98bb 4a8d 04ba 7a72 1ebc
00000120: fce9 85ba 2c61 343b 2ee3 b039 f244 8e3b
00000130: 4032 4a3b aeef 1cbc 79a2 01bb 794f a2bb
00000140: 7964 863c a135 9dba 3c60 a93b fa5e 4c3b
00000150: 10e1 60ba ecda adb9 b142 70bc daf8 92ba
00000160: fb19 52bc 081c 053b 204d a7ba 2ef0 d2bb
00000170: 06f2 5aba eff9 aebb bda7 c139 7515 28bc
00000180: dd71 15bc bdc9 96b9 5e4c d63b 045a ae3b
00000190: e742 103b 044c a33a c14b 543c 4e8f 32bb
000001a0: 3048 15bb 40f4 8abb 52a9 773b fbeb 17bb
000001b0: 9835 d63b 5401 c6bb 6823 b0bb bc44 e23a
000001c0: eec1 513b 45e1 cc3b 9afa edbb c66f 143c
000001d0: eca4 8a3b 51a2 58bc 00fa 70bb e5cb c6ba
000001e0: 7873 1b3c 0acc c039 bd06 aebb 33ea d83a
000001f0: c883 be3b 8c07 cf39 8a49 fc3a c69f 77bc
0.00047964643 -0.0010779484 -0.010594728 0.006713375 -0.004260058 -0.0060728076 0.0021804513 8.84208e-05
0.0033483075 -0.001293343 -0.007394261 0.0079208305 -0.0023939048 0.0021420151 0.0076343976 -0.0007120141
-0.0021114375 0.00040603685 -0.0011916585 -0.00088871 -0.0006081247 0.0153023405 -0.013680008 -0.010018455
0.0003940838 0.0010614487 0.0019397275 0.011409057 0.0005817646 0.009164061 -0.0013948028 -0.0006919296
-0.0015920162 -0.0064927186 -0.010979232 -0.006420696 0.0043556257 0.00077020604 0.0034984918 0.0029196653
0.0041900757 0.0032312982 0.014871572 -0.00146833 -0.000102002174 -0.008978839 0.0029360154 -0.00057099015
0.0025448822 0.00016941852 -0.0034914953 0.0023780647 -0.0044904826 0.0016057786 4.3082604e-05 0.00032840416
0.0026441505 0.016963117 -0.00053070235 -0.011930465 0.008849066 -0.002150067 0.00028389503 0.0030281853
0.012068314 -0.0008082169 -0.00515385 0.0054587554 -0.0021091718 -0.0046656253 -0.0005056454 -0.009670848
-0.0010216828 0.002752374 0.00033738598 0.004341715 0.0030852705 -0.009578628 -0.001978068 -0.0049533215
0.016405331 -0.0011994132 0.0051689427 0.003118454 -0.0008578459 -0.0003316024 -0.014664338 -0.001121308
-0.012823577 0.0020310897 -0.0012764074 -0.006437323 -0.00083521043 -0.005339853 0.00036936803 -0.010259022
-0.009121385 -0.00028760536 0.0065398654 0.0053207893 0.0022012533 0.0012458568 0.012957514 -0.002724606
-0.0022778623 -0.0042405427 0.0037790132 -0.0023181427 0.0065371506 -0.006042639 -0.0053753145 0.0017262916
0.003200646 0.00625244 -0.00726254 0.009059852 0.004231086 -0.013222293 -0.0036770105 -0.0015166966
0.009487979 0.00036773115 -0.005310862 0.0016549289 0.0058140494 0.0003948774 0.001924799 -0.015113777

network_body._body_endoder.seq_layers.2.weight f4 [128, 128]
00000000: a3d6 8c3c bc94 2d3c 6ba0 213b 6b60 c2bd
00000010: bd85 babc 7b9f b73b a6ab b7bd cbb2 bc3b
00000020: 69f3 5d3d 5583 1abb 9869 5ebd f687 06be
00000030: b7c5 4fbd b787 f8bc f7e2 01be e4ce ee3b
00000040: cde2 84bd 5dab 77bd ac7b 393e 067b 793c
00000050: bddb 953d 9012 733b 228c 00bd 5f2e d9bd
00000060: 143a 513d 3357 25bd e5b0 dbbd 22fd 983c
00000070: 40b6 3abd 921d 4abd 3ef3 b53d 50b6 4e3e
00000080: cd44 01be 45ba d6bd 9c36 6cbc 8ab7 b43d
00000090: 1aa1 17bd 04a5 b1bc b7e3 ecbd 2aa1 5a3c
000000a0: 3158 c8bc d058 d7bd af2e 0c3e f719 6dbd
000000b0: 32c6 bfbb aa79 213e 3b4a efbb f2ea a53d
000000c0: bfcf 923c 0aaa 09bd 59bc 27bc 0c2a a13c
000000d0: e455 923d 9c42 c4bd fe01 f83d a2cb cabd
000000e0: f3c8 14be 8bc0 023d c3f3 213c 4562 0f3e
000000f0: f5ef 0cbd 2e71 023d f69e c8bb f829 9b3d
00000100: 117e af3d c31a f5bc b419 0c3e 9cd2 9dbd
00000110: 9f5b ee3d fb0e 01bc 1a68 ba3d 2275 30be
00000120: c6dd 913d 40b4 8b3d 436a 163b 1402 333d
00000130: c177 46bd e5ec a0bd d5b8 d53c b8e2 5f3d
00000140: 372f 8cbd 17f7 a6bb d7b1 9d3d 0a54 543d
00000150: df51 f63d 62c2 7dbe 03ff c23d be77 8fbd
00000160: d07c 43bd 93a1 a1bc ef07 cebd 1d16 5fbc
00000170: cb09 07bd c9c3 1b3d 86e6 a23d 70a8 acbd
00000180: f890 093d a6f6 5c3c 72f6 083e 046f 0bbd
00000190: 42d6 72bd fda2 31be 496c 133e 3f6c a3bc
000001a0: 8b6f afbc dd2e 2ebd 447f 623d 75ad 1fbe
000001b0: 9ee0 57be 3efc e1bd 396d bc3d 61b5 053d
000001c0: 6825 b13d 7ca8 e33d ef46 3e3c c416 3dbe
000001d0: c966 63bd 3c15 07bd 2302 1fbd 59ca 49bd
000001e0: 02ea 283e 446c a0bd a118 d8bd 34ce 793c
000001f0: 9b64 523d 363b 0cbe ad0c a33c 2286 393d
00000200: 7dd6 8c3d e34d 4a3d 6dfc 7a3c d6ad 193e
00000210: d8f0 293d 414c 0d3d 3232 1fbd 1655 663e
00000220: 8e40 0d3d c158 413e 15ce 2c3d 939f 313e
00000230: 3f78 f0bd 8abc 21bd 254c 5dbd cb1d 463c
00000240: 0d0a 7abd 36e1 e53d 9fc9 6a3d d7df 44be
00000250: 5b64 9b3d 274a 69bd 8371 eebd c5fc f73d
00000260: c7dc 243d 1247 4f3d bf2f 19bd eb29 223e
00000270: 2927 1f3e 4aa3 95bc 6b76 21be 82a9 363d
00000280: 4367 9d3d 0ca5 233d 40c6 383a e6ce 2cbb
00000290: 716d 95bd e23d 9bbd 7ee6 d23c de72 1c3e
000002a0: 2e43 003c fc96 303b f93c bc3a 5f8a ba3d
000002b0: 634c 66bc 8ebb 3bbd b35f 1cbe 69c0 37bd
000002c0: 5dbb 14bd e86a f0bc 6687 293d b218 c23d
000002d0: 2437 c23d c467 753d 65c5 1ebd ab03 18bc
000002e0: 6557 1dbd 1d2f 78be 9805 0f3e 131d 8fbd
000002f0: 3beb f3bd 23c2 e7bd 3ad3 a2bd c586 98bd
00000300: b983 babd 1f46 84bd 2efe 093e 4d85 843d
00000310: b998 7a3c 4ccd e7bd 27e1 b9bb a540 163e
00000320: 177d b73d c844 9fbc 7bf2 83bd e0c6 00bc
00000330: f46a 5abd 0851 073d ecde 54bc 54a1 323d
00000340: e4cc da3c ff6c 09be afc5 e33c 94d1 a1bd
00000350: 385b c5bd e543 acbc 193c f1bd e3d9 dc3d
00000360: d52e 9dbd d695 433d 6936 b13d 676c fbbd
00000370: 81ce 143e d276 a93d 152f bf3d 910f 913c
00000380: d46a 993d 4048 3b3e 2d28 95bd 6f17 1cbc
00000390: 89d0 963d c901 47bd 7aa6 1b3d 3cfc 51bd
000003a0: 922f 1c3d d08a 203e 968b c73c 95a9 38bd
000003b0: c8be b03b ec5c 7a3e 3a72 383d 5dab aa3d
000003c0: 5b85 f23d 33ca dabd df55 633d 54c6 733d
000003d0: c846 04bd a0db 303e d6cf b43d cf76 3cbd
000003e0: 23cf 923d 8641 82bd a977 ab3c 2ddc b1bc
000003f0: 6553 d53d 70c2 72bc 8e0b 30be 5adb c9bd
0.01719219 0.010594543 0.0024662267 -0.094910465 -0.02276885 0.0056037284 -0.08968286 0.0057586185
0.054187212 -0.0023576815 -0.05429992 -0.13137802 -0.050725665 -0.030338151 -0.12684236 0.007287847
-0.06488571 -0.06046616 0.18113583 0.015227085 0.073173024 0.0037089922 -0.03138364 -0.10604548
0.05108078 -0.040366363 -0.10727099 0.01867539 -0.045583963 -0.049344607 0.088842854 0.20186734
-0.12623902 -0.10484747 -0.014417317 0.0882407 -0.037018873 -0.02168513 -0.11566871 0.013344089
-0.024456115 -0.105149865 0.13689683 -0.05788609 -0.005852484 0.15769067 -0.00730255 0.08101453
0.017921327 -0.033609428 -0.010237777 0.01967337 0.071452886 -0.09583017 0.12109755 -0.09902121
-0.14529781 0.031921905 0.0098847775 0.1400233 -0.03440853 0.031846218 -0.0061224652 0.07576364
0.08568967 -0.029919988 0.1368168 -0.07706186 0.11638569 -0.007877107 0.09101887 -0.17232183
0.07122378 0.06821489 0.002295152 0.043703154 -0.04845405 -0.07857684 0.026089111 0.054659575
-0.06844943 -0.0050953734 0.07699936 0.05183796 0.120273344 -0.24781182 0.09521296 -0.07005261
-0.047726452 -0.019730365 -0.10060107 -0.013616112 -0.032968324 0.038028512 0.07954125 -0.084305644
0.03358552 0.01348654 0.13375261 -0.03404142 -0.059286363 -0.17347331 0.14396776 -0.019949077
-0.021415493 -0.04252516 0.05529715 -0.15593512 -0.21081778 -0.110344395 0.0920052 0.03264368
0.08649713 0.1111612 0.011613592 -0.18465716 -0.055517945 -0.032979235 -0.038820397 -0.04926524
0.16495517 -0.0783315 -0.105515726 0.015246917 0.051365476 -0.13694462 0.019903505 0.045293935
0.06876848 0.049390685 0.015318972 0.1500772 0.041489452 0.03449655 -0.03886623 0.22493395
0.034485392 0.18881513 0.042188723 0.17346029 -0.11741685 -0.039486445 -0.054027695 0.012092064
-0.06104474 0.11224596 0.057321187 -0.19226013 0.07587501 -0.056955483 -0.116427444 0.12108759
0.040249612 0.050604887 -0.03739905 0.15836303 0.15542282 -0.018266339 -0.15767829 0.04459525
0.07685711 0.039952323 0.00070485845 -0.0026368438 -0.07296265 -0.075801626 0.025744673 0.15278193
0.007828517 0.0026945462 0.0014361433 0.091084234 -0.014056298 -0.045833163 -0.15270881 -0.04486123
-0.036311496 -0.029347852 0.04138889 0.094773665 0.094831735 0.05991341 -0.03876247 -0.009278218
-0.038413424 -0.24236722 0.13966978 -0.06987967 -0.11910101 -0.113163255 -0.079504445 -0.0744758
-0.09107155 -0.06458687 0.13475868 0.064707376 0.015295201 -0.11318454 -0.005672592 0.14673097
0.08959406 -0.019441977 -0.06442734 -0.0078599155 -0.053324655 0.03303626 -0.012992602 0.043610886
0.026709028 -0.13420485 0.027804224 -0.07901302 -0.09636539 -0.021028468 -0.11779041 0.10783746
-0.07674948 0.047750317 0.08652956 -0.122765355 0.145319 0.08274616 0.09335152 0.017707618
0.07491079 0.1828928 -0.072830535 -0.009527071 0.07363994 -0.048585687 0.03800056 -0.05126594
0.038131304 0.15677953 0.024358552 -0.0450836 0.0053938366 0.2444951 0.04503081 0.08333466
0.11841842 -0.10683098 0.055501815 0.059515312 -0.032294065 0.1727128 0.08828704 -0.046011742
0.071684144 -0.06360154 0.020931082 -0.021711433 0.10416297 -0.014816865 -0.17191908 -0.09856291

network_body._body_endoder.seq_layers.2.bias f4 [128]
00000000: 7507 bbbb aa76 82bb 8e95 79bc 318f a9ba
00000010: f551 ddbb 2825 b53b eb73 ccba 0757 663b
00000020: 0bd8 cdba f448 d2b9 f407 15bb c05e d83a
00000030: 2855 69bb 3b2c b63a 4805 c83b 66cc 5fbb
00000040: e1e5 b339 9bf0 613a ca30 49bc e9fa 2f3b
00000050: 8b0e 0f38 7f71 82b9 4cf7 20bb 3fba c7bb
00000060: c5fd 0b3b 6512 c03a d524 b6ba ff90 e5bb
00000070: f645 04bc ed84 ff3b 3fee bb3b f489 633b
00000080: e2aa 60bc 828f 163c 54f0 943b 6bc0 803c
00000090: 7f9e 7ebb 4ba4 aebb b54f 563b 2ba0 303c
000000a0: efd2 50bb ed71 133b e58b 47bc 9d74 923b
000000b0: bc77 3f3c 668c 1ebc ec08 593b 362c a4ba
000000c0: b8aa 0a3b 85a1 073c da94 7f3c 4a18 c0ba
000000d0: 4d0c 0db9 d816 1fbc 102a 8aba 7d4e 283c
000000e0: 9997 a4b9 426a 33bb bffa b7b9 a6d9 d7ba
000000f0: 812d ebba a739 843b 9a7f ebba f780 633c
00000100: 771e a2bb 092e 94bb 1696 713a cab0 31bc
00000110: 598e d03b dbdd 9b3a 77c7 c93b b300 d1ba
00000120: 2ac5 8137 0637 15bb 9271 fdbb 93b1 9939
00000130: d35e c83c 2c9c 3ebb a421 d6bb 7706 d93a
00000140: c36c 0bbc 7b17 2cba 3215 02ba 77f0 8739
00000150: 90f3 37bc dab3 743a e96a 743a 1aaa b03b
00000160: cce5 493c 7728 923b 00b5 aa3b eeee 723b
00000170: cc1e 83ba 6712 9dbb 10db 3f3b da47 cb3b
00000180: fec9 cbbb 98b8 a43a 1ae1 2bbb a133 7a3b
00000190: 84dc 84bc 2b1b edb8 94a0 6fbc 56e3 3cbb
000001a0: d3c9 53bb 6247 663c 60d3 a4ba 815d 963b
000001b0: 171b deba 8cef 08bc 9f90 8d3b 2628 123c
000001c0: 2dc9 c938 fb4f a33b eb6a fe3b ccb3 9aba
000001d0: 8a97 ef39 eab6 823b 5b2f f9ba 740e 87ba
000001e0: 4233 05bb 10bf 6cbb ac08 ec3b a3b2 d0bb
000001f0: cb90 843c 5f45 dabb 752d e73b 0500 dbba
-0.005707676 -0.003981431 -0.0152334105 -0.0012936351 -0.006754155 0.005528111 -0.0015598511 0.0035147087
-0.0015704645 -0.00040108676 -0.0022740336 0.001650773 -0.0035603736 0.001389868 0.006104145 -0.003414893
0.00034312814 0.0008618922 -0.012279699 0.0026852435 3.41074e-05 -0.00024880093 -0.0024561463 -0.0060952003
0.0021360975 0.001465392 -0.0013896475 -0.0070058103 -0.008073321 0.0077978284 0.0057351883 0.0034719678
-0.013712617 0.009189488 0.004545251 0.015716752 -0.0038851795 -0.005329644 0.0032701318 0.0107803745
-0.0031864007 0.0022498325 -0.01217935 0.004469468 0.011686262 -0.009677028 0.003311689 -0.0012525383
0.0021158885 0.008278255 0.015599454 -0.0014655676 -0.0001345139 -0.009710036 -0.00105411 0.010272619
-0.00031393467 -0.0027376567 -0.000350913 -0.0016468063 -0.0017942638 0.004035193 -0.0017967105 0.013885728
-0.0049474793 -0.0045220894 0.0009215785 -0.010845372 0.0063646254 0.001189168 0.0061578113 -0.0015945643
1.546981e-05 -0.0022768392 -0.007734486 0.00029314737 0.024459278 -0.0029084785 -0.006534772 0.0016557713
-0.0085098175 -0.0006564778 -0.0004962265 0.00025928367 -0.011227503 0.00093346613 0.0009323792 0.0053913714
0.012322854 0.00446039 0.005209565 0.0037068683 -0.0010003685 -0.0047934535 0.0029274859 0.0062036337
-0.0062191477 0.001256722 -0.00262267 0.0038177746 -0.016218431 -0.00011306101 -0.014625687 -0.0028822026
-0.0032316342 0.014055105 -0.0012575202 0.0045887833 -0.0016945329 -0.008357894 0.0043202187 0.008920705
9.621899e-05 0.0049838996 0.0077642105 -0.0011802851 0.00045698538 0.00398909 -0.0019011305 -0.001030399
-0.0020324741 -0.0036124624 0.007203182 -0.0063689514 0.016182324 -0.0066611017 0.0070549794 -0.001670838

action_model._continuous_distribution.log_sigma f4 [1, 3]
00000000: ea73 b4bb aee9 46bc 53a4 bfba
-0.005506982 -0.0121406745 -0.0014621116

action_model._continuous_distribution.mu.weight f4 [3, 128]
00000000: 0c48 a9ba 8327 af3c d95d e0bb c1a6 3fbc
00000010: bf5c 76bc dfb7 dc3c 2b2b d6bc 556d a9bc
00000020: 51a6 853c 293f 4fbc dc65 16bb b0a2 6c3b
00000030: f014 d53c 4de4 3bbc 031b 5a3c c14c f9bc
00000040: d2e5 81bc a76e bcbc ce95 f83b b120 17bb
00000050: e3b8 873b a89e 0abd a98f 493c a5a4 123c
00000060: 7b02 91bc d2e3 5fbc bf17 b43c d595 12bc
00000070: f135 bcbc 0dc8 4fbc f694 653c 361c be3c
00000080: 01a4 e3bc c3a4 3b3c 9e05 973c 262f 2cbc
00000090: 216d 353d 5178 773c cc17 f73c bc71 7439
000000a0: 769c b73c 54da f93c 1e12 953c 09fb 0dbc
000000b0: acd0 2a3d 3af3 49bc 4b4a dcbc 229c 83bc
000000c0: 261d 3dbb 5ae9 76bc e263 83bb 7f04 02bd
000000d0: b86e 0f3d 0964 4b3c 151e daba e091 8ebc
000000e0: 524b ecba c7eb cf3c 914b 0f3d 7785 c63c
000000f0: 0840 acbc 97f8 583c 5d9e f6ba 44cf 53bc
00000100: ec02 2e3c 292b c9bc 69c5 1a3d 9d43 c1ba
00000110: 6956 96bc fc2f ebbc e998 89bb d560 adbc
00000120: 3172 1e3c 9b5d 593a 559d 7dbb d84e 8abc
00000130: 3b0f 3b3c dfd7 643b 8ec9 9a3a 826b 24bc
00000140: a795 5ebc ad60 573c 102f b13c f7e6 72ba
00000150: 1e65 a6bb 48cb 0e3d 91d8 593c 9de5 1a3a
00000160: 93dc b2bb 9670 fbba 5669 36ba 29cc 9f3c
00000170: e3cf 09bd 0715 88bb 5859 d7bb f9f2 a23c
00000180: eab5 b53b ea5e e63c 560b cabc 400e 47bc
00000190: 9eff 723c e107 de3b 38c4 c2ba 788d 2ebc
000001a0: 0a50 bd3c 960e 23ba 4d89 b03b 5d02 60bb
000001b0: c50f dabc a563 973c 1a6b d03c ec0d 783c
000001c0: a43c 7dbc cd57 1f3c 1620 e1b9 8f30 43bc
000001d0: c8fd 993b 9584 973c 5052 d5bb b7e4 dc3c
000001e0: ad82 5f3c a4f6 cf3a a7e1 c239 1939 b03b
000001f0: 66a8 18bc c4e3 123d e9ad 553c 2ff0 a0bb
00000200: 26a5 893c 9629 283c 5795 fb3c 5d59 423c
00000210: 092d 9a3c c965 fcbc b8c6 ed3b 441f a6bc
00000220: 0e41 23bd 8063 513c 454e 3f3c 334d b23a
00000230: c433 913c 2fd1 5fbc 8068 94bc 8e48 583c
00000240: 8e69 98bb aa23 31bc ffe2 b53c 76fe c1bc
00000250: 2c77 2f3d d86b 42bc 2408 b73b 59f3 1e3c
00000260: 4242 63bb c0db 8ebb 7d84 383c db12 fc3b
00000270: 087e a73c 3e14 00bd 7134 a33c 3d82 89bc
00000280: 8c0f 443d 7183 dcbc 29dc c9bc 3616 8fbc
00000290: 2880 07ba b57c 983d 257d f3bc 71c7 13bc
000002a0: 1752 993c 4b49 7dbb cb01 1c3d 2696 45bc
000002b0: ba5c a3bc 6bf9 4b3d 6875 76bc c382 9ebb
000002c0: 4bae dabb d602 7fbc 14f7 98bc ef39 9e3c
000002d0: 43ae b13b 8bca 8e3c d033 283c 4cda 08bd
000002e0: 8e33 1bbc 570d a2ba 21f7 e1bb 2818 953b
000002f0: 9c14 533c d3f5 04bd 0fdb f6b7 915b b0bc
00000300: 583d 613c 15db 1d3c 1b2b 01bd fae6 cb3c
00000310: 03ea 1cbc 3a69 4fbc 1165 71bd 7649 9e3b
00000320: 307d 223c f1ee ab3c 8d9b 4d3c bf61 a6bc
00000330: 0a1a 84bc f691 7c3c 2dbb df3b 3ccf cf3c
00000340: b667 193d d8f2 3ebb 7e36 16bc a195 513b
00000350: 0250 8f3c ab1a b0ba a72b dbbb 5190 6bbb
00000360: 6ca6 2cbd 6126 f1bb 4f20 c8bc bc30 87bc
00000370: f76d 8a3c ccd1 3c3c f464 25bc 5db6 3dbc
00000380: 9562 053c 6c95 043c ca74 973c 7c9b 46bc
00000390: 15b6 9f3c d977 263b 660a 473c 6101 1f3c
000003a0: 8390 443c 8411 cebc 7063 113b c5e7 69bc
000003b0: 3cfd 1b3d add6 173d 49e6 de3a ea2b b1bc
000003c0: ed61 9f3c b93a b5bc a6b7 2c3c 9722 8a3b
000003d0: f6f6 e3bb 282a 10bd 9a55 8cbb cc74 9d3c
000003e0: fd31 443c 2182 bd3b d28c 7bbc 2855 543c
000003f0: d2d3 63bd c06e 893c 92a1 22bd eec0 14bb
-0.0012915148 0.021381145 -0.006847125 -0.011697472 -0.015036761 0.026943145 -0.026143631 -0.020682016
0.016314657 -0.012649336 -0.0022948897 0.0036107711 0.02601096 -0.011468005 0.013312104 -0.030432107
-0.015856657 -0.023001982 0.0075862175 -0.0023060257 0.0041419133 -0.033842713 0.012302318 0.008950387
-0.017701378 -0.013665156 0.02198398 -0.008946856 -0.02297494 -0.012681973 0.014012566 0.023206811
-0.027788164 0.0114528565 0.018435296 -0.010509288 0.044293527 0.015104369 0.030162714 0.00023312023
0.022413474 0.030499615 0.018197116 -0.0086658085 0.04170291 -0.012326056 -0.026890894 -0.01606566
-0.0028856485 -0.015070284 -0.0040097097 -0.03174257 0.0350177 0.012413987 -0.0016641045 -0.017403543
-0.0018027818 0.025380982 0.034984175 0.024233563 -0.021026626 0.013242862 -0.0018815506 -0.012927834
0.010620814 -0.024556713 0.03778592 -0.0014744882 -0.01835175 -0.028709404 -0.0041991365 -0.021164337
0.00967078 0.00082918414 -0.0038698514 -0.016883299 0.011417205 0.0034918708 0.0011809336 -0.0100353975
-0.013585485 0.013145608 0.021628886 -0.0009265984 -0.005077972 0.034861833 0.013296262 0.0005908849
-0.0054584234 -0.0019183333 -0.00069584453 0.01950653 -0.03364552 -0.0041528973 -0.00657193 0.019891249
0.0055453675 0.02812143 -0.024663609 -0.012149394 0.014831452 0.0067758416 -0.0014859503 -0.010653846
0.023109455 -0.000622013 0.0053874613 -0.0034181096 -0.026618848 0.018480131 0.025441695 0.015140038
-0.015456352 0.009725523 -0.0004293925 -0.011913433 0.0046994425 0.018495837 -0.0065100566 0.026964528
0.013641995 0.0015866351 0.00037170688 0.0053779003 -0.009317493 0.035861745 0.013041952 -0.0049114446
0.016802382 0.010263821 0.03071086 0.011862126 0.018820303 -0.030810254 0.007256355 -0.02027858
-0.039856963 0.01278007 0.011676376 0.001360333 0.01772488 -0.013660713 -0.018116236 0.013200892
-0.004651255 -0.010811726 0.022202967 -0.023680907 0.04283826 -0.011866532 0.0055856872 0.009701573
-0.0034676944 -0.0043596923 0.011262056 0.0076926774 0.020445839 -0.031269304 0.019922467 -0.016785735
0.04786639 -0.026918145 -0.024641113 -0.017466646 -0.0005168938 0.07445661 -0.02972276 -0.0090197185
0.018715901 -0.0038648422 0.038087647 -0.012059724 -0.019941676 0.04979841 -0.01504264 -0.0048373654
-0.0066736094 -0.015564641 -0.018672504 0.019314734 0.005422385 0.017430564 0.010266259 -0.03341131
-0.009472741 -0.0012363595 -0.006895915 0.004549999 0.012883332 -0.032461 -2.9427492e-05 -0.021528037
0.013747536 0.009634753 -0.03153525 0.024890412 -0.009577277 -0.012659365 -0.058934275 0.0048305346
0.009917542 0.02098796 0.012549293 -0.02031028 -0.016125698 0.015415659 0.006827733 0.025367372
0.037452422 -0.0029136445 -0.009168265 0.0031980055 0.017494205 -0.0013435682 -0.0066885534 -0.0035944174
-0.0421509 -0.0073593115 -0.024429468 -0.01650273 0.016898138 0.011524629 -0.01009487 -0.011579123
0.00814118 0.008092266 0.018488307 -0.012122031 0.019496003 0.0025401025 0.012148475 0.009704919
0.011997345 -0.025154836 0.0022184514 -0.01427645 0.0380833 0.037069965 0.0017005886 -0.021627385
0.019455874 -0.022122728 0.010541832 0.004215549 -0.0069569303 -0.035196453 -0.0042826654 0.019220732
0.011974809 0.005783335 -0.015353398 0.012959756 -0.05562193 0.016776443 -0.039704867 -0.0022698003

action_model._continuous_distribution.mu.bias f4 [3]
00000000: 5276 dfb9 c5ec 2abc 0fa6 4dbb
-0.0004262203 -0.010432427 -0.0031379496

exp_avg f4 [128, 9]
00000000: f087 e5ba e6c6 5239 7d44 683a 93a6 e1ba
00000010: 9d1c 9439 3e8b 763a e968 90b5 e96e d9b9
00000020: 4bd4 7136 5b15 a9b9 41f2 5638 3252 af39
00000030: faa2 9cb9 8960 c437 388a af39 3e8a 35b5
00000040: eb3b 1fb9 a8f1 6736 0dbe 6038 ed08 8938
00000050: 4ea8 c538 7303 6338 8280 9f38 8d6c b338
00000060: b8df e834 aa56 d4b8 a673 beb5 c9f7 23ba
00000070: ae1e 36b9 71d4 87b9 3f04 2bba cb5b 6ab8
00000080: ffd1 b7b9 a6e5 9e36 dab2 9739 a277 c0b7
00000090: 5234 cd38 9d87 14b8 9374 6c37 319a c638
000000a0: 21b0 29b8 6ca6 6037 7d1b c6b5 36b8 db38
000000b0: ccf2 db36 a161 56b9 f986 d537 8de3 f538
000000c0: 9220 51b9 41c5 c437 b63b f838 3b01 56b4
000000d0: 7fca bdb7 343c 1bb6 7537 ceba fc33 0b38
000000e0: c18d 3f3a 9e57 cfba 9333 c638 7eee 423a
000000f0: e97d 7435 7b23 89b8 bb67 7eb6 9464 6fb7
00000100: 094d eab7 9076 8c36 079b 18b7 7f8d 83b8
00000110: 994d 4637 5fe7 62b5 0702 a937 9414 c336
00000120: 4434 a8b9 2d4b d6b8 d996 22ba 1e0d 8bb9
00000130: 5ae4 dfb8 55ae 20ba e1f9 a834 dddc a738
00000140: 9336 91b5 7d0a dfb9 8644 4238 585f 0238
00000150: 5056 dbb9 a79f 3738 1e45 3e38 4b62 08b5
00000160: 5a1c fdb8 5768 9436 71a4 013a 8d9c 6d38
00000170: 50b4 bb39 ce28 f739 f4e8 3838 654c dc39
00000180: 4ff3 b8b6 37aa abb7 e2a2 ed37 bfcb 05bb
00000190: 9ed2 1bb9 ba72 73b9 c69a 05bb 7708 99b8
000001a0: 7e10 84b9 ad06 b133 6578 5239 3dd1 6436
000001b0: 60c4 d2b9 f572 8838 ae34 e938 3422 d6b9
000001c0: 9eda c738 7698 e238 db7b fd34 88ef a2b8
000001d0: ab9d 29b6 f519 cb38 a3aa a6b7 52dd 0239
000001e0: 41a0 d238 1f14 da37 8bf4 ce38 7d75 0734
000001f0: 11ac deb7 cd93 32b6 284e 5aba 19ff 0eb9
00000200: 1913 37ba 86cb 59ba 8946 17b9 2490 29ba
00000210: 1371 18b3 e93c 8039 803d 1bb6 d87e abba
00000220: a6de f5b8 a4af 65ba 5c11 b2ba 0211 afb8
00000230: a69b 6cba 367b a835 81f9 9339 ac67 acb6
00000240: 0569 6eb9 96dd 6f38 5273 b839 11e6 78b9
00000250: 7af0 dc38 b1e6 bb39 c9f2 e432 76ed 33b8
00000260: 2ca8 ca33 b657 b939 8f8a 19b6 6377 8c38
00000270: 1916 d039 de10 03b7 33b9 e338 c65e 5cb6
00000280: a346 1fb8 6cb3 8737 ed88 4c3a 311f 9538
00000290: eca3 333a 98ff 4d3a 25db 1b37 9019 313a
000002a0: 8ec9 8336 ef4e 3eb9 efe6 80b7 a1e5 eeb8
000002b0: 40cf e436 ccd4 1ab9 fc59 f7b8 e16c e936
000002c0: 3f7b 16b9 60de 07b5 02f7 6fb6 738d 1eb5
000002d0: 59e2 b1b9 60ab 42b7 b97c 2839 5d4f abb9
000002e0: 64d5 89b6 65de 2c39 0ea2 4db5 00b7 6f33
000002f0: cc12 55b6 cce3 4b38 f843 63b8 4b17 acb7
00000300: 93cb 4d38 7a5f 57b8 421c 37b7 ec7f 2f35
00000310: 76bd c838 b56f 2cb2 fd93 08b9 4214 5338
00000320: c204 52b7 0ea5 1fb9 5640 2238 afbd 47b5
00000330: e967 8035 29da 8037 0e62 8eb5 42a0 8039
00000340: e216 6e38 88b4 5f37 7f06 6a39 e19b bf34
00000350: 9a97 5838 a6f7 8934 38ca 08b8 d461 c235
00000360: 272f 1936 f34f 7ab8 16eb ba39 e8f2 5ab8
00000370: 3c0c c9b7 ec76 9939 2fa0 c336 2392 7636
00000380: 6f36 11b8 476f c139 cf71 ab36 88c7 fbb8
00000390: 2680 d039 cf1a b238 8c76 12b9 f73a 00b6
000003a0: 1853 3a39 82ff 2b37 e06a acb9 7ad0 68b8
000003b0: e6ed 5db9 39e0 a1b9 e730 7db8 ca20 30b9
000003c0: 086d 65b6 53b3 8238 95c6 8b37 fcc3 93ba
000003d0: 7c07 f637 d2f3 2039 15a9 90ba fdfe a238
000003e0: 7db0 5139 a19f 2236 3fb3 e4b8 ec62 0eb7
000003f0: bbdc fdba 9d5d 2db9 9b3c ebb9 6865 03bb
-0.0017511826 0.00020101256 0.0008860303 -0.0017215781 0.00028250078 0.0009404904 -1.0759369e-06 -0.000414721
3.603537e-06 -0.00032250103 5.1247192e-05 0.0003343984 -0.00029876066 2.3409973e-05 0.00033481582 -6.7628923e-07
-0.00015185743 3.4562345e-06 5.358276e-05 6.5343316e-05 9.425041e-05 5.412423e-05 7.605647e-05 8.555604e-05
4.3376144e-07 -0.0001012509 -1.4189761e-06 -0.00062548794 -0.00017368302 -0.00025907488 -0.0006523765 -5.5875436e-05
-0.0003506094 4.7355015e-06 0.0002893422 -2.2943892e-05 9.784907e-05 -3.541225e-05 1.4093838e-05 9.470096e-05
-4.0456773e-05 1.33901885e-05 -1.476015e-06 0.00010477046 6.554974e-06 -0.00020445 2.545443e-05 0.00011724895
-0.00019943927 2.3456874e-05 0.000118366836 -1.9930751e-07 -2.262485e-05 -2.3131843e-06 -0.001573308 3.3188597e-05
0.0007307195 -0.0015818959 9.450982e-05 0.0007436051 9.1080307e-07 -6.539278e-05 -3.7909329e-06 -1.4268928e-05
-2.7930846e-05 4.1861276e-06 -9.096001e-06 -6.2729225e-05 1.1819787e-05 -8.452825e-07 2.0147314e-05 5.8138485e-06
-0.00032082398 -0.00010218318 -0.00062022876 -0.0002652192 -0.000106760024 -0.0006129493 3.147425e-07 8.0043195e-05
-1.0819225e-06 -0.0004254169 4.631702e-05 3.108321e-05 -0.00041835243 4.3779288e-05 4.53639e-05 -5.0806983e-07
-0.00012069261 4.4228905e-06 0.0004945463 5.6651003e-05 0.00035801763 0.00047141913 4.4085973e-05 0.00042018588
-5.511952e-06 -2.0464051e-05 2.832845e-05 -0.0020415632 -0.00014860413 -0.00023217025 -0.0020386442 -7.297185e-05
-0.0002518929 8.243419e-08 0.00020072011 3.409644e-06 -0.00040200632 6.506398e-05 0.00011120118 -0.00040842744
9.52978e-05 0.00010804918 4.721504e-07 -7.769378e-05 -2.5274737e-06 9.684629e-05 -1.9868201e-05 0.00012480214
0.0001004343 2.5996995e-05 9.868395e-05 1.2615597e-07 -2.6544587e-05 -2.6610098e-06 -0.0008327686 -0.00013637207
-0.0006983742 -0.00083082204 -0.00014426759 -0.0006468317 -3.54931e-08 0.00024459444 -2.3132598e-06 -0.0013084067
-0.00011723982 -0.0008761829 -0.0013585496 -8.347818e-05 -0.0009025879 1.2552835e-06 0.0002822392 -5.1380684e-06
-0.00022736572 5.718841e-05 0.00035181135 -0.0002373683 0.0001053521 0.00035839298 2.66531e-08 -4.289808e-05
9.436948e-08 0.000353513 -2.2879428e-06 6.697958e-05 0.00039689316 -7.812136e-06 0.000108586995 -3.283772e-06
-3.797434e-05 1.6176804e-05 0.0007802386 7.1106835e-05 0.00068527344 0.0007858216 9.2897435e-06 0.0006755823
3.9275683e-06 -0.00018149217 -1.5366326e-05 -0.00011391496 6.8190566e-06 -0.00014765857 -0.00011794639 6.9566163e-06
-0.00014351027 -5.061502e-07 -3.5757553e-06 -5.906542e-07 -0.00033928713 -1.1603202e-05 0.00016068191 -0.00032674792
-4.10776e-06 0.00016486047 -7.660427e-07 5.581296e-08 -3.1750415e-06 4.8611124e-05 -5.418432e-05 -2.0514844e-05
4.9065402e-05 -5.1348914e-05 -1.0914229e-05 6.537873e-07 9.572033e-05 -1.0037117e-08 -0.000130251 5.0325187e-05
-1.2518083e-05 -0.0001522491 3.8683727e-05 -7.4409303e-07 9.566985e-07 1.5360378e-05 -1.0608362e-06 0.00024533464
5.6764933e-05 1.3333869e-05 0.00022318399 3.568994e-07 5.1639603e-05 2.5698426e-07 -3.2613258e-05 1.4482598e-06
2.2826223e-06 -5.9679103e-05 0.00035651837 -5.2201474e-05 -2.3966764e-05 0.00029271038 5.8301007e-06 3.674192e-06
-3.462139e-05 0.00036894737 5.109446e-06 -0.00012005778 0.0003976833 8.492695e-05 -0.00013967807 -1.9107808e-06
0.00017769297 1.0251884e-05 -0.00032886025 -5.550727e-05 -0.00021164826 -0.00030875372 -6.0365444e-05 -0.00016796883
-3.4187124e-06 6.232285e-05 1.6662563e-05 -0.0011273618 2.932897e-05 0.00015349619 -0.0011036718 7.772257e-05
0.0001999754 2.4232797e-06 -0.000109052744 -8.486892e-06 -0.0019368151 -0.0001653344 -0.00044867847 -0.0020049457

exp_avg_sq f4 [128, 9]
00000000: 26d3 ad35 5dff 6533 00cc 3c37 5fb5 ab35
00000010: 8aa1 0a34 4855 3d37 f68d 002e 87f0 8d33
00000020: a950 652e caa3 4234 36ad b831 15dd 9334
00000030: 031a 4134 d1ac 2332 0cac 9434 29f0 4c2c
00000040: 5b3f 8832 672b eb2c 339d a734 1065 3332
00000050: a35a a532 98db a634 030c 9032 d926 a432
00000060: 1c62 9b2d 01b7 1933 1e46 682d 49b8 4136
00000070: 8532 ce32 87a8 5535 218b 4136 1a39 4d33
00000080: 5297 5735 3575 652d 578e 3333 598e cd2e
00000090: 3a94 c933 1d58 9b31 657a f42f 1fe4 c933
000000a0: 7a0c 0c32 e1c7 1430 7224 762d fc8c 5832
000000b0: 5a27 992d 900f e733 4f42 e531 e130 3035
000000c0: 5d9b e533 f83e 8432 ff5b 3035 ba49 f42c
000000d0: 2919 8432 1c82 2b2d f08f 0736 ac26 5833
000000e0: 0fa2 4137 f27f 0736 7621 0b34 9233 4237
000000f0: 6f77 a02d 960a 4a33 c4bc 6f2e 3510 3835
00000100: a57e bf31 7ae7 442f 91ec 3635 65a6 8232
00000110: e81b cd2f 3565 242c 28e0 6f31 ac97 022e
00000120: 8b6d 1736 e536 ad32 41b9 d835 6bf8 1536
00000130: 5115 3f33 965e d835 3fcd cf2d d995 1133
00000140: b92c e92d 3695 1034 98d1 6731 c064 b131
00000150: fa35 0f34 2275 ca31 ba21 b931 c82b d02b
00000160: e435 3732 3fd8 ad2c 7771 1536 a21c bd32
00000170: 0dd9 bb35 9303 1636 d62c 4b33 ef70 bd35
00000180: 957b b02d 9bde 0a33 7522 ef2e 8716 5736
00000190: a7cf 8633 fc16 d336 471e 5736 f4d5 0c34
000001a0: cb35 d436 cbe0 a82e da35 e933 ef75 722e
000001b0: a54b b734 5302 3932 cb00 fa35 13ea b434
000001c0: 3624 d032 b23a fb35 31dc af2c cf14 d432
000001d0: 448b 632d 822a 4e35 66b4 e131 6c8b c633
000001e0: ca30 4f35 fe02 4f32 f759 c233 7f4a da2b
000001f0: 677d 7d32 f190 be2c c5fa 1536 204f 0b33
00000200: e637 cf36 49f2 1536 b14f a133 1dd9 cf36
00000210: 26be 712e 122b 2a33 59d9 4e2e f007 9136
00000220: c233 e032 98d6 9036 a8a6 9036 5167 8633
00000230: c199 9136 02dd 022d 262b e832 bbdc b92d
00000240: decc b133 9539 9631 6c73 8935 26b1 b433
00000250: 1335 4432 0dca 8935 11ab fb2a 371c 9231
00000260: ae99 3b2c bbab 0236 240b 8e32 8154 9c35
00000270: 047d 0236 1a42 1e33 b66c 9d35 fa11 222d
00000280: a238 b432 8e6a 462e 9f4e 5a36 0cc0 0b33
00000290: 75de 1237 0cdf 5a36 475a b533 8bdb 1237
000002a0: e6f2 192d 82d9 b932 263d 812e cc43 e734
000002b0: 96df c931 d33d 4b36 0824 e734 3061 9132
000002c0: e391 4b36 d587 2e2c 05e5 9930 de10 8f2d
000002d0: a3bd 6e35 c330 8a32 ff22 f636 473a 7035
000002e0: 90e0 5233 d5cb f636 6df7 392c e508 0932
000002f0: a04a c52d b2d3 5433 a545 9731 0157 d330
00000300: bea0 5333 3c41 0e32 0704 db30 29c4 e32c
00000310: 6fc4 4532 c855 cb2b f975 5235 ab88 2832
00000320: afb5 d130 0946 5235 38c3 9a32 6d0f d130
00000330: 7cd2 422d 3e7c ad32 ea44 552d 60d6 3b35
00000340: ee63 0032 14be 4030 4ee1 3b35 050b 7332
00000350: d501 3c30 6e36 052c 5fa9 5032 2c93 b12c
00000360: 5eed fe35 a6c0 6432 354e 2b35 8685 fe35
00000370: b3d1 0633 5fa6 2a35 3499 3b2d ec86 8f32
00000380: 6245 482f 22a1 8e35 47f0 3e32 b94a 3a36
00000390: e3b4 8e35 fa05 fc32 f4d8 3a36 d694 672c
000003a0: 008e 0c32 ebc3 f02d d255 1536 9c6a b232
000003b0: 33b4 7a36 39d1 1536 aff4 5933 f423 7b36
000003c0: b80d f32c 8226 8732 960d 582e 6e37 1835
000003d0: 32cc d732 77bb 8432 ca55 1735 23a6 3a33
000003e0: dd60 9032 fc75 202e 792b 8c33 003d 292e
000003f0: b404 4137 b07a da33 c373 c537 dca4 4037
1.2950957e-06 5.355047e-08 1.1253171e-05 1.2793279e-06 1.2911019e-07 1.1285134e-05 2.9229917e-11 6.609576e-08
5.2140212e-11 1.8127244e-07 5.3747966e-09 2.7541742e-07 1.7983989e-07 9.527143e-09 2.769233e-07 2.912346e-12
1.5861295e-08 6.6839203e-12 3.1220551e-07 1.044215e-08 1.9249745e-08 3.1079685e-07 1.6769269e-08 1.9109779e-08
1.766503e-11 3.578953e-08 1.3203242e-11 2.886651e-06 2.400453e-08 7.9593923e-07 2.8840225e-06 4.7782216e-08
8.031394e-07 1.3043168e-11 4.1806143e-08 9.347607e-11 9.386754e-08 4.521111e-09 4.4470308e-10 9.401287e-08
8.151909e-09 5.412613e-10 1.39915735e-11 1.2604911e-08 1.7411562e-11 1.07596065e-07 6.6723156e-09 6.563624e-07
1.0691904e-07 1.5395457e-08 6.569898e-07 6.9430824e-12 1.5378264e-08 9.749115e-12 2.020035e-06 5.032659e-08
1.1541429e-05 2.0191042e-06 1.2957557e-07 1.1575308e-05 1.8242933e-11 4.7041418e-08 5.4509966e-11 6.8568926e-07
5.5732294e-09 1.7908333e-10 6.8144533e-07 1.520966e-08 3.730911e-10 2.3361983e-12 3.4906495e-09 2.969329e-11
2.2564516e-06 2.0164814e-08 1.614717e-06 2.2347328e-06 4.449004e-08 1.6120782e-06 2.3624323e-11 3.389673e-08
2.6508894e-11 1.3465328e-07 3.3734064e-09 5.162832e-09 1.333755e-07 5.89229e-09 5.388043e-09 1.4791441e-12
1.0664255e-08 4.940964e-12 2.2268775e-06 2.2015517e-08 1.3995756e-06 2.2353822e-06 4.73054e-08 1.4114465e-06
2.0063765e-11 3.2333087e-08 1.08745825e-10 3.205061e-06 6.277633e-08 6.2909658e-06 3.205512e-06 1.3116352e-07
6.3243547e-06 7.679687e-11 1.08597035e-07 5.5129176e-11 3.4141445e-07 1.0768946e-08 1.8626682e-06 3.3697924e-07
2.4230854e-08 1.871804e-06 4.9982453e-12 2.468951e-08 1.2934379e-11 7.6802837e-07 6.568871e-09 9.245454e-08
7.7184507e-07 1.2049666e-08 9.0501935e-08 1.5510508e-12 1.4755051e-08 5.4162165e-12 2.2348697e-06 3.2435423e-08
6.175588e-06 2.2343759e-06 7.5116425e-08 6.194356e-06 5.496594e-11 3.962038e-08 4.703202e-11 4.322261e-06
2.6100569e-08 4.3165164e-06 4.3109358e-06 6.2586544e-08 4.339236e-06 7.438718e-12 2.7027976e-08 2.1130089e-11
8.27947e-08 4.372121e-09 1.0240888e-06 8.414126e-08 1.1420769e-08 1.02661e-06 4.4705258e-13 4.252367e-09
2.6659608e-12 1.947147e-06 1.6536042e-08 1.16475e-06 1.9444278e-06 3.684736e-08 1.1729051e-06 9.2126255e-12
2.0980512e-08 4.5114627e-11 3.2530295e-06 3.2538125e-08 8.754073e-06 3.2614362e-06 8.444891e-08 8.7533945e-06
8.750977e-12 2.1635746e-08 5.877103e-11 4.3076432e-07 5.8752887e-09 3.0285344e-06 4.305332e-07 1.6924417e-08
3.0334274e-06 2.480229e-12 1.1197306e-09 1.6264708e-11 8.8937867e-07 1.6087489e-08 7.3354454e-06 8.949177e-07
4.9098674e-08 7.3551005e-06 2.642743e-12 7.976472e-09 2.2429447e-11 4.9552632e-08 4.402596e-09 1.5376999e-09
4.927346e-08 8.28032e-09 1.5935492e-09 6.473506e-12 1.1511573e-08 1.4447827e-12 7.840277e-07 9.809962e-09
1.5258389e-09 7.833301e-07 1.8016735e-08 1.5211136e-09 1.107436e-11 2.019635e-08 1.212295e-11 6.9974885e-07
7.473302e-09 7.011931e-10 6.999079e-07 1.4146967e-08 6.8396605e-10 1.8930651e-12 1.2145704e-08 5.046982e-12
1.8993558e-06 1.331515e-08 6.381627e-07 1.8963335e-06 3.1390027e-08 6.3572037e-07 1.0663737e-11 1.6708746e-08
1.8214544e-10 1.062672e-06 1.1114088e-08 2.7759654e-06 1.0632469e-06 2.9339379e-08 2.7842443e-06 3.2909695e-12
8.18136e-09 2.7371846e-11 2.2252684e-06 2.0770408e-08 3.7357793e-06 2.2324514e-06 5.0746788e-08 3.7422842e-06
6.9079985e-12 1.573358e-08 4.912478e-11 5.6705073e-07 2.5122151e-08 1.5452072e-08 5.6376723e-07 4.34576e-08
1.6807855e-08 3.648458e-11 6.527166e-08 3.848033e-11 1.15047915e-05 1.0173733e-07 2.3538136e-05 1.1482476e-05

exp_avg f4 [128]
00000000: ca6d c238 fb13 b437 559e cf37 fe6c 8cb8
00000010: ffe6 6bb7 2353 3737 3e93 8437 9b17 73b7
00000020: 9580 43b8 ddc5 bb37 0f0b af37 6ce7 7ab8
00000030: d095 1438 803a b7b6 4685 84b8 8ada 56b8
00000040: 2af2 e237 d63d bfb6 c470 0d38 3ed5 2136
00000050: d2bf 8db6 6c8c d8b7 e259 c137 e4e1 c937
00000060: cc5c abb7 92c4 9336 89ec e2b7 b2d0 7d37
00000070: c782 93b8 6d41 dfb7 6998 54b7 3945 c4b8
00000080: 32db b3b7 49df 87b7 5c8d 2cb8 86a0 d137
00000090: f441 69b7 f47f 7fb7 3d7a 04b8 9c9f d8b8
000000a0: 23c9 9c37 c813 e9b6 b308 2db8 404d 3f37
000000b0: 4c6d 0137 b0bd 9136 016e 4035 a6bb bf37
000000c0: c5db fab6 9a4b 0e38 2afc 2e38 797b 9437
000000d0: 1c22 68b8 4829 d6b7 ddef 4737 7ad5 9a38
000000e0: 04b9 efb7 8961 4ab7 6947 0637 cd86 3c38
000000f0: 0794 56b6 8833 5738 5d43 6a38 6e64 45b8
00000100: 2471 a4b8 1a4d 17b8 b9c2 3a37 7767 1db7
00000110: ee47 3338 08fd a2b7 6ebe 1fb7 3a7a b7b6
00000120: af0b be36 0d0a 16b7 581b c8b7 1a14 ebb8
00000130: cf03 9eb7 9e03 5338 4a76 6bb7 5fa8 0db6
00000140: 2905 47b8 e415 55b7 e3d8 d237 aa04 7cb7
00000150: bcd4 1eb6 a2c2 26b8 0b82 9bb6 5fef af37
00000160: 520d 4a38 890f d236 37cf 33b7 8c31 8238
00000170: 596b 9236 2858 0238 1af8 4037 c32c b9b6
00000180: 2e29 b037 4d97 38b8 4b4c 1ab8 10e6 e335
00000190: 429e 12b8 3635 84b7 54ca 2336 6955 0538
000001a0: 62fb 8338 b767 c537 ae36 3db8 bf71 2737
000001b0: 7b28 bab7 a3a4 32b8 fe5e 9038 d2a4 c436
000001c0: 256a f7b7 415a 02b7 f672 98b7 8c80 0e37
000001d0: 4467 d4b6 59e2 6938 a70e 1237 118a 3b38
000001e0: 1288 2b36 45c3 9636 5610 4437 c925 bbb7
000001f0: 7b66 31b8 5ca6 ba37 5d55 8e37 8636 7cb7
9.271091e-05 2.1466976e-05 2.4750052e-05 -6.6960216e-05 -1.40608745e-05 1.0927007e-05 1.5804191e-05 -1.4489425e-05
-4.6611374e-05 2.2384274e-05 2.0866775e-05 -5.9820173e-05 3.5425473e-05 -5.4606353e-06 -6.3190746e-05 -5.1225106e-05
2.7054066e-05 -5.699442e-06 3.372204e-05 2.4114993e-06 -4.2244583e-06 -2.5814596e-05 2.3049248e-05 2.4066256e-05
-2.0428e-05 4.403825e-06 -2.7051445e-05 1.5128566e-05 -7.0338654e-05 -2.6614138e-05 -1.267167e-05 -9.358902e-05
-2.1440534e-05 -1.619723e-05 -4.1139647e-05 2.4989491e-05 -1.3903238e-05 -1.5228976e-05 -3.1585096e-05 -0.00010329412
1.869031e-05 -6.946244e-06 -4.1254516e-05 1.1402473e-05 7.714447e-06 4.3434193e-06 7.168565e-07 2.2856355e-05
-7.476165e-06 3.3925848e-05 4.171968e-05 1.7700471e-05 -5.5344877e-05 -2.5530011e-05 1.1917172e-05 7.383055e-05
-2.8577175e-05 -1.2062847e-05 8.003649e-06 4.4948236e-05 -3.1974648e-06 5.1307987e-05 5.5852684e-05 -4.7061993e-05
-7.8412035e-05 -3.6073012e-05 1.1131801e-05 -9.382019e-06 4.2743915e-05 -1.9429732e-05 -9.521476e-06 -5.468054e-06
5.6638014e-06 -8.943037e-06 -2.385459e-05 -0.000112094174 -1.8836841e-05 5.030969e-05 -1.4034633e-05 -2.1108642e-06
-4.7450103e-05 -1.2700886e-05 2.5134947e-05 -1.5021456e-05 -2.3667662e-06 -3.975875e-05 -4.634499e-06 2.0973092e-05
4.817296e-05 6.2602962e-06 -1.0717477e-05 6.208112e-05 4.363636e-06 3.1076517e-05 1.1501857e-05 -5.5186406e-06
2.100001e-05 -4.400993e-05 -3.6787515e-05 1.6979775e-06 -3.49565e-05 -1.5760404e-05 2.4406663e-06 3.1789215e-05
6.2933905e-05 2.3532526e-05 -4.5112036e-05 9.980459e-06 -2.2191778e-05 -4.2591837e-05 6.884149e-05 5.860443e-06
-2.9494122e-05 -7.769618e-06 -1.8173345e-05 8.493789e-06 -6.330114e-06 5.576233e-05 8.70569e-06 4.471286e-05
2.556019e-06 4.4930807e-06 1.1686314e-05 -2.2309732e-05 -4.229553e-05 2.2250395e-05 1.696747e-05 -1.5033065e-05

exp_avg_sq f4 [128]
00000000: a07a 5632 138a a530 b2f1 1b31 52a0 b931
00000010: 4c57 8630 2c8c cf30 daf9 4e32 a0c5 b530
00000020: 68a6 9b31 099d 4d30 3550 ad31 6484 7632
00000030: 49a0 2a31 451c c630 58a9 0132 3149 d431
00000040: 9795 8e30 81c2 8231 3027 0632 04c5 c830
00000050: 5b46 8931 ec68 8430 9b6e 1131 e614 e030
00000060: 1077 5431 f5f7 3731 e6ec a931 ca09 bf31
00000070: 080d d232 6373 c530 09d9 8631 9fb8 f531
00000080: 9990 c631 5b4e bf30 45ae 5d31 5e9a 7330
00000090: 3a28 f231 b3af 5e32 be98 7030 9c16 d232
000000a0: 794b d830 2a2e 2432 57b7 1c32 7864 1632
000000b0: 082e 1331 a0a2 762f 1975 5631 4d73 4530
000000c0: 1d3e 3331 5821 5a32 25e5 5132 4566 c331
000000d0: 18dd 0631 fde4 0b31 4f24 2632 f126 8c32
000000e0: 1c32 2b32 8573 7131 e67b 8a30 6a2b 5d31
000000f0: 684e 6c32 a352 d830 e591 4f31 ae97 1931
00000100: 7dca 5331 028f 2032 69db 5330 c48f d831
00000110: 2296 0e31 d07d 9230 a8e0 5331 e927 0c2f
00000120: a586 c030 786b 7e31 a5f9 4431 379f 8c32
00000130: 1b51 e330 8cd2 3e32 8fe3 d030 df31 dd31
00000140: 853f f530 b9a7 1230 3e88 8932 8833 de31
00000150: 7f7e 4f31 6f28 f530 9e0e c230 4d99 3932
00000160: 75d2 8530 0c60 5e31 615b 4d32 8046 b331
00000170: b09a 9f31 fd2e 2830 823f 5132 a04f 9c31
00000180: bf07 e531 9d90 0632 d73f 0630 cde5 d730
00000190: 3489 ac30 1f24 7e32 befc 9231 42c0 fb30
000001a0: f1ce 7b32 cf2b bf31 06c1 9d30 809b 342f
000001b0: f4ff 2430 9103 3a31 ac60 a731 572a bc32
000001c0: dabb 6331 096b f330 15cd 3a31 f390 1f30
000001d0: 7a8c ee31 158a b030 d8b3 3c30 a365 0331
000001e0: 5ae7 b52d 10f8 fd30 1133 862f 1df4 a031
000001f0: fd38 be31 1ee4 fe31 64e3 9432 3bd0 8431
1.2484321e-08 1.2044573e-09 2.2692856e-09 5.402435e-09 9.774594e-10 1.5101072e-09 1.2047588e-08 1.3225652e-09
4.530012e-09 7.4801726e-10 5.044081e-09 1.4349187e-08 2.4829367e-09 1.4414431e-09 7.547293e-09 6.178333e-09
1.0374376e-09 3.8056105e-09 7.808737e-09 1.460791e-09 3.9952233e-09 9.634085e-10 2.116315e-09 1.6304085e-09
3.091774e-09 2.6770952e-09 4.9454796e-09 5.5599445e-09 2.4453144e-08 1.4366431e-09 3.9245873e-09 7.1514275e-09
5.7789973e-09 1.3919349e-09 3.2258793e-09 8.8622254e-10 7.0477e-09 1.296205e-08 8.752855e-10 2.44575e-08
1.5737519e-09 9.556553e-09 9.122082e-09 8.753993e-09 2.1417481e-09 2.2431346e-10 3.120766e-09 7.1832035e-10
2.6083236e-09 1.2696852e-08 1.2217503e-08 5.6868736e-09 1.9625244e-09 2.0357327e-09 9.670727e-09 1.6315854e-08
9.964904e-09 3.513578e-09 1.0076036e-09 3.218441e-09 1.37548355e-08 1.5739555e-09 3.0205396e-09 2.235065e-09
3.0819642e-09 9.345742e-09 7.7073153e-10 6.3027716e-09 2.074906e-09 1.0658656e-09 3.0832243e-09 1.2747105e-10
1.4008107e-09 3.7022954e-09 2.866366e-09 1.6370548e-08 1.6539475e-09 1.1107328e-08 1.5198668e-09 6.437616e-09
1.784415e-09 5.335284e-10 1.6010855e-08 6.466909e-09 3.019437e-09 1.7837588e-09 1.4119512e-09 1.0803274e-08
9.736839e-10 3.2359848e-09 1.1953348e-08 5.2176006e-09 4.645095e-09 6.118482e-10 1.2179841e-08 4.54925e-09
6.665658e-09 7.832708e-09 4.883964e-10 1.5708622e-09 1.2553643e-09 1.4792959e-08 4.2778927e-09 1.8317297e-09
1.4657176e-08 5.563812e-09 1.1478114e-09 1.642615e-10 6.0026584e-10 2.706859e-09 4.87133e-09 2.1905334e-08
3.3139629e-09 1.7710998e-09 2.7183138e-09 5.804985e-10 6.942682e-09 1.2844931e-09 6.8649575e-10 1.9120783e-09
2.0680058e-11 1.8478676e-09 2.4410743e-10 4.6843653e-09 5.5362066e-09 7.418307e-09 1.7332873e-08 3.8653787e-09
