results/jugglingRobotV1/JugglingRobotV1/JugglingRobotV1-22359.onnx (onnx, 74695 bytes, 7 tensors)

action_model._continuous_distribution.log_sigma f4 [1, 3]
000000 9f a1 3a 3b 4a ab 3d 3b c3 4c 3f 39
       0.0028477681 0.0028941208 0.00018243775

action_model._continuous_distribution.mu.bias f4 [3]
000000 b1 f7 70 3a 5e 1a 03 3b d8 82 9a 3a
       0.00091921823 0.002000473 0.0011788262

action_model._continuous_distribution.mu.weight f4 [3, 128]
000000 39 fb e0 3c 86 66 d8 bc 81 06 5f 3c d7 47 03 3c
       0.027463542 -0.026416074 0.0136123905 0.008012733
000010 73 3a fb bb 85 5d 82 3c 95 88 2e 3b 3f a4 b2 bb
       -0.00766688 0.015913734 0.0026631702 -0.0054517086
000020 29 bb b2 3a 9b ae 2f 3c a4 77 e7 3b 82 90 b6 bb
       0.00136361 0.0107227815 0.007063823 -0.005571426
000030 1e f8 89 3b 59 8f b9 bc 36 6c 00 bc 1f 5e 3a 3a
       0.004210486 -0.022651361 -0.0078382995 0.0007109362
000040 a4 2c 91 3c ab 7e 1c 3c 2d 48 57 bc f5 ac ed bb
       0.017721482 0.009551684 -0.013139767 -0.007253284
000050 5a 01 15 3d b7 2d 04 bc ac 65 0b 3d a0 08 f0 bb
       0.036378242 -0.00806754 0.03403251 -0.007325247
000060 ae 6e b0 bb aa b9 55 3b 42 1e 7c 3c 5a ec 20 3c
       -0.005384288 0.0032611885 0.015388073 0.009821976
000070 bc 01 56 bc 25 6a 7c 3b e8 76 4a bc de e1 08 3b
       -0.013061937 0.0038515416 -0.012357451 0.002088658
000080 38 e7 89 3c fb 9f d5 bb 55 f5 38 3b 0c 52 b4 3c
       0.016833887 -0.0065193153 0.00282224 0.02201178
000090 59 3f 9b bc 25 e5 92 bb 43 7d f6 bb da 03 a3 bb
       -0.018951105 -0.0044828826 -0.0075222566 -0.0049748244
0000a0 5e bd 5f bc 54 d8 cf bb 66 27 b3 bb ee fe 62 3c
       -0.0136559885 -0.006342927 -0.005467343 0.013854725
0000b0 2e d1 77 3a 50 c2 98 bb 39 25 2c 39 de 65 94 bc
       0.00094534724 -0.0046618357 0.00016417065 -0.01811498
0000c0 a2 80 5b 3c 58 c1 92 3c 9b 5d 1a bc 87 c3 e5 3b
       0.013397368 0.01791446 -0.009421731 0.007011834
0000d0 ef 43 00 bc 5e 8a a3 bc fe be 88 bb 60 8d b8 bc
       -0.007828697 -0.01996344 -0.0041731587 -0.02252835
0000e0 d5 cd 64 bc bc f8 e8 3c dd 27 6b 3c b9 c3 cd 3b
       -0.01396509 0.028438918 0.014352766 0.0062794355
0000f0 d7 16 9a bc ab 41 cb b9 06 54 9f bb e0 4b 90 bb
       -0.018809719 -0.00038768104 -0.0048623113 -0.0044035763
000100 3a df 59 bb f8 08 14 3d 47 cb 27 3c 6d 53 99 bb
       -0.0033244626 0.036141366 0.010241336 -0.0046791346
000110 fc 01 bd bb f9 df 81 3b 99 a0 2b bc c5 4b a0 bc
       -0.005768059 0.003963467 -0.010475301 -0.01956738
000120 69 f5 02 bd 08 7f 2e bc 41 cb 7f bb 5d af 9b 3b
       -0.031972323 -0.010650404 -0.003903106 0.0047511295
000130 6b 25 0e 3b a9 18 15 bc 40 52 d3 ba 0e 9f 61 bc
       0.0021689783 -0.009100118 -0.0016122535 -0.013770832
000140 66 c3 32 bc c6 7a 63 bb 9d cf 86 3c 8d 37 aa bb
       -0.010910844 -0.003471063 0.01645642 -0.0051946105
000150 ce 00 5e 3c eb 69 89 3a 8e ad ac 3c f3 74 52 3b
       0.013549997 0.0010483837 0.021078851 0.0032113164
000160 c7 27 f2 3c c5 21 2e 3c a6 bf 84 bb ef e2 99 bc
       0.029559983 0.0106281685 -0.0040511666 -0.018784968
000170 36 2f 0b 3d e2 d6 9a 3a ad 81 a8 3b ec b0 60 bc
       0.03398057 0.0011813308 0.0051424117 -0.013714056
000180 b6 e7 ba 3c 42 61 5e 3c 64 35 a5 bc aa e7 88 3c
       0.022815567 0.013572993 -0.02016706 0.016712029
000190 4f 62 51 ba 30 c7 46 bc 3b 35 b5 bc c9 5f 19 3c
       -0.00079873664 -0.012132451 -0.022120109 0.009361216
0001a0 5c 49 11 bc 9a 54 97 3c 5f f8 4a bd 6c fd 9b 3c
       -0.008867588 0.018472958 -0.04955327 0.01904174
0001b0 f4 e6 7b 3c f8 1c a0 3b 76 97 05 b9 c5 6b cb bc
       0.015374888 0.004886266 -0.00012740292 -0.024831662
0001c0 47 75 25 bc 15 2a 63 ba d7 4a 08 3d 3d f8 53 3c
       -0.010098762 -0.00086656335 0.033274498 0.012937603
0001d0 12 22 52 ba 08 30 e5 3c 40 ef ab 3b b4 fa 54 3b
       -0.0008015941 0.027977005 0.0052470267 0.0032498064
0001e0 db aa cd 3a 91 2d 8a bb df 8b 6c bc 5e 08 8f 3a
       0.0015691178 -0.0042168577 -0.014437645 0.0010912528
0001f0 44 d3 dc bc 4f 9e 6a bb 99 00 01 bc 67 30 78 3c
       -0.026956208 -0.0035799926 -0.007873678 0.015148259
000200 70 c9 45 bc f6 b6 16 bd 44 31 12 bb a0 42 3e bb
       -0.012071952 -0.03679558 -0.0022307197 -0.002903141
000210 53 86 5b 3c 18 44 49 bb 4e 04 98 3a 26 8b 7f bc
       0.013398725 -0.0030710753 0.0011597963 -0.01559714
000220 77 a7 49 3b a0 bb e8 bc b6 17 0e bd cd 7d 82 3c
       0.0030769983 -0.02840978 -0.03469058 0.015929127
000230 d8 89 b5 3c f6 19 6f bc 21 47 6c bc df dd 65 3c
       0.022160456 -0.014593592 -0.014421255 0.014029949
000240 50 9a 89 3c 05 25 4b 39 e5 af 3e 3c 96 2b 82 bc
       0.016797215 0.0001937338 0.011638616 -0.015889924
000250 36 35 59 bc ea ba 4e bc 44 b0 58 3c b1 9e 92 3c
       -0.013257315 -0.012617806 0.013225619 0.017897936
000260 52 20 14 bc 63 e6 83 3a b4 fb b0 3c ab 39 dc ba
       -0.009040909 0.0010063167 0.021604396 -0.0016801854
000270 b8 c8 50 bc 92 7a ad 3c 09 f4 bf 3c a5 c6 82 ba
       -0.012743168 0.02117661 0.023431795 -0.0009977414
000280 7f 32 b2 bc 54 e0 61 bc 22 1b 99 bc 2e 24 9f 3b
       -0.021752594 -0.013786394 -0.018689696 0.004856608
000290 94 c8 c4 bb df 6c b2 bb 33 1e 4d 3c 79 a8 67 3a
       -0.006005356 -0.0054451074 0.012519407 0.0008837055
0002a0 09 4a 93 3c 85 79 06 3c 1b 33 33 bc 77 a6 b4 3b
       0.017979639 0.008207683 -0.010937477 0.005513008
0002b0 43 cc cb 3b 97 6c d8 3c e1 fc ce bc fb 7c b4 bc
       0.0062194183 0.026418967 -0.025267066 -0.022032252
0002c0 fd c8 9e 3c 8a 0c 39 3c 2c 86 91 ba da da 89 3c
       0.019382948 0.011294493 -0.0011102608 0.01682799
0002d0 45 0a f9 bb 93 34 ac bc 1d 4a 84 3c 5c 29 07 3d
       -0.007600101 -0.021021163 0.016148621 0.032998428
0002e0 1f 42 59 bd 1e a2 16 3c 03 e7 27 3d d4 a6 86 bb
       -0.053041574 0.009193925 0.040991794 -0.004109243
0002f0 24 ba 56 bc d4 da 44 3b b5 3d 39 bc 71 3b 8f bc
       -0.013105903 0.0030037658 -0.011306216 -0.017484399
000300 52 1d a2 3c d1 31 90 3c 9a 3e 8a bb c9 7f 18 bc
       0.019789372 0.01760188 -0.0042188885 -0.00930781
000310 25 1d f8 3b a3 b7 21 3c 11 d2 a1 bc f1 78 18 3b
       0.0075718337 0.009870443 -0.019753488 0.0023265446
000320 7a 68 dc bb 87 a2 a0 3c 46 4e ec bc d7 49 ee 3a
       -0.0067263218 0.01960875 -0.028845917 0.0018179965
000330 e1 3a 27 bb ee 4d 27 3c 0c b2 3e 3c 5a 5d 29 3c
       -0.0025517272 0.010211451 0.011639129 0.010337198
000340 30 9d 2f 3c bf 54 be bc 02 27 b8 bc 77 12 24 3c
       0.010718629 -0.02323377 -0.022479538 0.010014168
000350 d1 bd 14 3c 5f 5d 53 bc 7e 91 65 bc d2 cf 37 bb
       0.009078459 -0.012900679 -0.014011739 -0.0028047455
000360 7b 66 dc bc 29 d6 15 3c e7 38 03 3d 1f b7 bc 3c
       -0.026904335 0.009145298 0.03203669 0.023036538
000370 a4 b5 8a 3b 80 58 1c 3b d3 92 4e ba 1a cd fb 3c
       0.004233079 0.002385646 -0.0007880155 0.030737448
000380 79 b6 24 3d 68 f3 ba bc d4 c3 5a 3c 0a c0 0e bc
       0.040213082 -0.022821143 0.013352353 -0.008712778
000390 24 9a 83 bc c8 33 5c bb 96 ce 61 bc 46 38 27 3c
       -0.01606471 -0.00336002 -0.013782164 0.010206288
0003a0 23 98 8f 3c a8 66 73 3c 09 a8 05 3c 7e dc c8 3c
       0.0175286 0.014856018 0.0081577385 0.024519201
0003b0 1e 44 28 bc aa d3 ee 3c 02 cf a6 3b aa 99 ed bb
       -0.010270147 0.029153664 0.005090595 -0.007250984
0003c0 2e 1e 03 bd 72 42 82 bc 56 46 8e 3b 34 8b 21 bd
       -0.032011203 -0.015900824 0.004341881 -0.039439395
0003d0 7c 01 f9 bb ca 21 93 3c f5 f9 28 bc 44 0c 79 3c
       -0.007599054 0.017960448 -0.010313501 0.015200678
0003e0 15 4b 7e 3c 05 03 05 3c ca 87 c9 b9 49 13 f3 bc
       0.015520831 0.008118396 -0.00038438878 -0.029672282
0003f0 a4 f3 69 bb 90 97 6b bc a3 a4 0d 3c 43 44 6b bc
       -0.00356982 -0.014379397 0.0086452095 -0.014359537

network_body._body_endoder.seq_layers.0.bias f4 [128]
000000 a4 c6 a6 ba be 4d 30 ba 8d a0 2e ba 85 85 b0 39
       -0.0012723994 -0.00067254517 -0.0006661497 0.00033668816
000010 95 f8 09 3b a6 0c a0 39 54 ea e5 3a 1f f5 b7 3a
       0.0021052707 0.00030527002 0.0017541149 0.0014034844
000020 69 7a 04 ba 21 df a2 ba 06 3d 50 3a b1 2c 7a bb
       -0.0005053641 -0.0012426117 0.00079436635 -0.003817361
000030 37 cc 8b ba 4a 0a 0d ba aa 01 da 39 c4 ce f3 39
       -0.0010665719 -0.00053802563 0.0004158144 0.00046502624
000040 df 44 15 bb 65 db 82 3a 0c 63 f8 3a 01 c1 46 ba
       -0.0022776646 0.0009983598 0.0018950417 -0.00075818604
000050 b9 d4 74 39 8f 30 64 ba 37 ff e7 b9 fb 9a 15 bb
       0.00023348899 -0.00087047456 -0.00044249903 -0.0022827971
000060 c9 4e cc ba f7 64 7c 3a d7 ea f6 ba 26 3c 83 ba
       -0.0015587445 0.0009628082 -0.0018838298 -0.0010012432
000070 c1 68 44 bb e3 0d 6a b9 66 48 f3 3a ee aa 93 bb
       -0.0029969665 -0.00022321152 0.0018561005 -0.0045064604
000080 0a 9b c5 b9 4b f3 e5 3a 4b fc a5 ba 46 06 0a bb
       -0.0003769028 0.001754382 -0.001266369 -0.0021060868
000090 29 95 4d 3b a2 84 56 bb 93 17 fb 38 a6 0b 2d 3b
       0.0031369424 -0.0032732864 0.00011973004 0.0026404648
0000a0 00 e7 b7 3a dd a2 a5 3a 5b e6 cb 3a a9 56 84 bb
       0.0014030635 0.0012637038 0.0015556322 -0.004038651
0000b0 42 2b e5 3a db b1 0d ba 08 83 54 3b 97 07 c0 ba
       0.0017484205 -0.00054052257 0.0032426734 -0.00146507
0000c0 fb 9d 5f 3a 50 49 03 bb b4 ab 24 bb f4 3d 8c ba
       0.0008530316 -0.0020032711 -0.0025126757 -0.0010699616
0000d0 53 19 de ba f4 ab fe b9 2a 34 a6 b8 2c 2b a4 3a
       -0.0016944803 -0.0004857477 -7.925213e-05 0.0012525073
0000e0 a8 89 4d b8 9f d1 e2 ba ab 73 8a 3a ff 8f 18 3a
       -4.900401e-05 -0.0017304904 0.0010563036 0.0005819797
0000f0 09 35 07 3a 8f d9 dd b7 64 e8 a5 b4 b0 a5 01 3b
       0.0005157744 -2.6446562e-05 -3.090273e-07 0.0019782595
000100 13 c9 97 bb d4 37 b7 3a d9 c5 f5 b8 61 57 11 bb
       -0.004632124 0.001397843 -0.000117193624 -0.0022177326
000110 ec 08 55 ba 62 75 a9 b9 27 cf e2 ba 6d ce 70 ba
       -0.00081266346 -0.0003232165 -0.0017304168 -0.0009186033
000120 80 a4 8e 3a 88 b5 32 bb 9f 26 aa ba 9e 3a b1 3b
       0.0010882765 -0.0027268846 -0.0012981481 0.005408599
000130 41 34 00 ba ff a4 66 ba 8d b2 8f bb 6d fd 32 ba
       -0.0004890599 -0.000879839 -0.0043852986 -0.00068279245
000140 2f f0 b9 3a ad 32 8f bb 89 a1 c6 bb ef 78 be ba
       0.001418596 -0.0043700547 -0.006061737 -0.0014531891
000150 6f 79 55 36 1e a8 37 b9 f6 ff fe ba 71 50 99 3b
       3.1810157e-06 -0.00017514869 -0.0019454944 0.004678779
000160 a0 88 5e ba 3d 89 21 ba 7b 90 8b 3a 1e 48 b8 3a
       -0.00084889866 -0.00061621127 0.0010647917 0.0014059579
000170 e5 c6 52 3a a0 bb 74 3a df 09 17 ba 0d 3c 18 bb
       0.0008040502 0.00093358196 -0.0005761664 -0.0023229152
000180 d5 4c 3b bb ac 6d 78 ba 0d 58 0c ba 62 bf 8f b9
       -0.002857973 -0.00094767916 -0.0005353697 -0.00027417677
000190 6c 8b 03 ba fe 88 a9 ba 44 69 1e ba 75 30 63 3b
       -0.0005018029 -0.0012934504 -0.00060429075 0.0034666334
0001a0 53 a1 94 ba ec 1c 6b ba 34 7d 47 bb 95 86 ec ba
       -0.0011339582 -0.0008968848 -0.0030439617 -0.001804548
0001b0 0f 3e 9d 39 bb 16 11 b9 4f 73 c9 ba ab 3c 1f bb
       0.0002999161 -0.00013836745 -0.0015369448 -0.0024297636
0001c0 cf 0b 9d 39 41 21 a8 3a a3 a4 0b bb 87 26 03 3a
       0.00029954172 0.0012827293 -0.0021307848 0.00050029944
0001d0 35 e7 ff b9 05 aa ee 38 ef 58 ea 3a 00 21 34 bb
       -0.00048809653 0.00011380393 0.0017879287 -0.002748549
0001e0 b7 64 6f bb ae 76 72 bb 2c 06 80 ba 0f e0 11 3a
       -0.0036528537 -0.0036997008 -0.0009767464 0.00055646984
0001f0 ee 2f 3e bb a5 c5 ae 3a 8e e9 d8 ba da ab 33 3a
       -0.0029020268 0.0013334049 -0.0016549097 0.0006853916

network_body._body_endoder.seq_layers.0.weight f4 [128, 9]
000000 6b 75 0b 3f 8f 18 8b 3e 4c f9 32 3e 3e 04 25 bf
       0.5447604 0.27167174 0.17477912 -0.644596
000010 56 a7 36 bd 4f 3f 21 3e 0c 15 72 be 33 79 44 bf
       -0.044593178 0.15746807 -0.23640841 -0.76747435
000020 d8 48 ac be 77 1e d0 3c 61 9f b2 bc e7 14 9b bd
       -0.33649325 0.025405152 -0.021804513 -0.07572346
000030 db b2 15 be fb fc a1 be 9a 5d 98 3e d7 d8 a1 3c
       -0.14619009 -0.3163832 0.29758912 0.019756718
000040 8e 44 0a bf d9 1e 15 bc 99 a5 0c 3e e8 18 45 3f
       -0.54010856 -0.009101593 0.13735045 0.7699113
000050 a3 4e 18 bf 83 20 df 3d e6 d2 8c 3e 7f dc 5a 3e
       -0.5949499 0.10894873 0.27504653 0.21373175
000060 be f0 0a be 61 59 b6 3d 75 56 81 be ef ad 02 3e
       -0.13568398 0.089037664 -0.25261274 0.12761663
000070 ef 9a fc bd 2a 89 ea bd 4a 65 9a 3e dc aa 6e 3e
       -0.12334239 -0.11451943 0.30155402 0.23307365
000080 8c c8 33 3e 98 08 23 be 55 58 04 3f fe 61 f6 be
       0.17556971 -0.15921247 0.51697284 -0.48121637
000090 e8 73 1a 3f 7d d4 a4 be d3 4d a9 be a7 22 64 bd
       0.6033311 -0.32193366 -0.33067188 -0.05569711
0000a0 b4 2a f8 3d 04 98 01 bf 31 c7 5e 3e 9c 1f b5 3c
       0.1211752 -0.5062258 0.21755673 0.0221098
0000b0 d5 0c 69 bc 25 81 9c 3e c9 da 32 bf d4 ca 41 3e
       -0.014224251 0.3056728 -0.6986509 0.18925029
0000c0 dc 6a 39 3d f8 68 88 3d 41 69 e0 3d 45 02 80 3a
       0.045267925 0.06660646 0.109575756 0.0009766301
0000d0 d3 e4 3b 3d 19 0a 09 be 65 46 9c 3e 44 c2 32 3e
       0.04587252 -0.13382758 0.30522457 0.17456919
0000e0 94 1c 36 3c 47 0a ac 3e 45 55 a7 3d d1 b0 48 3e
       0.011115212 0.3360159 0.08170561 0.195987
0000f0 fb 26 a3 be 86 ab 10 3f 99 3a 05 be e3 a4 90 3c
       -0.31865677 0.56511724 -0.13010634 0.01765675
000100 96 3e 12 bf 36 c6 3e 3e ea a2 98 be 9a b2 79 bd
       -0.5712675 0.18630299 -0.29811794 -0.060961343
000110 21 e5 c7 38 21 33 da be 54 67 92 be 13 9a a9 be
       9.531738e-05 -0.42617133 -0.28594458 -0.33125362
000120 98 59 20 3f cd e8 69 be b8 b5 87 be 77 e6 2c be
       0.6263671 -0.22842713 -0.26505828 -0.1688479
000130 fb bf 84 3e 92 32 fd 3e 45 54 2e 3d d0 c6 83 bd
       0.2592772 0.49452645 0.042560834 -0.06434405
000140 80 a6 42 3e 13 73 aa 3e ca d7 a3 bd 2c 77 22 bf
       0.19008827 0.3329092 -0.08000143 -0.6346309
000150 25 f7 b8 3e ab a9 79 be ad d0 81 3e 99 98 32 3d
       0.36126056 -0.2438113 0.2535452 0.04360256
000160 1b 90 5b be 38 2d b8 bd e6 2f 2c 3f 2c 33 55 3e
       -0.2144169 -0.08993 0.6726059 0.20820302
000170 d4 ad 7d 3e ac a6 6e be d1 6e 79 3c ad b0 cb 3e
       0.24773341 -0.23305768 0.015224175 0.3978323
000180 15 65 70 bd b5 ae c0 3e 07 3a 94 3e ec 8a 24 bd
       -0.05869015 0.3763329 0.2895052 -0.04017155
000190 ec 81 1c be e2 fa c8 be fb bf 21 bf 1b 9b 7a 3e
       -0.15283936 -0.39253908 -0.63183564 0.2447323
0001a0 5f 90 19 bf f1 e7 e4 bc 5f fb 13 3d 7c 1a 27 3e
       -0.5998592 -0.02794263 0.036128398 0.16318697
0001b0 17 ff 0f 3e 37 54 0d bf 8d 52 d1 3e b4 86 44 be
       0.14062153 -0.55206627 0.40883294 -0.1919201
0001c0 a0 6a 91 bd 6b b6 ed 3e 45 c1 e9 3e 7e 1c 2c 3d
       -0.07100415 0.46428236 0.45655265 0.04201936
0001d0 67 77 9c 3c 3f 16 2a be b6 10 6c bd ef 31 29 bf
       0.019099904 -0.16610049 -0.057633124 -0.6609182
0001e0 a2 06 b3 3d 3d 3a f7 3e 52 0e 52 3c 1a 07 10 3f
       0.087414995 0.4828662 0.012820797 0.56260836
0001f0 fb 8e 9b 3d 19 05 01 3e ee 13 8f 3d 93 ac 09 be
       0.07595631 0.12599601 0.06986223 -0.13444738
000200 0c 7c 1a bd 87 6f a3 be 8a 70 57 3e 75 9a ce 3e
       -0.037715957 -0.31921026 0.21039024 0.40352216
000210 2a 93 46 bf 8b 95 6c 3b b1 88 00 3d e2 cb f4 be
       -0.77568305 0.0036099877 0.03138036 -0.478118
000220 58 d9 de be 63 33 e9 bc 6c 43 b1 be 48 bb b7 3b
       -0.43525195 -0.028466886 -0.3462175 0.0056070425
000230 7e 0f 74 3d 6f e7 5f 3e f9 9c 06 be a5 c4 98 be
       0.059585087 0.21865629 -0.13145818 -0.29837528
000240 fd 38 96 3c aa 10 be be e0 97 53 3c 03 4a 83 3e
       0.018337721 -0.3712209 0.012914628 0.25642404
000250 f1 c9 c6 3e d6 c5 01 3f 74 13 32 bf b8 a7 91 bd
       0.38825944 0.506925 -0.69560933 -0.07112068
000260 cc e4 bb 3e 43 f1 f1 3b 16 5b 03 3e fd c9 2e 3e
       0.36697996 0.007383497 0.12827715 0.1706924
000270 33 dd 8a be b5 73 87 3e 02 02 e0 3e c7 e7 8a bc
       -0.27121887 0.26455465 0.43751532 -0.016956223
000280 1b 1f 23 3f 68 99 d4 3e 6d 26 b5 be e6 95 db bd
       0.6371934 0.4152329 -0.3538088 -0.1072195
000290 65 23 71 3e 78 e6 9d be 6c 2a bf be 64 0d a0 3d
       0.23548658 -0.30839896 -0.37337053 0.07815054
0002a0 e3 45 d3 be 91 44 0c bd c2 bb 5e 3e e4 b5 7b 3d
       -0.41264257 -0.034245078 0.21751311 0.06145276
0002b0 14 28 63 3e e1 f3 b6 3e 41 64 6d 3e 80 de a1 bd
       0.22183257 0.3573294 0.23182775 -0.07903767
0002c0 a8 85 b4 bd fd f2 5c bc 06 79 73 3e ff b8 4a bd
       -0.088145554 -0.013485667 0.23776636 -0.049492832
0002d0 16 ae a6 be c3 78 8f 3e 3d 47 ed bd 91 74 e5 3d
       -0.32554692 0.2802182 -0.11585853 0.11203874
0002e0 42 86 dd be 9e e7 8c 3e 50 94 b4 be 20 31 8e 3e
       -0.43266493 0.2752046 -0.35269403 0.27771854
0002f0 a6 e1 8d 3e 1e 4f 92 3d 18 93 9c 3e a5 11 42 be
       0.2771122 0.07143997 0.30580974 -0.18952043
000300 54 8e af 3d 95 37 8a 3e cf 2a 32 3f e5 27 49 be
       0.08572069 0.2699553 0.6959657 -0.19644125
000310 6d 6b a7 be 5e d7 92 bd 72 ef 33 bd 88 9d 55 be
       -0.32699147 -0.07169984 -0.043929525 -0.20860875
000320 5e fb 82 be 0b ee 98 be 5b 9c 21 3e 1f 68 4f bc
       -0.25582403 -0.29869112 0.15782301 -0.012659102
000330 ce f5 1f bc 0a 53 cb be 47 38 e4 be 40 70 31 be
       -0.009763194 -0.3971179 -0.44574186 -0.17327976
000340 04 3c 29 bf ff fa d5 3e b5 ba 57 bd c0 f3 bd 3e
       -0.661072 0.41793057 -0.052668292 0.3710003
000350 dd 98 ee be 52 3d 0b be ff 39 2b 3d f7 18 96 be
       -0.46601 -0.1359761 0.041803356 -0.29315922
000360 4b f8 14 bd 57 57 10 be 57 97 26 3e 72 5a b1 bd
       -0.036369603 -0.14095818 0.16268669 -0.08659829
000370 89 30 09 3f d6 19 5d 3e d7 2d 95 3d 54 51 f5 bd
       0.53589684 0.21591887 0.07284134 -0.11978403
000380 e7 c6 7e 3e a2 00 93 3d 09 f7 b6 be ec 50 ff bc
       0.24880563 0.07177855 -0.35735348 -0.031166516
000390 dc 85 9e bd 6a f8 2d be 26 43 22 3f c8 f3 48 3e
       -0.077403754 -0.16989294 0.6338371 0.19624245
0003a0 84 bd e4 bd 68 0d 3e 3d 4f d4 b1 3d ee 22 0b bf
       -0.1116896 0.046399504 0.08683073 -0.54350173
0003b0 fa 52 61 3e 7c 34 12 3d 97 1b 28 bf 87 2e d2 be
       0.2200431 0.035694584 -0.656671 -0.41051123
0003c0 be 23 50 3d d2 f0 e5 bb dd 5e 84 be 13 63 54 bd
       0.050815336 -0.0070172334 -0.25853625 -0.051852297
0003d0 ad 71 26 3d f3 cb 3a be 34 ae 87 be 63 91 57 be
       0.040635753 -0.18241863 -0.26500094 -0.21051554
0003e0 10 ee 9f be 82 00 83 be 2a 71 b7 3d 30 65 aa 3e
       -0.31236315 -0.25586325 0.08957131 0.33280325
0003f0 5c 08 18 3e ed 1d 58 be c0 85 00 3f df 2f b0 3e
       0.14846939 -0.21105166 0.50204086 0.34411523

network_body._body_endoder.seq_layers.2.bias f4 [128]
000000 ce 1d d8 b9 9c 71 e7 ba 7a 2a bd 38 2c ce 34 3a
       -0.00041220937 -0.001765776 9.020134e-05 0.0006897177
000010 18 68 1e ba 8b 05 d0 39 4b 17 9d ba 01 06 b2 ba
       -0.0006042733 0.0003967698 -0.0011985091 -0.0013582112
000020 da a2 71 39 72 d1 3b 3a 95 17 94 ba 0a 93 0a 3a
       0.00023044218 0.00071646937 -0.0011298532 0.0005286193
000030 e2 b0 eb 3a 2a e4 04 bb f3 5c 99 ba 11 42 11 3b
       0.0017981792 -0.0020277598 -0.0011700675 0.0022164623
000040 66 3d b3 3a af 1d 16 ba 2f a4 85 ba ff 15 e1 ba
       0.0013674914 -0.0005726469 -0.0010196025 -0.0017172693
000050 86 93 2c bb 4c e1 67 39 8f f4 16 3a eb ce 8a 39
       -0.0026333048 0.00022113806 0.0005758488 0.00026475577
000060 34 16 c6 b9 05 89 f1 b8 1c 6c 24 ba cd ca 0c 3a
       -0.00037782046 -0.000115172974 -0.0006272213 0.0005370796
000070 c5 74 5b bb c8 0a 6f b8 11 5e ec 3b 96 a9 cb 3a
       -0.0033486348 -5.699208e-05 0.007213362 0.0015538211
000080 ed a2 49 ba cf 2d b7 ba c3 b3 a5 ba 89 b3 4c 3a
       -0.00076918193 -0.0013975444 -0.0012642074 0.0007808735
000090 f9 0f ec ba b6 cb b7 bb 08 f2 b1 3a 14 06 6c 3a
       -0.0018010131 -0.005609001 0.0013576159 0.0009003591
0000a0 18 a8 9c 38 0e 16 e3 ba 1d bf 5e bb 9e c4 e4 ba
       7.4699696e-05 -0.0017325298 -0.0033988424 -0.0017453616
0000b0 dc e0 93 ba 91 26 43 3b 69 fc 43 bb 35 38 75 bb
       -0.0011282223 0.0029777626 -0.0029905087 -0.0037417535
0000c0 80 f7 15 3b f1 7d cc 3a f4 b1 f0 ba 28 c3 ed 3a
       0.0022883117 0.0015601498 -0.0018363581 0.0018139826
0000d0 3f 52 c0 b9 c7 7f d4 ba 97 f0 62 b9 dc 20 21 3a
       -0.00036682372 -0.0016212397 -0.00021642666 0.0006146559
0000e0 7c f0 8e ba c4 f3 f0 39 b0 0e ad 3a c8 bb 58 3a
       -0.001090541 0.00045957987 0.001320323 0.00082677277
0000f0 33 fa 27 bb 52 c8 be 3a 75 21 2c bb 18 5e b0 ba
       -0.0025631308 0.001455555 -0.002626506 -0.0013455776
000100 0c 00 84 39 6a d0 88 3a 41 e8 a5 bb 25 5a 23 39
       0.00025177037 0.0010438089 -0.005063087 0.00015578473
000110 66 cb 42 b9 53 c5 d6 ba 03 90 90 ba c7 5d 05 bb
       -0.00018577054 -0.0016385711 -0.0011029247 -0.0020350085
000120 2a 25 03 3b e9 16 8a ba 4c f0 f0 ba af 98 25 38
       0.0020011165 -0.0010535392 -0.0018382161 3.9481263e-05
000130 0d 6d 13 3a 87 ec 73 ba e1 47 92 3a 4d b7 24 3a
       0.0005623855 -0.00093049597 0.0011160338 0.00062834175
000140 57 03 90 38 b2 6f 25 bb 85 20 23 ba 38 17 b5 3a
       6.867077e-05 -0.0025243578 -0.00062228023 0.0013816124
000150 49 b0 99 3b 2d 7d 25 bb c0 08 54 3b 56 62 c6 ba
       0.0046902043 -0.0025251613 0.0032353848 -0.0015135508
000160 ea a1 c6 39 67 ac c5 3a 87 ce f7 3a 43 86 6a b9
       0.00037886138 0.0015081287 0.0018906154 -0.00022365995
000170 dc 04 4b 39 67 2a a6 3a 3e 62 08 bb e8 95 63 b9
       0.00019361399 0.0012677432 -0.002081051 -0.00021704251
000180 99 1a f9 3a 00 b1 94 ba 10 00 47 ba 44 30 c6 b9
       0.0019005119 -0.0011344254 -0.0007591257 -0.00037801464
000190 e6 7a 9c bb fb e9 d5 3a c5 96 1d bb 9d 97 a5 3a
       -0.004775393 0.0016320342 -0.0024046164 0.0012633685
0001a0 0f b2 43 b9 7d 58 e9 39 83 03 54 ba be 04 e1 3a
       -0.00018662981 0.00044507152 -0.00080876815 0.0017167551
0001b0 ab 72 37 3b 1d c6 f7 3a 17 c5 62 3a 21 07 1b bb
       0.0027991931 0.0018903647 0.00086505845 -0.0023655372
0001c0 c8 93 08 bb eb 02 d4 ba 32 2d 0b 39 00 a3 96 3b
       -0.0020840038 -0.0016175186 0.0001327291 0.004597068
0001d0 cf d1 eb b9 f3 f6 00 3b c7 9c b6 ba c8 f3 f5 3a
       -0.00044979012 0.0019678443 -0.0013932221 0.0018764669
0001e0 a0 f0 fd 3a 89 cb 2d b8 10 7d f5 ba af 6a ec ba
       0.001937408 -4.143597e-05 -0.0018729288 -0.0018037165
0001f0 bb 09 d6 ba cc ed 8c ba 59 5f 9d 39 1a 5b 37 ba
       -0.0016329804 -0.0010752021 0.00030016413 -0.0006994471

network_body._body_endoder.seq_layers.2.weight f4 [128, 128]
000000 f5 ce da 3b e4 cc 03 3d f1 62 27 3d 70 80 8e 3d
       0.006677503 0.03217782 0.040865842 0.06958091
000010 c3 56 2a 3d a2 f6 b0 bc 38 18 13 3d c3 9f d3 bd
       0.04158665 -0.021601979 0.03591177 -0.103332065
000020 ab 27 ba bc 1e ad 06 3e 44 b0 00 3c ec f8 81 3d
       -0.022723993 0.13151976 0.007854525 0.06346306
000030 cd df 32 3d 82 0b d1 bd 06 8c 47 3d d7 f8 1d 3d
       0.043670464 -0.10207273 0.04871752 0.03856739
000040 72 f8 0b bc c1 87 2c 3d 19 24 90 3c 1c e0 33 3d
       -0.008543121 0.042121653 0.017595338 0.0439149
000050 f6 61 a8 3d 15 ea 5e bd 1b e8 4f 3d da 7b ec bd
       0.082218096 -0.054422457 0.050758462 -0.1154706
000060 97 94 b9 3d b1 07 9a bc 55 83 8b bd 9a 47 c2 3a
       0.090615444 -0.018802496 -0.06812159 0.0014822364
000070 29 8c 1d 3e 5e a7 3d bb 25 2c eb 3d 97 ed 37 3d
       0.15385498 -0.002893887 0.11483029 0.044904318
000080 fe 16 36 3d e9 e8 fc bd ac d3 bb bc f8 2c e9 bd
       0.04445552 -0.123491116 -0.022928081 -0.1138553
000090 c8 de 26 be ca 06 b3 bc b5 79 97 3c c2 84 e5 bd
       -0.16295922 -0.021853823 0.018490652 -0.11206962
0000a0 cb d2 99 3c ce 6a d6 3d 8a e4 87 bd 67 b0 39 3e
       0.018777272 0.1046959 -0.06635387 0.18133698
0000b0 b3 b6 23 3d 2e b5 07 bd 2d ef ae bd e3 b1 4c bd
       0.039969157 -0.03313177 -0.08541713 -0.049974333
0000c0 f0 a0 d5 bc d3 ce ff 3d 92 c8 38 bd b3 b2 d4 3d
       -0.026077718 0.124906205 -0.045113154 0.10385647
0000d0 29 82 3c 3d 55 e1 3a bd 72 df 05 3c e9 b3 20 3e
       0.046022568 -0.04562505 0.008170949 0.1569363
0000e0 f6 bf db bd c2 54 07 3d 41 0a 04 3e 36 33 9b 3d
       -0.10729973 0.033039816 0.12894537 0.07578127
0000f0 f7 b9 4f 3d bc 20 21 bd 4e f1 b5 3d 3b ef d9 bd
       0.05071446 -0.03933786 0.08883916 -0.10641333
000100 af 59 56 3c de f5 d9 3c fb 4a 0a be 9e bd 41 3d
       0.013082906 0.026606496 -0.13505165 0.047299974
000110 06 67 74 bd 88 e9 2c 3d 6e 1d 24 3e 0a 0f 91 3d
       -0.059668563 0.0422149 0.16026852 0.070829466
000120 f5 95 d9 3d c6 5f 04 3e 01 99 c0 bd ef 28 76 bd
       0.10624305 0.1292716 -0.09404183 -0.06009763
000130 35 74 22 bd 4c e3 75 3d 2b c9 02 be 8a 39 2f 3d
       -0.039661605 0.06003122 -0.12772052 0.042779483
000140 08 84 93 bd 14 29 8a 3d a0 de 4c 3d d9 c1 d5 b9
       -0.07202917 0.06746116 0.050017 -0.00040770954
000150 a4 c8 77 bd 66 c6 f3 bd 6f 71 7e 3d a0 92 0e 3d
       -0.06049408 -0.11903076 0.062119897 0.0348078
000160 e3 86 0f bd 05 bb d9 bc cc b7 b4 3d 91 7b 0d bd
       -0.035040747 -0.026578436 0.08824119 -0.03454167
000170 9f b5 41 bd cc 3d 27 be 06 88 ed 3d e3 6b 7a bd
       -0.047292348 -0.16332167 0.1159821 -0.061138045
000180 82 19 93 bd 88 58 be 3d 13 8c 38 be bf 35 77 3d
       -0.071825996 0.0929423 -0.18022184 0.06035399
000190 4f 6d 58 3e 87 37 8a 3d 6f 2b 19 bd da 27 90 bd
       0.21135448 0.06748872 -0.037394937 -0.07038851
0001a0 65 50 6d bd c9 c3 12 3d 89 4d 28 3e 4c 80 e6 3c
       -0.057938 0.035831247 0.16435827 0.028137349
0001b0 53 b1 08 be 9a 37 14 be 1d 9d 48 bd 0a 0b d1 bb
       -0.13348894 -0.14474335 -0.04897796 -0.00637949
0001c0 2e 63 57 3d 16 fb c9 3d 6c 6e e3 bd ee e1 94 3c
       0.05258482 0.09862344 -0.11105046 0.018174138
0001d0 c1 39 7c 3d cd 63 cf bb ca fe 4d bc 36 6e 5e 3d
       0.061578516 -0.006329036 -0.0125729535 0.054304324
0001e0 8b 08 cd bd 71 73 b6 bd 95 44 24 3b 83 68 f3 bd
       -0.10011395 -0.089087375 0.0025065292 -0.118851684
0001f0 cc e5 b9 bd 34 f4 82 bd 36 13 9e 3d 53 f3 1f 3c
       -0.090770334 -0.06394234 0.07718508 0.009762603
000200 f2 7f d1 bd c8 f7 94 3d c1 18 4a 3d 1f 85 3c 3d
       -0.10229482 0.07273823 0.049340013 0.04602539
000210 76 6a bd bd 50 02 22 3d 77 55 82 3c 62 71 0e bd
       -0.092488214 0.039552987 0.015909893 -0.0347761
000220 2c b7 64 bd 9d 5f 0a 3d da 2b 09 be 89 10 d5 3c
       -0.05583875 0.03378259 -0.13395634 0.026008861
000230 ce 2a bd bc 09 00 1a 3e d8 6c d6 bc 1e db 07 bc
       -0.0230917 0.15039076 -0.026174948 -0.008291988
000240 3b c0 c2 bc ad ba 8e bd e3 42 31 bb ae 7b cd 3d
       -0.023773303 -0.06969199 -0.0027047924 0.10033356
000250 24 f3 2d be 1d 88 62 3d ea cc 59 bd 6f 88 cc 3c
       -0.16987282 0.05530559 -0.053173937 0.0249674
000260 a4 bc 9c bc 98 3c fb bd ba 19 33 bd a5 90 6a 3d
       -0.01913292 -0.12267417 -0.043725707 0.05726685
000270 45 80 85 3c 8a b7 04 bd f1 6c 37 bd 38 94 4a bc
       0.016296515 -0.0324016 -0.04478163 -0.01236444
000280 f8 79 eb 3d fc 15 31 3d 1f 2c 68 bd ee 76 3a 3d
       0.11497873 0.043233857 -0.056682702 0.045523576
000290 ab ff 1a 3d 34 ea 51 bc 82 d1 03 bd 46 c2 c8 bc
       0.03784148 -0.012812186 -0.032182224 -0.0245067
0002a0 df 9d a9 3d fe 71 55 bd d5 7d 3f bc a3 24 07 3d
       0.08282065 -0.052110665 -0.011687716 0.032993924
0002b0 64 be 4a bc 3c af 9e bb 33 e7 1d bc 8c ba 49 3e
       -0.012374494 -0.004842667 -0.009637642 0.19700068
0002c0 fa cf 72 3d 76 42 32 3e e7 08 08 3d b1 89 ae bd
       0.059280373 0.17408165 0.033211615 -0.08522356
0002d0 8d e7 eb bc d5 83 bb 3d 79 e1 10 3e 5c 51 db bd
       -0.028796935 0.09156004 0.14148511 -0.107088774
0002e0 6d db 3e be 2f 44 ca bd 94 fa 34 3d 9c 89 cf bd
       -0.18638392 -0.09876286 0.044184282 -0.10133669
0002f0 05 9e 65 3d e4 9a 89 bd 8a ca a9 3d 54 7e 8e 3d
       0.056058902 -0.06718996 0.082905844 0.06957689
000300 33 c9 11 3d b8 ff f0 3b 01 74 83 bc 67 96 18 3e
       0.03559227 0.007354703 -0.016046526 0.14901124
000310 74 57 49 3d b2 ad 8a bc 87 d1 9d bd 8c b1 76 3c
       0.049155667 -0.016928528 -0.0770598 0.015056979
000320 62 2d 66 3e b9 31 61 bc 3e 50 a2 3d d6 9c 10 bd
       0.2247825 -0.013744765 0.07925461 -0.03530582
000330 7b 0d b5 bd 15 54 6b bc de 46 87 bd 8c bd 6c bd
       -0.08840462 -0.014363308 -0.06605314 -0.057797953
000340 8f ab 62 bd 35 c3 11 bd b7 33 6a bd 24 06 cf 39
       -0.055339392 -0.035586555 -0.057178225 0.00039486692
000350 35 bb 91 3d 0f e6 6d 3a 54 37 1c be f9 e7 3d bd
       0.07115785 0.0009075114 -0.15255481 -0.046363804
000360 36 66 5b bd 77 59 1b 3d 8b 4d 95 bd d4 3a d5 3c
       -0.053564273 0.037927117 -0.07290181 0.026029028
000370 6f ac af 3d a5 87 05 3b 2e b2 19 bd 62 84 aa 3d
       0.08577811 0.002037504 -0.03752344 0.08326031
000380 82 c4 6c 3d d4 29 0a be a4 43 29 be 82 2d 03 3e
       0.057804592 -0.13492519 -0.16529709 0.12810329
000390 a6 0c d3 bd 11 63 a5 3d d6 e6 16 bd ef 86 20 3c
       -0.10305147 0.08075536 -0.036841236 0.009797796
0003a0 c8 f5 1a bc 1f 96 9e 3d 11 a2 a8 3c db 80 19 3d
       -0.009458013 0.07743477 0.020585092 0.0374764
0003b0 9d dd 3d bd dc d5 eb bd a2 dd c1 3d c2 dc f0 3d
       -0.046353925 -0.115154 0.09466101 0.11760856
0003c0 d9 ae 29 be 24 b6 e0 bd c1 8e 02 3e ee 97 16 be
       -0.16570605 -0.109722406 0.12749769 -0.14706394
0003d0 eb cc 2b 3d 48 5d 81 bd 96 f8 e5 bd 56 6e 9d bc
       0.041943472 -0.0631662 -0.11229055 -0.019217651
0003e0 8c a8 5b be 73 21 36 3c 1a 96 ed 3d a7 a4 a6 3d
       -0.21451014 0.011116373 0.11600895 0.08136874
0003f0 93 09 b9 3c 7c 70 a2 bd 5f 79 e9 bc d1 48 90 bd
       0.022587573 -0.07931611 -0.028500257 -0.070451386
