results/jugglingRobotV1/JugglingRobotV1/JugglingRobotV1-86285.onnx (onnx, 74695 bytes, 7 tensors)

action_model._continuous_distribution.log_sigma f4 [1, 3]
-0.008298005 -0.016856635 -0.013760908
00000000: 5bf4 07bc ed16 8abc 6e75 61bc

action_model._continuous_distribution.mu.bias f4 [3]
0.0042655747 0.0016655003 -0.00096009957
00000000: 3cc6 8b3b eb4c da3a 31af 7bba

action_model._continuous_distribution.mu.weight f4 [3, 128]
-0.022402277 0.007548351 -0.016862616 0.011658573 -0.013361519 0.037783578 0.011237116 -0.009138739
0.0041335286 0.004096986 0.0006892211 0.014261487 -0.020521743 -0.008532106 0.008933356 0.011194312
0.0048306454 -0.0072757783 0.016134005 0.00095481187 0.023044093 -0.011238224 -0.027831785 -0.009400308
-0.0028352872 -0.0068506175 -2.4976054e-05 -0.010143429 0.00955626 0.0040775565 0.03332345 0.032198675
0.011554475 -0.010376501 0.022245346 -0.0035896436 -0.000201294 0.0027874627 -0.0035947715 0.008144481
-0.010849693 0.015846198 0.0020555605 0.01052572 0.013355563 0.016779272 -0.015278731 -0.021082973
-0.02105976 -0.023135126 0.00032901988 -0.02501234 0.050554868 -0.010800105 -0.0119484095 -1.8922437e-05
0.0006431419 -0.020168375 -0.019743284 0.010434209 -0.020945977 0.00038155663 0.012340248 0.024766793
0.04021487 0.0043724305 0.011164089 0.02023994 -0.026122421 0.017409842 -0.006078327 -0.01563885
0.008709554 -0.021637555 -0.006540511 0.006619801 0.0111921355 0.02114567 -0.0144855045 -0.0105470745
0.022648571 -0.0038454388 -0.010573006 0.0071950248 0.004262048 -0.01106027 0.001255249 -0.00811237
-0.02216457 0.043186676 -0.010743833 -0.003703314 -0.017028311 0.040814746 0.013747715 0.015517796
-0.028134597 -0.026811939 0.005946141 -0.027211899 -0.018610572 0.0027431652 -0.010922441 -0.0004270093
-0.0076635284 -0.02364854 -0.0062352302 -0.0029636638 0.004094734 -0.0031330097 -0.0027916564 -0.00875111
-0.026448006 0.003787157 -0.0038893383 -0.0020526384 0.02435031 0.0135407755 -0.04814664 -0.026659949
0.00039549868 0.0015674275 0.02902677 -0.0036278877 0.021313211 0.0069875573 0.0036955778 0.006044116
-0.003969422 0.0010455957 -0.0029446203 -0.0008168139 -0.0047529605 0.007831104 -0.027190479 -0.0049564643
-0.01581858 -0.005707097 -0.020272652 0.009983149 -0.028048508 0.005382077 -0.029465469 0.01766846
-0.003855894 -0.016253488 -0.020052975 0.016908547 0.0021610446 0.0006870675 0.016848505 -0.0043973518
0.02093615 0.0099494485 -0.052368343 -0.031747498 -0.0076935333 0.0127849225 0.0013452948 -0.001448956
0.029203478 0.0056143133 -0.005315673 0.0052034874 -0.032333825 0.025319 -0.031515438 -0.003311671
-0.0037003115 0.017094897 -0.010632979 -0.0057259663 0.020695701 -0.0016046218 -0.04183328 0.030302426
-0.030224541 -0.019051392 0.00071775244 -0.029435772 0.00076359906 -0.039532665 0.005596385 0.035049524
0.03565735 -0.011722847 -0.011235821 0.036634497 0.028604215 -0.021724498 -0.017585997 0.007792647
-0.006893763 -0.0506346 0.0033923762 -0.004396249 0.0033873494 0.04728638 -0.02319549 -0.019496283
-0.0031731226 -0.018227797 0.018105635 -0.011483577 -0.005905744 -0.00155955 0.008176843 0.013862132
-0.0032544069 0.021030227 -0.01929305 -2.991211e-05 0.02666688 -0.0026831308 -0.005012841 -0.022246556
0.040024847 0.00047708186 -0.0023422725 0.03018532 -0.036589902 -0.02074972 0.0024044842 -0.0063194903
-0.017251808 -0.00011899041 -0.034592405 -0.007258368 0.0038182233 -0.007021295 0.021169607 -0.015059319
-0.020568421 0.017187988 -0.019293088 -0.0019829993 -0.017470755 -0.0063864533 -0.032385524 -0.004256751
-0.032300193 -0.018812891 -0.018417818 0.0047079152 0.024728399 -0.002965853 0.01671703 0.024449978
-0.024802892 0.01961329 0.013569138 0.00830916 0.024744488 0.003987371 0.008532818 -0.016848557
00000000: fb84 b7bc 2858 f73b 7823 8abc 9903 3f3c
00000010: 46ea 5abc f4c2 1a3d e11b 383c a6ba 15bc
00000020: 8d72 873b 0240 863b d8ac 343a 03a9 693c
00000030: 371d a8bc 3fca 0bbc 365d 123c 5968 373c
00000040: 644a 9e3b a769 eebb 762b 843c 574c 7a3a
00000050: f7c6 bc3c 8720 38bc 7cff e3bc c003 1abc
00000060: 3ad0 39bb 257b e0bb ab83 d1b7 a030 26bc
00000070: dc91 1c3c 069d 853b 2b7e 083d c2e2 033d
00000080: fb4e 3d3c 3302 2abc df3b b63c 3a40 6bbb
00000090: 7212 53b9 ddad 363b 4296 6bbb 6e70 053c
000000a0: e9c2 31bc e3cf 813c 95b6 063b 1274 2c3c
000000b0: 4bd1 5a3c af74 893c a453 7abc 33b6 acbc
000000c0: 8585 acbc e085 bdbc 4d80 ac39 aee6 ccbc
000000d0: 9f12 4f3d ecf2 30bc 43c3 43bc a0bb 9eb7
000000e0: 8698 283a 2638 a5bc abbc a1bc 3ff4 2a3c
000000f0: e696 abbc aa0b c839 c02e 4a3c bbe3 ca3c
00000100: 59b8 243d 9b46 8f3b 95e9 363c 3bce a53c
00000110: b0fe d5bc 169f 8e3c b42c c7bb 0c1d 80bc
00000120: 84b2 0e3c 3e41 b1bc c851 d6bb eaea d83b
00000130: 385f 373c af39 ad3c 9c54 6dbc a3cd 2cbc
00000140: 7f89 b93c c203 7cbb 673a 2dbc 3ec4 eb3b
00000150: a6a8 8b3b 2236 35bc 2b87 a43a bfe9 04bc
00000160: 7992 b5bc 83e4 303d e706 30bc 4db3 72bb
00000170: f57e 8bbc 5d2d 273d 193e 613c 5b3e 7e3c
00000180: 877a e6bc b6a4 dbbc d9d7 c23b 7deb debc
00000190: 3375 98bc adc6 333b 0af4 32bc 38e0 dfb9
000001a0: 561e fbbb 95ba c1bc e750 ccbb 073a 42bb
000001b0: 1e2d 863b 2e53 4dbb 39f4 36bb d160 0fbc
000001c0: 7da9 d8bc f331 783b 45e4 7ebb 8f85 06bb
000001d0: 4d7a c73c 21da 5d3c 6935 45bd f765 dabc
000001e0: ef5a cf39 2472 cd3a 8cc9 ed3c dbc1 6dbb
000001f0: 0b99 ae3c e1f7 e43b 8231 723b b80d c63b
00000200: ed11 82bb 5f0c 893a 88fa 40bb 741f 56ba
00000210: b9be 9bbb 084e 003c 91be debc d669 a2bb
00000220: f795 81bc 9902 bbbb d512 a6bc 5d90 233c
00000230: fcc5 e5bc 225c b03b 9161 f1bc 72bd 903c
00000240: 2bb3 7cbb 0926 85bc 2346 a4bc cb83 8a3c
00000250: 50a0 0d3b 521c 343a e005 8a3c a917 90bb
00000260: 4a82 ab3c 0303 233c 3080 56bd aa09 02bd
00000270: 091a fcbb da77 513c 9a54 b03a e5ea bdba
00000280: 223c ef3c 46f8 b73b 192f aebb 0482 aa3b
00000290: 7970 04bd cb69 cf3c 5516 01bd 9f08 59bb
000002a0: ed80 72bb 990a 8c3c f235 2ebc e3a0 bbbb
000002b0: 088a a93c 2c52 d2ba 6059 2bbd cb3c f83c
000002c0: 7599 f7bc aa11 9cbc 8d27 3c3a 4a23 f1bc
000002d0: 442c 483a 01ed 21bd e161 b73b 1790 0f3d
000002e0: 710d 123d 2f11 40bc 7316 38bc 0e0e 163d
000002f0: 6353 ea3c 93f7 b1bc 8210 90bc 7659 ff3b
00000300: 13e5 e1bb 3a66 4fbd a152 5e3b 690e 90bb
00000310: 4bfe 5d3b 5daf 413d 7804 bebc abb6 9fbc
00000320: 2af4 4fbb 7652 95bc 4552 943c 9d25 3cbc
00000330: f984 c1bb d069 ccba 2af8 053c ff1d 633c
00000340: e347 55bb 9547 ac3c 750c 9ebc c4eb fab7
00000350: 8074 da3c 77d7 2fbb c242 a4bb 693e b6bc
00000360: 18f1 233d d820 fa39 d080 19bb 3447 f73c
00000370: 4bdf 15bd 51fb a9bc 8d94 1d3b ba13 cfbb
00000380: aa53 8dbc 7d8a f9b8 c4b0 0dbd 9bd7 edbb
00000390: 283b 7a3b e412 e6bb e26b ad3c 5dbb 76bc
000003a0: 1b7f a8bc d3cd 8c3c 8a0c 9ebc 35f5 01bb
000003b0: d41e 8fbc 7445 d1bb afa6 04bd 377c 8bbb
000003c0: 354d 04bd 7e1d 9abc f7e0 96bc db44 9a3b
000003d0: 3693 ca3c c25e 42bb 27f2 883c 524b c83c
000003e0: 6f2f cbbc 0dac a03c 1751 5e3c 2523 083c
000003f0: f4b4 ca3c 7ea8 823b 3ccd 0b3c fc05 8abc

network_body._body_endoder.seq_layers.0.bias f4 [128]
0.0009900896 -0.0036023704 0.008062056 0.0016664573 0.0021250613 -0.0049400297 0.0034844957 -0.0059606535
0.0016515162 -0.0019184824 -0.0020250408 -0.0047791847 -0.0035405683 -0.003486467 -0.00069008954 -0.004519053
-0.0009992422 -0.0012259909 -0.0060486156 -0.0038284427 0.0019671204 -0.004047118 0.00453763 -0.0027117443
0.0016983662 0.0009088506 0.0043811514 -0.004228019 -0.0005713233 0.0016440307 -0.004883133 0.0008845022
-0.0025421393 0.0049986397 -0.0030653416 0.0030312059 -0.00044446412 0.0014605715 0.003134194 0.0052617607
-0.00019039307 -0.0043547107 0.001626079 0.0038129683 -0.0035292902 -0.00555349 -0.005441669 -0.0036655827
-0.0029859506 -0.004315456 0.0006493281 0.0036026684 -0.005789776 -0.0059103156 -0.002090721 -0.005254963
0.008915226 -0.0028458831 -0.0029161777 -0.00022760358 -0.004715358 0.002366182 -0.0011599581 0.0023173064
-0.0026280284 -0.002902255 0.0011076862 0.0054068225 0.0022711484 0.0045788977 0.0027071289 0.0014164686
-0.004463347 0.0009169178 0.0039515845 0.0062124333 0.0031313486 -0.00010098254 0.002039107 -0.0022674578
-0.00029919524 -0.0066049914 -0.005096358 0.0004331448 0.0005362393 -0.007479553 -0.003486814 -0.002874254
0.004759934 0.0026218393 -0.0005507149 -0.0012028385 0.0015297537 0.00017879238 -0.0020340618 0.0012565077
-0.005591207 0.008277986 -0.0033195005 0.003171081 -0.0007052895 -0.0018615789 -0.001735079 -0.003830473
-0.0060438607 -0.0019741727 -0.0025417241 -0.007484232 -0.0019135431 -0.004912789 0.00097046985 -0.008643936
-0.0020068772 0.0011216648 0.0031614539 6.563473e-05 0.0013898377 0.005170773 -0.0029396173 -0.0015323719
-0.0035810359 -0.0063480213 -0.0021566132 0.0040621636 0.00079410174 0.0032101753 -0.004657583 -0.0016920536
00000000: e5c5 813a bf15 6cbb b716 043c 076d da3a
00000010: 9d44 0b3b f9df a1bb 235c 643b 9651 c3bb
00000020: b077 d83a 9675 fbba 8cb6 04bb b59a 9cbb
00000030: e108 68bb 367d 64bb 20e7 34ba 9014 94bb
00000040: 01f9 82ba 6eb1 a0ba 7733 c6bb 9ce6 7abb
00000050: ceea 003b b09d 84bb 66b0 943b 85b7 31bb
00000060: b79b de3a ee3f 6e3a c38f 8f3b 328b 8abb
00000070: dcc4 15ba 847c d73a b002 a0bb f0dd 673a
00000080: 059a 26bb a1cb a33b e6e3 48bb 32a7 463b
00000090: f706 e9b9 a670 bf3a 0d67 4d3b d96a ac3b
000000a0: 40a4 47b9 f6b1 8ebb 2822 d53a fee2 793b
000000b0: aa4b 67bb 0dfa b5bb 0750 b2bb 463a 70bb
000000c0: f0af 43bb ab68 8dbb ac37 2a3a bf1a 6c3b
000000d0: 29b8 bdbb 52ab c1bb 7a04 09bb d331 acbb
000000e0: 2b11 123c ff81 3abb 581d 3fbb dfa8 6eb9
000000f0: 4a83 9abb f211 1b3b bc09 98ba f3dd 173b
00000100: 003b 2cbb c233 3ebb c82f 913a b72b b13b
00000110: 8cd7 143b 940a 963b 166a 313b cda8 b93a
00000120: 4541 92bb 505d 703a 4b7c 813b ab91 cb3b
00000130: 5037 4d3b 97c6 d3b8 8aa2 053b a199 14bb
00000140: 4edd 9cb9 af6e d8bb 59ff a6bb b617 e339
00000150: 6992 0c3a 0a17 f5bb 0883 64bb fb5d 3cbb
00000160: 38f9 9b3b 2ad3 2b3b da5d 10ba 90a8 9dba
00000170: 0482 c83a 377a 3b39 e54d 05bb 67b1 a43a
00000180: 7236 b7bb 64a0 073c fa8b 59bb e9d1 4f3b
00000190: 2de3 38ba 3900 f4ba 976b e3ba ac08 7bbb
000001a0: 940b c6bb 1f61 01bb 0e93 26bb 4a3e f5bb
000001b0: dacf faba 76fb a0bb 2167 7e3a 4c9f 0dbc
000001c0: d085 03bb d304 933a 6530 4f3b 61a5 8938
000001d0: 372b b63a 966f a93b 98a6 40bb ded9 c8ba
000001e0: d0af 6abb 1003 d0bb f755 0dbb e61b 853b
000001f0: 442b 503a ce61 523b a39e 98bb e6c7 ddba

network_body._body_endoder.seq_layers.0.weight f4 [128, 9]
-0.73665404 -0.4979336 -0.36107463 0.04690705 0.30166286 0.064131826 0.39913276 -0.10188915
-0.24775535 -0.5802627 0.3712382 -0.34206545 0.38916135 -0.1400195 0.49980664 -0.57278067
-0.4292711 0.52389395 0.049749497 -0.2367846 -0.32111263 -0.4379552 0.27019373 0.21868178
0.15794355 -0.66168636 0.13122812 -0.036181137 -0.094698474 0.27729052 -0.20166014 -0.3618519
-0.061654378 0.1497292 -0.514599 0.20413837 -0.047200765 0.3969909 -0.02478208 0.17894688
0.109791234 0.46591032 0.19149505 -0.48816535 0.29109204 0.4631669 0.09834147 -0.2797381
-0.13514782 0.18131806 0.12028737 -0.24496856 0.38910547 0.11331261 0.6492369 -0.0050355075
-0.12418861 -0.27696878 0.08779742 0.13444126 -0.21561357 -0.012416226 -0.013581064 -0.39011216
-0.006922217 0.23076014 -0.3836755 0.22367053 0.16082898 -0.8424251 0.26002154 0.17809004
-0.32558787 0.0337667 0.7634236 -0.123853706 0.39482126 -0.04184834 0.14316958 0.12503095
-0.39145365 -0.35185292 -0.40899184 1.0595754 -0.011251073 0.058971237 -0.6289652 -0.32000586
0.3086795 0.14814767 -0.09769812 0.105263405 -0.39597794 0.33418062 0.21311855 -0.27541995
0.3104672 0.2496337 -0.21281959 -0.16022669 0.14725552 -0.5167311 -0.5834023 -0.21390049
0.5391514 0.059448775 -0.21650857 -0.3699904 0.20018063 0.3141302 0.46954966 -0.31661925
0.019278353 -0.13181336 -0.39637905 0.23421556 0.053477276 0.2794636 -0.010327006 -0.55711764
0.39014646 0.7284587 0.20141943 0.089889675 -0.20096374 -0.24737377 -0.3776381 0.22481692
-0.0443348 -0.19721934 0.07485493 0.12066082 -0.6998878 -0.19744387 -0.025581455 0.6744547
-0.25671634 0.1665246 -0.5458976 0.0028090384 -0.089082666 0.08433023 -0.7688492 -0.19040018
-0.14271341 0.48901126 -0.66494226 0.5868669 -0.26397774 -0.12037094 -0.41022345 -0.40556452
-0.30123815 0.33830032 -0.21651947 0.039789185 -0.029498145 0.25238883 -0.0669182 -0.017522352
0.18631081 -0.061035506 0.040611275 -0.42514053 0.12598188 0.21963306 0.08541758 0.065448456
0.12634374 0.6627104 -0.30550724 -0.22637372 -0.2409535 0.16048397 -0.1973946 0.55849093
0.16119497 0.17304185 -0.42968792 0.10943523 -0.053502515 -0.11129294 0.0956371 0.44167238
-0.07254976 0.72778916 -0.35301575 0.7573016 -0.17627805 0.00597001 -0.31896093 -0.30633014
-0.32697126 -0.30207947 0.3648979 -0.5240741 -0.07943471 -0.04558 -0.23528074 0.35677996
0.652147 0.27922565 -0.03999156 -0.4297054 0.02830496 -0.075760856 -0.008545094 -0.09372437
-0.113353334 -0.09632993 0.18575433 -0.13819973 0.1890261 0.8796296 -0.25886634 -0.1679156
0.40330905 -0.6133269 -0.1058557 -0.039427146 0.055994693 0.32374942 0.7695359 0.70494276
0.24386404 0.061402544 -0.48169878 0.3357627 -0.42905003 -0.54097027 -0.38031086 -0.49927133
0.0590992 0.55786115 -0.114837945 -0.5064685 -0.14535506 -0.22945803 0.30515832 -0.24596511
0.2215199 0.48484454 -0.36859724 0.16013026 0.6931575 0.3779033 -0.31936052 0.6445629
0.2065654 -0.540206 0.6453978 0.49595797 0.13915417 0.07432257 -0.23472068 -0.0641412
00000000: 5c95 3cbf 27f1 febe c6de b8be 9b21 403d
00000010: 8e73 9a3e 8c57 833d 215b cc3e 42ab d0bd
00000020: 94b3 7dbe 198c 14bf ef12 be3e 3423 afbe
00000030: 2840 c73e 4661 0fbe a8e6 ff3e c1a1 12bf
00000040: 6cc9 dbbe ea1d 063f 21c6 4b3d aa77 72be
00000050: e068 a4be aa3b e0be d556 8a3e 1eee 5f3e
00000060: f4bb 213e 4764 29bf aa60 063e ac32 14bd
00000070: 46f1 c1bd 06f9 8d3e ff7f 4ebe a744 b9be
00000080: 4d89 7cbd 9d52 193e c3bc 03bf a609 513e
00000090: 9755 41bd 6442 cb3e ca03 cbbc da3d 373e
000000a0: 3ada e03d cc8b ee3e 4717 443e cff0 f9be
000000b0: 040a 953e 3624 ed3e 4167 c93d d539 8fbe
000000c0: 3164 0abe 71ab 393e 3a59 f63d 0ad9 7abe
000000d0: d538 c73e 7110 e83d 6434 263f e600 a5bb
000000e0: 9956 febd dace 8dbe 22cf b33d f8aa 093e
000000f0: cec9 5cbe 6d6d 4bbc 1c83 5ebc c8bc c7be
00000100: c4d3 e2bb 634c 6c3e 1d71 c4be e309 653e
00000110: 5ab0 243e 2ca9 57bf 8b21 853e 3c5d 363e
00000120: 74b3 a6be f44e 0a3d bb6f 433f 03a7 fdbd
00000130: 0326 ca3e 2a69 2bbd 0c9b 123e 1d08 003e
00000140: 9d6c c8be 1126 b4be 6167 d1be 2ba0 873f
00000150: 6c56 38bc d38b 713d dd03 21bf cfd7 a3be
00000160: 3d0b 9e3e 06b4 173e f415 c8bd 5794 d73d
00000170: 9fbd cabe b919 ab3e c03b 5a3e d803 8dbe
00000180: 8ff5 9e3e fa9f 7f3e 61ed 59be 7712 24be
00000190: 27ca 163e 7d48 04bf da59 15bf bb08 5bbe
000001a0: d305 0a3f 8f80 733d 6cb4 5dbe 626f bdbe
000001b0: 27fc 4c3e acd5 a03e d068 f03e eb1b a2be
000001c0: a3ed 9d3c 15fa 06be 32f2 cabe 34d6 6f3e
000001d0: fd0a 5b3d da15 8f3e 9a32 29bc 439f 0ebf
000001e0: 47c1 c73e 457c 3a3f e540 4e3e 1418 b83d
000001f0: 70c9 4dbe 8d4f 7dbe c859 c1be 6836 663e
00000200: 6898 35bd def3 49be 8b4d 993d 051d f73d
00000210: d92b 33bf ba2e 4abe 3390 d1bc 10a9 2c3f
00000220: 5370 83be 6d85 2a3e f2bf 0bbf d817 383b
00000230: f970 b6bd 54b5 ac3d 4dd3 44bf 44f8 42be
00000240: 7723 12be af5f fa3e a839 2abf e93c 163f
00000250: 1728 87be 0a85 f6bd cf08 d2be 27a6 cfbe
00000260: e33b 9abe b335 ad3e 48b7 5dbe fcf9 223d
00000270: 18a6 f1bc 1c39 813e 690c 89bd 098b 8fbc
00000280: 43c8 3e3e 5e00 7abd 0258 263d 05ac d9be
00000290: 6501 013e 7de7 603e 6aef ae3d d709 863d
000002a0: 4160 013e 64a7 293f 726b 9cbe 83ce 67be
000002b0: 84bc 76be e955 243e cf21 4abe 43f9 0e3f
000002c0: 4b10 253e e231 313e 0e00 dcbe 941f e03d
000002d0: 7425 5bbd 8eed e3bd 62dd c33d e222 e23e
000002e0: f894 94bd 6450 3a3f 7bbe b4be 85de 413f
000002f0: 3c82 34be 13a0 c33b d94e a3be 4ed7 9cbe
00000300: c768 a7be 29aa 9abe e6d3 ba3e b829 06bf
00000310: aaae a2bd 18b2 3abd 6fed 70be ddab b63e
00000320: 1bf3 263f aaf6 8e3e 31ce 23bd 5902 dcbe
00000330: cedf e73c 8228 9bbd b900 0cbc 90f2 bfbd
00000340: cb25 e8bd a048 c5bd 6236 3e3e 3b84 0dbe
00000350: 0f90 413e 682f 613f 218a 84be 11f2 2bbe
00000360: 867e ce3e fe02 1dbf e0ca d8bd 5c7e 21bd
00000370: b15a 653d 7cc2 a53e 4e00 453f 2177 343f
00000380: 7fb7 793e 3c81 7b3d 39a1 f6be 17e9 ab3e
00000390: 72ac dbbe 077d 0abf 1bb8 c2be 7ea0 ffbe
000003a0: 0112 723d fdcf 0e3f 2830 ebbd eba7 01bf
000003b0: f5d7 14be 0cf7 6abe b63d 9c3e 47de 7bbe
000003c0: 1dd6 623e 8b3d f83e c7b8 bcbe 30f9 233e
000003d0: c572 313f 8b7c c13e 3983 a3be 1302 253f
000003e0: e185 533e f14a 0abf ca38 253f 34ee fd3e
000003f0: 6e7e 0e3e 6e36 983d 9e5a 70be 765c 83bd

network_body._body_endoder.seq_layers.2.bias f4 [128]
-0.0057552345 -0.0015904325 -0.0064225104 0.0048858104 -0.0061180205 0.004142899 -0.00081734464 -0.0012259198
-0.0037165957 -0.00087965466 -0.0006362673 0.0017994771 -0.005026999 -0.0057025836 0.0028887389 0.0025400615
-0.0010771761 -0.00291971 -0.0045986394 -0.000886144 0.0052671493 -0.00041995556 0.0024222923 -0.005118785
-0.0035390055 0.0007201188 -0.00081912207 -7.622057e-05 0.0008280354 0.0034037651 -0.00043404757 0.015445305
-0.0024593377 -0.0039445236 -0.00015459713 -0.0022984191 0.0033502346 -0.003389703 -0.0027182472 0.0013013668
0.0008611375 0.0024816084 -0.00029598345 0.010289816 -0.0013413804 0.0019393996 0.0025518693 -0.0036480487
-0.0033130604 0.003963497 0.00080156385 -0.005215452 0.009072107 -0.00088136696 -0.002312871 8.237943e-05
0.007020567 0.0023567278 -0.008098857 0.0014508484 -0.0003881377 -0.001961403 -0.00096191315 0.0033393614
0.0024824734 -0.0021125532 -0.004577602 -0.0023510163 -0.0069077695 0.0010701787 -0.00054550596 0.0012411454
0.0025280626 -0.0011414144 -0.003874041 -0.0024424256 0.0011679941 0.0048070275 -0.005998636 0.00055961247
0.0007091543 0.0010690865 0.003159972 0.0030102436 0.00022221825 -0.0014452536 -0.009627441 -0.007120081
9.723251e-05 0.003678979 -0.0035682702 0.0060649887 -0.004404856 0.0021492017 0.0020720682 0.00091212307
0.0038100588 -0.0039127055 0.0037712827 -0.0034059125 -0.0023220952 -6.116378e-05 -0.0007507207 -0.00095816876
-0.00047536308 -0.0073838886 -0.0027660383 -0.0036819284 -0.002207781 0.00020751533 -0.0036071893 0.007404298
-0.003430334 0.0029655618 0.0005191573 -0.00026058342 0.0037178097 -0.00047386778 -0.00545514 -0.0064452975
-0.002017152 -0.0010622175 0.009585897 -0.0027037454 -0.0009760102 0.005332614 0.0007079787 -0.0023884324
00000000: 6896 bcbb 0f76 d0ba ec73 d2bb 2619 a03b
00000010: ad79 c8bb 28c1 873b 1243 56ba 0baf a0ba
00000020: 2192 73bb a098 66ba 2dcb 26ba 6fdc eb3a
00000030: 86b9 a4bb bddc babb ff50 3d3b 2977 263b
00000040: 0830 8dba 9b58 3fbb 2fb0 96bb 1e4c 68ba
00000050: 0d98 ac3b 7b2d dcb9 52bf 1e3b 7bbb a7bb
00000060: a9ee 67bb 5bc6 3c3a 5aba 56ba 9bd8 9fb8
00000070: 8410 593a b411 5f3b e190 e3b9 4e0e 7d3c
00000080: d72c 21bb 1041 81bb 5a1b 22b9 13a1 16bb
00000090: 9c8f 5b3b c825 5ebb 9f24 32bb a092 aa3a
000000a0: f6bd 613a 7ba2 223b 3a2e 9bb9 9e96 283c
000000b0: 42d1 afba 7433 fe3a 433d 273b 1a14 6fbb
000000c0: ee1f 59bb 39e0 813b 0a20 523a 62e6 aabb
000000d0: 2da3 143c 890b 67ba 8993 17bb 1fc3 ac38
000000e0: c90c e63b 5573 1a3b 11b1 04bc 652a be3a
000000f0: f67e cbb9 e28a 00bb e628 7cba 30d9 5a3b
00000100: feb0 223b c372 0abb b5ff 95bb 8213 1abb
00000110: 925a e2bb 3d45 8c3a 4900 0fba eead a23a
00000120: daad 253b 839b 95ba 9fe3 7dbb 1a11 20bb
00000130: 6117 993a 4584 9d3b 3590 c4bb f5b2 123a
00000140: 8ae6 393a 9720 8c3a 8817 4f3b 8247 453b
00000150: 4203 6939 aa6e bdba 6abc 1dbc 924f e9bb
00000160: 4ee9 cb38 061b 713b a4d9 69bb d0bc c63b
00000170: 9c56 90bb 9fd9 0c3b 89cb 073b 8b1b 6f3a
00000180: 2eb2 793b 2736 80bb a027 773b bb35 5fbb
00000190: 4b2e 18bb 0e45 80b8 03cc 44ba 9e2d 7bba
000001a0: 273a f9b9 8cf4 f1bb 6c46 35bb 824c 71bb
000001b0: 6bb0 10bb 7998 5939 9866 6cbb c19f f23b
000001c0: 74cf 60bb df59 423b 0e18 083a ea9e 88b9
000001d0: 7fa6 733b 7571 f8b9 08c1 b2bb 1333 d3bb
000001e0: 3232 04bb 1b3a 8bba 2b0e 1d3c 5231 31bb
000001f0: f0da 7fba 35bd ae3b a597 393a 3f87 1cbb

network_body._body_endoder.seq_layers.2.weight f4 [128, 128]
0.11397129 0.11738171 0.03246406 -0.018077979 0.015296456 -0.064416125 0.018963832 0.015199976
-0.11071719 -0.06750295 0.03813972 0.038886223 -0.053895883 0.040391352 0.008910931 0.08458472
0.017316949 -0.04790788 -0.058097206 0.08389129 -0.13850445 -0.025066745 0.009631513 0.028503556
-0.1300122 -0.021006363 -0.0070388136 0.15160023 0.04557251 -0.020694839 -0.06293665 -0.15476553
0.04563917 -0.078153715 -0.031460043 0.16496931 -0.1065674 -0.1201178 0.024104154 0.071810916
-0.040697824 -0.059716884 -0.032812748 0.028669396 0.007489796 0.026293283 0.12059486 0.051727995
0.047691967 0.09359444 -0.068732195 -0.11540696 0.111144386 -0.21618998 -0.04787002 0.041734826
0.00043783503 -0.12703615 -0.046094853 -0.13163488 -0.15552725 -0.008601667 0.039076682 0.07390015
0.09978684 0.024808573 0.022639994 0.017883066 -0.05505501 -0.016725138 0.07153312 0.084695265
0.038704697 -0.0014045709 0.19038048 0.0017059781 -0.074298345 -0.0708031 0.022625776 0.05153163
0.018649042 -0.03708349 -0.057555553 0.0066613597 0.06322437 -0.04955931 0.021673413 0.038897105
0.13086875 0.06411259 -0.050881103 -0.07339584 -0.1324166 0.28482956 0.01767817 0.08991968
-0.096815914 -0.040017422 -0.100407995 -0.0011533765 0.049611278 0.13263676 0.012068172 0.024192393
-0.1144494 -0.05433356 -0.06158593 0.026803872 0.044681434 0.10166901 0.0656888 -0.04435372
-0.12990923 -0.018657042 -0.013766175 -0.21404283 0.082019225 -0.071182795 -0.030339086 -0.014367757
-0.008687686 0.0052541313 0.056092907 -0.09767723 0.038068224 0.009289423 0.05709578 -0.06010375
-0.026039038 0.11652245 -0.04689644 -0.07627385 0.033879362 -0.09708392 -0.16022569 -0.11115166
0.13410065 0.09856135 0.00040469706 0.067616604 -0.023049384 -0.023605006 -0.07131422 -0.06696278
0.05217158 0.07203023 -0.027034495 0.11655102 -0.10239174 0.13739401 0.0013455512 -0.046334136
0.10878848 0.04238931 0.04335992 -0.0068332017 -0.24320832 0.03369126 -0.09126009 -0.031519633
0.10280916 0.111809604 -0.0046309475 0.0074119936 -0.059918433 -0.12920292 0.038994018 -0.1384982
0.043461557 -0.0016836015 -0.013112738 0.09875538 -0.020502655 0.10708698 0.05743917 -0.05855629
-0.040047128 -0.017132485 0.028849287 0.11256717 0.029186025 -0.025289461 -0.02441965 -0.05335266
-0.047157444 -0.011628791 0.09876444 0.02593383 0.051972914 0.029411761 -0.054675557 -0.004030386
0.1457716 0.08605767 0.03761538 -0.028625457 0.094696544 -0.018554037 0.07441644 -0.28702822
-0.016886475 -0.043989 0.13000849 -0.07738732 0.0244896 0.026035814 0.007877944 0.19095124
-0.057769664 -0.099730685 0.02895933 -0.012598788 -0.0003411509 -0.13298719 0.07797787 -0.004965301
-0.22843632 -0.0909264 0.16115503 -0.07118902 0.06384699 0.097942434 -0.1327865 0.05623906
-0.04127971 0.039670154 0.053984158 0.10699342 -0.021231303 -0.08479992 0.005785954 0.03434566
-0.1287613 0.029518895 0.09842173 -0.06884959 -0.098283835 -0.02350478 0.06901943 -0.06635846
0.117566295 0.08758217 -0.021758754 -0.025999663 -0.0116807865 0.060015753 -0.03167712 -0.062366832
0.07564237 0.0030282435 0.10993006 0.007388453 -0.0987289 -0.17430015 0.062048916 0.024538659
00000000: c869 e93d d265 f03d 09f9 043d 4518 94bc
00000010: fd9d 7a3c 9aec 83bd 0a5a 9b3c 5209 793c
00000020: b2bf e2bd fd3e 8abd 6538 1c3d 2947 1f3d
00000030: eec1 5cbd 6771 253d 27ff 113c c13a ad3d
00000040: 46dc 8d3c 0e3b 44bd 56f7 6dbd 32cf ab3d
00000050: 1cd4 0dbe c658 cdbc 7ecd 1d3c 4a80 e93c
00000060: eb21 05be 8915 acbc d9a5 e6bb 173d 1b3e
00000070: 3eaa 3a3d 3988 a9bc eee4 80bd db7a 1ebe
00000080: 23f0 3a3d 0e0f a0bd 3fdc 00bd b7ed 283e
00000090: 0240 dabd 5200 f6bd 1376 c53c 9a11 933d
000000a0: c3b2 26bd b199 74bd a966 06bd 15dc ea3c
000000b0: f66c f53b 0365 d73c 70fa f63d bce0 533d
000000c0: a758 433d 71ae bf3d 77c3 8cbd 7c5a ecbd
000000d0: ab9f e33d e860 5dbe 5b13 44bd 23f2 2a3d
000000e0: 398d e539 c415 02be f5cd 3cbd 4bcb 06be
000000f0: 8942 1fbe 02ee 0cbc df0e 203d f658 973d
00000100: 0b5d cc3d 593b cb3c 8277 b93c 827f 923c
00000110: 5d81 61bd 2803 89bc f57f 923d b674 ad3d
00000120: d188 1e3d 9419 b8ba 1af3 423e 209b df3a
00000130: bb29 98bd 3701 91bd b159 b93c d512 533d
00000140: e0c5 983c dce4 17bd 5fbf 6bbd 8947 da3b
00000150: c77b 813d b4fe 4abd 718c b13c 9252 1f3d
00000160: 7502 063e 764d 833d b468 50bd 8f50 96bd
00000170: 3898 07be 2ed5 913e cfd1 903c cf27 b83d
00000180: 6c47 c6bd 4fe9 23bd b5a2 cdbd e52c 97ba
00000190: 3235 4b3d eed1 073e 95b9 453c 202f c63c
000001a0: 7264 eabd de8c 5ebd 8741 7cbd cb93 db3c
000001b0: e103 373d d837 d03d d987 863d 3fac 35bd
000001c0: ed06 05be a7d6 98bc 868b 61bc 0b2e 5bbe
000001d0: b2f9 a73d 49c8 91bd ad89 f8bc be66 6bbc
000001e0: cc56 0ebc d92a ac3b adc1 653d 000b c8bd
000001f0: 6ded 1b3d aa32 183c 44dd 693d 5a2f 76bd
00000200: d24f d5bc 52a3 ee3d 7b16 40bd 7735 9cbd
00000210: 16c5 0a3d efd3 c6bd 3412 24be 7ba3 e3bd
00000220: ae51 093e 88da c93d 852d d439 937a 8a3d
00000230: 10d2 bcbc 495f c1bc 310d 92bd c823 89bd
00000240: deb1 553d 9684 933d 7277 ddbc 4db2 ee3d
00000250: c3b2 d1bd 04b1 0c3e 355d b03a ddc8 3dbd
00000260: 7fcc de3d 6aa0 2d3d 2c9a 313d 0de9 dfbb
00000270: 9a0b 79be d9ff 093d 92e6 babd bb1a 01bd
00000280: 9c8d d23d 6ffc e43d 34bf 97bb 4fe0 f23b
00000290: 086d 75bd c54d 04be 31b8 1f3d 79d2 0dbe
000002a0: bf04 323d 4bac dcba cfd6 56bc 4340 ca3d
000002b0: 2ff5 a7bc 6b50 db3d 5645 6b3d b8d8 6fbd
000002c0: 7508 24bd 6d59 8cbc 5755 ec3c 9e89 e63d
000002d0: 8817 ef3c d82b cfbc b80b c8bc 5288 5abd
000002e0: 2a28 41bd af86 3ebc 0345 ca3d 2f73 d43c
000002f0: 8de1 543d eff0 f03c 7af3 5fbd 5411 84bb
00000300: 2645 153e 013f b03d 9612 1a3d ef7f eabc
00000310: 43f0 c13d a3fe 97bc a667 983d 5df5 92be
00000320: 8155 8abc cf2d 34bd f220 053e 3e7d 9ebd
00000330: 6a9e c83c 0f49 d53c 7e12 013c b988 433e
00000340: e29f 6cbd 9a3f ccbd 1e3c ed3c 266b 4ebc
00000350: 80dc b2b9 cb2d 08be ddb2 9f3d f7b3 a2bb
00000360: 36eb 69be 9f37 babd d305 253e 8dcb 91bd
00000370: 36c2 823d 0b96 c83d 2ff9 07be ee5a 663d
00000380: ea14 29bd 2c7d 223d 7e1e 5d3d 5e1f db3d
00000390: 45ed adbc 95ab adbd 1a98 bd3b 09ae 0c3d
000003a0: 01da 03be 9cd1 f13c 5591 c93d 0401 8dbd
000003b0: 0949 c9bd 198d c0bc 0f5a 8d3d f2e6 87bd
000003c0: 99c6 f03d 485e b33d 6a3f b2bc 3ffd d4bc
000003d0: c560 3fbc 14d3 753d debf 01bd 5d74 7fbd
000003e0: 63ea 9a3d 7f75 463b 0323 e13d d61a f23b
000003f0: 6132 cabd bd7b 32be 0127 7e3d 4c05 c93c
