results/jugglingRobotV1/JugglingRobotV1/JugglingRobotV1-9123.pt (torch, 153103 bytes, 12 tensors)

network_body._body_endoder.seq_layers.0.weight f4 [128, 9]
000000 e2 b0 a8 3e 1e 02 db 3d 1f a2 02 3e 94 b1 18 bf
       0.3294745 0.10693763 0.12757157 -0.5964596
000010 cf 9f 9b 3e d7 ba 60 be 87 fe 3f be b2 16 22 bf
       0.30395362 -0.21946274 -0.18749438 -0.6331588
000020 7e 84 23 3f 5f de 40 3d 1b b9 14 3d 2c ec 4b 3d
       0.6387404 0.04708707 0.036309343 0.049785778
000030 0b 0f 1c 3e 43 60 d0 be 36 d3 a1 be 98 94 26 3f
       0.15240113 -0.40698442 -0.31606454 0.65070486
000040 70 88 cb 3e 80 af 82 be 5b cb db 3d a4 2f fe 3b
       0.3975253 -0.2552452 0.10732146 0.007757144
000050 95 08 1b bf 3b 51 78 bc 44 2e 81 bd 0a da 09 3d
       -0.6055997 -0.015156086 -0.063076526 0.033655204
000060 b4 a1 44 3f 72 68 54 3f ff 4c 00 3f 97 d2 06 be
       0.7680924 0.8297187 0.50117487 -0.13166271
000070 98 ff 00 3c 76 9a 98 3e 30 51 d4 3d ed 53 95 3e
       0.007873438 0.29805344 0.10367048 0.29165593
000080 9c 33 27 3c d8 01 0b be 8b 71 50 3f 7b 7b f3 3e
       0.010205176 -0.13574922 0.8142325 0.47555146
000090 fe 7a 6d 3e 1d 23 8b 3d 28 17 71 3e d3 aa 2d 3f
       0.23191449 0.06793807 0.2354399 0.6783878
0000a0 a1 47 88 be 40 ab cd be 57 0f 89 be 6e 3c cd bd
       -0.2661715 -0.40169716 -0.26769516 -0.10021292
0000b0 10 84 6c be 84 42 01 3e 9c e9 29 3e 77 5f 6a be
       -0.23097253 0.1262303 0.16593021 -0.2288798
0000c0 be 7b a1 be f7 a0 da 3d 7f 7e ec 3d d3 ff d3 be
       -0.3153972 0.10675233 0.11547565 -0.41406116
0000d0 48 49 a5 be c8 2d bd 3d f4 89 9f bd 52 15 1c 3e
       -0.32282472 0.09237248 -0.07789984 0.15242508
0000e0 93 ff 3a bd 48 53 79 3f 98 1c af be 1f fd e4 be
       -0.04565389 0.973927 -0.34201503 -0.44724366
0000f0 08 d9 1c bd 3c cc 81 be 76 e3 e1 be d7 de 96 be
       -0.038292915 -0.2535113 -0.4411885 -0.29466888
000100 13 44 11 3e 37 13 46 3e 82 89 bb 3e 3b 14 2f be
       0.14186125 0.19343267 0.36628348 -0.17097561
000110 9c 63 45 bd 2e 7e 18 bd 5e 17 95 3e dc aa 3b bf
       -0.048190698 -0.03722971 0.2911939 -0.73307586
000120 d7 ed 89 be af 0e 01 3e 5b ca 3d be f0 12 0f bf
       -0.2693927 0.12603258 -0.18534224 -0.5588827
000130 fa 28 75 bd 76 70 8e 3e bc bb a5 be 9c c1 e7 bd
       -0.05985353 0.27820176 -0.32369792 -0.11316225
000140 36 6f 7a be 76 49 50 bc 53 0c 66 bd 4a 95 b7 3e
       -0.24456486 -0.012712827 -0.056164097 0.35856086
000150 76 51 02 3f 7e a4 ce 3c 10 6f 94 be 8c d6 44 be
       0.5090555 0.02522492 -0.28990984 -0.19222468
000160 4c 09 68 be 26 e0 a2 bd 17 19 f5 be 74 a4 ba 3d
       -0.22659796 -0.07952909 -0.47870705 0.09113398
000170 70 0b 23 3d ee 5e 67 be ee a3 a4 bd d2 d3 ac 3e
       0.03980583 -0.22594807 -0.080390796 0.33755356
000180 d9 fd 8f be 44 5e 72 be 0a 25 bf 3c 38 ce e4 3d
       -0.28123358 -0.23668772 0.023333091 0.111721456
000190 86 4a ef be 76 20 90 3d e6 6f 07 3e 62 e6 13 be
       -0.46736544 0.070374414 0.1322628 -0.14443353
0001a0 c3 d0 96 bd de b0 46 3f 7c 6d 4d 3f 5b e7 df be
       -0.07364037 0.7761363 0.80245185 -0.43731198
0001b0 dc 59 1d bf f0 6f 50 be 2e ab 32 3e 84 81 3f bc
       -0.6146524 -0.20355201 0.17448112 -0.011688594
0001c0 09 13 81 be 2d bb a3 3d 1c 5f 10 bf d0 11 8f be
       -0.25209835 0.07994685 -0.56395125 -0.27943277
0001d0 ea 2d 9f 3d c8 49 1e 3e 0e 83 6c 3f ff c9 6a be
       0.07772429 0.15457833 0.92387474 -0.22928618
0001e0 46 24 5c be b0 71 59 bf bb 1c d0 be 12 ad 0a bf
       -0.21498212 -0.849391 -0.4064692 -0.54170334
0001f0 9f c0 af 3e 08 17 4d 3e 5a d5 f8 3e c2 a8 ca bd
       0.34326646 0.20028317 0.48600274 -0.09895469
000200 dc 8f 26 3f 5b 46 89 3c b8 df 23 3c e0 dc 0c 3f
       0.6506326 0.01675718 0.010002069 0.5502453
000210 3c fc 03 3f 66 47 0e bc d7 eb 9d be 86 ca d5 be
       0.51556754 -0.008684015 -0.30843994 -0.41756076
000220 c3 6c 91 be f6 95 1d bf b4 9c 4c bf a0 27 61 3e
       -0.2840329 -0.6155695 -0.7992661 0.21987772
000230 56 11 1d be 98 97 82 3c ff 27 ec bd 6a 7c 44 bd
       -0.15338644 0.015941426 -0.11531066 -0.047970213
000240 d5 17 9c 3e 90 0c 9e be 34 51 b0 3e a6 19 24 3e
       0.30486932 -0.3086896 0.34436953 0.16025409
000250 ec 94 68 3e f8 42 f0 3b 52 25 d9 3e 26 0f 9d be
       0.22713059 0.007332202 0.42411286 -0.3067562
000260 3c e3 de bc b2 73 68 be c0 96 ee 3d f0 2c 93 3d
       -0.027207963 -0.22700384 0.11649847 0.071863055
000270 ab 3b cc 3e 5c ad 78 3e bf a1 2d 3e 7c c6 f7 bd
       0.39889273 0.24284881 0.16956232 -0.12098405
000280 d1 cd 27 3d f8 60 60 bd 9f 38 6e bd 71 60 17 bf
       0.040967766 -0.054779977 -0.058159467 -0.5913153
000290 10 43 56 3d b8 0e 93 3d 3f cb 2e bf f8 d6 29 bf
       0.05231005 0.07180542 -0.6827888 -0.6634364
0002a0 30 ac f7 be 57 ed 1d be 2b a6 8c 3e 95 2f 23 bb
       -0.48373556 -0.15422569 0.27470526 -0.0024900187
0002b0 50 e8 0a 3e eb 25 af bd f6 fe 5d 3f 9e 7b 95 bd
       0.13565183 -0.08552154 0.86717165 -0.07298969
0002c0 78 d5 1c 3f 2b e3 54 3f af e3 77 3f ae bf 86 3e
       0.6126323 0.8315913 0.9683179 0.26318115
0002d0 8f 77 5d be d6 9d a7 be e1 6b 16 3e 16 55 01 bf
       -0.21627639 -0.32737607 0.1468959 -0.50520456
0002e0 64 e8 3e be 7c 2e f1 be 94 2b ac be 87 68 79 3e
       -0.18643337 -0.47105777 -0.33626997 0.2435628
0002f0 fc b1 20 bf bb 4d 00 be 06 5e 32 3e 50 bc a5 be
       -0.6277158 -0.12529652 0.1741868 -0.32370234
000300 3c f4 5f 3d ec 9b 76 be 4e 5b 83 3e ba 7e 74 3d
       0.05467628 -0.24082917 0.25655597 0.05969117
000310 e6 ac ff be c7 f2 65 bc ce f9 04 3f 4f ce 15 3f
       -0.499366 -0.014034933 0.5194367 0.58517927
000320 e7 06 a7 3e d0 22 6b be 90 3d db be 06 05 01 3f
       0.32622454 -0.22962499 -0.42820406 0.5039829
000330 0e d0 a4 3e 5b d7 cb be 2c 8a b9 bd 8f 32 c8 3d
       0.32189983 -0.3981274 -0.09059557 0.09775268
000340 30 fc 91 3e 9b 26 58 3d 1b 6d 95 be 47 01 df 3c
       0.28512716 0.052771192 -0.29184803 0.027222289
000350 cc cc 25 3c 22 89 06 bf 6b b2 d3 bd 37 46 61 3e
       0.010119628 -0.52553 -0.10336765 0.21999441
000360 66 fa 1d bf 4c d0 8f 3d 68 5a 8c be fc 19 18 bb
       -0.617102 0.07022151 -0.27412724 -0.0023208847
000370 06 cb 69 3e c8 f0 86 be bd 54 13 be 3f 9a 89 bd
       0.22831354 -0.26355577 -0.14387794 -0.06718873
000380 cc ac 43 3f 5c a5 02 3d 63 50 8e bf e5 96 0c 3f
       0.7643554 0.03189598 -1.1118282 0.54917747
000390 62 af 3b 3d 1c 05 00 bd 17 d9 81 3e 5b f3 d7 3d
       0.045821555 -0.031254873 0.2536094 0.10544463
0003a0 e9 89 09 bd 98 bd 00 bd 2d 32 01 be 6a a3 0c 3f
       -0.033578787 -0.03143081 -0.12616797 0.5493685
0003b0 30 85 3c bd c4 ab 1a 3e 9b 41 30 bf b7 43 6d 3d
       -0.046025455 0.15104586 -0.68850106 0.057925906
0003c0 6b fc 96 bc f6 b4 70 be 16 ec d8 3d 74 8d ab be
       -0.01843091 -0.23506531 0.10591905 -0.33506358
0003d0 44 05 33 3f f2 44 bd be 70 41 0b bf 10 34 6a 3e
       0.6992991 -0.36966664 -0.54396725 0.22871423
0003e0 47 bf e2 3e db 45 3d 3c 9c d6 40 bd 44 2b 0d 3e
       0.44286558 0.011552299 -0.047079667 0.13786036
0003f0 b4 c9 e9 3c b2 01 14 3f 11 d1 1d 3e b7 58 f7 bd
       0.028538562 0.57815087 0.15411784 -0.12077468

network_body._body_endoder.seq_layers.0.bias f4 [128]
000000 00 00 00 00 00 00 00 00 00 00 00 00 00 00 00 00
       0.0 0.0 0.0 0.0
000010 00 00 00 00 00 00 00 00 00 00 00 00 00 00 00 00
       0.0 0.0 0.0 0.0
000020 00 00 00 00 00 00 00 00 00 00 00 00 00 00 00 00
       0.0 0.0 0.0 0.0
000030 00 00 00 00 00 00 00 00 00 00 00 00 00 00 00 00
       0.0 0.0 0.0 0.0
000040 00 00 00 00 00 00 00 00 00 00 00 00 00 00 00 00
       0.0 0.0 0.0 0.0
000050 00 00 00 00 00 00 00 00 00 00 00 00 00 00 00 00
       0.0 0.0 0.0 0.0
000060 00 00 00 00 00 00 00 00 00 00 00 00 00 00 00 00
       0.0 0.0 0.0 0.0
000070 00 00 00 00 00 00 00 00 00 00 00 00 00 00 00 00
       0.0 0.0 0.0 0.0
000080 00 00 00 00 00 00 00 00 00 00 00 00 00 00 00 00
       0.0 0.0 0.0 0.0
000090 00 00 00 00 00 00 00 00 00 00 00 00 00 00 00 00
       0.0 0.0 0.0 0.0
0000a0 00 00 00 00 00 00 00 00 00 00 00 00 00 00 00 00
       0.0 0.0 0.0 0.0
0000b0 00 00 00 00 00 00 00 00 00 00 00 00 00 00 00 00
       0.0 0.0 0.0 0.0
0000c0 00 00 00 00 00 00 00 00 00 00 00 00 00 00 00 00
       0.0 0.0 0.0 0.0
0000d0 00 00 00 00 00 00 00 00 00 00 00 00 00 00 00 00
       0.0 0.0 0.0 0.0
0000e0 00 00 00 00 00 00 00 00 00 00 00 00 00 00 00 00
       0.0 0.0 0.0 0.0
0000f0 00 00 00 00 00 00 00 00 00 00 00 00 00 00 00 00
       0.0 0.0 0.0 0.0
000100 00 00 00 00 00 00 00 00 00 00 00 00 00 00 00 00
       0.0 0.0 0.0 0.0
000110 00 00 00 00 00 00 00 00 00 00 00 00 00 00 00 00
       0.0 0.0 0.0 0.0
000120 00 00 00 00 00 00 00 00 00 00 00 00 00 00 00 00
       0.0 0.0 0.0 0.0
000130 00 00 00 00 00 00 00 00 00 00 00 00 00 00 00 00
       0.0 0.0 0.0 0.0
000140 00 00 00 00 00 00 00 00 00 00 00 00 00 00 00 00
       0.0 0.0 0.0 0.0
000150 00 00 00 00 00 00 00 00 00 00 00 00 00 00 00 00
       0.0 0.0 0.0 0.0
000160 00 00 00 00 00 00 00 00 00 00 00 00 00 00 00 00
       0.0 0.0 0.0 0.0
000170 00 00 00 00 00 00 00 00 00 00 00 00 00 00 00 00
       0.0 0.0 0.0 0.0
000180 00 00 00 00 00 00 00 00 00 00 00 00 00 00 00 00
       0.0 0.0 0.0 0.0
000190 00 00 00 00 00 00 00 00 00 00 00 00 00 00 00 00
       0.0 0.0 0.0 0.0
0001a0 00 00 00 00 00 00 00 00 00 00 00 00 00 00 00 00
       0.0 0.0 0.0 0.0
0001b0 00 00 00 00 00 00 00 00 00 00 00 00 00 00 00 00
       0.0 0.0 0.0 0.0
0001c0 00 00 00 00 00 00 00 00 00 00 00 00 00 00 00 00
       0.0 0.0 0.0 0.0
0001d0 00 00 00 00 00 00 00 00 00 00 00 00 00 00 00 00
       0.0 0.0 0.0 0.0
0001e0 00 00 00 00 00 00 00 00 00 00 00 00 00 00 00 00
       0.0 0.0 0.0 0.0
0001f0 00 00 00 00 00 00 00 00 00 00 00 00 00 00 00 00
       0.0 0.0 0.0 0.0

network_body._body_endoder.seq_layers.2.weight f4 [128, 128]
000000 d7 34 01 3e 37 e0 36 bb 5f 8d df 3b d7 96 27 be
       0.12617813 -0.0027904639 0.0068222727 -0.16366135
000010 62 20 b6 3c b6 81 96 bd 8c 93 aa 3c 07 5c ef bc
       0.022232238 -0.07348959 0.020822309 -0.029218687
000020 28 d5 93 3d 31 26 12 3d ef a9 8a 3d e3 21 0f bd
       0.07218391 0.035680953 0.067706935 -0.034944426
000030 40 6e 69 bd 7e 41 91 3d b8 81 7f bd c6 45 95 bd
       -0.05698991 0.0709257 -0.06237957 -0.07288699
000040 3b 01 01 bd 48 ae 99 bd 4d 2e c0 bd 53 7a f6 3c
       -0.031495314 -0.07503945 -0.09383831 0.030087626
000050 b9 aa 73 bd eb 97 e8 3c fa 90 d2 bc fa e0 8d bd
       -0.059488986 0.028392753 -0.025703896 -0.069276765
000060 10 08 43 3b 0b 0e 23 3e ab 45 21 bc f8 b3 90 bb
       0.0029759444 0.15923326 -0.00984327 -0.004415985
000070 8d 57 f6 bc dd 94 4c 3d 5b 9d d8 bd a6 7e 3a be
       -0.030071044 0.049946655 -0.10576888 -0.18212375
000080 44 1e 21 3b 95 42 3f bc e4 5d 5e 3d 0b 35 18 bd
       0.002458469 -0.011673589 0.05428876 -0.03715996
000090 bb 9b 55 bd a7 4e 01 be 27 d8 a2 3d 34 e6 bf bc
       -0.05215047 -0.1262766 0.07951384 -0.0234252
0000a0 9e ac 8c 3d 4d 64 fa bd e4 30 e3 bd b3 53 74 3d
       0.068688616 -0.12226162 -0.110933095 0.059650134
0000b0 5e f8 55 ba 85 cf 03 bd f8 a2 8b bc 16 63 43 3d
       -0.0008162315 -0.032180328 -0.017045483 0.047701918
0000c0 fd cc d7 3c 4e 82 4a 3c cf 71 2c 3d 8e d0 64 bc
       0.026342863 0.012360169 0.042100724 -0.013965739
0000d0 53 8b ed 3c 8d 68 aa 3d cd 44 ad bc 9b e8 4e 3d
       0.028997099 0.08320723 -0.02115097 0.0505148
0000e0 49 9b 05 bd 5f 4a 15 bc 9c d8 26 3d 3d 78 2f bd
       -0.032618795 -0.00911197 0.04073392 -0.042839278
0000f0 93 f2 ee 3d ce f7 b2 3c 09 77 90 bd 49 ed ba 3c
       0.11667361 0.021846678 -0.07053954 0.022818225
000100 2e 15 16 ba ef b3 b2 bd 5d ca 1d 3d 32 82 c9 3d
       -0.0005725202 -0.08725726 0.038523067 0.09839286
000110 49 40 a1 3d 52 7b 2e 3a 73 f3 09 be 1a dd f4 bd
       0.078735895 0.00066559494 -0.13471775 -0.11956234
000120 e1 45 cf 3d 8e e2 a8 bd 86 2d fe 3a 85 2c 5e bd
       0.1012075 -0.08246337 0.0019392229 -0.054241676
000130 d0 5d 0b bd 48 59 9e 3c 66 fc 8b bd 97 14 d5 3b
       -0.034025013 0.019329682 -0.068352506 0.0065026986
000140 de 6a 48 3b 7a a8 b2 3d bd 59 af 3c 31 85 bf bc
       0.0030581276 0.087235406 0.021405095 -0.02337894
000150 b8 98 b9 3d 42 2b c5 bd 49 58 ba bd 62 e0 26 be
       0.09062332 -0.096273914 -0.0909887 -0.16296533
000160 4a 9f d8 bd 17 ec a2 bd be 7d 23 be 55 33 68 3d
       -0.10577257 -0.07955187 -0.15965936 0.05668958
000170 7b bc 2b bd 53 0b ca bd f1 4d 5f bc ef 0b e5 3d
       -0.041927796 -0.09865441 -0.0136294225 0.11183917
000180 49 3a 06 3d 6b e3 26 be 0c 71 b2 3d 5f 0a 87 bd
       0.03277043 -0.1629769 0.08712968 -0.06593775
000190 08 84 5d 3d c2 3b 04 3e 30 71 76 bd db d0 28 bc
       0.054080993 0.12913421 -0.060166538 -0.010303701
0001a0 d3 5e f8 bd ed 53 62 bc 6a 8c 0e 3e 1d a9 ac bd
       -0.12127461 -0.013813955 0.13920751 -0.08430693
0001b0 7c 28 7f 3d d3 23 0d be 19 a6 87 bd 58 92 8b bd
       0.06229447 -0.13783197 -0.066234775 -0.06815022
0001c0 d4 8c 2a be 5a 3d 99 bd 83 8d 0f bd 41 57 8e 3c
       -0.16655284 -0.07482405 -0.035047065 0.01737559
0001d0 31 45 89 3d 82 51 9a 3d ef fe ee 3c 4a fe d3 bd
       0.0670265 0.07535078 0.029174296 -0.10351236
0001e0 45 fb 59 bd 28 c6 19 bd 4c c0 11 3d bd 91 25 bc
       -0.053218145 -0.037542492 0.03558378 -0.0101055475
0001f0 35 58 8b 3c 4a 71 30 bd be 54 37 3e 00 7e ed 3d
       0.017009834 -0.04307679 0.1790342 0.11596298
000200 d4 5e 9f bd 95 22 cd bd 9d 08 cf 3d 2e 76 05 3e
       -0.07781759 -0.100163616 0.10109065 0.13033363
000210 d7 e1 54 bd 0f bd b7 3d 48 a4 5b 3d 3f cf 18 3d
       -0.05197319 0.08971607 0.053623468 0.03730702
000220 aa 5e cb 3d 11 c4 04 3a ed 67 12 3e 87 8e de bd
       0.09930165 0.00050646166 0.14297457 -0.10867029
000230 c6 61 1e be df df a2 bc aa 3d 86 bd db bd b3 3c
       -0.15466985 -0.01988214 -0.0655473 0.021941116
000240 5a 0f e4 3c 04 c4 53 bc 30 7d 8f 3d ab 89 db 3d
       0.027839351 -0.012925152 0.070062995 0.107196175
000250 f4 b9 bf 3c 56 f6 12 bd a2 db 0f 3c f8 74 aa bd
       0.023404099 -0.035879456 0.008780392 -0.08323091
000260 4c 10 c8 3d 61 7c d1 bb 8a 1b 48 3e ea b8 df bd
       0.097687334 -0.006393001 0.19541755 -0.109239414
000270 23 c0 85 bd cd 9e ae bd 71 4c 19 3e 2f 17 ee 3c
       -0.06530788 -0.085263826 0.14970566 0.02906379
000280 75 30 96 bd 7d d1 8b bd dd f0 06 3e d3 26 06 3d
       -0.07333461 -0.06827066 0.1317782 0.03275187
000290 50 28 41 3c 1f fa 1a bd 3b 94 a5 3c da 67 e2 bc
       0.011789396 -0.03783619 0.020212283 -0.02763741
0002a0 28 4f 0f 3c 81 68 f6 bd 19 90 e9 bd 1f ec 54 bd
       0.0087469 -0.12031651 -0.114044376 -0.051982995
0002b0 4b ab e7 bd 83 3d b0 3d 21 1c 1d 3d d3 44 0c 3d
       -0.113119684 0.086054824 0.038356904 0.034245323
0002c0 e0 61 99 bb b9 c1 04 3d 28 29 db 3c d8 9e e1 bd
       -0.004680857 0.03241131 0.026753023 -0.11016625
0002d0 4e 6c cc 3d 54 58 b9 bd 22 b8 b5 3d ef 1c 89 bd
       0.09981595 -0.090500504 0.08873011 -0.06694972
0002e0 f5 05 6c be 11 5b b7 3d 19 de 8d 3d 9a 70 e6 3d
       -0.23049147 0.089529164 0.069271274 0.11251946
0002f0 ed 79 5d 3d f9 28 87 bc 63 95 a4 3d 70 25 cc 3d
       0.054071356 -0.01649903 0.08036306 0.09968078
000300 18 98 b5 3d 84 9a 6c 3c 68 9d 0b be ab cd e4 3d
       0.088669 0.014441136 -0.13634264 0.111720406
000310 4c c6 7d 3e 14 5f c5 3d 6c be 12 be e1 08 01 3d
       0.24782676 0.09637275 -0.14330453 0.03150261
000320 e5 2c 2e 3e 18 69 49 bd 20 d5 b4 bd 65 f2 8b 3d
       0.17009313 -0.04917249 -0.08829713 0.068333425
000330 86 9a 37 bc bd cc 28 3e 80 e6 e5 3d c7 03 b7 3b
       -0.011206275 0.16484351 0.11225605 0.005585167
000340 44 91 f4 bd 86 b1 ce bd c1 c1 20 bd 51 87 c3 3d
       -0.1194177 -0.10092454 -0.039247278 0.09547294
000350 2d 04 12 3d a3 c2 e6 bd be 98 17 3e cc 0d 57 3b
       0.035648514 -0.11267593 0.1480436 0.003281462
000360 14 1d 43 bd 53 24 10 3e 46 11 e1 3d 70 a5 8f bd
       -0.047635153 0.14076357 0.10989623 -0.070139766
000370 e0 b9 65 3d ff 0f 8e bd cb 9e ed 3b 95 ec 35 bd
       0.056085467 -0.06936645 0.0072515956 -0.044415075
000380 a5 db 1b bd c4 8c 32 bd 3b fa a2 3d bf de e7 3c
       -0.038051266 -0.043591276 0.07957884 0.028304456
000390 0a 6c d1 3d 3e 02 8f bb a0 d6 3e be f7 0e 08 3e
       0.10225685 -0.004364281 -0.1863656 0.13286959
0003a0 c9 a5 9a 3d 08 86 61 3d 19 52 36 3d 3a ef 29 bd
       0.07551152 0.055059463 0.04451189 -0.04148791
0003b0 55 f6 ae bd b1 37 49 3c a9 04 24 be c8 89 be bd
       -0.08543078 0.012281344 -0.16017403 -0.093036234
0003c0 24 74 a3 3d b3 13 c3 3d e9 7d 73 ba 9a 58 ab 3c
       0.079811364 0.09525242 -0.00092884764 0.020916272
0003d0 2d 5c c0 bd 58 fb 0f bc de 9f a2 3c 26 bc 93 bd
       -0.09392581 -0.008787952 0.019851621 -0.07213621
0003e0 ca 1e 2b bd cb 10 a7 3b 18 fd 0d 3d 23 f7 8a bd
       -0.04177741 0.0050984374 0.034665197 -0.06785419
0003f0 0c fa 83 3d 80 ed 7c bd 08 ff 5b be 5f 9c 34 bc
       0.06444177 -0.061749935 -0.21484005 -0.01102361

network_body._body_endoder.seq_layers.2.bias f4 [128]
000000 00 00 00 00 00 00 00 00 00 00 00 00 00 00 00 00
       0.0 0.0 0.0 0.0
000010 00 00 00 00 00 00 00 00 00 00 00 00 00 00 00 00
       0.0 0.0 0.0 0.0
000020 00 00 00 00 00 00 00 00 00 00 00 00 00 00 00 00
       0.0 0.0 0.0 0.0
000030 00 00 00 00 00 00 00 00 00 00 00 00 00 00 00 00
       0.0 0.0 0.0 0.0
000040 00 00 00 00 00 00 00 00 00 00 00 00 00 00 00 00
       0.0 0.0 0.0 0.0
000050 00 00 00 00 00 00 00 00 00 00 00 00 00 00 00 00
       0.0 0.0 0.0 0.0
000060 00 00 00 00 00 00 00 00 00 00 00 00 00 00 00 00
       0.0 0.0 0.0 0.0
000070 00 00 00 00 00 00 00 00 00 00 00 00 00 00 00 00
       0.0 0.0 0.0 0.0
000080 00 00 00 00 00 00 00 00 00 00 00 00 00 00 00 00
       0.0 0.0 0.0 0.0
000090 00 00 00 00 00 00 00 00 00 00 00 00 00 00 00 00
       0.0 0.0 0.0 0.0
0000a0 00 00 00 00 00 00 00 00 00 00 00 00 00 00 00 00
       0.0 0.0 0.0 0.0
0000b0 00 00 00 00 00 00 00 00 00 00 00 00 00 00 00 00
       0.0 0.0 0.0 0.0
0000c0 00 00 00 00 00 00 00 00 00 00 00 00 00 00 00 00
       0.0 0.0 0.0 0.0
0000d0 00 00 00 00 00 00 00 00 00 00 00 00 00 00 00 00
       0.0 0.0 0.0 0.0
0000e0 00 00 00 00 00 00 00 00 00 00 00 00 00 00 00 00
       0.0 0.0 0.0 0.0
0000f0 00 00 00 00 00 00 00 00 00 00 00 00 00 00 00 00
       0.0 0.0 0.0 0.0
000100 00 00 00 00 00 00 00 00 00 00 00 00 00 00 00 00
       0.0 0.0 0.0 0.0
000110 00 00 00 00 00 00 00 00 00 00 00 00 00 00 00 00
       0.0 0.0 0.0 0.0
000120 00 00 00 00 00 00 00 00 00 00 00 00 00 00 00 00
       0.0 0.0 0.0 0.0
000130 00 00 00 00 00 00 00 00 00 00 00 00 00 00 00 00
       0.0 0.0 0.0 0.0
000140 00 00 00 00 00 00 00 00 00 00 00 00 00 00 00 00
       0.0 0.0 0.0 0.0
000150 00 00 00 00 00 00 00 00 00 00 00 00 00 00 00 00
       0.0 0.0 0.0 0.0
000160 00 00 00 00 00 00 00 00 00 00 00 00 00 00 00 00
       0.0 0.0 0.0 0.0
000170 00 00 00 00 00 00 00 00 00 00 00 00 00 00 00 00
       0.0 0.0 0.0 0.0
000180 00 00 00 00 00 00 00 00 00 00 00 00 00 00 00 00
       0.0 0.0 0.0 0.0
000190 00 00 00 00 00 00 00 00 00 00 00 00 00 00 00 00
       0.0 0.0 0.0 0.0
0001a0 00 00 00 00 00 00 00 00 00 00 00 00 00 00 00 00
       0.0 0.0 0.0 0.0
0001b0 00 00 00 00 00 00 00 00 00 00 00 00 00 00 00 00
       0.0 0.0 0.0 0.0
0001c0 00 00 00 00 00 00 00 00 00 00 00 00 00 00 00 00
       0.0 0.0 0.0 0.0
0001d0 00 00 00 00 00 00 00 00 00 00 00 00 00 00 00 00
       0.0 0.0 0.0 0.0
0001e0 00 00 00 00 00 00 00 00 00 00 00 00 00 00 00 00
       0.0 0.0 0.0 0.0
0001f0 00 00 00 00 00 00 00 00 00 00 00 00 00 00 00 00
       0.0 0.0 0.0 0.0

action_model._continuous_distribution.log_sigma f4 [1, 3]
000000 00 00 00 00 00 00 00 00 00 00 00 00
       0.0 0.0 0.0

action_model._continuous_distribution.mu.weight f4 [3, 128]
000000 03 d4 9e bc 7d bb 26 3c 1f 4a 77 bc 48 53 54 3a
       -0.019388204 0.010176537 -0.015093355 0.0008099568
000010 4e 60 25 bc 9f 5b 9d bc 27 b5 c2 3c 78 ac dc 3c
       -0.010093762 -0.019208727 0.02376802 0.026937708
000020 55 ad 06 ba 32 d3 e3 ba 27 18 ed bb dd f7 fd bb
       -0.0005137523 -0.0017381667 -0.007235545 -0.007750495
000030 ad 49 42 3c 40 87 1c bc a3 7e 41 bb fa e0 86 3c
       0.011858386 -0.0095537305 -0.0029524944 0.016464699
000040 b2 3c b6 38 f8 94 e1 bc f5 7e dd 3b b4 43 a7 bb
       8.689742e-05 -0.027536854 0.006759519 -0.0051045064
000050 62 f1 f4 bc bf f5 1c 39 50 34 f4 3c a8 e8 5f 3c
       -0.029900257 0.00014968867 0.0298101 0.013666309
000060 78 9c 73 3b 2b 71 82 3b 6b e6 e4 bc e0 34 f7 bc
       0.003717212 0.003980776 -0.027941903 -0.03017658
000070 d7 ca 52 3b 17 19 d4 bb e1 fd 83 bb 68 48 67 3b
       0.003216436 -0.0064727175 -0.0040280675 0.003529096
000080 01 bf 4a bc e3 21 15 3c 34 e9 41 3c f3 fd ce 3c
       -0.01237464 0.0091023175 0.011835385 0.025267577
000090 e0 27 50 3d 80 5d 54 bc 2b 3e 7b bb 34 a6 8b ba
       0.050819278 -0.012961745 -0.0038336616 -0.0010654391
0000a0 db 14 e9 bc 03 5f b1 bb d2 0c 5e 3c 85 34 22 bb
       -0.028452327 -0.0054129376 0.013552861 -0.0024750542
0000b0 cb a5 a6 3c 8b ef 92 3a f2 b3 dd bc ab 5d 08 3c
       0.020342728 0.0011210305 -0.027063344 0.008323113
0000c0 19 39 b1 bb 87 5c e9 3b 07 be 4e 3b ca f0 62 3a
       -0.005408418 0.007121626 0.003154637 0.0008657096
0000d0 2b 4d f4 3b 38 47 58 3c 9a 73 94 3c 97 1f 82 bc
       0.007455488 0.013200574 0.01812153 -0.015884204
0000e0 d2 d8 cc 39 eb d8 7c 3c 2b de 22 bc a7 18 df 3c
       0.00039071456 0.015432577 -0.009940664 0.027233435
0000f0 5b f7 09 bd ea 66 75 bc a7 4b 76 bc 86 5f 2a 3b
       -0.033683162 -0.01497815 -0.015032685 0.0025996878
000100 bb b5 67 bc c8 25 a6 bc 67 27 d8 3c 41 dc 85 bc
       -0.014142449 -0.020281687 0.026385976 -0.016340377
000110 d0 70 cf 3a 3d fb 18 bc 8d db 5c bb 63 a7 96 3c
       0.0015826467 -0.009337244 -0.0033700198 0.018390363
000120 33 86 86 ba 35 80 c2 bb d7 69 0b b9 08 81 59 3b
       -0.0010263383 -0.0059356936 -0.00013295501 0.003318848
000130 d0 b5 40 ba eb 72 78 bc 92 76 82 3c 2a c1 f0 3c
       -0.0007351311 -0.015164117 0.01592568 0.029388983
000140 63 7b 37 3c 63 3b ed bb ac fb 14 3c 5b 0d bf bc
       0.011198851 -0.0072397455 0.009093206 -0.023321798
000150 95 a7 44 3c d8 bd 62 3c 41 7d 86 bc 5f 41 88 bb
       0.012002845 0.013839208 -0.016417148 -0.0041581835
000160 cb e4 83 3c 3c bb 9a bc 5e 87 89 bb e0 7b 37 bc
       0.016100308 -0.018888108 -0.004197045 -0.011198968
000170 93 87 f7 3c c7 11 3b bd 1d 1a b0 3c 6b 56 c7 3c
       0.030216014 -0.04567125 0.021496827 0.0243332
000180 35 bc 54 bb 6a f7 86 3c 59 e3 16 3d fe 3d 9a bc
       -0.0032460813 0.016475398 0.03683791 -0.018828388
000190 87 c8 0d 3b 6f f6 67 bc 6f 55 2a 3c c3 d6 1a 3c
       0.0021634416 -0.014157875 0.0103963455 0.009450617
0001a0 b3 17 7d 3c 6c 49 08 3c ba 6f 7c bc 28 18 f5 3c
       0.015447545 0.008318286 -0.015407497 0.029918745
0001b0 5f da 8f 3c 08 b2 8b 3c f6 3e c2 3c 63 98 32 3b
       0.017560182 0.017052665 0.023711663 0.0027251474
0001c0 f8 9f 4f 3b 90 16 47 3a 28 3b 11 bc a1 61 c1 3b
       0.0031681042 0.00075946096 -0.008864202 0.005901531
0001d0 0f 31 e5 bb 1f e0 66 3c 94 3f b3 bc 5b d6 57 3c
       -0.0069943736 0.014091521 -0.021880902 0.013173665
0001e0 f2 9e b9 bc dc da 13 bc 3e 8f 18 bc 57 5f ac 3b
       -0.022658799 -0.009024348 -0.009311495 0.005260389
0001f0 4f 9e 03 3c ed f0 b5 3c 57 12 de bc 97 c8 02 bc
       0.008033349 0.022209609 -0.027108354 -0.007982395
000200 22 65 36 3d 0a 47 bf bb 02 3a 62 bc 02 a5 65 bc
       0.04453004 -0.005837326 -0.013807775 -0.014016392
000210 5b d8 30 3c 12 d5 15 bd 7b e9 d9 bc 2c e5 c6 3c
       0.010793771 -0.036580153 -0.02660059 0.0242792
000220 80 a9 79 3a 1c 95 bd 3b 4f 51 6e 3c e0 60 ce bc
       0.00095238537 0.0057855975 0.014545753 -0.025192678
000230 2a 48 ea 3b 6b d0 f7 3c 72 42 40 bc bd 93 ef 3b
       0.007149716 0.030250749 -0.011734592 0.007311313
000240 e6 4c 01 3b 9e 4d 96 3c 10 db ba bc 55 ff 7e bc
       0.0019729673 0.018347558 -0.022809535 -0.015563806
000250 4f c5 b9 3c 87 c5 91 3b 3f 5a 9f 3b 1c f7 b3 3c
       0.022677092 0.004448596 0.004863053 0.021968417
000260 40 5d 5c 3b e1 40 8a 3c 7f 09 1a bc 86 98 12 bd
       0.0033624917 0.01687664 -0.009401678 -0.03578999
000270 c9 d9 a8 3c 6b 62 e0 bc a6 92 10 3b f7 61 98 3c
       0.02061166 -0.02739068 0.0022060066 0.0186014
000280 49 c6 c7 bb 3b 57 c4 39 cb 28 24 3c 75 8e 64 bb
       -0.0060966355 0.00037449025 0.010019491 -0.003487495
000290 9b 15 c8 bc 3a 7b 8e 3b 57 b7 cc 3c 5d 75 a3 3c
       -0.024424365 0.004348186 0.024989767 0.019953424
0002a0 b2 6e cf 3b bd 9d 35 3c b8 e6 ed 3b e2 60 44 bc
       0.0063303346 0.011084971 0.00726017 -0.011985989
0002b0 85 ea 0b bc da dc 4f 3c 97 9c d2 ba 05 0d 30 bc
       -0.0085398005 0.012686932 -0.0016068396 -0.010745292
0002c0 f1 8a 8d bb 63 1d df bc d7 bf c4 bb 32 59 99 3c
       -0.0043195416 -0.027235692 -0.0060043144 0.01871929
0002d0 9f 3c 8b 3a 93 f3 13 3d ba 37 7b 3c d1 0b 31 bc
       0.0010622925 0.036120962 0.0153331105 -0.01080604
0002e0 72 63 11 bc a0 e8 33 bc 3f 1a 93 3c 5d 4d d7 ba
       -0.008873807 -0.010980755 0.017956851 -0.0016426254
0002f0 e2 ad cf 3c 87 e7 79 bc 01 1d ad 3c 75 0c f4 38
       0.025351468 -0.015252954 0.021131994 0.00011637147
000300 ad a0 05 3d b8 6b 75 3b 13 e9 eb bc 20 7e 74 b9
       0.032623935 0.0037448239 -0.028797662 -0.00023316639
000310 97 36 ce bc 87 97 ce bb 4a a1 db bb ce 9e 9a 3c
       -0.025172515 -0.0063046846 -0.0067025768 0.018874552
000320 69 61 95 3a 09 16 22 3c 4b 13 71 bc 3f bd 60 3c
       0.0011396828 0.009892949 -0.014714072 0.013716995
000330 18 eb 59 bc 4a 85 28 bc 92 52 9e ba 2a 6b 98 3c
       -0.01330068 -0.010285685 -0.0012079051 0.018605787
000340 05 38 90 bc 47 23 40 3b 9e 55 3a 3c bc 42 0f bd
       -0.017604837 0.0029317902 0.011372952 -0.034975752
000350 ad 4e f3 3b 84 d2 3f 38 07 1a e2 3c 53 19 06 bb
       0.0074251504 4.5734007e-05 0.027600301 -0.0020461872
000360 18 45 a0 3c e9 7d 2f 3d f7 27 8f bc ff 73 6b bb
       0.019564196 0.042844687 -0.017475111 -0.0035927293
000370 75 fa 66 3c 89 78 c5 bb f7 3e 92 bb cf fa 9f bc
       0.0140978 -0.006026332 -0.0044630724 -0.019528775
000380 32 1b b7 bc d0 ef c1 bb 57 94 5a 3c 91 b0 42 3c
       -0.022351835 -0.0059184805 0.013341031 0.011882917
000390 c7 66 e5 3c d7 fa 75 bc 42 40 b3 bc c5 ca d5 bb
       0.02800311 -0.015013418 -0.021881226 -0.006524416
0003a0 63 07 89 3a 66 1a a4 3c ae c7 ca bc 5f 0a 50 bc
       0.0010454472 0.020032119 -0.024753418 -0.012697785
0003b0 ad 53 e3 3c ed d2 b6 3c 01 12 4c 3b 93 30 89 3c
       0.02774986 0.022317374 0.003113866 0.016746795
0003c0 3f 38 ed 3a 83 8d 0b 3d 0b bd 05 3d 63 8b 44 3b
       0.0018098428 0.034070503 0.03265099 0.0029990308
0003d0 d5 6f 79 3b ed b9 a0 3c ec 46 44 3c 60 93 d5 3b
       0.0038061042 0.019619906 0.0119798 0.0065178126
0003e0 3b 36 94 3c e9 42 0c bd c7 0e f2 bb d2 e3 0d bc
       0.018092265 -0.034243498 -0.0073870155 -0.008660274
0003f0 c0 70 13 bd a5 3b 68 3c 8e 0a 06 bd dd 78 fb bb
       -0.0359962 0.014174377 -0.03272491 -0.00767432

action_model._continuous_distribution.mu.bias f4 [3]
000000 00 00 00 00 00 00 00 00 00 00 00 00
       0.0 0.0 0.0

network_body._body_endoder.seq_layers.0.weight f4 [128, 9]
000000 a2 a5 bf bd 2c 9a 95 be 5a ac e9 3e aa 9c 90 be
       -0.09357764 -0.29219186 0.45639306 -0.28244525
000010 28 19 dd 3d 9d 2e 09 bf 44 4a 0a 3e 71 1c 21 3f
       0.10795814 -0.5358675 0.13504893 0.62934023
000020 3e 51 26 3e 97 84 b8 3d 9f 32 b1 3e 8f 1c a3 3e
       0.16241929 0.090096645 0.34608933 0.31857726
000030 78 29 a5 be 2e bb 45 bd c4 de 7c be 6f 0e e4 bd
       -0.322582 -0.04827421 -0.24694353 -0.111355655
000040 52 03 98 bc 08 a7 21 bf 6c 63 03 3e 33 98 5d 3e
       -0.01855627 -0.63145494 0.12830895 0.2164009
000050 76 27 ce be 18 c1 8e be 56 d1 a4 bc d4 e8 e3 bd
       -0.4026448 -0.27881694 -0.02011935 -0.11128393
000060 d1 62 1a 3f e8 97 92 be 60 49 d2 3e 73 4f 40 3e
       0.6030703 -0.2863152 0.41071606 0.18780307
000070 e9 52 81 3e 45 e0 83 3e 78 fd 85 bd 1a 77 1f 3e
       0.25258568 0.25757042 -0.06542486 0.15572777
000080 b8 f9 b9 be 7e 07 80 be d0 60 d3 3d c7 d6 90 3d
       -0.36323333 -0.25005716 0.103212 0.070722155
000090 b5 d0 a2 bd 46 09 2a 3f 82 98 bf 3e 6a 40 55 be
       -0.07949964 0.664204 0.37421042 -0.20825353
0000a0 85 05 9a 3e 49 05 0b 3f e7 97 52 be e2 8d 29 3e
       0.30082336 0.5430494 -0.20565759 0.1655803
0000b0 14 bb d7 3e f6 29 7b bd 37 65 47 be 8c 0a cb 3e
       0.42134917 -0.061319314 -0.19472204 0.39656484
0000c0 bb e5 d3 3d 70 42 e8 bd 6b 37 f5 be 8f 57 d7 3c
       0.10346552 -0.11340797 -0.47893843 0.026286868
0000d0 f3 91 a6 be ec e6 67 3e 3b 38 69 be 2f 67 17 be
       -0.32533225 0.22646683 -0.22775356 -0.14785455
0000e0 1a b8 ff be af ff 91 3e b2 e1 bb bd 88 b6 8f 3e
       -0.49945146 0.28515384 -0.09173907 0.28068948
0000f0 37 d4 0e be a0 85 d9 bd 33 df dc 3c ff 72 d4 be
       -0.13948141 -0.1062119 0.026961898 -0.41493985
000100 08 e6 00 be 60 01 c8 3c 2e ab 80 be d2 45 df bd
       -0.1258775 0.024414718 -0.251306 -0.10901989
000110 df 71 fb bc 30 29 29 bf 08 17 0e 3e a5 01 27 bc
       -0.030693946 -0.6607847 0.13875973 -0.010193263
000120 8c 56 aa 3d 27 c9 ce be 86 4c 28 3d 14 3c e7 be
       0.08317289 -0.40387842 0.041088603 -0.45163023
000130 5a 86 fa bd 0b 56 a8 3e 2c 3f 46 3e 9a 0d 3f bd
       -0.12232657 0.32878146 0.19360036 -0.04664383
000140 fb 02 07 be e3 83 92 3b 38 fd 9f 3e 66 e1 57 bd
       -0.1318473 0.0044712885 0.31247878 -0.05270519
000150 5a 9b 92 be 78 42 e1 be e2 37 08 3f 4e 4e 41 3f
       -0.2863415 -0.43996024 0.5321027 0.7551011
000160 54 83 7d bd 9b c5 e1 bb 93 21 15 bf 06 4b ed 3d
       -0.061892822 -0.0068900115 -0.58254355 0.11586575
000170 9b 6c f3 be 4e 9d e3 3e a8 f7 8c bd d0 ab 8d 3e
       -0.47543797 0.4445595 -0.06883174 0.27670145
000180 a3 8a 56 3d 30 47 db 3e 94 5c ce 3e c4 01 5e bb
       0.052378308 0.4282775 0.40305007 -0.0033875564
000190 06 a9 77 3e 6a 5d 3a bc 13 0e e2 be 33 68 d0 be
       0.24185571 -0.011374811 -0.44151363 -0.40704498
0001a0 7c 59 85 be 6f ed 56 3d 2a 92 b9 3d a6 1d 34 be
       -0.26044834 0.052472528 0.09061082 -0.17589435
0001b0 82 32 9d be a2 e6 3c bd 14 ce 3e be ac 20 b4 be
       -0.30702597 -0.046118386 -0.186333 -0.35181177
0001c0 79 01 9e 3e d4 77 6b 3f aa 6a 87 3e a6 f1 de 3e
       0.308605 0.9197972 0.26448566 0.43543738
0001d0 a1 4f 02 be 17 15 24 be de 21 6f be 83 cc ac 3e
       -0.12725689 -0.1602367 -0.23352763 0.3374978
0001e0 ae 5b c9 3e 6b d1 a1 be 36 d0 08 3f 26 b9 52 be
       0.3932776 -0.31605086 0.53442705 -0.20578441
0001f0 83 ed 2f bf 0e 5b 71 be 64 df 82 be fe a9 c7 be
       -0.6872179 -0.23569891 -0.2556106 -0.3899688
000200 56 b6 6e 3f f8 5f ac 3e e1 2a 1c be e0 11 82 be
       0.9324697 0.33666968 -0.15250732 -0.25404263
000210 88 fb 4e 3f e6 f1 0e 3f 6a a6 a8 bd c0 89 b0 be
       0.80852556 0.5583786 -0.08234866 -0.34480095
000220 06 59 ee be e0 47 44 3e 5d d1 93 be ad 05 8b be
       -0.46552294 0.19168043 -0.2887067 -0.27152768
000230 54 e6 37 3e 70 95 4f 3e ea b1 f7 be d4 08 e6 3e
       0.17958957 0.2027185 -0.48377925 0.4492861
000240 33 3b 30 bf 12 38 17 3e 4c bb f0 3e 31 f7 0f 3e
       -0.6884033 0.14767483 0.47017896 0.1405914
000250 bb b7 e0 bd 9c 8c 7b bf 27 fc 33 3e 04 af 47 bc
       -0.10972544 -0.9826143 0.17576657 -0.012187723
000260 22 59 9c 3e da 3e 8d be 4f 25 78 be d3 91 84 3e
       0.30536753 -0.27587014 -0.24232982 0.25892505
000270 56 99 9b 3e 54 44 26 3e 26 d8 d5 bc ee f2 9f 3e
       0.30390424 0.16237003 -0.026104044 0.31240028
000280 23 57 fd bd ee b6 84 bd 7f 86 d0 be 3a 0d a7 3d
       -0.12370136 -0.064802036 -0.40727612 0.0815682
000290 d0 f0 26 bf 4f ff 5d be a8 14 21 bf c1 73 04 be
       -0.652112 -0.21679424 -0.62922144 -0.12934782
0002a0 40 dc bd be f7 fa 4f 3e c2 c2 8a 3e 87 0d ea 3e
       -0.370821 0.20310579 0.27101713 0.45713446
0002b0 a4 c2 6c be 14 73 5b 3e d9 17 14 bf 4e 8d 74 be
       -0.23121125 0.21430618 -0.5784889 -0.23882028
0002c0 03 ec 10 be 2f 5c ab be 43 66 c4 bd 45 bc 8c 3e
       -0.14152531 -0.33468768 -0.095898174 0.27487388
0002d0 c7 22 6d 3e 74 2b 3d bf 83 72 23 bf f0 f4 a6 3c
       0.23157798 -0.7389443 -0.63846606 0.020380467
0002e0 0c 94 d3 be 3a b3 12 be f9 45 97 3d 98 f5 91 bd
       -0.41323888 -0.14326182 0.07386393 -0.071269214
0002f0 58 43 8e 3e 18 c0 bd be 6d ee 8c 3d 54 06 17 bf
       0.27785754 -0.37060618 0.068814136 -0.5899403
000300 1f cd 84 be f0 00 4b be 67 ce 9d be ae 81 d9 3a
       -0.25937745 -0.19824576 -0.30821535 0.0016594434
000310 66 e3 7c be 30 b5 10 bf 86 86 c2 3e 07 b1 25 be
       -0.2469612 -0.5652647 0.37993258 -0.16180812
000320 5c 27 2b be cc 2a 8e 3e f3 91 59 3e e0 64 c5 be
       -0.16714233 0.27767026 0.21247081 -0.38553524
000330 df 25 d4 3d e2 7a b6 3e 16 13 8a 3e 3a f3 ca 3e
       0.10358786 0.35640627 0.26967686 0.39638692
000340 57 ed eb 3d 83 91 8b be d8 a3 6e 3e 13 31 58 bd
       0.11519878 -0.27259454 0.23304689 -0.052781176
000350 8a c8 5c 3e ea 91 4a be 37 95 19 be 22 7f 86 3e
       0.21560875 -0.19782224 -0.14998327 0.2626887
000360 e2 b9 f4 3e 0b 36 28 be 47 58 17 3e 76 e4 b3 bd
       0.47798067 -0.16426866 0.14779769 -0.0878381
000370 b9 d9 9d be 3b 8c 90 3d 94 ca 4e be 46 26 5a be
       -0.30830172 0.07057997 -0.20194465 -0.21303663
000380 40 f4 7c be f7 5a 43 3e ff 1f b8 be 7b c9 d4 be
       -0.24702549 0.19077669 -0.3596191 -0.41559967
000390 ac 27 b3 3e 22 8c a4 3e 8b ee aa 3e b2 6d 57 3e
       0.34991205 0.32138163 0.3338512 0.21037939
0003a0 e8 56 ce 3e 22 d5 71 3d e4 1e 8c 3e b0 d7 65 be
       0.4030068 0.05904115 0.27367318 -0.2244556
0003b0 6b 61 04 3f 7f 6c 15 be 18 b0 97 be 0c ee 3c bf
       0.5171115 -0.14592169 -0.29626536 -0.7380073
0003c0 8f 55 8f be fc 7b 8e be 61 16 18 3f 84 50 0e bd
       -0.27994964 -0.27828968 0.5940915 -0.034744754
0003d0 4c 0b 88 be ee 47 8a 3c a6 a5 e4 be 74 a5 0f bf
       -0.2657112 0.016880002 -0.4465763 -0.56111836
0003e0 43 7d 16 be 03 97 fd bd 45 64 98 bd 9b bb 01 3f
       -0.14696221 -0.12382319 -0.07441 0.5067689
0003f0 af 0d 07 3e 68 06 57 be 3b f2 b5 be 5d f4 81 3e
       0.13188814 -0.20998538 -0.3553637 0.25381747

network_body._body_endoder.seq_layers.0.bias f4 [128]
000000 00 00 00 00 00 00 00 00 00 00 00 00 00 00 00 00
       0.0 0.0 0.0 0.0
000010 00 00 00 00 00 00 00 00 00 00 00 00 00 00 00 00
       0.0 0.0 0.0 0.0
000020 00 00 00 00 00 00 00 00 00 00 00 00 00 00 00 00
       0.0 0.0 0.0 0.0
000030 00 00 00 00 00 00 00 00 00 00 00 00 00 00 00 00
       0.0 0.0 0.0 0.0
000040 00 00 00 00 00 00 00 00 00 00 00 00 00 00 00 00
       0.0 0.0 0.0 0.0
000050 00 00 00 00 00 00 00 00 00 00 00 00 00 00 00 00
       0.0 0.0 0.0 0.0
000060 00 00 00 00 00 00 00 00 00 00 00 00 00 00 00 00
       0.0 0.0 0.0 0.0
000070 00 00 00 00 00 00 00 00 00 00 00 00 00 00 00 00
       0.0 0.0 0.0 0.0
000080 00 00 00 00 00 00 00 00 00 00 00 00 00 00 00 00
       0.0 0.0 0.0 0.0
000090 00 00 00 00 00 00 00 00 00 00 00 00 00 00 00 00
       0.0 0.0 0.0 0.0
0000a0 00 00 00 00 00 00 00 00 00 00 00 00 00 00 00 00
       0.0 0.0 0.0 0.0
0000b0 00 00 00 00 00 00 00 00 00 00 00 00 00 00 00 00
       0.0 0.0 0.0 0.0
0000c0 00 00 00 00 00 00 00 00 00 00 00 00 00 00 00 00
       0.0 0.0 0.0 0.0
0000d0 00 00 00 00 00 00 00 00 00 00 00 00 00 00 00 00
       0.0 0.0 0.0 0.0
0000e0 00 00 00 00 00 00 00 00 00 00 00 00 00 00 00 00
       0.0 0.0 0.0 0.0
0000f0 00 00 00 00 00 00 00 00 00 00 00 00 00 00 00 00
       0.0 0.0 0.0 0.0
000100 00 00 00 00 00 00 00 00 00 00 00 00 00 00 00 00
       0.0 0.0 0.0 0.0
000110 00 00 00 00 00 00 00 00 00 00 00 00 00 00 00 00
       0.0 0.0 0.0 0.0
000120 00 00 00 00 00 00 00 00 00 00 00 00 00 00 00 00
       0.0 0.0 0.0 0.0
000130 00 00 00 00 00 00 00 00 00 00 00 00 00 00 00 00
       0.0 0.0 0.0 0.0
000140 00 00 00 00 00 00 00 00 00 00 00 00 00 00 00 00
       0.0 0.0 0.0 0.0
000150 00 00 00 00 00 00 00 00 00 00 00 00 00 00 00 00
       0.0 0.0 0.0 0.0
000160 00 00 00 00 00 00 00 00 00 00 00 00 00 00 00 00
       0.0 0.0 0.0 0.0
000170 00 00 00 00 00 00 00 00 00 00 00 00 00 00 00 00
       0.0 0.0 0.0 0.0
000180 00 00 00 00 00 00 00 00 00 00 00 00 00 00 00 00
       0.0 0.0 0.0 0.0
000190 00 00 00 00 00 00 00 00 00 00 00 00 00 00 00 00
       0.0 0.0 0.0 0.0
0001a0 00 00 00 00 00 00 00 00 00 00 00 00 00 00 00 00
       0.0 0.0 0.0 0.0
0001b0 00 00 00 00 00 00 00 00 00 00 00 00 00 00 00 00
       0.0 0.0 0.0 0.0
0001c0 00 00 00 00 00 00 00 00 00 00 00 00 00 00 00 00
       0.0 0.0 0.0 0.0
0001d0 00 00 00 00 00 00 00 00 00 00 00 00 00 00 00 00
       0.0 0.0 0.0 0.0
0001e0 00 00 00 00 00 00 00 00 00 00 00 00 00 00 00 00
       0.0 0.0 0.0 0.0
0001f0 00 00 00 00 00 00 00 00 00 00 00 00 00 00 00 00
       0.0 0.0 0.0 0.0

network_body._body_endoder.seq_layers.2.weight f4 [128, 128]
000000 3d 99 0a bb 35 c6 bd 3d db ae 95 3c 96 67 a7 bd
       -0.0021148466 0.092663206 0.018271854 -0.08174054
000010 40 fa e4 bc f7 05 44 bd b7 b0 f1 bd e1 5f 1b bd
       -0.02795136 -0.04785725 -0.11801284 -0.037933234
000020 0c c1 c9 bd ef 70 87 3d 69 18 6c bd 42 b5 8e bd
       -0.09851274 0.06613337 -0.057640467 -0.06968166
000030 16 c4 88 bd 0e 1c f8 3c 50 d8 d7 bd ca 94 03 be
       -0.066780254 0.030286815 -0.10539305 -0.12849727
000040 81 1f 4d 3a c9 d7 04 bd 37 be 09 3e ca eb 62 bd
       0.0007824824 -0.03243235 0.13451467 -0.055400647
000050 7e e5 a7 3d 9c 4a c4 bd 46 d5 93 3d 3b fd c7 3c
       0.08198069 -0.09584543 0.07218413 0.024412742
000060 9d c3 ce bc 61 f8 38 be 69 e1 ab 3c 76 45 05 3e
       -0.02523976 -0.18063499 0.020981507 0.13014778
000070 ca ad bc 3d b8 54 83 bd 5f 45 f1 3d 08 b4 e4 bc
       0.09212835 -0.06412643 0.117808096 -0.027917877
000080 3a ff 11 be 26 3b f9 bc 11 31 94 3d da 81 08 be
       -0.14257517 -0.030423712 0.07235921 -0.13330784
000090 f7 56 c3 bc 36 61 aa bd 95 f1 3e 3c 62 88 b7 3d
       -0.023845179 -0.08319323 0.011654277 0.0896156
0000a0 70 0d 67 3d f6 c2 c9 b9 b0 9b 30 be 5d 65 a8 3c
       0.0564093 -0.00038482965 -0.1724689 0.020556146
0000b0 fa 79 4b bd 58 4a 16 3e 7a c9 54 3d 78 e7 95 bd
       -0.049676873 0.14676797 0.051949956 -0.0731954
0000c0 a4 63 31 bc 96 c8 a5 bc d5 33 d8 3c ae b0 69 bd
       -0.010826979 -0.020237248 0.026391903 -0.05705326
0000d0 1d 96 d2 bd b7 c3 66 3d b7 9a b1 bd e2 21 ef bd
       -0.10282538 0.056338992 -0.08672088 -0.116763845
0000e0 d3 03 e2 3c 68 c5 94 bc 31 f2 13 3e e1 d2 e7 bd
       0.027589714 -0.018160537 0.14447857 -0.11319519
0000f0 44 15 c8 bd 51 2b 7b 3d e4 e0 da 3d b6 ae 1d be
       -0.09769681 0.061320607 0.10687426 -0.15398678
000100 04 eb c5 bd 62 ac 24 be 58 1f f5 3d 98 77 87 bd
       -0.09663966 -0.16081384 0.11968869 -0.066146076
000110 c2 2c 5c 3d 10 65 29 bd 56 23 93 3d 1e 17 59 bb
       0.053753622 -0.041356146 0.07184474 -0.0033125351
000120 40 4d ec 3d 1b 32 bd ba be 49 d6 3d d6 0a ec bc
       0.11538172 -0.0014434488 0.10463284 -0.02881376
000130 2f ae 69 bd 5f 34 5f bd a1 6b ac bd 78 10 34 bd
       -0.05705088 -0.054493304 -0.08418966 -0.04396102
000140 b3 63 eb ba 7a cf f6 3d b7 51 b0 bc 77 21 8e bd
       -0.001795879 0.12051292 -0.02152334 -0.06939977
000150 a0 f7 ca 3c 53 ea 75 3d c5 2c 81 ba d2 fc 18 3d
       0.02477628 0.060037922 -0.0009855261 0.037350483
000160 c4 3c 82 3d 57 d6 07 3e 1a 12 ec 3d e2 ef 87 bd
       0.063592464 0.13265358 0.1152689 -0.06637551
000170 89 58 0b 3e 0c 13 c4 bb 92 04 ea 3c c0 3a 45 3e
       0.13607992 -0.005983716 0.028566632 0.19260693
000180 da 4c 94 3d af d8 b2 3d 42 7f 9f bd a5 f5 6a bd
       0.07241221 0.08732735 -0.077879444 -0.05736317
000190 d9 4a 2e 3c 3f d9 e9 3c 10 8a 26 3d e3 ef 96 3c
       0.010637962 0.028545974 0.04065901 0.018424934
0001a0 a7 48 a0 bd 4d 7f c3 bd db ee 2b ba 69 a1 1f 3c
       -0.07826357 -0.09545765 -0.00065587246 0.009743073
0001b0 eb 4f 44 3b ca 51 ae bb 7c 19 e8 3d 0d 24 ac 3c
       0.0029954861 -0.0053198086 0.11332986 0.021013284
0001c0 bf 10 23 3c e9 c0 6c 3d 6a f6 45 3d f5 3c da bc
       0.009952723 0.05780116 0.048330702 -0.026640395
0001d0 3c 7a 44 3e 61 14 1c 3d cd ba 5c 3c 5a 9f a4 3d
       0.19187254 0.038105372 0.013472271 0.080382064
0001e0 0d e9 17 3d 61 b7 8b bc 8f 6b 8e bc 60 59 e6 3d
       0.03708749 -0.017055215 -0.017385272 0.11247516
0001f0 c3 cf 12 3e 7f 51 fc bd 27 dd f5 3c 5d e1 4c bc
       0.14337067 -0.12320232 0.03001268 -0.012504903
000200 74 2c 9d 3d 14 5e 0a 3e 91 72 a4 3d 4b 5d 5d bd
       0.076744944 0.1351245 0.08029664 -0.05404405
000210 5b 89 78 3d dc 90 86 bd d1 ce 2c bd a1 4c d8 3d
       0.060677867 -0.065705985 -0.042189423 0.10561491
000220 30 1c a2 bc db 36 50 bd c2 f1 cf bd 45 35 c6 bd
       -0.019788831 -0.050833564 -0.101535335 -0.09678129
000230 5b 75 0c 3e 95 2c 4e 3c 2c c0 aa 3d f8 4a 36 bd
       0.13716643 0.012583871 0.08337435 -0.04450509
000240 a2 5d 86 bd 19 8f 07 be d6 8d 4c 3d 12 1d d4 bd
       -0.06560828 -0.13238181 0.049939953 -0.10357107
000250 f2 e3 ee 3c f5 ec 87 3d 50 0c ec 3d 89 22 04 bd
       0.029161427 0.06636993 0.11525786 -0.032259498
000260 a3 0e 0b be cb 1b a6 bb c6 64 93 bd 1b 59 6c bd
       -0.13579802 -0.005069231 -0.071969554 -0.057702165
000270 8f bf 41 3d 53 72 2e be 33 65 28 bd 94 6e 38 3d
       0.047301825 -0.17035799 -0.041112136 0.04502733
000280 bb 18 01 3c 31 4a c7 bc 54 b1 55 3d e6 4d 7a 3d
       0.007879431 -0.02432737 0.052171066 0.061109446
000290 cc 6a d1 3d 6a 97 10 3e 5b cc 8e 3d 5a 1c fe bc
       0.10225448 0.1412026 0.069725715 -0.031019378
0002a0 91 08 ec 3d 32 6b 63 bd 83 90 95 bc 9b be 85 bd
       0.115250714 -0.05552215 -0.018257385 -0.06530496
0002b0 57 2d bc 3b 09 f5 be bd fd 47 fd 3d d0 f8 c7 bd
       0.0057427096 -0.093240805 0.12367246 -0.09764254
0002c0 62 a1 09 be 9e 83 2d be 37 88 33 bd 50 d8 ea 3c
       -0.13440469 -0.16944739 -0.043831076 0.028667599
0002d0 1a 33 3e be b5 02 1c bd 66 3f 64 bd 75 35 a1 bd
       -0.18574181 -0.03808852 -0.055724524 -0.07871524
0002e0 39 ad 2a 3a 4c 4b 0b 3e 6c be 97 3d 8b 61 bb 3d
       0.00065107975 0.13602942 0.07409367 0.09149464
0002f0 64 99 df 3d 13 41 ca bd a1 36 4d 3c 2f 54 48 3d
       0.10917929 -0.09875693 0.012525232 0.04890841
000300 a4 4c f8 bd 67 8b 05 3d eb 47 7c 3d 90 d8 ce bc
       -0.12123993 0.032603648 0.061592024 -0.02524975
000310 21 50 b5 3d 9d 5d 5e bc fd 6b 95 3d 26 e6 56 3d
       0.08853174 -0.013572124 0.07295988 0.05246558
000320 70 14 e6 bd 61 c8 53 bd d1 82 e5 bc c8 c6 0e 3e
       -0.11234367 -0.051704768 -0.02801648 0.13943017
000330 4a 4f 1a 3d d6 35 ce 3d 86 32 1a be 0f 57 33 3d
       0.037673272 0.10068862 -0.15058336 0.043784197
000340 cd a8 1b 3d 60 a1 4d 3e 29 2c b7 bd d5 21 04 3d
       0.038002778 0.20081091 -0.0894397 0.032258827
000350 91 ea b3 bd 49 4c e6 bd 6c ed 2d be b8 50 5a bc
       -0.08784974 -0.11245019 -0.169851 -0.013324909
000360 59 12 8b 3d 68 fa 0f bd 52 ae 19 be 12 ba ed 3c
       0.06790609 -0.035150915 -0.15007904 0.02901939
000370 54 c2 71 bd fc 1c 18 3d a3 70 b0 3d 8a 0a a7 bd
       -0.059023216 0.037137017 0.08615234 -0.08156307
000380 a6 29 dd bc 3e c6 7f 3c 76 ed 2b 3e 14 07 10 bd
       -0.026997399 0.015611229 0.16789803 -0.035163
000390 ba 4b 30 bd 95 cf a6 bc e5 70 86 3d b6 c3 d2 3c
       -0.04304097 -0.020362655 0.06564502 0.025728088
0003a0 7a 4d 2f 3e 11 7c 02 be 45 30 97 3d 06 b8 0b 3e
       0.17119399 -0.1274264 0.073822536 0.13644418
0003b0 54 65 f9 3d 25 f8 00 be e3 e2 38 3b c1 56 df 3a
       0.1217753 -0.1259466 0.0028211407 0.0017039404
0003c0 eb 21 c3 bc fa 1a 51 3d 9b 51 52 bb 95 6e 28 3c
       -0.023819884 0.051051117 -0.0032092098 0.010280271
0003d0 04 e3 67 bc 5a f9 ec 3d a1 54 c7 3d f1 6f a1 bd
       -0.014153246 0.115709975 0.097329386 -0.07882679
0003e0 42 35 35 bc f2 a6 82 3d 4b fa 1e 3d 86 d4 ee 3b
       -0.011060061 0.063794985 0.038812917 0.0072885184
0003f0 60 6b 29 3e b4 93 49 bd 0c 64 ee bd 39 8e a0 bd
       0.16544867 -0.049213126 -0.11640176 -0.07839627

network_body._body_endoder.seq_layers.2.bias f4 [128]
000000 00 00 00 00 00 00 00 00 00 00 00 00 00 00 00 00
       0.0 0.0 0.0 0.0
000010 00 00 00 00 00 00 00 00 00 00 00 00 00 00 00 00
       0.0 0.0 0.0 0.0
000020 00 00 00 00 00 00 00 00 00 00 00 00 00 00 00 00
       0.0 0.0 0.0 0.0
000030 00 00 00 00 00 00 00 00 00 00 00 00 00 00 00 00
       0.0 0.0 0.0 0.0
000040 00 00 00 00 00 00 00 00 00 00 00 00 00 00 00 00
       0.0 0.0 0.0 0.0
000050 00 00 00 00 00 00 00 00 00 00 00 00 00 00 00 00
       0.0 0.0 0.0 0.0
000060 00 00 00 00 00 00 00 00 00 00 00 00 00 00 00 00
       0.0 0.0 0.0 0.0
000070 00 00 00 00 00 00 00 00 00 00 00 00 00 00 00 00
       0.0 0.0 0.0 0.0
000080 00 00 00 00 00 00 00 00 00 00 00 00 00 00 00 00
       0.0 0.0 0.0 0.0
000090 00 00 00 00 00 00 00 00 00 00 00 00 00 00 00 00
       0.0 0.0 0.0 0.0
0000a0 00 00 00 00 00 00 00 00 00 00 00 00 00 00 00 00
       0.0 0.0 0.0 0.0
0000b0 00 00 00 00 00 00 00 00 00 00 00 00 00 00 00 00
       0.0 0.0 0.0 0.0
0000c0 00 00 00 00 00 00 00 00 00 00 00 00 00 00 00 00
       0.0 0.0 0.0 0.0
0000d0 00 00 00 00 00 00 00 00 00 00 00 00 00 00 00 00
       0.0 0.0 0.0 0.0
0000e0 00 00 00 00 00 00 00 00 00 00 00 00 00 00 00 00
       0.0 0.0 0.0 0.0
0000f0 00 00 00 00 00 00 00 00 00 00 00 00 00 00 00 00
       0.0 0.0 0.0 0.0
000100 00 00 00 00 00 00 00 00 00 00 00 00 00 00 00 00
       0.0 0.0 0.0 0.0
000110 00 00 00 00 00 00 00 00 00 00 00 00 00 00 00 00
       0.0 0.0 0.0 0.0
000120 00 00 00 00 00 00 00 00 00 00 00 00 00 00 00 00
       0.0 0.0 0.0 0.0
000130 00 00 00 00 00 00 00 00 00 00 00 00 00 00 00 00
       0.0 0.0 0.0 0.0
000140 00 00 00 00 00 00 00 00 00 00 00 00 00 00 00 00
       0.0 0.0 0.0 0.0
000150 00 00 00 00 00 00 00 00 00 00 00 00 00 00 00 00
       0.0 0.0 0.0 0.0
000160 00 00 00 00 00 00 00 00 00 00 00 00 00 00 00 00
       0.0 0.0 0.0 0.0
000170 00 00 00 00 00 00 00 00 00 00 00 00 00 00 00 00
       0.0 0.0 0.0 0.0
000180 00 00 00 00 00 00 00 00 00 00 00 00 00 00 00 00
       0.0 0.0 0.0 0.0
000190 00 00 00 00 00 00 00 00 00 00 00 00 00 00 00 00
       0.0 0.0 0.0 0.0
0001a0 00 00 00 00 00 00 00 00 00 00 00 00 00 00 00 00
       0.0 0.0 0.0 0.0
0001b0 00 00 00 00 00 00 00 00 00 00 00 00 00 00 00 00
       0.0 0.0 0.0 0.0
0001c0 00 00 00 00 00 00 00 00 00 00 00 00 00 00 00 00
       0.0 0.0 0.0 0.0
0001d0 00 00 00 00 00 00 00 00 00 00 00 00 00 00 00 00
       0.0 0.0 0.0 0.0
0001e0 00 00 00 00 00 00 00 00 00 00 00 00 00 00 00 00
       0.0 0.0 0.0 0.0
0001f0 00 00 00 00 00 00 00 00 00 00 00 00 00 00 00 00
       0.0 0.0 0.0 0.0

value_heads.value_heads.extrinsic.weight f4 [1, 128]
000000 bc 7d 3a bd 42 da 47 3d 8f c4 5c 3c 5e b2 b0 3d
       -0.045530066 0.04879213 0.013474598 0.08627771
000010 83 ed 00 be ac 91 84 bb ca 05 3a be b5 1e 40 be
       -0.12590604 -0.0040456858 -0.18166271 -0.18761714
000020 66 cf 7c 3c 2b bc 48 bd 0d ed 7f bd a4 31 10 3d
       0.015430307 -0.049007576 -0.06248193 0.03520359
000030 b1 8b 4e 3c 9d cf 10 be 6e 88 be 3b 12 a6 45 3e
       0.012606547 -0.14141698 0.0058146035 0.19301632
000040 c7 5e 58 be 62 b2 e8 bb e4 fb 2e 3b bd 14 36 3e
       -0.21129905 -0.007101343 0.0026700431 0.17781349
000050 dd 29 a8 3c 87 d4 32 3e 92 94 11 be d5 29 3d be
       0.020527774 0.17463885 -0.14216831 -0.18472989
000060 44 cf f5 bd 0b 84 17 bd df 7c 92 bc e1 d1 66 bd
       -0.120024234 -0.03699116 -0.017881809 -0.0563525
000070 a0 0f 1c bd d3 c3 12 3d b4 cb 42 be 58 46 3f 3e
       -0.03810084 0.035831284 -0.19023019 0.18679178
000080 69 7c a8 3c 98 9c 10 be 4f 3c 47 3d 17 02 ca 3d
       0.020567136 -0.14122236 0.0486415 0.0986368
000090 97 ac 28 3e f4 de 20 3c 1b a7 19 3d 61 44 50 3e
       0.16472088 0.009818781 0.03751288 0.20338584
0000a0 59 38 62 bc f0 78 e2 3a 83 1c 23 3e 78 1c e4 bd
       -0.01380738 0.0017278474 0.15928845 -0.111382425
0000b0 de d3 75 bd 36 81 0e 3e bd 1a d1 3d fb cd ad bd
       -0.060016505 0.13916478 0.10210178 -0.08486553
0000c0 4d 68 26 3e 30 e0 13 be 74 81 0a 3e cb 8c 7a 3d
       0.16250725 -0.1444099 0.13525945 0.061169427
0000d0 3f 1c 6f bc 1d c5 dc 3d 66 c8 91 3d 2e 70 b2 bd
       -0.014594137 0.10779784 0.07118301 -0.08712803
0000e0 57 5e 1d bd 45 d8 66 bd 65 03 50 bd b4 f9 3f 3d
       -0.038420048 -0.056358594 -0.050784487 0.046868995
0000f0 66 63 3a be 65 ac 33 3d a1 5c 3c be 67 fe a8 3d
       -0.1820198 0.04386558 -0.1839471 0.082516484
000100 88 c5 4d be 11 a5 42 bd 49 69 40 3d 5d 55 5b 3e
       -0.20094883 -0.0475207 0.046975408 0.21419282
000110 c1 42 41 be 46 a6 8b bd be 93 20 bd 61 9d fc 3d
       -0.18873121 -0.068188235 -0.039203398 0.12334705
000120 73 91 05 3c 7d 75 45 be fa b5 26 3d b0 82 2e bd
       0.008152354 -0.192831 0.04070089 -0.042605102
000130 7a b1 28 3e 01 3d de 3d de 1b d4 3d f9 6e ea bd
       0.16473952 0.10851479 0.10356878 -0.114469476
000140 bb 9a 51 be 33 00 19 be a0 dd 37 3e fd c2 80 bd
       -0.20469181 -0.14941482 0.17955637 -0.06287191
000150 fc 21 3d be 29 eb af 3d 03 43 93 bc cd d3 01 3e
       -0.18469995 0.08589775 -0.01797629 0.12678452
000160 f9 5c f7 3d 46 08 40 3e fc d0 4e 3e 34 b0 35 be
       0.1207828 0.18753156 0.20196909 -0.17742997
000170 54 39 30 be cc b1 46 3e cd f5 53 3d 7a 84 3c be
       -0.17209369 0.19403762 0.051748086 -0.18409911
000180 b5 c9 1d 3e 27 6d 8d bd bf 22 cb 3d ad f0 45 be
       0.15408976 -0.06905585 0.09918737 -0.19330092
000190 ec 9b 98 3d 76 2e e2 bd 09 57 d5 3c 47 8a 90 3c
       0.07451615 -0.11044018 0.026042478 0.01764406
0001a0 7a dc 0f 3e be 85 18 3e 2b 9a 88 3b 35 66 17 3e
       0.14048949 0.14894769 0.004168769 0.14785083
0001b0 55 89 d1 3d 49 98 40 be 9b 97 4f bd 1d 0f 1d be
       0.10231272 -0.18808092 -0.05068169 -0.15337797
0001c0 97 c1 b3 bd 50 11 3e be 15 6d de 3d 7a a9 52 be
       -0.08777159 -0.18561292 0.108606495 -0.20572463
0001d0 30 56 1a be 14 0a 85 bd e9 3c 9a 3b 42 a8 4f 3e
       -0.1507194 -0.06496063 0.004706968 0.20279029
0001e0 e2 71 3c 3e 79 5e 02 3e 96 34 ca bc b0 75 8c 3d
       0.18402818 0.12731351 -0.024683278 0.068583846
0001f0 06 e0 5b be 45 f9 68 bd bf 32 30 bd a3 4b 21 3e
       -0.21472177 -0.056878347 -0.043017145 0.1575151
