results/jugglingRobotV1/JugglingRobotV1/JugglingRobotV1-304132.pt (torch, 449951 bytes, 36 tensors)

network_body._body_endoder.seq_layers.0.weight f4 [128, 9]
0	0xbe7a7e9b	-0.24462359
1	0xbde0b436	-0.109718725
2	0xbf03023a	-0.5117527
3	0xbe1ac979	-0.15115918
4	0x3d00b5d7	0.031423416
5	0xbea3d77d	-0.32000342
6	0xbeac88a7	-0.33698007
7	0x3e88c0c8	0.2670958
8	0xbf25b104	-0.6472323
9	0x3de335a0	0.110942125
10	0xbefd9c19	-0.49533156
11	0x3d5243f2	0.05133433
12	0x3e06b1f6	0.13153824
13	0x3ee7a9c9	0.45246723
14	0x3e367400	0.17817688
15	0xbe90bdf4	-0.28269923
16	0x3d2df681	0.042471413
17	0xbee9a145	-0.4563085
18	0xbebb54a1	-0.36588004
19	0x3ee4d920	0.44696903
20	0xbd2fb5fb	-0.04289816
21	0xbed53051	-0.41638425
22	0xbeaf9d64	-0.34299767
23	0x3ea0d9cb	0.31416163
24	0xbe8527d8	-0.2600696
25	0xbea7fdb4	-0.32810748
26	0x3f15eac7	0.58561367
27	0xbf086ec9	-0.53294045
28	0xbf56e147	-0.83937496
29	0x3e83c567	0.25736544
30	0xbedc957b	-0.43082795
31	0xbf11c5df	-0.5694255
32	0xbe1697c4	-0.14706331
33	0xbd8a19bc	-0.0674319
34	0xbed7c583	-0.42142877
35	0xbdd8ae13	-0.10580077
36	0x3da19795	0.0789024
37	0xbe53dbcf	-0.20689319
38	0xbdef77a5	-0.11692742
39	0x3f163887	0.58680004
40	0x3f31c2e2	0.6943799
41	0x3ec2da1d	0.38057032
42	0xbc44d270	-0.012013063
43	0x3d6d4e6e	0.057936125
44	0x3ea812c6	0.32826823
45	0xbe661294	-0.22468024
46	0xbea2c238	-0.31788802
47	0xbea5ca03	-0.32380685
48	0xbf09c690	-0.5381861
49	0xbd68242a	-0.056675114
50	0x3f08a017	0.5336928
51	0x3e7b20df	0.24524258
52	0xbd3085aa	-0.043096222
53	0xbedb0450	-0.42776728
54	0x3dd102de	0.10205625
55	0xba82c065	-0.0009975551
56	0x3e8e31fc	0.2777251
57	0x3ec5425c	0.3852719
58	0x3d9e5398	0.07730788
59	0xbefb8812	-0.4912725
60	0xbe9330ef	-0.2874827
61	0xbf3ce58c	-0.7378776
62	0xbdef1345	-0.11673597
63	0xbe821c5e	-0.25412267
64	0x3eafd147	0.34339353
65	0x3ea150ea	0.31507045
66	0xbd5e2aa4	-0.054239884
67	0xbe69edd2	-0.22844627
68	0xbde89c81	-0.11357976
69	0x3ef9bac5	0.48775306
70	0x3e3ee8a2	0.1864343
71	0x3ef8b7e9	0.48577812
72	0x3e8be37f	0.27322003
73	0x3f150e28	0.58224726
74	0x3e1cbab0	0.1530559
75	0x3d47da36	0.048792087
76	0x3f5209a3	0.82045954
77	0xbf53c8f6	-0.8272852
78	0xbdae612b	-0.08514627
79	0xbe6786c7	-0.22610007
80	0x3e163db5	0.14671977
81	0xbea94e22	-0.33067423
82	0x3c8149b6	0.015782218
83	0x3c8dca6c	0.017308436
84	0x3f18f265	0.59744865
85	0xbe0f5834	-0.1399849
86	0xbe111e8b	-0.14171807
87	0x3f0bec34	0.5465729
88	0xbc444c47	-0.011981077
89	0x3ec6ab92	0.38802773
90	0x3cd3c70a	0.025851745
91	0x3f07ed65	0.5309661
92	0x3ddd92eb	0.10819038
93	0xbf023df0	-0.5087576
94	0x3dbb703a	0.09152265
95	0xbf2200ea	-0.63282645
96	0xbccb6fef	-0.024833648
97	0x3e91bbe2	0.28463656
98	0xbe7bf3ee	-0.2460477
99	0x3f1624a7	0.5864968
100	0xbe183339	-0.1486329
101	0xbd0e3629	-0.03471962
102	0x3e979b9d	0.2961091
103	0x3c56e7c6	0.0131167825
104	0xbe7bdb29	-0.24595322
105	0xbea39848	-0.3195212
106	0xbeb22563	-0.3479415
107	0x3e1087be	0.14114282
108	0xbe43381a	-0.1906437
109	0x3e25f75f	0.16207646
110	0x3f50bc21	0.8153706
111	0xbeb45877	-0.35223743
112	0x3e7a8a8b	0.24466912
113	0x3e456bbe	0.19279382
114	0xbf07dbb1	-0.530696
115	0x3e842ab6	0.25813836
116	0xbe2dac01	-0.16960146
117	0x3ea2cd7a	0.3179739
118	0xbec9be69	-0.39403084
119	0xbeb3ad55	-0.3509318
120	0xbf2cb0bd	-0.6745718
121	0xbecd9fe2	-0.40161043
122	0x3e8c8bcb	0.27450404
123	0xbde10fa5	-0.10989312
124	0xbea86337	-0.32888195
125	0x3dea0df3	0.11428442
126	0x3e399d29	0.18126358
127	0x3d0e3cf5	0.034726102
128	0xbd0aa7a8	-0.033851296
129	0x3d964a0f	0.07338344
130	0xbd62cf7c	-0.055373654
131	0x3e005f6a	0.12536398
132	0xbf72502b	-0.94653577
133	0x3de90913	0.11378684
134	0xbe4e7b7f	-0.20164298
135	0xbda9d833	-0.0829319
136	0x3d50ca81	0.050974373
137	0xbec0cba5	-0.37655368
138	0xbe48bf6d	-0.19604273
139	0x3f2c98e1	0.67420775
140	0xbe7a2fa9	-0.24432243
141	0xbe9568b2	-0.2918144
142	0xbc5f0189	-0.013611206
143	0x3ebf5378	0.3736837
144	0xbe8a9db6	-0.2707345
145	0x3e437c89	0.19090475
146	0x3e188822	0.1489568
147	0xbe647828	-0.22311461
148	0xbf17a54e	-0.5923661
149	0x3f1c0357	0.60942596
150	0xbea7a599	-0.32743528
151	0x3cce63b5	0.025194028
152	0xbd245428	-0.04011932
153	0x3d79c023	0.06097425
154	0x3ebc0a8b	0.36726794
155	0xbd8128e5	-0.06306628
156	0xbe51aa21	-0.20475055
157	0xbe0cef9b	-0.13763277
158	0xbe438a12	-0.19095638
159	0xbf2fbf7e	-0.6865157
160	0x3eb33d5a	0.35007745
161	0xbda2cabf	-0.07948827
162	0x3e498704	0.1968041
163	0x3e94db8c	0.2907375
164	0xbd64f01d	-0.055893052
165	0xbccfef45	-0.025382647
166	0x3ef0918d	0.46986046
167	0x3e055c2c	0.13023442
168	0xbe832576	-0.25614518
169	0xbe57d8b0	-0.21078753
170	0x3eef9651	0.4679437
171	0x3e0336cc	0.12813872
172	0x3e83d7b7	0.25750515
173	0xbeb017dc	-0.34393203
174	0xbed06a4e	-0.40706104
175	0x3e3ef8b9	0.18649568
176	0x3f0dc1ab	0.5537364
177	0xbe6dc2fa	-0.23218909
178	0x3df61a2b	0.1201671
179	0xbcd9b8c8	-0.026577368
180	0x3e408b1d	0.18803068
181	0x3eb76a40	0.3582325
182	0x3db6f409	0.08933265
183	0xbeffa1d2	-0.49928147
184	0x3dcd8c2b	0.100365005
185	0x3f1e39f7	0.618072
186	0xbf1be5c4	-0.6089747
187	0xbe1cd57f	-0.15315817
188	0xbf0b4152	-0.54396546
189	0xbd607cec	-0.054806635
190	0xbd510785	-0.05103256
191	0xbe44a9e3	-0.19205432
192	0xbe9732eb	-0.29531035
193	0x3e1c53c6	0.15266332
194	0x3f44e39b	0.769098
195	0xbe1ebd4e	-0.15501902
196	0xbea5ad86	-0.3235895
197	0x3eb048d3	0.3443056
198	0x3db79a36	0.0896496
199	0x3ecdff84	0.40234005
200	0xbce095f8	-0.02741526
201	0x3e3e0e85	0.18560226
202	0x3e358ec6	0.17730245
203	0xbe14b1e0	-0.14520979
204	0x3e24cbb9	0.16093339
205	0xbecc18e1	-0.3986273
206	0xbf1ad4e2	-0.60481083
207	0xbea4224a	-0.3205741
208	0x3da3d682	0.079998985
209	0x3e3b52b8	0.18293273
210	0x3e1a1e26	0.15050563
211	0xbecd706f	-0.40124843
212	0xbe99d283	-0.3004342
213	0xbec67f15	-0.3876883
214	0x3e98ba68	0.29829717
215	0xbd85385c	-0.0650489
216	0x3e3c0b36	0.18363652
217	0xbdb698d4	-0.089158684
218	0xbe8411bf	-0.2579479
219	0x3e092cbc	0.13395971
220	0x3e3ba448	0.18324387
221	0x3e8b0b1d	0.27156916
222	0x3e8d8a4a	0.2764457
223	0x3d3886f2	0.04505057
224	0xbe4b203e	-0.19836518
225	0xbe760ea6	-0.24029025
226	0x3d0689e1	0.032846335
227	0x3f4ef947	0.8084912
228	0xbe848cf7	-0.25888798
229	0x3f0435c9	0.5164457
230	0x3e9cfbdd	0.30660906
231	0xbe3c20d2	-0.18371895
232	0x3efe0774	0.4961506
233	0xbe0589c0	-0.13040829
234	0xbe72bc66	-0.23704681
235	0x3daed493	0.08536639
236	0x3f3704e1	0.7149182
237	0x3e9a2c6e	0.30112022
238	0x3ed3a999	0.4134033
239	0xbe10bc43	-0.14134316
240	0x3e4c918b	0.19977395
241	0xbe3022ed	-0.17200823
242	0x3e7499d0	0.238868
243	0x3c61fff6	0.013793936
244	0x3dccf773	0.10008135
245	0xbe1ae7f6	-0.15127549
246	0xbde27bb3	-0.1105875
247	0x3dc4db37	0.096121244
248	0xbe335dcb	-0.17516248
249	0xbe4b1ef0	-0.1983602
250	0xbe123ce7	-0.14281045
251	0x3f018a33	0.506015
252	0xbe9ce503	-0.30643472
253	0xbe6eb8bc	-0.23312658
254	0xbda82066	-0.082093045
255	0x3dbf7eef	0.093503825

network_body._body_endoder.seq_layers.0.bias f4 [128]
0	0x3bce6bab	0.006299456
1	0xbc42b464	-0.011883829
2	0x3c327490	0.0108920485
3	0xbbce09ee	-0.006287805
4	0xbc337b40	-0.010954678
5	0x3b8faae4	0.0043843854
6	0x3a6aa3b0	0.0008950783
7	0xbb7a9632	-0.0038236496
8	0x3b0ab9a0	0.002116777
9	0xbae844a4	-0.0017720652
10	0x3c9e7cf9	0.019346701
11	0x3b8f5228	0.0043738075
12	0x3c862908	0.016376987
13	0x3ba377f0	0.004988663
14	0x3c3b0546	0.0114148315
15	0x3d17a264	0.037020102
16	0xbbf64a2c	-0.007516166
17	0x3c28d563	0.010304782
18	0x3c08bc84	0.008345727
19	0x3cdc7875	0.026912907
20	0xbc2c4494	-0.010514397
21	0xbc8bcbd5	-0.017064968
22	0xbbf3547b	-0.0074258423
23	0x3ae4e2c4	0.0017462601
24	0x3d0326e8	0.032019526
25	0x3a0fe884	0.00054896646
26	0x3c45ca5e	0.012072174
27	0xbc02a6b3	-0.0079743145
28	0x3c6fbfa8	0.014633097
29	0xbbce81e3	-0.006302105
30	0x3c8b57d8	0.01700966
31	0x3be0d512	0.0068613375
32	0x3cebdd3a	0.028792012
33	0xbb72d06b	-0.0037050496
34	0xbb410489	-0.0029452166
35	0x3c7de3b9	0.015496188
36	0x3b951a27	0.0045502367
37	0x3c09b339	0.008404546
38	0x3a8666c3	0.0010254014
39	0x3c30513b	0.010761554
40	0x3c2ae127	0.010429657
41	0x3b9d6cd7	0.0048042345
42	0xbae7848f	-0.0017663407
43	0x3c5ca924	0.013468061
44	0xbc2df1d1	-0.010616736
45	0x3a75695a	0.0009361707
46	0xbc1d8726	-0.009614741
47	0xbbac7675	-0.0052631446
48	0x3c135f3a	0.008994872
49	0xbba74a8f	-0.0051053236
50	0xbb9984fb	-0.004685042
51	0xbca3e17b	-0.020004978
52	0x3bfdf837	0.007750537
53	0xbb1902fa	-0.0023347721
54	0x3c75a64e	0.014993263
55	0x3beb4b28	0.00718059
56	0x3c45e51d	0.012078551
57	0x3c6dc4d5	0.01451226
58	0x3c02d93e	0.007986365
59	0x3c88ac55	0.016683737
60	0x3c90ab2b	0.017659744
61	0xbb5b541c	-0.003346688
62	0x3c87123f	0.016488193
63	0xbbd91c45	-0.0066256844
64	0x3c963652	0.018336449
65	0x3c9f329a	0.019433308
66	0xbc0bbc04	-0.008528713
67	0xbb7960ee	-0.003805216
68	0xbba324b0	-0.0049787387
69	0x3c6fa3c9	0.014626452
70	0x3c105a18	0.0088105425
71	0xbc647313	-0.013943451
72	0xbc50c4ac	-0.012742203
73	0x3c1313b5	0.0089768665
74	0xbc8d8eda	-0.017280031
75	0xbafa1b72	-0.0019081666
76	0x3c3fec45	0.011714046
77	0x3d05fd22	0.03271211
78	0x3c56a81e	0.013101606
79	0x3c97f83d	0.018550986
80	0xbbbf7949	-0.0058433157
81	0xbb3413a1	-0.002747752
82	0x3c8d032a	0.017213423
83	0x3aa46426	0.0012542054
84	0xbccc6ebe	-0.02495515
85	0xbc898618	-0.016787574
86	0xbc16e014	-0.009208698
87	0x3ca682c3	0.020326024
88	0x3c044544	0.008073155
89	0x3b76fa57	0.0037685835
90	0x3a9e5b1b	0.0012081595
91	0x3bfc5a49	0.0077011925
92	0xbc08fa4c	-0.008360457
93	0x3c1c4b92	0.009539502
94	0x3c12b8fb	0.008955236
95	0xbbfa35f1	-0.007635825
96	0x3ce3a2a3	0.027787512
97	0x3bfd3b42	0.0077280113
98	0xbc11c1a9	-0.00889627
99	0x3c0bcc58	0.008532606
100	0xbafac5fc	-0.001913249
101	0x3c8d14f5	0.017221907
102	0xba9f5d88	-0.0012158612
103	0x3cbca54b	0.023028037
104	0x3abcc51a	0.0014402003
105	0xbc357e8e	-0.011077536
106	0x3bf077b7	0.00733849
107	0x3acf7089	0.0015826385
108	0x3c87c49e	0.016573247
109	0x3c21418a	0.009842286
110	0xbbc07cc0	-0.0058742464
111	0x3c8318c3	0.016003018
112	0xbc215468	-0.009846784
113	0x3be2cd1c	0.0069214236
114	0xbc387493	-0.011258262
115	0xbafdf383	-0.001937494
116	0xbc8d719f	-0.017266093
117	0xbba14c41	-0.0049224203
118	0x3c178cb8	0.009249859
119	0x3c45fe47	0.01208455
120	0xbba8652f	-0.005139015
121	0x3b059e31	0.002038848
122	0x3a9ce6aa	0.0011970599
123	0x3c2cab7d	0.010538933
124	0x3c9b463e	0.018954393
125	0xbb4ddc15	-0.0031411697
126	0xbc78a37d	-0.015175697
127	0x3ca7c806	0.02048112

network_body._body_endoder.seq_layers.2.weight f4 [128, 128]
0	0xbda56061	-0.080750234
1	0xbd44c002	-0.048034675
2	0x3da46cb6	0.080285475
3	0xbda4d446	-0.080483004
4	0xbdf9ef3c	-0.122038335
5	0x3d609c3c	0.054836497
6	0xbce9092d	-0.028446758
7	0x3dc9bae7	0.09850102
8	0x3db4b96b	0.08824428
9	0x3d8bda66	0.068287656
10	0xbc8b37aa	-0.016994316
11	0xbe05dce1	-0.1307254
12	0xbe011d09	-0.12608732
13	0x3d968557	0.07349651
14	0x3c039ef2	0.008033501
15	0x3dfa9641	0.1223569
16	0xbc83eb28	-0.016103342
17	0x3d9a1112	0.07522787
18	0x3d3754c4	0.044758573
19	0xbd13b692	-0.036062784
20	0x3d6512f8	0.055926293
21	0x3d2204a2	0.0395552
22	0xbbb884d9	-0.005631071
23	0x3c3136b5	0.010816266
24	0x3dd015d2	0.10160412
25	0x3d87317b	0.066012345
26	0xbe03d57d	-0.12874408
27	0x3d84f64d	0.06492291
28	0xbd9aa84b	-0.075516306
29	0xbdbd1cb6	-0.09233992
30	0xbd67bbca	-0.056575574
31	0xbe85edd3	-0.26158008
32	0xbdd0063a	-0.101574376
33	0xbd321cf7	-0.043484654
34	0x3d8d28e9	0.068925686
35	0x3cef0319	0.029176282
36	0xbcda019e	-0.0266121
37	0x3b7d0c90	0.0038612224
38	0x3d8805cf	0.06641733
39	0x3d14f1c6	0.036363386
40	0xbce8ed68	-0.028433517
41	0x3c63a3db	0.013894047
42	0xbdbd7d1e	-0.0925238
43	0x3c8fb1b2	0.017540786
44	0x3d29c418	0.041446775
45	0xbced0f71	-0.028938027
46	0x3d83a2e4	0.06427553
47	0x3d9515a0	0.07279515
48	0x3d8ac36f	0.06775557
49	0xbd1eaff1	-0.03874201
50	0xbd941a4d	-0.07231579
51	0x3ae03b03	0.0017107431
52	0x3d99c550	0.075083375
53	0xbd9601ba	-0.07324548
54	0x3e048bcb	0.12943952
55	0xbcc1a655	-0.023638884
56	0x3dcdbf02	0.100461975
57	0x3cebaf09	0.028769987
58	0x3d088b97	0.03333625
59	0xbe1003b3	-0.14063911
60	0x3dc53f2a	0.09631188
61	0xbd72cbbb	-0.059276324
62	0xbded5a00	-0.11589432
63	0x3d839c15	0.06426255
64	0xbddee4a4	-0.108834535
65	0x3e087f1e	0.13329741
66	0x3dc9fd2c	0.09862742
67	0xbd74f042	-0.05979944
68	0xbd65efd1	-0.05613691
69	0xbd7838fd	-0.060601223
70	0x3ba6ff08	0.00509632
71	0xbd3e1754	-0.046408966
72	0xbd1900e4	-0.037354365
73	0xbe1419e9	-0.14463009
74	0x3dcbf3e8	0.09958631
75	0x3db3cf57	0.08779781
76	0x3e051602	0.12996677
77	0x3d7a9932	0.061181255
78	0xbd84135d	-0.06449006
79	0xbd45ae93	-0.04826219
80	0x3dc8a481	0.09797002
81	0x3c80028e	0.015626218
82	0xbd380407	-0.044925716
83	0xbe268a77	-0.16263758
84	0xbd630288	-0.055422336
85	0x3ce160e0	0.027512014
86	0x3deaf1bb	0.11471888
87	0xba85f7a9	-0.0010220903
88	0xbe11ec9c	-0.14250416
89	0xbb056603	-0.0020354993
90	0x3db61e0d	0.088924505
91	0xbb1a6cb1	-0.002356332
92	0xbd992987	-0.07478624
93	0xbe06e804	-0.13174444
94	0xbca3cfdc	-0.019996576
95	0x3d1e02b6	0.038576804
96	0xbe24b146	-0.1608325
97	0xbc95d072	-0.018287871
98	0xbc8db44d	-0.017297888
99	0xbe589a09	-0.2115251
100	0x3db40fc5	0.0879207
101	0xbce66420	-0.028123915
102	0x3de633ab	0.11240324
103	0xbc9345bb	-0.017977586
104	0x3d722ed1	0.05912668
105	0xbd8bc467	-0.0682457
106	0xbdaaf10e	-0.08346759
107	0x3d1d4a5f	0.038401004
108	0xbdc6ab17	-0.097006015
109	0xbc8fc3d2	-0.01754943
110	0x3d1d44ec	0.038395807
111	0x3de32be4	0.11092356
112	0xbc95d5a1	-0.018290343
113	0x3da82bb3	0.0821146
114	0x3d8f506b	0.069977604
115	0x3d530dba	0.051526763
116	0xbd1061c1	-0.035249475
117	0x3d84325a	0.06454916
118	0x3d91a662	0.07111813
119	0xbcac1271	-0.021004887
120	0xbd539330	-0.05165404
121	0xbc1c164a	-0.0095267985
122	0xbe23a137	-0.15979467
123	0x3de276b4	0.11057797
124	0x3c949ccc	0.018141173
125	0x3d9fc897	0.07801931
126	0x3e06f13f	0.13177966
127	0xbda2e696	-0.07954137
128	0xbdf98353	-0.12183251
129	0x3db0f463	0.08640363
130	0x3ba994c4	0.005175205
131	0xbca9473e	-0.020663854
132	0x3dcbd5b6	0.099528715
133	0xbd92b890	-0.07164109
134	0x3d8afa81	0.06786061
135	0xbceae878	-0.028675303
136	0xbdb4f3d9	-0.08835573
137	0x3dee1fa8	0.11627132
138	0x3dddde5a	0.10833426
139	0x3d6e2dc6	0.05814912
140	0x3c783ad4	0.0151507445
141	0xbe07ef76	-0.13274941
142	0xbb8123db	-0.003941042
143	0xbd454fee	-0.04817193
144	0x3ce25de3	0.02763266
145	0x3dee5f5c	0.11639282
146	0x3d96f598	0.07371062
147	0x3d388647	0.04504993
148	0xbd19fd9b	-0.037595373
149	0xbaab535b	-0.0013071107
150	0x3d93d8a1	0.07219053
151	0xbe7a551f	-0.24446534
152	0xbdb15f46	-0.0866075
153	0x3b90a529	0.00441422
154	0xbcdb5b9f	-0.026777087
155	0x3d5c0985	0.053720016
156	0xbdf7cd63	-0.12099721
157	0xbdc25fd4	-0.09490934
158	0xbd8b4fb3	-0.06802311
159	0xbdd56ffc	-0.1042175
160	0x3c860374	0.016359068
161	0xbe01c539	-0.1267289
162	0x3d6b7f54	0.057494476
163	0xbde57529	-0.11203987
164	0x3deb8494	0.11499897
165	0x3e6b0f8e	0.22955152
166	0x3e296d3d	0.16545577
167	0x3d8f03dc	0.06983158
168	0xbd0e4f6e	-0.03474372
169	0xbd7e4616	-0.062078558
170	0x3d2ef842	0.042717226
171	0x3e0853d5	0.1331323
172	0xbda3b690	-0.079938054
173	0x3d3a94b3	0.045551967
174	0xbd3aab03	-0.045573246
175	0x3dbb086c	0.09132466
176	0xbd41d714	-0.047324255
177	0xbd9adbb1	-0.07561434
178	0x3cfab307	0.030602945
179	0xbcf489b8	-0.029850826
180	0x3dddd525	0.1083167
181	0x3e2e16db	0.17000906
182	0xbd0a4dbe	-0.033765547
183	0xbdee6ea7	-0.11642199
184	0xbd231b45	-0.039820928
185	0xbc334340	-0.010941327
186	0x3de34537	0.11097186
187	0xbe6d4508	-0.23170865
188	0x3b58d1bc	0.0033083996
189	0xbd82fd5e	-0.06395982
190	0xbcab0a5f	-0.020878969
191	0x3cfd26fb	0.030902376
192	0xbdfe9286	-0.12430291
193	0xbd143bee	-0.036189966
194	0xbdcc7263	-0.09982755
195	0x3d526250	0.05136329
196	0x3e052698	0.13003004
197	0x3df01537	0.117227964
198	0x3c98d83c	0.018657796
199	0xbe264387	-0.16236697
200	0xbcc96758	-0.024585411
201	0xbd995ed9	-0.07488794
202	0xbcb4d731	-0.022075268
203	0xbd50f209	-0.051012073
204	0x3dcdad70	0.10042846
205	0x3ce5f90e	0.02807286
206	0xbd3e244d	-0.046421338
207	0x3d16a3bb	0.03677724
208	0xbdf910d1	-0.121614106
209	0x3e5137a1	0.20431377
210	0x3d164853	0.036690067
211	0x3d7eee73	0.06223912
212	0x3ce1e010	0.027572662
213	0xbceff4ec	-0.029291593
214	0xb9b19db9	-0.00033877583
215	0x3d1ec7d2	0.038764782
216	0x3dc5d175	0.096590914
217	0xbd879420	-0.066200495
218	0xbdbcc56f	-0.09217345
219	0xbce9c251	-0.02853504
220	0xbdaca27f	-0.08429431
221	0x3cd7959a	0.026316453
222	0xbca580a0	-0.020202935
223	0x3c165958	0.009176575
224	0xbd406700	-0.04697323
225	0x3d8687b1	0.0656885
226	0xbd4de9ed	-0.050271917
227	0xbcd875fa	-0.026423443
228	0xbdf8cfe2	-0.121490255
229	0xbc777667	-0.015103913
230	0xbe674a34	-0.225869
231	0x3c8da505	0.017290602
232	0x3dda6b36	0.1066498
233	0x3c9442e5	0.018098304
234	0x3d5eb59f	0.054372426
235	0xbdd99114	-0.106233746
236	0x3d349c2b	0.044094246
237	0x3d4fd3e5	0.050739188
238	0xbe08e975	-0.13370307
239	0x3daea9ea	0.08528502
240	0x3d4dee9a	0.050276376
241	0x3dca2197	0.09869688
242	0x3df320f7	0.11871522
243	0xbd88715d	-0.06662247
244	0x3daa9d09	0.08330733
245	0x3e321834	0.17392045
246	0x3d491aee	0.049097948
247	0x3df6c698	0.120495975
248	0xbdae1e8b	-0.08501919
249	0x3da2e54f	0.079538934
250	0x3d2d3223	0.042284142
251	0xbc4103a4	-0.011780653
252	0xbe3ea1b9	-0.1861638
253	0x3dabfc2f	0.083977096
254	0x3d347119	0.04405317
255	0xbddbe8ad	-0.10737739

network_body._body_endoder.seq_layers.2.bias f4 [128]
0	0xbbb79e69	-0.0056036008
1	0xbb1b82c2	-0.002372906
2	0x3bba43cd	0.005684352
3	0x3b80f67d	0.0039356337
4	0xbc626c9d	-0.013819841
5	0xbc325d13	-0.010886448
6	0xbca12cdb	-0.019674709
7	0xbca152a0	-0.019692719
8	0xbb98f767	-0.0046681645
9	0xb9b2a3a3	-0.00034072725
10	0xbb5f6580	-0.0034087598
11	0x3bd340e4	0.0064469445
12	0x3cc534df	0.024073062
13	0x3b3d60ec	0.0028896881
14	0x3c1634f0	0.009167895
15	0x3c5b03fd	0.01336765
16	0xbc8fc3b1	-0.017549368
17	0x3c42418e	0.01185645
18	0xbc2011bf	-0.009769856
19	0x3cab032c	0.020875536
20	0xbb956fbe	-0.00456044
21	0xbaef2502	-0.0018245282
22	0x3ba5b5fa	0.0050570937
23	0x3c544419	0.012955689
24	0x3b43f1e3	0.0029898814
25	0xbc851fab	-0.016250452
26	0xbc47ca42	-0.012194218
27	0x3d0f7322	0.03502191
28	0x3c396d9c	0.011317637
29	0x3c4e7ae7	0.012602544
30	0xbae65d11	-0.0017575343
31	0xbc6a730c	-0.014309656
32	0x3c951341	0.018197658
33	0x3916f18a	0.00014395095
34	0x3c1d1702	0.009588005
35	0x3cc63f2d	0.024200046
36	0x393485ea	0.00017216025
37	0x3a27538f	0.00063829956
38	0x3b864065	0.004097032
39	0x386a2a11	5.5829125e-05
40	0x3c96accb	0.018392941
41	0xba0dac98	-0.00054044416
42	0xbaa52845	-0.0012600502
43	0x3c73b432	0.014874505
44	0xbb26b1b6	-0.0025435514
45	0xbb1cefc2	-0.0023946618
46	0xbc6a3826	-0.014295613
47	0xbaf43596	-0.0018631693
48	0x3be753da	0.0070595564
49	0x3b48d76d	0.0030645982
50	0xbbf4f4b2	-0.007475459
51	0x3d53e97b	0.051736336
52	0xbbee082d	-0.007264158
53	0x3bc506c4	0.0060127694
54	0xbc897320	-0.016778529
55	0x3afe5424	0.0019403738
56	0xba74f838	-0.0009344849
57	0xbbdf8efb	-0.0068224645
58	0xbc0c6388	-0.008568652
59	0xbc91e76a	-0.017810542
60	0xbc9b97da	-0.018993307
61	0x3ab504ef	0.0013810674
62	0x3caf5621	0.021403374
63	0x3ba5feb3	0.005065763
64	0x3b0afc97	0.0021207684
65	0x3c8f456b	0.017489156
66	0xbb15b47d	-0.0022843175
67	0xbca0ebc9	-0.019643681
68	0x3c0fe754	0.00878318
69	0x3bd2743b	0.006422547
70	0xba196195	-0.00058510277
71	0x3b994297	0.0046771276
72	0xbbb7f7de	-0.005614265
73	0x3a1c1490	0.0005953992
74	0x3c580df0	0.013186917
75	0xbc056d2e	-0.008143706
76	0x39c88cb7	0.00038251813
77	0xbc8a773a	-0.016902555
78	0x3b3f1d5a	0.0029161782
79	0x3cc71ecf	0.024306683
80	0x3c4fe812	0.012689607
81	0xbc5eccca	-0.01359863
82	0x3ae923db	0.0017787175
83	0x3cb808aa	0.022465069
84	0xbbdb1e41	-0.006686956
85	0x3c9b9293	0.01899079
86	0xbc122302	-0.008919479
87	0x3ca46749	0.020068781
88	0xbb9c03c3	-0.0047611906
89	0xbb93f25c	-0.0045149755
90	0x3c52e83f	0.012872755
91	0xba447c2b	-0.0007495309
92	0x3b50adc3	0.0031841851
93	0xbc8e38f5	-0.017361144
94	0xbc8c29a3	-0.017109698
95	0xbb3db87e	-0.0028949077
96	0xbb462eca	-0.003024029
97	0xbb8ad2ca	-0.004236554
98	0x3b47db3b	0.0030495662
99	0xbab7b7e7	-0.0014016599
100	0xbb16d842	-0.0023017083
101	0xbc8b7686	-0.01702429
102	0x3b355f62	0.002767526
103	0x3b3cfe6d	0.0028838173
104	0xbc217132	-0.009853648
105	0x3bcb9de2	0.0062138895
106	0x3a610d7d	0.0008585079
107	0x3b851cf8	0.0040622912
108	0xbc31f7fd	-0.010862348
109	0xbc3f1452	-0.01166256
110	0xbbd37a8c	-0.0064538177
111	0xbbba7287	-0.0056899223
112	0xbb396f6a	-0.0028295168
113	0xbb4a742e	-0.0030892002
114	0x3ccb9bc1	0.024854543
115	0xbc9891d9	-0.018624233
116	0xbbcb9523	-0.006212847
117	0xbbd1d094	-0.0064030383
118	0x3cac9bfa	0.02107047
119	0x3af62756	0.0018780034
120	0xbb9807eb	-0.004639616
121	0x3c8c7e4e	0.01715007
122	0x3d03284f	0.032020863
123	0xbb928a95	-0.0044720867
124	0xbc52ea74	-0.012873281
125	0xbc3b6b81	-0.011439205
126	0xbb873e8a	-0.0041273283
127	0x3b4ca8b1	0.0031228478

action_model._continuous_distribution.log_sigma f4 [1, 3]
0	0xbcb7d5dc	-0.022440843
1	0xbd4e8d16	-0.05042752
2	0xbb7b43f9	-0.0038340075

action_model._continuous_distribution.mu.weight f4 [3, 128]
0	0xbb80eff1	-0.0039348532
1	0xbb0f2aeb	-0.002184565
2	0x3beb3b0a	0.007178669
3	0x3d174a7c	0.03693627
4	0x3b22f15f	0.0024863107
5	0xbcc4848b	-0.023988983
6	0x3b27b712	0.0025591296
7	0x3a051974	0.000507734
8	0x3c241a39	0.010016018
9	0x3c911660	0.017710865
10	0x3c0d757b	0.008633967
11	0xbc01e5dd	-0.007928339
12	0x3d34861f	0.04407322
13	0x3c7a80c7	0.015289492
14	0xbbb497fb	-0.0055112815
15	0x3c068273	0.008209812
16	0x3ca0f031	0.019645782
17	0x3ce7fff2	0.028320286
18	0x3be4a7f8	0.0069780312
19	0xbcb36342	-0.021897916
20	0x3cfedb5d	0.03111046
21	0xb90ed2ca	-0.000136207
22	0x3978b792	0.00023719508
23	0xbcc98647	-0.024600161
24	0x3d214383	0.039371025
25	0x3c5be3dd	0.013421026
26	0x3b03497b	0.0020032811
27	0x3cc3e631	0.023913475
28	0xbbd6d92e	-0.0065566516
29	0x3c08e7ab	0.008356015
30	0xbc980b44	-0.01856006
31	0x3c13372f	0.008985325
32	0x3c891f08	0.01673843
33	0x3cd4b6f2	0.025966141
34	0xbcf34e42	-0.029700402
35	0x3c88c57e	0.016695734
36	0xbd39e5aa	-0.04538504
37	0xbc193900	-0.009351969
38	0x3bc7bad0	0.006095268
39	0xbc992433	-0.018694019
40	0xbc5e806b	-0.013580422
41	0xbc76f356	-0.015072664
42	0x3c934311	0.017976316
43	0x3bd77879	0.0065756408
44	0x3cc9cc99	0.024633693
45	0xbc11882f	-0.008882566
46	0xbc92a67d	-0.017901653
47	0xbc51ff55	-0.012817224
48	0x3a7fa0ae	0.0009751421
49	0xbae83c09	-0.0017718087
50	0x3b40cee7	0.0029420198
51	0x3c8ef17b	0.017449131
52	0x3ca2ebe1	0.019887866
53	0xbcc4dda4	-0.024031468
54	0x3b7412b7	0.00372426
55	0x3b98a6fa	0.004658577
56	0x3d210644	0.039312616
57	0xbc863498	-0.0163825
58	0x3cc71eb1	0.024306627
59	0x3c9ff9f7	0.019528372
60	0xbb7c28d9	-0.0038476496
61	0x3d19d779	0.037559006
62	0xbc5a28b8	-0.013315372
63	0xbc45f629	-0.012082615
64	0x3d2b0b08	0.041758567
65	0xbd2368ed	-0.039894987
66	0xbc6de3af	-0.014519616
67	0x3c9954e9	0.018717246
68	0x3d162208	0.03665355
69	0x3b3ebc4b	0.002910393
70	0x3c060695	0.00818028
71	0xbceee437	-0.029161556
72	0x3b5bde93	0.0033549413
73	0x3b381cd0	0.0028093345
74	0x3c46c664	0.012132261
75	0x3ce22e50	0.027609974
76	0x3d339c56	0.043850265
77	0x3ae6252f	0.0017558689
78	0xbd2540ea	-0.04034511
79	0xbcf0c2f9	-0.029389845
80	0xbc88b1f8	-0.016686425
81	0x3c83519d	0.016030127
82	0xbc0aa576	-0.0084623005
83	0x3adef5e7	0.001701054
84	0x3cce607e	0.025192495
85	0xbb076e89	-0.002066525
86	0x3cb95ccc	0.022627257
87	0xbc143f9e	-0.009048371
88	0x3c8aae06	0.016928684
89	0xbca41310	-0.020028621
90	0x3d4a6174	0.049409345
91	0x3d31f376	0.043445073
92	0x3c14df42	0.009086432
93	0xbc5e1714	-0.013555307
94	0x3cad9776	0.021190386
95	0xbd06eeb4	-0.03294249
96	0x3c0d6a62	0.008631321
97	0x3ad42a6a	0.0016186957
98	0x3c0a4bac	0.008440893
99	0xbc89937f	-0.016793964
100	0xbc2ee2b1	-0.010674165
101	0x3c134586	0.008988744
102	0xbb3cd4b0	-0.0028813295
103	0x3b0f0ec0	0.002182886
104	0x3c83d2c0	0.016091704
105	0xbcbd7891	-0.02312878
106	0x3befed79	0.00732201
107	0x3ce171a2	0.027520005
108	0x3c3d8d46	0.011569327
109	0xbc15d4ca	-0.009144971
110	0x3cdfd012	0.027320895
111	0xba203f80	-0.0006112978
112	0x3cca9e89	0.024733799
113	0xbbf2f459	-0.0074143824
114	0x3d120886	0.03565266
115	0xba034346	-0.0005007278
116	0x3cb15c14	0.021650352
117	0xbb82fab8	-0.003997173
118	0xbbb93f63	-0.0056533082
119	0xbd088141	-0.03332639
120	0x3ca2bbf4	0.019865014
121	0xbbf8c226	-0.0075915037
122	0xbd0eb6d6	-0.034842335
123	0xbbfad835	-0.0076551684
124	0xbcc0066a	-0.023440558
125	0x3d059b19	0.032618616
126	0x3d075d37	0.03304788
127	0x3cb4793e	0.022030469
128	0xbd2c4ff1	-0.042068426
129	0xbd0d0866	-0.034431837
130	0xbabeed39	-0.0014566547
131	0x3cb897a5	0.022533247
132	0xbd9f75b5	-0.07786123
133	0xbcddb5e6	-0.027064275
134	0xbc319c57	-0.010840497
135	0xbd246c7b	-0.040142518
136	0xbcdc5b15	-0.0268989
137	0x3d143761	0.036185626
138	0xbd823a2c	-0.06358752
139	0xbd3942e9	-0.045229826
140	0xbde43a0c	-0.11143884
141	0x3b1e6cf7	0.0024173835
142	0x3bc03b6f	0.00586646
143	0x3c668b30	0.014071271
144	0xbd46f95f	-0.048577663
145	0x3d016ce6	0.031597994
146	0xbcaaf863	-0.020870393
147	0x3c99c5c6	0.018771064
148	0xbcdce7f3	-0.02696607
149	0xbc6fcc7f	-0.014636158
150	0xbd8645ea	-0.06556304
151	0x3cc2464e	0.023715165
152	0x3cb54f59	0.022132562
153	0xbce55cd7	-0.027998371
154	0x3a2702b5	0.0006370948
155	0xbd678a4e	-0.056528382
156	0xbd3dbc3a	-0.046322085
157	0x3d37a8cb	0.044838708
158	0xbceb21dc	-0.028702669
159	0xbc3b7df7	-0.011443607
160	0xbd83183c	-0.06401107
161	0x3bf1823c	0.0073702615
162	0x3cf47f0f	0.029845743
163	0x3cfdb482	0.030969862
164	0xbc764e85	-0.015033369
165	0x3cf63349	0.030053752
166	0xbd5487fa	-0.05188749
167	0xbc1b7fe9	-0.009490945
168	0x3d12ca73	0.035837602
169	0xbd1ce8d7	-0.03830799
170	0x3bf0ff05	0.0073546194
171	0x3d15f0ee	0.03660672
172	0x39e27642	0.00043194188
173	0xb94f58a9	-0.00019774087
174	0xbc5a9b76	-0.013342729
175	0xbced4385	-0.02896286
176	0x3c554e1c	0.013019111
177	0x3b141b7c	0.002259939
178	0xbd827449	-0.06369836
179	0x3d5a772e	0.053336315
180	0x3bb9c280	0.005668938
181	0x3b3e4431	0.0029032344
182	0xbbe75f37	-0.007060911
183	0xbcba9876	-0.022777777
184	0x3c8c0abf	0.017094968
185	0xbd6134cc	-0.05498199
186	0x3bc1d185	0.0059148693
187	0xbccb56fe	-0.024821755
188	0xbc13653b	-0.008996303
189	0xbd0f8fbd	-0.03504919
190	0x3d0b1e2c	0.03396432
191	0x3b2543ad	0.002521734
192	0xbd9758a9	-0.073899575
193	0x3cddbd80	0.0270679
194	0xbcac340c	-0.021020912
195	0xbc8686b8	-0.01642166
196	0xbe03f1e6	-0.12885246
197	0xbd83a97a	-0.064288095
198	0x3c313505	0.0108158635
199	0x3c67aa72	0.014139758
200	0xbbbc99c8	-0.005755637
201	0x3cfb9cd2	0.030714426
202	0x3ca51b33	0.020154571
203	0xbb5d5791	-0.0033774117
204	0xbcc21b8e	-0.02369478
205	0xbc2284dc	-0.009919371
206	0x3bfb8e9e	0.0076769134
207	0x3cebfdec	0.028807603
208	0x3c584586	0.013200169
209	0xbcf1d4bc	-0.029520385
210	0x3a57b6b5	0.00082288246
211	0x3cc23ff8	0.023712143
212	0xbd147588	-0.0362449
213	0x3cc00b68	0.023442939
214	0x3b9944dc	0.004677398
215	0x3cb13c32	0.021635149
216	0x3b08fedf	0.0020903868
217	0xbc6708a4	-0.014101181
218	0x3c28008e	0.0102540385
219	0x3cbbe97b	0.02293848
220	0xbd7c33b0	-0.06157273
221	0xbcf72b69	-0.030172067
222	0xbda0f9b8	-0.0786013
223	0xbd41a9f4	-0.04728122
224	0x3bc395c9	0.0059687835
225	0x3b0235b6	0.001986844
226	0x3bb0bf05	0.005393865
227	0x3c0b17ad	0.008489531
228	0x3c066a1a	0.0082040075
229	0xbc6a1340	-0.014286816
230	0xbcb84a18	-0.022496268
231	0xbd4b011a	-0.049561597
232	0xbcd187a0	-0.025577366
233	0xbc718f47	-0.014743633
234	0xbcfc2367	-0.0307786
235	0x3c892ca5	0.016744921
236	0xbd54d029	-0.05195633
237	0xbce27fef	-0.027648894
238	0x3c6b5216	0.0143628325
239	0x388124fb	6.1580875e-05
240	0xbbb08109	-0.005386476
241	0xbbf95a72	-0.007609659
242	0xbd1cd979	-0.038293336
243	0xbca10e79	-0.019660221
244	0xbcc47369	-0.023980813
245	0xbca0787e	-0.019588705
246	0x3c739072	0.014865981
247	0xbc6c5da2	-0.014426621
248	0xbc0c9ad3	-0.008581835
249	0x3ca3a6eb	0.019977054
250	0x3d3b4a10	0.04572493
251	0xbc675e3f	-0.014121591
252	0xbd004d86	-0.031323932
253	0xbda0db59	-0.07854337
254	0xb8cbaa6f	-9.71154e-05
255	0x3c54e7bc	0.012994703

action_model._continuous_distribution.mu.bias f4 [3]
0	0xbc04d314	-0.008106966
1	0x3c92c25f	0.017914949
2	0xba064461	-0.00051218836

exp_avg f4 [128, 9]
0	0x37105e53	8.60503e-06
1	0xb8365d79	-4.3479235e-05
2	0x37a14ed6	1.9229406e-05
3	0xb82a0c57	-4.054265e-05
4	0xb6a6a7ea	-4.9667333e-06
5	0xb6e57ade	-6.8390354e-06
6	0xb69216c6	-4.3537902e-06
7	0x36d23514	6.264667e-06
8	0xb68c74f2	-4.1859394e-06
9	0xba863416	-0.0010238911
10	0xb89b0a8c	-7.3929405e-05
11	0x3963c2de	0.00021721
12	0xba822659	-0.0009929641
13	0xb94cc8c2	-0.00019529744
14	0x39ef04d2	0.00045589224
15	0xb635a961	-2.7069693e-06
16	0xb7a76ea3	-1.995947e-05
17	0x386942b4	5.561365e-05
18	0x3a0d8c6d	0.0005399648
19	0xb89c6227	-7.456942e-05
20	0xb9482b5f	-0.00019089643
21	0x39fe5767	0.00048511775
22	0xb79b940c	-1.854638e-05
23	0xb9f0e980	-0.00045950338
24	0x374d91ef	1.225293e-05
25	0x36aa8f84	5.083102e-06
26	0xb84f1b0e	-4.9377843e-05
27	0xb88bed2e	-6.672215e-05
28	0x39b49122	0.00034440408
29	0xb9132f06	-0.0001403653
30	0xb8bd6ac2	-9.0321075e-05
31	0xb9133e90	-0.00014042319
32	0xb934eb15	-0.00017253713
33	0xb68d8b0f	-4.218316e-06
34	0xb7cbb430	-2.4283392e-05
35	0xb8491474	-4.7941183e-05
36	0x3979e2d5	0.00023830992
37	0x37fb0787	2.9925037e-05
38	0x39f102a6	0.00045969075
39	0x3986a820	0.00025683735
40	0x3911d48e	0.0001390746
41	0x3981b077	0.00024736274
42	0xb59b7515	-1.1582475e-06
43	0x3766ce7e	1.3757146e-05
44	0xb83ed43c	-4.549719e-05
45	0xb7900ba1	-1.7171553e-05
46	0x397fa391	0.00024379628
47	0x3a3eee80	0.0007283464
48	0xb8391709	-4.412889e-05
49	0x38203c42	3.8203092e-05
50	0x3a761e67	0.00093886856
51	0xb778ceda	-1.4830113e-05
52	0xb7b9d93a	-2.2154873e-05
53	0x38063d86	3.2005388e-05
54	0x3a68100d	0.00088524894
55	0x39967e73	0.00028704442
56	0x39f24f0d	0.00046216734
57	0x3a4b39a9	0.00077524275
58	0x39b49202	0.0003444106
59	0x3a100a85	0.00054947316
60	0xb7eb1ae2	-2.8026701e-05
61	0x37f0a90e	2.8688952e-05
62	0xb6fe8ca2	-7.5861617e-06
63	0x392d3865	0.00016519574
64	0x38dc956e	0.00010518251
65	0x39eeb1e4	0.00045527436
66	0x395bea0c	0.00020972657
67	0x3731a984	1.0589491e-05
68	0x3a20bced	0.0006131668
69	0xb65de69f	-3.3065805e-06
70	0x37089c3a	8.142606e-06
71	0x380593be	3.1847267e-05
72	0x3aa0053d	0.0012208592
73	0x39164ee1	0.000143345
74	0x39f5fefe	0.00046920025
75	0x3a922e97	0.0011152801
76	0x399bd1fc	0.00029720354
77	0x39a54408	0.0003152194
78	0x376ec0bb	1.4230779e-05
79	0x37ed4559	2.8284894e-05
80	0xb84b6a9f	-4.849827e-05
81	0xb9d5a7ed	-0.0004075164
82	0x38224e87	3.8696944e-05
83	0xb7009bef	-7.665701e-06
84	0xb9d354fd	-0.00040308377
85	0xb7c2da6d	-2.3228315e-05
86	0xb6f46825	-7.2838907e-06
87	0x371ab69b	9.221631e-06
88	0xb6d6e98a	-6.4048845e-06
89	0xb7023500	-7.760944e-06
90	0x38c8766a	9.5587995e-05
91	0xb917af78	-0.0001446585
92	0xb8d4fffd	-0.00010156629
93	0x38b9ee42	8.8658664e-05
94	0xb8fd6637	-0.00012083019
95	0xb6d9642e	-6.4787664e-06
96	0x36b723fe	5.458015e-06
97	0xb7a4809e	-1.9610216e-05
98	0x37419358	1.1538003e-05
99	0xbaa4b5b8	-0.0012566363
100	0xb8666020	-5.4925797e-05
101	0x3a1ee7b6	0.00060617493
102	0xba9c5d9f	-0.0011929757
103	0xb999f618	-0.00029365788
104	0x3a2984d6	0.00064666325
105	0x38117ac3	3.4685025e-05
106	0x376150c8	1.3429853e-05
107	0xb6fefe4f	-7.5993953e-06
108	0xba482c8b	-0.0007636032
109	0x39ad393f	0.00033039783
110	0x3aeae2a1	0.0017920324
111	0xba829799	-0.0009963393
112	0xb8db3045	-0.00010451725
113	0x3b1794ab	0.0023129384
114	0xb8189fe2	-3.6388526e-05
115	0xb849ae57	-4.80845e-05
116	0x38bb8a9e	8.942674e-05
117	0x35b52cf1	1.349863e-06
118	0xb8cf795f	-9.893136e-05
119	0xb6fcb26c	-7.5309563e-06
120	0xb746b718	-1.18443495e-05
121	0xb6b310e0	-5.33658e-06
122	0xb888c146	-6.520985e-05
123	0x34b32b92	3.337305e-07
124	0xb4d18470	-3.9025645e-07
125	0x35f5cdb8	1.8313794e-06
126	0xb6ff860c	-7.6151973e-06
127	0x39a5870c	0.0003157187
128	0x3b31bebc	0.0027121743
129	0xb90ad58a	-0.00013240255
130	0xb88480b9	-6.318227e-05
131	0x3b4073cc	0.0029365895
132	0xb61c9df3	-2.333775e-06
133	0xb785da0a	-1.5956368e-05
134	0x3848e0e8	4.7893176e-05
135	0x392d6d51	0.00016539289
136	0xb9817d06	-0.00024697947
137	0x366deae6	3.545248e-06
138	0x39568c7e	0.00020460968
139	0xb9baa9eb	-0.00035603283
140	0xb5aff401	-1.310953e-06
141	0x37fe5f48	3.0323528e-05
142	0xb825154e	-3.9358907e-05
143	0x3750175a	1.2403203e-05
144	0xba819619	-0.0009886652
145	0xba3cceee	-0.0007202466
146	0xbb461e32	-0.00302304
147	0xba392aa4	-0.0007063544
148	0xb80c2c6c	-3.3419972e-05
149	0xbb554170	-0.0032540224
150	0x3773b156	1.4525218e-05
151	0x37cf156d	2.46863e-05
152	0x35ed9e27	1.7703904e-06
153	0x396bbc65	0.00022481529
154	0x3800bcdb	3.0693463e-05
155	0xb9846eb0	-0.0002525947
156	0x394917c1	0.00019177703
157	0x39719b24	0.00023041345
158	0xb9b87bdf	-0.00035187506
159	0xb5ff54c4	-1.902365e-06
160	0x38120b65	3.4819725e-05
161	0xb80a71ee	-3.300787e-05
162	0xba7aa996	-0.00095620134
163	0x39584b23	0.00020627356
164	0x3abc92d6	0.0014387022
165	0xba8a2797	-0.0010540363
166	0xb9c7c0d4	-0.00038099906
167	0x3ad74e12	0.0016426465
168	0x37031621	7.813361e-06
169	0xb85a426b	-5.2037107e-05
170	0x37d5e09f	2.5496176e-05
171	0x396338c6	0.00021669557
172	0xb8bab369	-8.902589e-05
173	0x3933d45b	0.00017149879
174	0x398d1e8a	0.0002691637
175	0xb86f40a9	-5.704226e-05
176	0x399bc545	0.0002971088
177	0xb7132e70	-8.772695e-06
178	0x35ea19a7	1.7441824e-06
179	0x38553b0c	5.083815e-05
180	0xba099798	-0.00052487245
181	0xb93d7868	-0.000180693
182	0xba1accec	-0.00059051695
183	0xb9f96c0a	-0.00047573476
184	0xb8146caf	-3.538717e-05
185	0xb9cdfab2	-0.0003928743
186	0xb7a4072b	-1.9553661e-05
187	0xb80df48b	-3.3844768e-05
188	0x380ba611	3.3294844e-05
189	0x3a6a86dd	0.0008946488
190	0xb72b851e	-1.0223388e-05
191	0x3a3fe15a	0.0007319652
192	0x3a537991	0.0008067126
193	0x389ba867	7.422343e-05
194	0x3a502ea1	0.00079415186
195	0x3760183a	1.3357081e-05
196	0x37fe87ca	3.0342391e-05
197	0xb5d354b8	-1.5745381e-06
198	0x392e8cdd	0.00016646409
199	0x390d812f	0.00013494933
200	0x38974853	7.2137125e-05
201	0x397777b2	0.00023600346
202	0x390bb6df	0.00013324198
203	0x378c2362	1.6705777e-05
204	0x379f56af	1.8994642e-05
205	0xb74f94bd	-1.2372792e-05
206	0xb43a0019	-1.7322635e-07
207	0x39d7b233	0.00041140764
208	0xb8eb721f	-0.0001122693
209	0x37d76638	2.5677597e-05
210	0x39b22b71	0.00033983172
211	0xb86f0340	-5.6985067e-05
212	0xb7efbc87	-2.857881e-05
213	0x3613ecfa	2.2042645e-06
214	0x36451139	2.9365312e-06
215	0xb6f0d964	-7.177865e-06
216	0xb9c68248	-0.0003786257
217	0xb81677e4	-3.5874444e-05
218	0x3abc9f3a	0.0014390715
219	0xb99df9c7	-0.00030131472
220	0xb98630cd	-0.0002559483
221	0x3ace5dfd	0.0015744563
222	0x37dd69c1	2.6394498e-05
223	0x3727de59	1.0005745e-05
224	0x380f35e7	3.4144057e-05
225	0xb7d6876e	-2.5573852e-05
226	0xb80d91f9	-3.3752967e-05
227	0xba0c09b7	-0.0005342024
228	0xb72f8683	-1.0462131e-05
229	0xb83becac	-4.4804692e-05
230	0xba3b0c8d	-0.0007135354
231	0x37f60632	2.932837e-05
232	0x37f8d4c1	2.9662975e-05
233	0xb81f29d5	-3.7947513e-05
234	0xba33e6ce	-0.00068627007
235	0xb50c2eaf	-5.2222e-07
236	0x39fce34b	0.00048234532
237	0xba434589	-0.0007449021
238	0xb88e1175	-6.774339e-05
239	0x3a53c712	0.0008078675
240	0xb8114e40	-3.464357e-05
241	0x37aefe14	2.086073e-05
242	0x385bd531	5.241222e-05
243	0xb91e8c14	-0.00015120237
244	0x381b3ac5	3.7009613e-05
245	0x38c4c66d	9.382968e-05
246	0xb99f5a5a	-0.0003039416
247	0x39828614	0.00024895428
248	0x37c860ca	2.3886929e-05
249	0xb72837dd	-1.0026587e-05
250	0x3730f502	1.0547463e-05
251	0xb70b4907	-8.302049e-06
252	0x38e6e423	0.000110097484
253	0xb903c100	-0.00012565032
254	0x372330bf	9.726907e-06
255	0x392b6065	0.0001634374

exp_avg_sq f4 [128, 9]
0	0x35400732	7.1536044e-07
1	0x33e7def0	1.0797328e-07
2	0x31e78f8b	6.739304e-09
3	0x354bc646	7.591192e-07
4	0x33af28ab	8.15647e-08
5	0x32699057	1.3595204e-08
6	0x30a77d9c	1.218655e-09
7	0x30ecb529	1.7222749e-09
8	0x30f51a31	1.783354e-09
9	0x36d575a7	6.361591e-06
10	0x35066320	5.0063136e-07
11	0x38128fab	3.4942914e-05
12	0x36c8d7b3	5.985575e-06
13	0x34e3c981	4.2428658e-07
14	0x3817a1ba	3.6151825e-05
15	0x31a5282a	4.806698e-09
16	0x31b8e69f	5.3813234e-09
17	0x31981ca2	4.4270374e-09
18	0x3609abb0	2.0514526e-06
19	0x3558c542	8.075332e-07
20	0x3804acaf	3.1632077e-05
21	0x362795e7	2.4972194e-06
22	0x34ce729c	3.845388e-07
23	0x3809975d	3.2804313e-05
24	0x3151d743	3.0535865e-09
25	0x318b77b3	4.0590407e-09
26	0x31961413	4.3678567e-09
27	0x3711a646	8.681387e-06
28	0x35fe8bdb	1.8965178e-06
29	0x386bc23a	5.6209254e-05
30	0x37353327	1.08003505e-05
31	0x35777f84	9.220023e-07
32	0x38727264	5.780383e-05
33	0x31b408d2	5.2396922e-09
34	0x321bfb4f	9.079328e-09
35	0x3232061e	1.03623545e-08
36	0x36916454	4.3330165e-06
37	0x352655c1	6.196461e-07
38	0x37ff26ff	3.0416528e-05
39	0x36890f88	4.0847262e-06
40	0x34d028f0	3.8772805e-07
41	0x38057527	3.1818778e-05
42	0x31881296	3.960234e-09
43	0x31bfefce	5.5860943e-09
44	0x319f02fc	4.6278483e-09
45	0x365d3fbb	3.2968662e-06
46	0x35f5a4c1	1.8301872e-06
47	0x38438190	4.6612287e-05
48	0x368bc21f	4.1651215e-06
49	0x354a9603	7.546916e-07
50	0x384d2463	4.8909696e-05
51	0x320b788b	8.118273e-09
52	0x32457322	1.1493087e-08
53	0x32349c1e	1.0512876e-08
54	0x370b123b	8.28929e-06
55	0x3483cb7a	2.45487e-07
56	0x36544143	3.162845e-06
57	0x36fc0140	7.5103308e-06
58	0x3487b01e	2.5273852e-07
59	0x3660dd1e	3.3507308e-06
60	0x3156237c	3.116127e-09
61	0x31947727	4.320913e-09
62	0x3137d507	2.6751097e-09
63	0x3616a278	2.244631e-06
64	0x350827ea	5.072203e-07
65	0x372264b6	9.679401e-06
66	0x362dbb97	2.58882e-06
67	0x348917cb	2.553555e-07
68	0x37253549	9.847173e-06
69	0x31080eb7	1.979897e-09
70	0x316409ab	3.3183862e-09
71	0x31459aa2	2.8755172e-09
72	0x37b43e9f	2.1486832e-05
73	0x356fff8d	8.9406313e-07
74	0x36166916	2.241291e-06
75	0x37a94799	2.017971e-05
76	0x3548e711	7.484205e-07
77	0x361f93a4	2.3778784e-06
78	0x32389866	1.0744861e-08
79	0x329bf485	1.815557e-08
80	0x32366aa7	1.0618044e-08
81	0x36d045de	6.2070167e-06
82	0x345c11e4	2.0495605e-07
83	0x365d6afb	3.2993837e-06
84	0x36c5bbe3	5.8929304e-06
85	0x3434f827	1.6854084e-07
86	0x36664444	3.4312407e-06
87	0x31706772	3.4983398e-09
88	0x319bdd99	4.5362865e-09
89	0x31392215	2.6940417e-09
90	0x359b259e	1.1559348e-06
91	0x35121c86	5.4430745e-07
92	0x35edf0b8	1.7727934e-06
93	0x35faf188	1.8696746e-06
94	0x342f636b	1.6334313e-07
95	0x35cf3d6a	1.5440576e-06
96	0x3090cfda	1.0536454e-09
97	0x30dfd28b	1.6285225e-09
98	0x30e2c420	1.6499406e-09
99	0x37a5b242	1.975254e-05
100	0x3551aa59	7.8106456e-07
101	0x372d0bca	1.0314348e-05
102	0x37970830	1.8004415e-05
103	0x3516cd87	5.6178436e-07
104	0x373ad9ff	1.113722e-05
105	0x320d9c01	8.242751e-09
106	0x3251c715	1.2210667e-08
107	0x3217bdfd	8.832555e-09
108	0x371e1605	9.422661e-06
109	0x35d42c9e	1.5808216e-06
110	0x38822f07	6.2076426e-05
111	0x3716011e	8.940957e-06
112	0x355630ec	7.9792403e-07
113	0x38897e08	6.556144e-05
114	0x3200329f	7.4620905e-09
115	0x32595dce	1.2652391e-08
116	0x323e9c50	1.1094997e-08
117	0x35c56e74	1.470979e-06
118	0x342144e2	1.5019353e-07
119	0x3523d29a	6.10287e-07
120	0x35dfe71b	1.6682055e-06
121	0x33ebff21	1.0989448e-07
122	0x352c4a68	6.418327e-07
123	0x30a27388	1.1819887e-09
124	0x30e819f6	1.68876e-09
125	0x3118c54d	2.2231064e-09
126	0x36795166	3.7151271e-06
127	0x359f5ad0	1.1872853e-06
128	0x387c5e93	6.016956e-05
129	0x3668c81f	3.468718e-06
130	0x35234467	6.082177e-07
131	0x3884b928	6.3287385e-05
132	0x317b3931	3.6557817e-09
133	0x31e6bc60	6.7152968e-09
134	0x31ec94e9	6.885433e-09
135	0x3447b976	1.860079e-07
136	0x3387fff5	6.332986e-08
137	0x322f1a6e	1.019235e-08
138	0x3464f4df	2.1323238e-07
139	0x339937c3	7.134761e-08
140	0x328db384	1.6496195e-08
141	0x306bbaec	8.5758134e-10
142	0x30af3443	1.274778e-09
143	0x3089adb9	1.0017437e-09
144	0x3720d3b5	9.586035e-06
145	0x367198a4	3.6000647e-06
146	0x3903b034	0.00012558774
147	0x372e21ae	1.037905e-05
148	0x35cc22f7	1.520936e-06
149	0x390ace75	0.00013237617
150	0x3216ed02	8.7850385e-09
151	0x326682c8	1.3417498e-08
152	0x32661b1e	1.3393928e-08
153	0x3635bc6a	2.7080773e-06
154	0x34f99271	4.6486414e-07
155	0x34cb29ac	3.7842017e-07
156	0x3647aec8	2.9755047e-06
157	0x34ab602a	3.19212e-07
158	0x34c4bc88	3.664502e-07
159	0x31755688	3.570138e-09
160	0x31b73401	5.331913e-09
161	0x31c6da9a	5.7874106e-09
162	0x37018658	7.7202785e-06
163	0x35c4fb3e	1.4676259e-06
164	0x382a54af	4.0610026e-05
165	0x3705d273	7.976417e-06
166	0x353be68e	6.999843e-07
167	0x3833c008	4.285577e-05
168	0x31d70dff	6.2589147e-09
169	0x3205815a	7.77103e-09
170	0x31d96b15	6.327705e-09
171	0x35b69bf6	1.3605447e-06
172	0x349f56bf	2.9679174e-07
173	0x36d9c56f	6.4900883e-06
174	0x35c177fc	1.4414541e-06
175	0x342978fe	1.5783368e-07
176	0x36e3f57f	6.7937067e-06
177	0x31053deb	1.9389244e-09
178	0x31490763	2.9253548e-09
179	0x314ae908	2.9527332e-09
180	0x36d7f553	6.436059e-06
181	0x356bdb02	8.786302e-07
182	0x38158c46	3.5655008e-05
183	0x36d2c150	6.2809922e-06
184	0x34f6617f	4.5892008e-07
185	0x381d6873	3.7528993e-05
186	0x3178bd4a	3.6196348e-09
187	0x31d4c912	6.192871e-09
188	0x31adfd9c	5.0637947e-09
189	0x3693f0e8	4.4089866e-06
190	0x352b6aad	6.38577e-07
191	0x373d372c	1.1278124e-05
192	0x369d1051	4.680864e-06
193	0x349bb90c	2.900564e-07
194	0x37419fa9	1.154087e-05
195	0x314a1049	2.9404126e-09
196	0x31a8405c	4.8967603e-09
197	0x319c3337	4.54602e-09
198	0x36871666	4.025921e-06
199	0x341ae283	1.4424772e-07
200	0x35a7d989	1.2505781e-06
201	0x367c4db3	3.7596153e-06
202	0x33f45fbc	1.13795494e-07
203	0x35b2f39a	1.3332931e-06
204	0x31506261	3.0323906e-09
205	0x310b8893	2.0304796e-09
206	0x30e4ab65	1.6637897e-09
207	0x360e9f15	2.1252247e-06
208	0x345fb54d	2.083445e-07
209	0x3458394d	2.0137414e-07
210	0x360e7c23	2.1231906e-06
211	0x34254c64	1.5394613e-07
212	0x3455774b	1.988057e-07
213	0x31179222	2.2056459e-09
214	0x3159a146	3.166933e-09
215	0x318f6183	4.1729336e-09
216	0x371d8314	9.388448e-06
217	0x3558c5de	8.0754205e-07
218	0x38119f3e	3.4719e-05
219	0x3713ce37	8.809896e-06
220	0x35240285	6.109843e-07
221	0x38187c15	3.6355184e-05
222	0x32184904	8.864166e-09
223	0x3226b343	9.703231e-09
224	0x32183fb4	8.862049e-09
225	0x375c5ff6	1.31353645e-05
226	0x3543b07d	7.2899985e-07
227	0x37f3483d	2.9001496e-05
228	0x3750feb1	1.2457066e-05
229	0x34f95c26	4.644691e-07
230	0x3800a471	3.0670726e-05
231	0x31c4ad96	5.724085e-09
232	0x3213b725	8.598168e-09
233	0x31d10ba6	6.084025e-09
234	0x373cac13	1.1245737e-05
235	0x3567e348	8.6384944e-07
236	0x37f38c54	2.9033203e-05
237	0x3737703b	1.0933781e-05
238	0x3520157b	5.9635903e-07
239	0x37fe2e9e	3.0300867e-05
240	0x31fd1326	7.365446e-09
241	0x322f3e67	1.0200529e-08
242	0x3201c619	7.5538305e-09
243	0x3694287d	4.415457e-06
244	0x34fbd272	4.6905512e-07
245	0x335bd9be	5.1187946e-08
246	0x36a0b818	4.789803e-06
247	0x34f8dc58	4.635392e-07
248	0x34004ecb	1.1949594e-07
249	0x320f72bf	8.349786e-09
250	0x32236765	9.511358e-09
251	0x324e1175	1.1994747e-08
252	0x35450009	7.338827e-07
253	0x33a1c79c	7.5334555e-08
254	0x3210cc13	8.428304e-09
255	0x354e0920	7.675426e-07

exp_avg f4 [128]
0	0xb5ee3be6	-1.7749815e-06
1	0xb872495d	-5.776562e-05
2	0x34ab5d44	3.1919092e-07
3	0xb6a60b4c	-4.9485006e-06
4	0x382153c2	3.8463397e-05
5	0x37c79d06	2.3795768e-05
6	0x38d2e612	0.00010056434
7	0xb66024c9	-3.3400013e-06
8	0x38ac6e7d	8.222179e-05
9	0xb71999c7	-9.155315e-06
10	0xb8137135	-3.5152963e-05
11	0xb8d1a862	-9.99726e-05
12	0xb6bbd8cb	-5.5982723e-06
13	0xb6cda353	-6.1284895e-06
14	0xb6d6d588	-6.4025553e-06
15	0xb8b3608c	-8.5533684e-05
16	0xb83fc1e6	-4.571853e-05
17	0x384afebe	4.83978e-05
18	0xb8b2163b	-8.491842e-05
19	0xb7b0c54e	-2.1072712e-05
20	0xb69d5348	-4.68866e-06
21	0x36c66971	5.913135e-06
22	0x37f9bd62	2.9771301e-05
23	0xb7a82a7f	-2.004695e-05
24	0xb8a0a148	-7.6594355e-05
25	0xb7dd28a7	-2.6364183e-05
26	0xb7cbbcb7	-2.4287363e-05
27	0x3891376f	6.924464e-05
28	0xb846aeaa	-4.7369547e-05
29	0xb5d163b2	-1.5600729e-06
30	0xb7c61860	-2.361479e-05
31	0xb83333ee	-4.272529e-05
32	0xb8f96f3a	-0.00011893963
33	0xb8b334b1	-8.5452e-05
34	0x37be2c07	2.2670267e-05
35	0xb860dd49	-5.361185e-05
36	0xb7015b23	-7.710219e-06
37	0xb3e7d7c3	-1.07960226e-07
38	0x381f6e24	3.801113e-05
39	0xb65b661d	-3.269298e-06
40	0x37137cb5	8.790918e-06
41	0xb80338ca	-3.1285723e-05
42	0xb828740b	-4.0162395e-05
43	0x373f249e	1.1393013e-05
44	0xb7da1e47	-2.6001724e-05
45	0x385c4fdf	5.2526473e-05
46	0x37edbd2b	2.834069e-05
47	0x38f6a34b	0.0001176061
48	0xb7015885	-7.709609e-06
49	0xb7b50a21	-2.1581598e-05
50	0x38450540	4.697335e-05
51	0x3715545d	8.900734e-06
52	0x3902d427	0.00012476799
53	0xb6af4c70	-5.224305e-06
54	0xb802ee24	-3.12162e-05
55	0xb5d64b5d	-1.5966176e-06
56	0x35bd98d8	1.4126081e-06
57	0xb638b505	-2.7523504e-06
58	0xb91dbbf6	-0.00015042708
59	0xb8ad5ee6	-8.266959e-05
60	0xb9087b9c	-0.00013016019
61	0xb7ea8a63	-2.7959415e-05
62	0xb89bf6df	-7.436959e-05
63	0x359a348f	1.1489191e-06
64	0xb7fe3201	-3.0302444e-05
65	0xb90d1be9	-0.00013457205
66	0x373abfad	1.1131092e-05
67	0x362183ec	2.4067658e-06
68	0x376f1f71	1.4252831e-05
69	0x38827135	6.2199695e-05
70	0xb7ada4b6	-2.0699907e-05
71	0x37aeb24b	2.082544e-05
72	0x3878586f	5.9210168e-05
73	0x385333ea	5.035467e-05
74	0x381cf290	3.7419202e-05
75	0x385976a8	5.184734e-05
76	0x36c4ab76	5.861216e-06
77	0xb7ef7a25	-2.8547898e-05
78	0xb8edffc8	-0.000113486836
79	0xb86ab9bf	-5.5962937e-05
80	0xb8ee1296	-0.00011352186
81	0x38757af2	5.8527054e-05
82	0xb69c6dbe	-4.661938e-06
83	0x379693f3	1.7950288e-05
84	0x3845bb57	4.7142934e-05
85	0xb84f8e78	-4.948533e-05
86	0x3566a43d	8.5920675e-07
87	0xb96be5fe	-0.00022497025
88	0x382fb442	4.189113e-05
89	0xb960dd0a	-0.00021444648
90	0xb65a71c8	-3.255076e-06
91	0x37bc47a8	2.2444714e-05
92	0xb7aac1e9	-2.0355876e-05
93	0x379ed359	1.8933484e-05
94	0xb7e311ce	-2.70688e-05
95	0x392098b8	0.00015315681
96	0xb6c01d8d	-5.725486e-06
97	0x37903a72	1.7193353e-05
98	0x36e9d629	6.9688726e-06
99	0x37786fb1	1.4807957e-05
100	0x37c543a7	2.3515733e-05
101	0x38cf97ce	9.898805e-05
102	0xb7213688	-9.609044e-06
103	0xb9163707	-0.00014325614
104	0x3888f9cb	6.531513e-05
105	0xb62f3928	-2.6110301e-06
106	0x381c276d	3.7230016e-05
107	0xb7b6ee5c	-2.1807085e-05
108	0xb7ae4fa8	-2.077951e-05
109	0xb6e9af0a	-6.9643183e-06
110	0xb7c97e3d	-2.4019851e-05
111	0x37b1145d	2.1109527e-05
112	0xb4fe0901	-4.7317738e-07
113	0x37824cec	1.5533027e-05
114	0x383150ee	4.227546e-05
115	0x383a0705	4.4352393e-05
116	0x38add5d4	8.2891114e-05
117	0x398a1b3f	0.0002634171
118	0xb8cedc9d	-9.863938e-05
119	0xb6bae4a4	-5.5698492e-06
120	0xb67332d2	-3.6239403e-06
121	0xb80f2223	-3.412565e-05
122	0x3787885b	1.615675e-05
123	0x359b140d	1.1554235e-06
124	0x3661c01d	3.3639437e-06
125	0xb6d425cd	-6.322493e-06
126	0x38f09e19	0.0001147354
127	0xb8881cac	-6.490326e-05

exp_avg_sq f4 [128]
0	0x31b192d8	5.168072e-09
1	0x32f8f5ef	2.8982837e-08
2	0x32f2b83e	2.8256292e-08
3	0x33952ebb	6.9468534e-08
4	0x32e178d9	2.6248403e-08
5	0x335a3e17	5.081355e-08
6	0x327d53a3	1.4745555e-08
7	0x329b6fbb	1.8095184e-08
8	0x333713d1	4.262603e-08
9	0x323d42d0	1.1016439e-08
10	0x3241157e	1.1238965e-08
11	0x331c746a	3.642746e-08
12	0x335f88a9	5.2045525e-08
13	0x3215fdac	8.73062e-09
14	0x33345671	4.1988134e-08
15	0x3172c3ac	3.5326861e-09
16	0x33ec71f7	1.10103365e-07
17	0x32a5ac5b	1.9286906e-08
18	0x334eea79	4.8176364e-08
19	0x322c1398	1.0016173e-08
20	0x3305abdd	3.1122784e-08
21	0x32a5e983	1.9314717e-08
22	0x320341e9	7.64019e-09
23	0x32440888	1.1410641e-08
24	0x33227d89	3.7832738e-08
25	0x3309e987	3.211019e-08
26	0x3322f2e7	3.7939483e-08
27	0x32e6b183	2.6856247e-08
28	0x31a9a879	4.9377005e-09
29	0x320c9c08	8.18455e-09
30	0x3000c2ba	4.684285e-10
31	0x321eb005	9.236833e-09
32	0x32914c51	1.6914926e-08
33	0x3307df88	3.1635437e-08
34	0x321759dd	8.809789e-09
35	0x330fcc0e	3.348037e-08
36	0x32e059a0	2.6117789e-08
37	0x31d39881	6.158246e-09
38	0x322393d5	9.521462e-09
39	0x31bff72e	5.5869327e-09
40	0x320da30a	8.244351e-09
41	0x32fb4714	2.9252568e-08
42	0x316bd1fb	3.431636e-09
43	0x3170de68	3.505102e-09
44	0x3343a178	4.554883e-08
45	0x3209af6e	8.014338e-09
46	0x3342a08e	4.531517e-08
47	0x32a25b12	1.8900696e-08
48	0x322e7692	1.0155093e-08
49	0x329f6968	1.855797e-08
50	0x3247eb61	1.16368435e-08
51	0x321b429a	9.037331e-09
52	0x32fabfc5	2.9191037e-08
53	0x332249e1	3.7785757e-08
54	0x32ee9976	2.7776633e-08
55	0x324e62a8	1.201321e-08
56	0x3003b46d	4.7913923e-10
57	0x326c8eb5	1.3769456e-08
58	0x335e6e26	5.1788582e-08
59	0x324bd10c	1.1863687e-08
60	0x335ed16c	5.187887e-08
61	0x32950ba2	1.7351173e-08
62	0x32e8651e	2.7054337e-08
63	0x32cdf9b1	2.3978687e-08
64	0x31d3d5e6	6.1652257e-09
65	0x3251c6c3	1.2210594e-08
66	0x3269af32	1.360222e-08
67	0x3281e64c	1.5122303e-08
68	0x334aadb5	4.7189776e-08
69	0x32bb5a28	2.1810663e-08
70	0x30569db9	7.8076884e-10
71	0x319694f9	4.382511e-09
72	0x33ca8634	9.4307694e-08
73	0x32f20ffd	2.8179779e-08
74	0x3403a331	1.2259694e-07
75	0x324f4822	1.2065387e-08
76	0x32747e16	1.4231338e-08
77	0x306526cd	8.3364854e-10
78	0x3311f04a	3.3978985e-08
79	0x33111d72	3.3787224e-08
80	0x32e25cfe	2.635215e-08
81	0x329aed66	1.8035916e-08
82	0x331c5bdf	3.6405137e-08
83	0x31f96525	7.2583526e-09
84	0x33612850	5.242356e-08
85	0x322ec351	1.0172543e-08
86	0x33148792	3.4582236e-08
87	0x33f008db	1.1177482e-07
88	0x34103cc1	1.3433147e-07
89	0x339b2ab0	7.225515e-08
90	0x30368848	6.640488e-10
91	0x32f3dfa1	2.8390618e-08
92	0x320df055	8.261925e-09
93	0x329c25ea	1.8178032e-08
94	0x337a5513	5.8285035e-08
95	0x336602db	5.3553645e-08
96	0x332162b5	3.7575507e-08
97	0x31c0464b	5.595927e-09
98	0x32c8720c	2.3334927e-08
99	0x337a05f8	5.821309e-08
100	0x3374f2d2	5.703152e-08
101	0x32d9d1a3	2.5357457e-08
102	0x32a34baf	1.9010114e-08
103	0x339f932a	7.4307835e-08
104	0x32912fa9	1.6901895e-08
105	0x32e358eb	2.6466713e-08
106	0x32e0b1f6	2.615796e-08
107	0x3268a801	1.3542377e-08
108	0x32b7e844	2.1409626e-08
109	0x31425e8d	2.8284461e-09
110	0x3222b574	9.470899e-09
111	0x3261b604	1.3138109e-08
112	0x326171ef	1.3122629e-08
113	0x3319644a	3.57143e-08
114	0x339277a7	6.8204194e-08
115	0x328cea53	1.6404703e-08
116	0x332aa773	3.9733504e-08
117	0x33d58993	9.94361e-08
118	0x32179378	8.822887e-09
119	0x30d596cc	1.5540649e-09
120	0x3261ed4d	1.315068e-08
121	0x31e167e0	6.560171e-09
122	0x3378df40	5.7945044e-08
123	0x337e3d52	5.9194754e-08
124	0x331da3da	3.6703433e-08
125	0x32018423	7.538833e-09
126	0x333797a5	4.2745928e-08
127	0x321b1a75	9.028203e-09
