results/jugglingRobotV1/JugglingRobotV1/JugglingRobotV1-8980.pt (torch, 153103 bytes, 12 tensors)

network_body._body_endoder.seq_layers.0.weight f4 [128, 9]
00000000: f871 453e 8a17 9bbe 48a4 c03e 7038 04be
00000010: 7225 9cbe edaa 0bbf 52cf 32bf 18b4 f93e
00000020: 7834 603e c3e3 8abe fc44 a0be 44cc b93d
00000030: be34 8e3e 3f74 dabd a72c 6dbe 5122 0cbd
00000040: 5205 b53e 7e41 0f3f 7a65 a7be f252 333f
00000050: 384f 1cbe f37b 353e f973 a23e ea52 6bbe
00000060: dc90 e13d 2f89 ca3e 0f71 af3e 3dc5 a6be
00000070: 8ce0 1e3f f873 523e cee5 e3bd 5ad9 4dbd
00000080: 3d16 8dbc feca ebbd fc8e 53be 6077 0bbf
00000090: 7cfc 1a3e 9885 cebd 623c 86bd d81f 2a3f
000000a0: aac8 64be 4f54 f4bd 8e7c 8dbe cce5 673c
000000b0: f62c 213e 6ce0 d33d e7b8 373e 27df b43e
000000c0: 0694 263e 7a46 c9be 3a1a 17be fb42 a5bd
000000d0: 57e6 e4be cfea eb3e 4425 3cbc 28dc 14bd
000000e0: e02e 213f 8b1b 793e dfdf 403e fc55 053e
000000f0: 8ed8 be3e b388 0bbf c7ab 0a3d 1447 b53e
00000100: d878 5f3e 6465 193e 64be b43d 23d8 aabe
00000110: efca c1bd 8e50 d9bd c3c7 9ebe f48a bbbc
00000120: 60c3 f73e f644 b1be 10f1 393f cea5 bc3e
00000130: 045d fa3e 24fb 273f 2f4e 783d 5805 37bd
00000140: 8a1e c93e 33d8 adbe 20a9 cebe 4c85 59bd
00000150: 7ebe 093e c89b babe 488a 12be 842b bc3d
00000160: 4c41 57bd 0e64 213d 88eb 2d3e 6eef eb3d
00000170: 9a86 afbd a2dd 46bf 69ec a23e 8c31 a2be
00000180: b863 87be 0cef 773e 30f8 39bf 5e23 c73e
00000190: ce91 22bf bde4 90bd 836e 5c3e 385f a73e
000001a0: 970e 4abe 009e 873e 449d ba3e 9721 83be
000001b0: 6deb 27bf c6ac ba3c 7704 b4be 5b85 7a3d
000001c0: 6405 763e 98a9 9fbd ccd8 8bbd 521d 253e
000001d0: 62ef 053e 9327 c9be 1764 78be 2f80 df3e
000001e0: ff6c a6be db7c a9be cb66 103f 2428 783e
000001f0: c8fe 6cbe 1eb5 733c 4358 ec3e 8896 fcbe
00000200: 43ef ca3e 8448 e6bd daf4 8a3d 64bc 85bd
00000210: 9725 363e 6612 f9bd 8816 393e 3531 96be
00000220: c342 79be 8b4f db3e 40a7 69be 9001 123e
00000230: 8c15 55be c32c 383f 6f80 59be 8aa7 a9bd
00000240: 6a4c 7e3d 8823 afbd 3f3f 7abe 56b1 92bd
00000250: 3b82 253e 236c f4be aa44 673e 200e b7bd
00000260: 3740 78be c42c 0f3e d255 d53e 0811 12bd
00000270: df43 d03e 8471 85bd 83f1 963e d246 3abe
00000280: 0dff 9fbe 40bd debe 9708 253e 6f40 c83d
00000290: d25b b13e 9ab1 0f3d 7a2e 233e 9c7b a1be
000002a0: c07d 4e3e 2f0c 19bf c34d ea3e 9653 db3e
000002b0: 870f ef3e 4f38 da3e 5aeb 24be 67d4 a63e
000002c0: b0ca 3e3e b605 d0be f6ce ac3e 6f5c 34bf
000002d0: 40c6 9e3b 0a73 00bf b591 88be d4a3 583e
000002e0: 8e90 1c3e 5651 c33d c499 f63e 236d 21be
000002f0: 2bae 12bf d41a 19bf 3ad7 bebe 98da 343f
00000300: 961b f23d 54c0 82be ec7d 37be f2ea 6ebe
00000310: 2fd2 46be 8710 8a3d cf45 5dbe cef4 ccbd
00000320: 9f65 dabe e70b acbe 94bb 15bf 67c0 1abf
00000330: 025a 8abd 6c31 3e3e 0c16 d4be 2ce6 09bd
00000340: 447e 9d3e 4000 23bd e3aa 723e 9785 363d
00000350: ff87 813c 56ec d9bd bbe9 6a3e 776a 43bf
00000360: 7c13 aa3d bc1d 1b3f 50be ab3e 9065 2c3f
00000370: 88eb 8ebe f5ec 05be 8622 9fbe fc9c 00bf
00000380: 40c2 87be 5abb afbe d349 be3e 0419 f2be
00000390: d4a8 ba3e 3e9e 6bbd 203c 163e 8432 d7bd
000003a0: fba3 033e b634 e03e d470 c63e 561b 443e
000003b0: c03c df3e daf4 8cbe f489 f23d 5c13 3abf
000003c0: 3e8c e33d 06ee 843e 804c 8ebe 94cc 6dbd
000003d0: 940f 63bc 922e e4be 7be3 f4be 63b4 b13e
000003e0: a4c5 953e 28e3 b63d c57a 1cbd 310e 80be
000003f0: abdb 743e e2af e73e 2073 69bd 36fb 113d
0.19281757 -0.30291396 0.37625337 -0.12912154 -0.30497319 -0.5455769 -0.69847596 0.48770213
0.21895015 -0.27126893 -0.3130263 0.09072164 0.27774614 -0.106667034 -0.23161565 -0.034212414
0.35355622 0.5595931 -0.32694608 0.7004844 -0.15264595 0.17723064 0.31729105 -0.22980848
0.11013958 0.39557788 0.34265944 -0.32572356 0.6206138 0.20552051 -0.11127816 -0.05025611
-0.017222518 -0.11513327 -0.20660013 -0.54479027 0.15135378 -0.10084075 -0.06554486 0.6645484
-0.22342172 -0.11930143 -0.2763409 0.014153909 0.15739807 0.103455395 0.17941628 0.35326502
0.16267404 -0.39311582 -0.14756098 -0.08069416 -0.44706985 0.46077582 -0.011483494 -0.03634277
0.6296215 0.24326913 0.188354 0.13021082 0.37274593 -0.5450546 0.033855226 0.3540579
0.21823442 0.14980084 0.08825377 -0.33368024 -0.09462535 -0.10611068 -0.3101178 -0.022893406
0.48391247 -0.34622926 0.7263346 0.3684525 0.4889909 0.65617585 0.060621437 -0.04468283
0.39281112 -0.3395401 -0.40363407 -0.053105637 0.13451573 -0.36446977 -0.14310563 0.091879874
-0.052552506 0.03940206 0.1698438 0.11520277 -0.08570595 -0.77681935 0.31820992 -0.31678426
-0.26443267 0.24212283 -0.7264433 0.3889417 -0.6350373 -0.07074878 0.21526532 0.32689834
-0.19732128 0.26487732 0.3644811 -0.25611565 -0.65593606 0.022787463 -0.35159656 0.061162334
0.24025494 -0.07796019 -0.0682846 0.16124466 0.13079599 -0.39288005 -0.24256931 0.43652484
-0.32505032 -0.3310307 0.5640685 0.24234062 -0.23144066 0.014874725 0.46161088 -0.49333596
0.39635667 -0.112443 0.06784983 -0.06530073 0.17787777 -0.12161712 0.18075001 -0.29334417
-0.24341874 0.42834124 -0.22817707 0.14258409 -0.20809 0.719433 -0.212404 -0.08283909
0.062084593 -0.08551699 -0.24438189 -0.071627304 0.1616296 -0.47738752 0.22584787 -0.08938241
-0.24243246 0.1398192 0.41667038 -0.035660774 0.40676782 -0.06515792 0.29481134 -0.18191078
-0.31249276 -0.4350376 0.16116558 0.09777915 0.34640366 0.035081483 0.15935698 -0.3153962
0.20165157 -0.59784216 0.45762452 0.42837209 0.46691534 0.42621085 -0.16105404 0.32583925
0.18632007 -0.40629357 0.3375165 -0.7045354 0.0048454106 -0.50175536 -0.26673666 0.21156245
0.15289518 0.09536998 0.4816419 -0.15764289 -0.5729701 -0.5980656 -0.3727358 0.7064605
0.11821668 -0.2553736 -0.17919129 -0.23331812 -0.19416116 0.067414336 -0.21608661 -0.1000763
-0.42655656 -0.3360283 -0.58489347 -0.6044983 -0.06755449 0.1857354 -0.4142307 -0.033666775
0.30760396 -0.03979516 0.23698 0.044560995 0.015811918 -0.10640781 0.22940724 -0.7633433
0.083044976 0.60592246 0.33543634 0.6734247 -0.2791407 -0.13078673 -0.31081027 -0.5023954
-0.26515388 -0.34322625 0.37165698 -0.4728471 0.3645693 -0.05752396 0.14671373 -0.10507682
0.12855522 0.43790215 0.38757956 0.19151053 0.43601036 -0.27530557 0.11842719 -0.7268579
0.111107334 0.25962847 -0.2779274 -0.05805643 -0.013858695 -0.4456678 -0.47829804 0.34707937
0.2925235 0.08930045 -0.03820302 -0.25010827 0.23911922 0.45251375 -0.056994557 0.035639964

network_body._body_endoder.seq_layers.0.bias f4 [128]
00000000: 0000 0000 0000 0000 0000 0000 0000 0000
00000010: 0000 0000 0000 0000 0000 0000 0000 0000
00000020: 0000 0000 0000 0000 0000 0000 0000 0000
00000030: 0000 0000 0000 0000 0000 0000 0000 0000
00000040: 0000 0000 0000 0000 0000 0000 0000 0000
00000050: 0000 0000 0000 0000 0000 0000 0000 0000
00000060: 0000 0000 0000 0000 0000 0000 0000 0000
00000070: 0000 0000 0000 0000 0000 0000 0000 0000
00000080: 0000 0000 0000 0000 0000 0000 0000 0000
00000090: 0000 0000 0000 0000 0000 0000 0000 0000
000000a0: 0000 0000 0000 0000 0000 0000 0000 0000
000000b0: 0000 0000 0000 0000 0000 0000 0000 0000
000000c0: 0000 0000 0000 0000 0000 0000 0000 0000
000000d0: 0000 0000 0000 0000 0000 0000 0000 0000
000000e0: 0000 0000 0000 0000 0000 0000 0000 0000
000000f0: 0000 0000 0000 0000 0000 0000 0000 0000
00000100: 0000 0000 0000 0000 0000 0000 0000 0000
00000110: 0000 0000 0000 0000 0000 0000 0000 0000
00000120: 0000 0000 0000 0000 0000 0000 0000 0000
00000130: 0000 0000 0000 0000 0000 0000 0000 0000
00000140: 0000 0000 0000 0000 0000 0000 0000 0000
00000150: 0000 0000 0000 0000 0000 0000 0000 0000
00000160: 0000 0000 0000 0000 0000 0000 0000 0000
00000170: 0000 0000 0000 0000 0000 0000 0000 0000
00000180: 0000 0000 0000 0000 0000 0000 0000 0000
00000190: 0000 0000 0000 0000 0000 0000 0000 0000
000001a0: 0000 0000 0000 0000 0000 0000 0000 0000
000001b0: 0000 0000 0000 0000 0000 0000 0000 0000
000001c0: 0000 0000 0000 0000 0000 0000 0000 0000
000001d0: 0000 0000 0000 0000 0000 0000 0000 0000
000001e0: 0000 0000 0000 0000 0000 0000 0000 0000
000001f0: 0000 0000 0000 0000 0000 0000 0000 0000
0.0 0.0 0.0 0.0 0.0 0.0 0.0 0.0
0.0 0.0 0.0 0.0 0.0 0.0 0.0 0.0
0.0 0.0 0.0 0.0 0.0 0.0 0.0 0.0
0.0 0.0 0.0 0.0 0.0 0.0 0.0 0.0
0.0 0.0 0.0 0.0 0.0 0.0 0.0 0.0
0.0 0.0 0.0 0.0 0.0 0.0 0.0 0.0
0.0 0.0 0.0 0.0 0.0 0.0 0.0 0.0
0.0 0.0 0.0 0.0 0.0 0.0 0.0 0.0
0.0 0.0 0.0 0.0 0.0 0.0 0.0 0.0
0.0 0.0 0.0 0.0 0.0 0.0 0.0 0.0
0.0 0.0 0.0 0.0 0.0 0.0 0.0 0.0
0.0 0.0 0.0 0.0 0.0 0.0 0.0 0.0
0.0 0.0 0.0 0.0 0.0 0.0 0.0 0.0
0.0 0.0 0.0 0.0 0.0 0.0 0.0 0.0
0.0 0.0 0.0 0.0 0.0 0.0 0.0 0.0
0.0 0.0 0.0 0.0 0.0 0.0 0.0 0.0

network_body._body_endoder.seq_layers.2.weight f4 [128, 128]
00000000: aac9 a13a 63d1 793d 9d42 22be cebb 153d
00000010: 5998 0fbe 3556 b8bc 5084 66bd 47b1 9f3d
00000020: 9725 0c3b 64f3 e6bb 766f a8bc 6c97 f3bd
00000030: 9561 e9bd c10f ecbc cd2e 4c3d 3b15 d2bd
00000040: a07e c33d 78a1 efbd 6b44 043d 9c41 c63c
00000050: bdf4 e43d 1f1c e53c b800 6fbd 2975 17be
00000060: 2ddc 2cbd d5d0 44bd 038f 14be 49b3 fa3d
00000070: e791 2c3e 4d43 c9bd dd86 b4bd 062a ae3c
00000080: 7dd9 97bc f71d 4d3d 424c 8b3d cd97 0dbe
00000090: d407 2bbd a3e0 8f3d 2e61 0cbe 0f6e 8e3d
000000a0: 4932 053e 25c0 c63c 086b 193c ec85 a5bd
000000b0: 2f9b 0d3d b503 bb3c c53f a73d 2976 b03d
000000c0: d7f3 30be dfbc 243e 66c0 e0bc 2118 db3c
000000d0: c7c7 f9bd 925e bc3d 7568 b73c 10ff e73d
000000e0: 0d37 8ebd 7f5d 3e3e a5ed 503e 75e1 02bd
000000f0: 6a2b 053e 6aea 8abd 750e b0ba 87a3 fa3d
00000100: 725c 643d 162b e8bd 2de0 e5bd 2c20 273d
00000110: ac77 a5bd ba29 65bc 1ea6 17bd 01c2 d83d
00000120: f559 ba3d b8eb a23d d01c 273d 7297 a2bd
00000130: df77 cbbd a21f e93d 5f02 3b3d 18c0 be3d
00000140: f587 acbc de97 d7bb eb7a 16be 9922 cdbb
00000150: a03d 6c3d 48a9 2dbc 4c82 193d db30 983d
00000160: 994a 073d ddd9 84bd 6e41 a63d adb0 82bd
00000170: 73a6 09be 3771 a1bd 551e dfbd 3b39 a53d
00000180: f4c9 d5bd 99e1 a93c d93b c8bc 5c45 313d
00000190: c5a9 fe3d c3ca 71be 74d5 cc3d 9978 64bd
000001a0: 0d7e d23d 7f38 e1bd 6ae2 f7bd 9fa4 02bd
000001b0: 8146 963d d9b8 2e3c 2ff9 b53d 316f 763c
000001c0: f515 fd3d 2254 0dbc 49ca 9c3e 1575 cfbd
000001d0: 9589 313d 85ab 273e 2b91 733d c7ff ecbc
000001e0: 25a3 193d c283 edbd 9928 5e3c bd9c 67bd
000001f0: 2e1b f7bc 62c4 bfbd a3d2 c1bd 8c38 20bd
00000200: cd9c e33d 6e37 9bbd 672a c7bd 1fbf 06be
00000210: bd7b 4f3d 2319 dfbc ec4a e03c 52e6 2fbe
00000220: 67e4 373d a2bc 4dbd 68cd cfbd f555 a5bd
00000230: 7f5c 353b 00da 853c 5c64 b2bc 58dc dc3d
00000240: d7a4 723d 2da9 9dbc b445 333e d2c0 debd
00000250: 8435 083c bec1 483d 0f0d a63d 1c88 51bd
00000260: ae18 f7bd dcab f4bd 17e8 70bd 49e4 65bc
00000270: 80fa a3bc f02a e33c 1771 5bbd b004 2c3c
00000280: 7f12 8ebc e1bd 28be 0d1b d3bd 211d 93bd
00000290: 66f7 59ba 6017 c3bd d1d1 d6bc aaf3 87bd
000002a0: 7d79 823d 45f6 fcbd cd39 8b3e a08c 003e
000002b0: 9d45 f6bd 13cb e3bd 0b7f d73d 7ec5 dabc
000002c0: b1f8 b03d 0c6d b53d 03a8 b43d 10ec 383d
000002d0: 08c2 0dbe 34a3 63bc fd6b 79bd 9937 ae3d
000002e0: 66d8 8ebc cc0a a83b 0097 113e 0b8e 59bc
000002f0: cef6 663d 554b a6bd eb09 cebd f378 a9bd
00000300: 5f93 04bc adf4 47bd 42e3 80bd 6fb8 ef3c
00000310: a522 2f3e cfa9 b5bd 6462 26bd c1f4 603d
00000320: 1fae 3b3d 8439 c5bd 714a 743c a2d2 c3b9
00000330: df02 1bbe c7b7 cc3d 105f 9ebc d1a3 0f3d
00000340: a2d3 54bd f9e1 bc3c 3467 dc3c ede2 143e
00000350: 2c71 8f3d d47c 9e3b f266 2039 6cd5 d3bd
00000360: 3085 2bbc 3b38 933d 9c33 2cbd 0c57 9cbc
00000370: 2159 15be 5091 803c 60dc 8f3d 4746 403e
00000380: e300 0f3e 553d 0abe 10ba 753d 00bf 5d3d
00000390: fe7f 95bc 1dc5 973d 93b9 2fbe 840b 49bd
000003a0: 9f10 6f3d db9f c93c a52b 88bd 98f1 b83d
000003b0: ed5a 8b3e e72e ca3d 182f c8bd f820 b73d
000003c0: dd08 903d 9a16 3fbc dbcf 6b3d 933c 0f3e
000003d0: 4915 67bd bb24 32bd d873 3b3d eb97 283d
000003e0: 90d6 bdbd 1513 e73c 0f1b 0bbd f8b2 ac3c
000003f0: 366a 9abc b5bb b43c f98f 9f3d b08a 993d
0.0012343426 0.060990702 -0.15845723 0.036556058 -0.1402296 -0.022502044 -0.056278527 0.07797485
0.002138471 -0.0070480574 -0.020560961 -0.11894116 -0.113955654 -0.028816106 0.04984932 -0.10257956
0.09545636 -0.117007196 0.03229181 0.024201207 0.111794926 0.02796751 -0.058350295 -0.14790787
-0.042202163 -0.04805072 -0.1450768 0.12241227 0.16852532 -0.0982729 -0.08814786 0.021260273
-0.018536324 0.050077405 0.068016544 -0.13827439 -0.041755512 0.07025268 -0.13708946 0.06954586
0.13007464 0.024261544 0.009363897 -0.08082184 0.034571823 0.022828916 0.0816646 0.08616287
-0.17280518 0.16087674 -0.027435493 0.026744904 -0.12196308 0.09197725 0.022388676 0.11327946
-0.06944094 0.18590353 0.20403154 -0.031953294 0.13004842 -0.06782992 -0.0013432043 0.122382216
0.055752225 -0.11336343 -0.11224399 0.040802166 -0.08079466 -0.013986999 -0.037023656 0.10583878
0.09099189 0.07955116 0.040798962 -0.07939042 -0.09934973 0.113829866 0.045656558 0.09313983
-0.021060923 -0.0065793833 -0.14695327 -0.006260228 0.057675958 -0.010599442 0.037477776 0.074311934
0.033030126 -0.064868666 0.081179485 -0.063813545 -0.13442402 -0.07882922 -0.10894457 0.080675565
-0.1043891 0.020737456 -0.0244426 0.043279037 0.12434725 -0.23612504 0.100016505 -0.055779073
0.102779485 -0.10997104 -0.12103732 -0.031895276 0.07337666 0.010664188 0.088854186 0.015041159
0.123577036 -0.008626016 0.3062308 -0.101297535 0.0433441 0.16374023 0.059464615 -0.028930558
0.037509102 -0.115973964 0.013559484 -0.05654596 -0.030164327 -0.09363629 -0.09464004 -0.039116427
0.11113892 -0.07578932 -0.097248845 -0.13158844 0.050655115 -0.027233666 0.027379476 -0.17177704
0.044895556 -0.050228722 -0.101466 -0.08073036 0.002767354 0.016339302 -0.02177637 0.10784215
0.059239235 -0.019245708 0.17507058 -0.10876621 0.00831354 0.049012892 0.081079595 -0.051155195
-0.12065254 -0.11946842 -0.058815088 -0.014031478 -0.020016909 0.027730435 -0.053574648 0.010499164
-0.017342804 -0.16478683 -0.10307894 -0.0718329 -0.00083147583 -0.09525943 -0.026223095 -0.06638272
0.06370828 -0.1235166 0.27192536 0.12553644 -0.120249964 -0.11122718 0.105222784 -0.0267055
0.08641184 0.0885869 0.08821108 0.045147 -0.13843548 -0.013893891 -0.060894 0.08506698
-0.017437171 0.00512824 0.14217758 -0.013278495 0.056387715 -0.08119837 -0.100604855 -0.08275022
-0.008091777 -0.048817325 -0.06293346 0.02926275 0.1710306 -0.08870279 -0.040621176 0.054920916
0.04582035 -0.09630111 0.014910326 -0.00037350232 -0.15137814 0.0999599 -0.019332439 0.035068337
-0.05195964 0.02305697 0.02690468 0.1453969 0.07004008 0.004836658 0.00015297139 -0.10343441
-0.010468766 0.071884595 -0.042041406 -0.019084476 -0.14584781 0.01569429 0.07024455 0.18776809
0.13965182 -0.13499959 0.059991896 0.05413723 -0.018249508 0.07410643 -0.17160635 -0.049083248
0.05836546 0.024612358 -0.066489495 0.09030455 0.27217808 0.09872227 -0.097746074 0.08941835
0.070329405 -0.0116631035 0.057571273 0.13987951 -0.056416783 -0.04349206 0.045764774 0.041160505
-0.0926944 0.028207341 -0.033961352 0.021081433 -0.018849473 0.022062162 0.077911325 0.07497156

network_body._body_endoder.seq_layers.2.bias f4 [128]
00000000: 0000 0000 0000 0000 0000 0000 0000 0000
00000010: 0000 0000 0000 0000 0000 0000 0000 0000
00000020: 0000 0000 0000 0000 0000 0000 0000 0000
00000030: 0000 0000 0000 0000 0000 0000 0000 0000
00000040: 0000 0000 0000 0000 0000 0000 0000 0000
00000050: 0000 0000 0000 0000 0000 0000 0000 0000
00000060: 0000 0000 0000 0000 0000 0000 0000 0000
00000070: 0000 0000 0000 0000 0000 0000 0000 0000
00000080: 0000 0000 0000 0000 0000 0000 0000 0000
00000090: 0000 0000 0000 0000 0000 0000 0000 0000
000000a0: 0000 0000 0000 0000 0000 0000 0000 0000
000000b0: 0000 0000 0000 0000 0000 0000 0000 0000
000000c0: 0000 0000 0000 0000 0000 0000 0000 0000
000000d0: 0000 0000 0000 0000 0000 0000 0000 0000
000000e0: 0000 0000 0000 0000 0000 0000 0000 0000
000000f0: 0000 0000 0000 0000 0000 0000 0000 0000
00000100: 0000 0000 0000 0000 0000 0000 0000 0000
00000110: 0000 0000 0000 0000 0000 0000 0000 0000
00000120: 0000 0000 0000 0000 0000 0000 0000 0000
00000130: 0000 0000 0000 0000 0000 0000 0000 0000
00000140: 0000 0000 0000 0000 0000 0000 0000 0000
00000150: 0000 0000 0000 0000 0000 0000 0000 0000
00000160: 0000 0000 0000 0000 0000 0000 0000 0000
00000170: 0000 0000 0000 0000 0000 0000 0000 0000
00000180: 0000 0000 0000 0000 0000 0000 0000 0000
00000190: 0000 0000 0000 0000 0000 0000 0000 0000
000001a0: 0000 0000 0000 0000 0000 0000 0000 0000
000001b0: 0000 0000 0000 0000 0000 0000 0000 0000
000001c0: 0000 0000 0000 0000 0000 0000 0000 0000
000001d0: 0000 0000 0000 0000 0000 0000 0000 0000
000001e0: 0000 0000 0000 0000 0000 0000 0000 0000
000001f0: 0000 0000 0000 0000 0000 0000 0000 0000
0.0 0.0 0.0 0.0 0.0 0.0 0.0 0.0
0.0 0.0 0.0 0.0 0.0 0.0 0.0 0.0
0.0 0.0 0.0 0.0 0.0 0.0 0.0 0.0
0.0 0.0 0.0 0.0 0.0 0.0 0.0 0.0
0.0 0.0 0.0 0.0 0.0 0.0 0.0 0.0
0.0 0.0 0.0 0.0 0.0 0.0 0.0 0.0
0.0 0.0 0.0 0.0 0.0 0.0 0.0 0.0
0.0 0.0 0.0 0.0 0.0 0.0 0.0 0.0
0.0 0.0 0.0 0.0 0.0 0.0 0.0 0.0
0.0 0.0 0.0 0.0 0.0 0.0 0.0 0.0
0.0 0.0 0.0 0.0 0.0 0.0 0.0 0.0
0.0 0.0 0.0 0.0 0.0 0.0 0.0 0.0
0.0 0.0 0.0 0.0 0.0 0.0 0.0 0.0
0.0 0.0 0.0 0.0 0.0 0.0 0.0 0.0
0.0 0.0 0.0 0.0 0.0 0.0 0.0 0.0
0.0 0.0 0.0 0.0 0.0 0.0 0.0 0.0

action_model._continuous_distribution.log_sigma f4 [1, 3]
00000000: 0000 0000 0000 0000 0000 0000
0.0 0.0 0.0

action_model._continuous_distribution.mu.weight f4 [3, 128]
00000000: f747 473c cff3 89bc d73a 41bb f358 673c
00000010: f693 073c 48ec 21bc 3bf3 823c 28f5 cbba
00000020: 63fe c7bc fa9e fdbc 231c 73bc e896 14bc
00000030: b0c5 cfb9 09c6 c0ba aa3f 153b b7fa 323c
00000040: 191f b43c 876b 82bc 1504 023d d367 32bd
00000050: 7ce5 bcbb 41be bc3b a614 8fbc 5a2b 693c
00000060: 5ccc 39bb f7b5 133d a17c 39bc 0e61 463c
00000070: 4341 943c e0f9 df3c 852a 1ebb fa70 c6ba
00000080: bb08 ecbb 77f5 a13c 7d57 763c 36d1 3c3b
00000090: a4e9 393b d7aa a9bc 3274 0a3c 92a1 14bc
000000a0: 11c7 9e3b 73fb 9bbc 0d56 6e3c f5e9 703a
000000b0: 3ba9 a83c bde5 253c 3bdf 3dbc 1b1a 603c
000000c0: 38cd 2b3c 1f94 9ebc c5df f03b 6e8d 2bbc
000000d0: 07d5 71bc 90ae f7ba 4249 f2bb 2ccd 86bc
000000e0: 19ba aaba a371 72bc ef50 dd3b 1301 cf3b
000000f0: 998e 9b3c b718 033d d603 aabc 566e 20bc
00000100: 8203 39bc abe4 393c 4a27 cfbc 03c0 523c
00000110: 2793 7abc e3a7 cdbb 8f10 5e3b 6a14 163d
00000120: 2b7a c0bb e8da 75bc be8b 903b 53bd 1c3c
00000130: 0a61 a0bc 8b3a 50bc 1d1e a53c 8fee 113d
00000140: 6732 e5bb 12bf 233c ed53 77b8 75b5 c93c
00000150: 1f69 eabb c4c2 47bc b2c2 a0bc fdc3 bebb
00000160: fb73 a4bc 67f4 29bd 6b66 fe3b 7c11 4abb
00000170: 4340 d3b9 23c2 bdbc f50e e6bc 40fa d5bb
00000180: de00 193d 834e 913b 1b27 dd3c 0f59 af3b
00000190: da4e e5bc 07f8 213c 5fd5 7b3c fc3c 0b3d
000001a0: c36a 1b3d 8e07 0e3b 1ba5 39bc 9a21 113c
000001b0: fca3 b6bc d312 4b3a 600e f3bc 2416 3fbc
000001c0: 03a3 cf3b 9749 c13c bad8 e83c 052f 983c
000001d0: cef7 c2bb 00bd 84bc 9a80 aa38 2242 3fbc
000001e0: 4f80 783c 8871 adba 1a5c d8bc bdc9 9abc
000001f0: f6af 963c b3ef 9ebc 0e26 473b 74dc bebc
00000200: 8b9e 803c 22b7 63bc 9b99 18bc fc2b 133c
00000210: cd09 f33c ad9d d7bc 3853 4dbb 73b6 d33c
00000220: ac66 ba3b 90e3 6abb 487b 7fbc adac d9bc
00000230: 2921 9dbc 935e 003c d77e 353d fff4 cdbb
00000240: 1c6f 0dbd fb84 a23c ec15 b6bb 28c6 1ab6
00000250: 9bbc 413c ad4d b93b b3b1 a53a b01e 9c3b
00000260: 4488 873b e75a 97bb 62be daba 02ad 3cba
00000270: 26b6 0bbc 12b6 8438 0a92 f43b 6749 44bd
00000280: 35b4 583c b063 793c 68d4 d63c 7b6c d53c
00000290: fd18 7a3a f093 643b 409a 673b 9e2b 3f3c
000002a0: a1e7 a13b 6f06 433d 3f47 aa3c d0bc f6bc
000002b0: e88d 00bd 3503 21bc 4791 8fbc 5799 863b
000002c0: 8606 8dbc 376f 2c3c 0343 273c 6902 29bc
000002d0: 7230 09bd 359e 1fbc 1de0 e4bb e717 5dbb
000002e0: 3aea dc3c 0195 30bc 7d68 533c 88b4 873c
000002f0: fbbc b13c 3366 31bc 2209 f8bb 0ddf 7a3c
00000300: 415c bc3a c7f6 29bc b3a1 a73b 2032 d5bb
00000310: c8e4 00bc 1a28 30bc 5137 373c 59e9 8fbc
00000320: ab08 c6bb 2f19 10bd 9f94 aebc e85f be3b
00000330: f64e 133d bfc9 a9ba fb10 22bc 0314 563c
00000340: 8614 95bb fba4 f0ba 9f58 78bc e2d2 fbbc
00000350: c172 c53c 574c 653c 5cce 02bc cbc6 133d
00000360: 646c 853c ad0d 21bb 884b 8f3a 1f03 313c
00000370: 1a72 e439 1138 42bb 1bdb f03c 08e7 db3b
00000380: 6739 c03c 8719 97bc 5184 173c 0a39 1f3d
00000390: 6bd3 a73c 2ee8 abbb 6ce1 9f3c e3a3 1f3d
000003a0: c318 85bc 58e9 d9ba edd2 953c 04c9 8b3b
000003b0: ad36 1d3d 9dc2 4d3d fbb2 7bbc 6a36 eb3c
000003c0: 5ee2 113c e8c8 e63a b4bf b13b 5da3 eb39
000003d0: e238 c03c ffa8 7d3c 373c f3bb 8bb0 1d3c
000003e0: 0d65 d9bc 871b 7b3c 97f4 a2bc b349 8d3b
000003f0: b30c 2dbb 3afc 943c 4a52 933c d459 a53c
0.012163154 -0.01683989 -0.0029484534 0.014120328 0.008275023 -0.009882994 0.015985122 -0.0015560733
-0.024413293 -0.030959595 -0.014838251 -0.009069182 -0.00039629405 -0.0014707457 0.0022773542 0.010924033
0.021987485 -0.015920414 0.031742174 -0.043556046 -0.0057646614 0.0057599847 -0.0174659 0.014231527
-0.0028350567 0.036062207 -0.011321218 0.012108101 0.018097525 0.02734083 -0.002413423 -0.0015139871
-0.007203189 0.019770367 0.015035507 0.0028811223 0.002836802 -0.020711346 0.008450555 -0.0090717245
0.004845508 -0.019040799 0.014546883 0.0009190136 0.020588508 0.010125575 -0.011588867 0.013678099
0.01048594 -0.019357739 0.007350894 -0.010470731 -0.014760262 -0.0018896628 -0.007393987 -0.016455255
-0.0013025432 -0.014797601 0.006754033 0.0063172667 0.018988894 0.03200599 -0.020753782 -0.009791931
-0.01129234 0.011346023 -0.02528729 0.012863162 -0.015293873 -0.006276117 0.0033884381 0.036640562
-0.0058739386 -0.015005805 0.00441119 0.009566623 -0.019577522 -0.01270927 0.02015596 0.035627898
-0.006994534 0.009994285 -5.896755e-05 0.024622658 -0.0071536447 -0.012192432 -0.019624088 -0.0058217035
-0.020074835 -0.041492846 0.007763674 -0.0030833175 -0.00040292935 -0.02316386 -0.028083304 -0.0065300763
0.037354343 0.004434408 0.026996186 0.005351193 -0.0279917 0.0098857945 0.015370696 0.033993706
0.037943613 0.0021671983 -0.011330868 0.008858109 -0.02229499 0.00077466405 -0.02966994 -0.011662994
0.006336571 0.02359466 0.028423656 0.018577108 -0.005949951 -0.016203403 8.1301856e-05 -0.011673482
0.01516731 -0.0013232687 -0.026411105 -0.018895024 0.018394452 -0.019401407 0.0030387673 -0.02329848
0.0157006 -0.013898643 -0.009313966 0.008982655 0.02966776 -0.026320303 -0.003133012 0.025843835
0.005688509 -0.0035841204 -0.015593357 -0.026571596 -0.019180851 0.007835048 0.044310417 -0.0062853093
-0.03452979 0.0198388 -0.0055568125 -2.306313e-06 0.011824752 0.0056550116 0.001264146 0.0047644004
0.004136117 -0.0046189907 -0.0016688819 -0.0007197411 -0.008527314 6.328164e-05 0.0074636983 -0.047921564
0.013226558 0.015221521 0.02622433 0.026052704 0.00095404667 0.0034878217 0.0035339743 0.011668114
0.0049409424 0.047613557 0.020785926 -0.03011933 -0.031385332 -0.009827425 -0.017525328 0.004107635
-0.017215025 0.010524563 0.010208848 -0.010315516 -0.033493467 -0.009742309 -0.006984724 -0.003373617
0.026967157 -0.010777713 0.01290333 0.016565576 0.021696558 -0.010827589 -0.007569448 0.0153119685
0.0014370756 -0.010373778 0.0051157116 -0.0065062195 -0.007867046 -0.010751748 0.011182622 -0.017567324
-0.006043514 -0.035180267 -0.021311102 0.0058097728 0.035963975 -0.0012953802 -0.009891744 0.013066295
-0.0045495657 -0.0018359715 -0.015157848 -0.030740205 0.02410257 0.013995252 -0.00798377 0.036078256
0.016287036 -0.0024574802 0.0010932544 0.010803967 0.0004357256 -0.002963547 0.029401353 0.0067108907
0.023464872 -0.01844479 0.009247855 0.038872756 0.020486554 -0.005246184 0.01951667 0.038974654
-0.016247159 -0.0016625328 0.018289054 0.0042659063 0.03838222 0.050234426 -0.0153624965 0.02871247
0.008904068 0.0017607482 0.005424464 0.00044944408 0.023464624 0.015482186 -0.0074229497 0.009624611
-0.026537443 0.015326387 -0.01989202 0.004311764 -0.0026405274 0.018186677 0.017983574 0.020184435

action_model._continuous_distribution.mu.bias f4 [3]
00000000: 0000 0000 0000 0000 0000 0000
0.0 0.0 0.0

network_body._body_endoder.seq_layers.0.weight f4 [128, 9]
00000000: 20bf 143f 2663 223e 08f1 e53e 0c94 4a3d
00000010: eefd 05bf 8cbf 33bd bc51 013e 8a36 49bd
00000020: 4aea 86be 6295 043d 0eee 02be b061 5b3d
00000030: b302 7d3e 0398 51bd a04c 15bf 38de 8bbe
00000040: 4c6d 353d 17e3 65be df22 d43e aa4c 313e
00000050: d59a 9f3e 1db9 103f 1e13 f53e 0468 2e3e
00000060: 647f 64bc d444 cdbe 0736 51be 62a4 563e
00000070: 9025 3ebe 5e35 9bbe e60e d3bd ad56 11bf
00000080: f37e b3ba 7882 b2bd cef0 1f3e d0a8 983e
00000090: c241 1d3e 1770 b13e 0660 6abe ea22 babd
000000a0: c869 a3bd ac27 b43b 0a5f f7bd 8d6f 143d
000000b0: 8152 823e c2ea 483d f252 57bd af0d 453f
000000c0: 5661 b5bd 744c 0d3f aec2 653e 1ba3 96be
000000d0: 3bec ddbe a7ed 10bf 6cb5 253d a440 aebc
000000e0: 164a 06bd ba1c 383e 1e18 78be 63d7 babe
000000f0: 211a 1ebf 1b57 8fbe feec da3b d7ca efbe
00000100: 526c 9ebe d6b3 2e3f 9e77 813e cef2 9c3e
00000110: f2fa babe 8be7 f0bd 87fc 793c 468f 273f
00000120: 837c 37be cb30 2bbe e291 5e3e 2458 b4be
00000130: e214 0a3f 6454 a13d c713 09be fcc1 7c3e
00000140: 448d 86be 7768 ac3d d738 53be 69db 0f3e
00000150: 03dc b53e 93ca f5be cc03 233e fba0 a73e
00000160: 1e9c ce3d 8a16 c23d d8cc c63e 7e36 78be
00000170: ca6e a73d 4b90 21be f8aa b93e 8245 c0bd
00000180: d010 00bf 42af 863d d3fc 7cbc 14d0 c5bd
00000190: 0410 67be 5d83 0d3f ebdc b33d 8ce9 e93d
000001a0: 7fe2 d43e 142c 903e 4479 50bf 4051 e0bd
000001b0: 51dd 9d3e 289d d53e c2d1 c9be 185c f13d
000001c0: b5f8 93be b3c6 3cbe 364e 2b3d 3edf 243e
000001d0: 027c b4be 486a 383e 3a45 3d3e 3478 3f3f
000001e0: 3653 193e cb9b 4c3e b87a 203e 5218 583e
000001f0: 6e4a 01bf d342 c4be 4a36 f7bd 46b5 bb3d
00000200: 69da 1dbf 2efc 073e 7823 9bbe 34be a93e
00000210: 9f4c d1bd c6e4 28be 94c6 123f 5ac7 933e
00000220: b4dd 1a3d bceb b63d a436 c73e db15 87be
00000230: a02e ddbe d81f 18bf 4409 34bd ae62 163e
00000240: 22d8 993d 0dce 273e f2b6 f2be d2a2 803e
00000250: d673 1bbe 6a05 cdbe 20c6 4c3e 43ea 723e
00000260: a674 8bbd 6f01 41bd 7a41 8f3d 53d8 dcbc
00000270: efe6 a43b 01ac 11bc 747f f4bd 1495 bbbc
00000280: 34a3 a7bd ba31 8bbe 802c afbd f634 f53e
00000290: 236d 3dbe 70fd 613e db64 2c3d b72c b43e
000002a0: 6809 2d3f d4ca f0bd 5fec c5be 52cf 9bbe
000002b0: 0fef f83e 6092 e2be 04ca 8bbe 2a19 9c3e
000002c0: 3c4d 393d 5c9f 78bd c244 61be e88f 07bd
000002d0: 8a94 b73d ac2e ff3e 6cb4 7dbd 90c2 ccbe
000002e0: 78d4 713f d031 f0be 30d9 223f 8604 bf3c
000002f0: 1fdf 553d 0ab3 b63e b9fb 1fbf 7e9c 1f3f
00000300: ea4a febe 03ee 76bd af05 613e 1c94 8b3e
00000310: 63de 16bf 1bb0 b83e f2d8 8d3f f3e6 603e
00000320: 3bac 77be f609 cebd b249 d33d 4401 e33e
00000330: fcf2 943e 0f85 133e e90f 24bf 4627 873e
00000340: 13ef 27bf 07d0 0bbe 7d1c 863e 6435 933e
00000350: a626 aabe b3cc eebe 0b35 28be f74c 5dbe
00000360: d0f7 443e c7fc 10bf 8ec0 f9bb af85 bdbe
00000370: 0819 563f 5d60 043e 5ed6 023f e1db 24be
00000380: 4605 133f fcb3 cabe f13a 27be b6c5 a43e
00000390: b28e 533e a757 c3be e037 9a3d 83ef d03c
000003a0: 1730 b73e d279 d83d 0005 193f 24b8 4cbd
000003b0: 589c 913e f7af 3fbc bc0d 1a3f 4e86 0ebf
000003c0: 20ce aabe 320e dc3d 0c2f 68be 63d5 b03e
000003d0: eb04 78bf cf2e 51bd 12db 60be 6681 193d
000003e0: d693 883e fcda f63e 7b30 53be b30c 2ebe
000003f0: 6c7c 11bf e473 f13d 5b1f 18be 50a8 a3bb
0.58104134 0.15858135 0.44910455 0.049457595 -0.5234059 -0.043883845 0.12628835 -0.049124278
-0.26350623 0.032369025 -0.12786123 0.05355996 0.24708061 -0.05117036 -0.58320045 -0.27317977
0.044293687 -0.22449909 0.41432855 0.17314401 0.31172815 0.5653246 0.47866148 0.17031866
-0.013946388 -0.40091574 -0.20430766 0.20961145 -0.18569016 -0.30314153 -0.10305576 -0.5677288
-0.001369445 -0.08716291 0.15619203 0.29816294 0.15357116 0.3465583 -0.22888193 -0.090886906
-0.079791605 0.0054978933 -0.12078674 0.036239196 0.2545357 0.049052007 -0.052569337 0.76974005
-0.08856456 0.55194783 0.22437546 -0.29421315 -0.43344292 -0.5661263 0.04045622 -0.021271057
-0.032785498 0.17979708 -0.2422795 -0.36492452 -0.6175862 -0.27996144 0.0066810837 -0.46834442
-0.30942017 0.6824316 0.25286573 0.30653995 -0.3651958 -0.11762913 0.015257961 0.6545299
-0.17918591 -0.16717832 0.21735337 -0.35223496 0.53938115 0.07877424 -0.1338645 0.24683374
-0.26279652 0.084183626 -0.20627151 0.14048542 0.35519418 -0.48006114 0.15919417 0.32740006
0.10088371 0.09476955 0.38828158 -0.24239537 0.08175428 -0.157777 0.3626325 -0.093882576
-0.50025654 0.065763965 -0.015441137 -0.096588284 -0.22564703 0.5527857 0.08782371 0.11421499
0.41579053 0.2815863 -0.81435037 -0.10952997 0.30832914 0.41721463 -0.39417845 0.117851436
-0.28900686 -0.18435173 0.041822635 0.16100785 -0.3525086 0.18009293 0.18483439 0.7479279
0.14973149 0.19981305 0.15671813 0.21103027 -0.50504196 -0.38332233 -0.12070902 0.091654345
-0.6166139 0.13279793 -0.30300498 0.33152926 -0.102196924 -0.1649352 0.57334256 0.2886303
0.03780909 0.089316815 0.38908875 -0.26383862 -0.43199635 -0.5942359 -0.04395415 0.14686081
0.07511927 0.16387196 -0.474052 0.25124222 -0.15180907 -0.40043193 0.19997454 0.23722176
-0.06809358 -0.047120508 0.069949105 -0.02695862 0.0050324122 -0.008891107 -0.11938372 -0.022898234
-0.081854254 -0.27186376 -0.085534096 0.47891968 -0.18498664 0.22069335 0.04208837 0.35190365
0.6759248 -0.117574364 -0.386569 -0.3043161 0.48619887 -0.442523 -0.27302563 0.3048795
0.045239672 -0.060698852 -0.21998885 -0.033096224 0.089638785 0.49840295 -0.06193964 -0.3999219
0.94464827 -0.46913004 0.6361265 0.023317587 0.052214738 0.3568347 -0.62493473 0.62348163
-0.4966653 -0.06028558 0.21974824 0.27261436 -0.58933085 0.36071858 1.1081831 0.219631
-0.24186794 -0.10060494 0.10316791 0.44336903 0.29091632 0.14406227 -0.64086777 0.2639715
-0.65599173 -0.13653575 0.2619361 0.2875167 -0.3323261 -0.46640548 -0.16426484 -0.21611391
0.19235158 -0.5663571 -0.0076218313 -0.37016055 0.83631945 0.12927385 0.5110835 -0.16099502
0.5742992 -0.39590442 -0.16331078 0.3218209 0.20659903 -0.3815281 0.075301886 0.025504833
0.35778877 0.105701104 0.59773254 -0.049980298 0.28439593 -0.011699668 0.60177207 -0.5567368
-0.33360386 0.10744895 -0.22674197 0.345378 -0.96882504 -0.05107003 -0.21958569 0.03747692
0.2667529 0.48213947 -0.20623963 -0.16997032 -0.5683048 0.117896825 -0.14855711 -0.0049944296

network_body._body_endoder.seq_layers.0.bias f4 [128]
00000000: 0000 0000 0000 0000 0000 0000 0000 0000
00000010: 0000 0000 0000 0000 0000 0000 0000 0000
00000020: 0000 0000 0000 0000 0000 0000 0000 0000
00000030: 0000 0000 0000 0000 0000 0000 0000 0000
00000040: 0000 0000 0000 0000 0000 0000 0000 0000
00000050: 0000 0000 0000 0000 0000 0000 0000 0000
00000060: 0000 0000 0000 0000 0000 0000 0000 0000
00000070: 0000 0000 0000 0000 0000 0000 0000 0000
00000080: 0000 0000 0000 0000 0000 0000 0000 0000
00000090: 0000 0000 0000 0000 0000 0000 0000 0000
000000a0: 0000 0000 0000 0000 0000 0000 0000 0000
000000b0: 0000 0000 0000 0000 0000 0000 0000 0000
000000c0: 0000 0000 0000 0000 0000 0000 0000 0000
000000d0: 0000 0000 0000 0000 0000 0000 0000 0000
000000e0: 0000 0000 0000 0000 0000 0000 0000 0000
000000f0: 0000 0000 0000 0000 0000 0000 0000 0000
00000100: 0000 0000 0000 0000 0000 0000 0000 0000
00000110: 0000 0000 0000 0000 0000 0000 0000 0000
00000120: 0000 0000 0000 0000 0000 0000 0000 0000
00000130: 0000 0000 0000 0000 0000 0000 0000 0000
00000140: 0000 0000 0000 0000 0000 0000 0000 0000
00000150: 0000 0000 0000 0000 0000 0000 0000 0000
00000160: 0000 0000 0000 0000 0000 0000 0000 0000
00000170: 0000 0000 0000 0000 0000 0000 0000 0000
00000180: 0000 0000 0000 0000 0000 0000 0000 0000
00000190: 0000 0000 0000 0000 0000 0000 0000 0000
000001a0: 0000 0000 0000 0000 0000 0000 0000 0000
000001b0: 0000 0000 0000 0000 0000 0000 0000 0000
000001c0: 0000 0000 0000 0000 0000 0000 0000 0000
000001d0: 0000 0000 0000 0000 0000 0000 0000 0000
000001e0: 0000 0000 0000 0000 0000 0000 0000 0000
000001f0: 0000 0000 0000 0000 0000 0000 0000 0000
0.0 0.0 0.0 0.0 0.0 0.0 0.0 0.0
0.0 0.0 0.0 0.0 0.0 0.0 0.0 0.0
0.0 0.0 0.0 0.0 0.0 0.0 0.0 0.0
0.0 0.0 0.0 0.0 0.0 0.0 0.0 0.0
0.0 0.0 0.0 0.0 0.0 0.0 0.0 0.0
0.0 0.0 0.0 0.0 0.0 0.0 0.0 0.0
0.0 0.0 0.0 0.0 0.0 0.0 0.0 0.0
0.0 0.0 0.0 0.0 0.0 0.0 0.0 0.0
0.0 0.0 0.0 0.0 0.0 0.0 0.0 0.0
0.0 0.0 0.0 0.0 0.0 0.0 0.0 0.0
0.0 0.0 0.0 0.0 0.0 0.0 0.0 0.0
0.0 0.0 0.0 0.0 0.0 0.0 0.0 0.0
0.0 0.0 0.0 0.0 0.0 0.0 0.0 0.0
0.0 0.0 0.0 0.0 0.0 0.0 0.0 0.0
0.0 0.0 0.0 0.0 0.0 0.0 0.0 0.0
0.0 0.0 0.0 0.0 0.0 0.0 0.0 0.0

network_body._body_endoder.seq_layers.2.weight f4 [128, 128]
00000000: bdc5 efbd 847b 16be 2dbf db3c fab3 073e
00000010: 6273 893d 1a45 563e bd12 e23d 11c5 82bc
00000020: c66f 37be a077 853d 4b13 e5bd 5996 debd
00000030: 4450 163e 32bc 083e 9f1a 5e3d e13d 663d
00000040: ce8f c0bd 907f 4c3e 30f6 24bd 099c 25be
00000050: 7ad0 2ebd 4df7 0bbe 35ea fa3d 60bc dc3d
00000060: f5b3 0c3e e6ca d4bd 905d 03bd 0634 183e
00000070: d9ba cabd 6f8a 8f3d 2c16 dbbc 6ca1 1fbe
00000080: b420 0ebe 8501 94bb 4ac2 01be 0c56 0bbe
00000090: f230 103d 9af4 d53d 710e bc3d 3fab 4bbd
000000a0: 2093 a53d f13f 42bd 0259 d43d b765 623c
000000b0: 773e 9dbc e228 8d3d 7c38 01be 9c41 403c
000000c0: ca99 40bd ae46 aa3c 2713 14be 2093 623e
000000d0: 57df 383e 1eb2 55bd ecf0 ecbb b7be 5c3c
000000e0: 730a 793a bd01 8bbd 6764 723c 6598 8e3d
000000f0: ac57 af3d d1fb c83c dc14 cb3d 113f b8bc
00000100: f1af 81bd b299 1a3c 0247 34be 6e16 34be
00000110: 601e 20be 8564 383c bc62 193d d4d9 5ebc
00000120: 7038 033e 9c21 0cbd e655 18be f529 53bd
00000130: 5bdc 81bd 66c7 1dbd 2a97 0b3e 82e5 d83c
00000140: 1e74 bb3d 1f29 7d3c a0a7 cd3d 76a5 233d
00000150: 551d beba eaeb da3c 1ed3 253b ca0b 35bd
00000160: 3639 393d 9660 293d 14b8 da3d fb10 a43d
00000170: 93f3 a9bc 8dc3 433d 416d a2bd 8ae3 8dbd
00000180: eccb 583d 4d84 113d 01c0 3c3d f99c 06bd
00000190: fe0d b5bd ef2a 5bbd d45d 33be 320e 933c
000001a0: ee01 4fbb a7e5 1dbe 5fd3 4b3e 857c c3bd
000001b0: f309 e13d fa21 59bd 713f 0cbe 6e91 493d
000001c0: c572 43b7 8102 0e3e d1aa a5bc 1ed6 d53d
000001d0: 8eb4 e1bd 8d65 1ebd 3366 d13c b182 f2bc
000001e0: 75d4 2ebd d14f ad3c f57e 533d 19d6 1d3e
000001f0: 6dd8 fdbd 62e1 ae3d 077f 903d 72ba ca3d
00000200: d528 3cbd 0ec3 a2bd e56e 5e3d 86ec 6b3d
00000210: d621 163e 8029 60be bc7e 4e3c e36a 023e
00000220: 809f db3c f4b3 d13c 38ef de3c 9623 fc3a
00000230: 59c6 8e3d 2c39 10be c4fb 473a ad1b acbb
00000240: 701a 01be 2983 98bd 96c6 71bc 36b3 173e
00000250: c570 1dbe 3777 62bd b9f0 58be 788d 403e
00000260: a2eb 80bd 3d81 71bd 6b9e 023c e285 6abc
00000270: 7cfe 0e3d b38a ae3c 10fd b33c 3f0f 173d
00000280: 4f9f b9bd 743b e13c fbac 0e3c 4a8c ce3d
00000290: 04f2 0fbc 6e5a a03c f55e 8cbd 2f51 e03c
000002a0: 0c4e 473d 47b7 cbbd 1095 21bd 5334 8e3d
000002b0: d90e e8bd ac34 8d3b 691d f73d be4d 2e3e
000002c0: ca5a 303c b99c 99bd bc0d 733d 9fe8 6c3c
000002d0: 00c5 a3bd 4882 923d d416 013e c06b 20be
000002e0: 4170 78bd 867d 0bbe 8fd0 293c 0676 8a3d
000002f0: bf68 d3bd 6d18 8bbc 8757 013d eacd e23c
00000300: e6ce fcbd b010 1dbc dc2f 6d3d 9f77 25be
00000310: 7232 3cbc 75e8 043e b53e eabd e3f4 f4bd
00000320: 94b1 74bd 8a98 933c 5283 443e 30b7 e83c
00000330: 5f5b 103e 72c8 ee3d f903 77bc 97b6 89bd
00000340: ca43 1abd 08a5 f53d 8809 c33d 5ce2 25be
00000350: 161c 19be 53b5 5e3d 6d30 17bd df5d 6f3d
00000360: c5d1 943c 7605 9b3d a948 f3bc 1104 db3d
00000370: f504 8dbd a43c 35b9 d3ba aa3c 5a44 dbbc
00000380: 113a 3a3d bd05 c4bd cd43 8d3d 2ea8 b7bd
00000390: f682 113e 2aa2 243d 31cc 33be 03d0 ccbd
000003a0: fe92 cfbd 22dc b4bc b7a8 983d 29d4 52be
000003b0: 7b83 dc3d 44dd e0bc 2d28 f93d 6b56 74bd
000003c0: d941 b63c 25ee c53d 187a 2abe b9b2 6c3d
000003d0: 1cc2 56bd 3bbe 543e b2c9 dbbb ce69 983d
000003e0: a774 6c3b f19b d6bd 14de c2bd 5cd5 d03d
000003f0: 0951 103e bab3 493c 52e0 1abc ab54 ecbd
-0.117076375 -0.14695555 0.026824558 0.1325225 0.06711461 0.20924798 0.1103873 -0.01596311
-0.17913732 0.06516957 -0.111853205 -0.1086852 0.14679056 0.13353041 0.054224607 0.056211356
-0.094024286 0.19970536 -0.040273845 -0.16172804 -0.042679287 -0.13668557 0.12251703 0.10778117
0.13740523 -0.10390262 -0.03207165 0.14863595 -0.098989196 0.07008826 -0.02674397 -0.15588921
-0.13879663 -0.0045167827 -0.12671772 -0.13607043 0.035202928 0.10447045 0.09182442 -0.04972386
0.080847025 -0.04742426 0.103685394 0.013818196 -0.019194825 0.068925634 -0.12619203 0.0117343925
-0.047021665 0.020785656 -0.14460431 0.22126436 0.18053947 -0.05217182 -0.0072308686 0.013473204
0.0009500153 -0.06787441 0.014794446 0.06962661 0.08561644 0.024534138 0.09916088 -0.02249101
-0.06332386 0.009436058 -0.17605212 -0.17586681 -0.15636587 0.0112544345 0.037447676 -0.013601739
0.12814498 -0.03421174 -0.14876518 -0.051553685 -0.063408576 -0.03852024 0.13631883 0.026476625
0.09153007 0.015451699 0.100417376 0.039952718 -0.0014504591 0.02672382 0.0025302838 -0.044200696
0.045220576 0.041351877 0.10679641 0.08011051 -0.020746028 0.047793914 -0.07930995 -0.06928165
0.05292885 0.035526562 0.046081547 -0.032864545 -0.088405594 -0.05350774 -0.17516261 0.017951105
-0.0031586844 -0.15419637 0.1990485 -0.095452346 0.10988226 -0.05301092 -0.13696076 0.04921096
-1.1649628e-05 0.13868143 -0.020223053 0.1044123 -0.11020766 -0.038671065 0.025561428 -0.029603334
-0.042683084 0.021156223 0.051634748 0.15413703 -0.123947956 0.08539082 0.070554785 0.09898843
-0.045937378 -0.0794736 0.054304976 0.057598613 0.14661345 -0.21890831 0.012603458 0.12736087
0.026809454 0.025598504 0.027213678 0.001923668 0.069714256 -0.1408431 0.00076287636 -0.0052523226
-0.12607741 -0.07446892 -0.014756819 0.14814457 -0.1537505 -0.055289473 -0.21185578 0.18803966
-0.062949434 -0.05896114 0.00797234 -0.014314147 0.034910664 0.021306371 0.021971256 0.036879774
-0.09063589 0.02749417 0.008708234 0.10085352 -0.008785728 0.01957437 -0.06854049 0.027382461
0.048658416 -0.09947067 -0.039448798 0.06943574 -0.11330957 0.0043092575 0.120661564 0.17021844
0.010763833 -0.075005956 0.05933927 0.014459758 -0.07996559 0.071537554 0.12606364 -0.15666103
-0.06065393 -0.13622102 0.010364666 0.067607924 -0.10322713 -0.01697942 0.031577613 0.027686078
-0.1234415 -0.009586498 0.05790697 -0.16158913 -0.0114866365 0.129793 -0.11437742 -0.11960771
-0.059739664 0.018017072 0.1919072 0.028407663 0.14097355 0.11659326 -0.015076631 -0.067242794
-0.037662305 0.11994368 0.09523302 -0.1619963 -0.1495212 0.054372143 -0.036911417 0.05843913
0.018166432 0.07569401 -0.029697733 0.10694135 -0.06885711 -0.00017284096 0.020841038 -0.026765991
0.045465533 -0.09571407 0.068976976 -0.089676246 0.14210114 0.040193714 -0.17558362 -0.100006126
-0.101354584 -0.022077624 0.07454055 -0.20588745 0.107672654 -0.027449258 0.12165866 -0.059652727
0.022248195 0.09664563 -0.16648138 0.05778763 -0.05243121 0.20775692 -0.0067073936 0.07442056
0.0036080272 -0.10478962 -0.09515014 0.10196945 0.14093412 0.012310917 -0.009452896 -0.11539587

network_body._body_endoder.seq_layers.2.bias f4 [128]
00000000: 0000 0000 0000 0000 0000 0000 0000 0000
00000010: 0000 0000 0000 0000 0000 0000 0000 0000
00000020: 0000 0000 0000 0000 0000 0000 0000 0000
00000030: 0000 0000 0000 0000 0000 0000 0000 0000
00000040: 0000 0000 0000 0000 0000 0000 0000 0000
00000050: 0000 0000 0000 0000 0000 0000 0000 0000
00000060: 0000 0000 0000 0000 0000 0000 0000 0000
00000070: 0000 0000 0000 0000 0000 0000 0000 0000
00000080: 0000 0000 0000 0000 0000 0000 0000 0000
00000090: 0000 0000 0000 0000 0000 0000 0000 0000
000000a0: 0000 0000 0000 0000 0000 0000 0000 0000
000000b0: 0000 0000 0000 0000 0000 0000 0000 0000
000000c0: 0000 0000 0000 0000 0000 0000 0000 0000
000000d0: 0000 0000 0000 0000 0000 0000 0000 0000
000000e0: 0000 0000 0000 0000 0000 0000 0000 0000
000000f0: 0000 0000 0000 0000 0000 0000 0000 0000
00000100: 0000 0000 0000 0000 0000 0000 0000 0000
00000110: 0000 0000 0000 0000 0000 0000 0000 0000
00000120: 0000 0000 0000 0000 0000 0000 0000 0000
00000130: 0000 0000 0000 0000 0000 0000 0000 0000
00000140: 0000 0000 0000 0000 0000 0000 0000 0000
00000150: 0000 0000 0000 0000 0000 0000 0000 0000
00000160: 0000 0000 0000 0000 0000 0000 0000 0000
00000170: 0000 0000 0000 0000 0000 0000 0000 0000
00000180: 0000 0000 0000 0000 0000 0000 0000 0000
00000190: 0000 0000 0000 0000 0000 0000 0000 0000
000001a0: 0000 0000 0000 0000 0000 0000 0000 0000
000001b0: 0000 0000 0000 0000 0000 0000 0000 0000
000001c0: 0000 0000 0000 0000 0000 0000 0000 0000
000001d0: 0000 0000 0000 0000 0000 0000 0000 0000
000001e0: 0000 0000 0000 0000 0000 0000 0000 0000
000001f0: 0000 0000 0000 0000 0000 0000 0000 0000
0.0 0.0 0.0 0.0 0.0 0.0 0.0 0.0
0.0 0.0 0.0 0.0 0.0 0.0 0.0 0.0
0.0 0.0 0.0 0.0 0.0 0.0 0.0 0.0
0.0 0.0 0.0 0.0 0.0 0.0 0.0 0.0
0.0 0.0 0.0 0.0 0.0 0.0 0.0 0.0
0.0 0.0 0.0 0.0 0.0 0.0 0.0 0.0
0.0 0.0 0.0 0.0 0.0 0.0 0.0 0.0
0.0 0.0 0.0 0.0 0.0 0.0 0.0 0.0
0.0 0.0 0.0 0.0 0.0 0.0 0.0 0.0
0.0 0.0 0.0 0.0 0.0 0.0 0.0 0.0
0.0 0.0 0.0 0.0 0.0 0.0 0.0 0.0
0.0 0.0 0.0 0.0 0.0 0.0 0.0 0.0
0.0 0.0 0.0 0.0 0.0 0.0 0.0 0.0
0.0 0.0 0.0 0.0 0.0 0.0 0.0 0.0
0.0 0.0 0.0 0.0 0.0 0.0 0.0 0.0
0.0 0.0 0.0 0.0 0.0 0.0 0.0 0.0

value_heads.value_heads.extrinsic.weight f4 [1, 128]
00000000: eec9 823d 154a ed3c b2ab 1dbe dc3f 9b3d
00000010: 9c72 563e 514b 43bd ddbd a3bd ac98 8fbd
00000020: ef8e 173d f082 f03d 28f6 323d 4f61 32be
00000030: 8df2 fc3d 87d0 46be 6b59 483d 5a3b 5a3d
00000040: bd25 3fbe f4f2 c13b b4cb 41bc 7943 43bd
00000050: 5839 14be 3841 263d 539f d6bd f010 183e
00000060: 594b 173d f2b5 b93d b57b 323e 58c6 483e
00000070: 5e09 dbbd 2fb1 6b3b 041c 5fbd ff95 6bbd
00000080: 1521 18be 0575 03be 29c1 d8bd 44e2 113e
00000090: 0a13 4c3c ca2c a1bd e08b 49be 6258 4a3d
000000a0: d76d 223e 1f46 343e 1048 2b3e e522 5b3d
000000b0: 9987 38bc 90ea e03d 6bcb 3fbe e371 13be
000000c0: 88ff ffbc 7cae 1a3d e255 6f3d 8b81 d13d
000000d0: 9c65 75bd e598 efbd 27bb 41bd 3858 f93d
000000e0: 9576 2ebd 914e 293e 9599 27bc dc49 2f3e
000000f0: 9713 44be 36e0 92bb fa51 10bd f2e1 ec3d
00000100: 84f0 4abe 4085 2c3e 948a aa3d f304 513e
00000110: dbd9 263b 8b4d 42be 5dcb 4f3e b48d d6b9
00000120: a91e bebd 08ce a0bd 33e0 1cbe 6953 c1bd
00000130: 85df 1fbe f590 d23c e3d2 39be cf15 9dbd
00000140: 22ef d53d f8f5 013c 1f3d c4bd df2b dbbd
00000150: cd63 42bc e125 c23d ab73 f53b dfb0 533d
00000160: 0bc8 763d e074 17be 4978 2cbe 5476 27be
00000170: bb23 d03d e353 04be 2b15 913c ce80 1ebe
00000180: d3ac d9bc 402a dfbd 001a ad3d 2b3d e3bc
00000190: 0cfa bb3c 288d 053e 0af9 82bc 6352 4f3e
000001a0: 9474 523e 19d2 5b3e 9add 40be 65ca cbbd
000001b0: cdd5 4abe ba53 a6bd eb3c 8e3c e18f 593e
000001c0: 88c9 4ebe 8789 c03d f637 c3bc 40d2 dd3c
000001d0: 9e36 f33d e4f1 3b3e cbd4 49be abc9 c93d
000001e0: 8117 e13d 0692 293b 9710 38be c048 243e
000001f0: cb82 b93d 20eb 69bd af64 b339 4a9f 163e
0.06386171 0.02896599 -0.15397528 0.075805396 0.20942158 -0.04767925 -0.07995198 -0.07011542
0.037001546 0.11743724 0.043691784 -0.17419933 0.123509504 -0.19415484 0.0489134 0.05327926
-0.1866674 0.005918855 -0.011828352 -0.04767177 -0.14475 0.04058954 -0.104796074 0.14850211
0.03693709 0.090679064 0.17430003 0.19606912 -0.10695146 0.0035963764 -0.054470077 -0.057516094
-0.1485637 -0.12837608 -0.105837174 0.1424647 0.012455711 -0.07869871 -0.19682264 0.049400695
0.15862213 0.17604874 0.16726708 0.053500075 -0.011262798 0.10982239 -0.18729942 -0.14398913
-0.031249776 0.037764058 0.058431514 0.102297865 -0.059911355 -0.11699084 -0.047297623 0.121750295
-0.042593557 0.16533877 -0.010229488 0.17118019 -0.19148098 -0.0044822944 -0.03523443 0.11566533
-0.19818312 0.16847706 0.08327213 0.20412044 0.0025459442 -0.18974893 0.2029242 -0.00040922838
-0.09283192 -0.07851797 -0.153199 -0.09439737 -0.1561261 0.025703887 -0.18146853 -0.07670175
0.104460016 0.007932179 -0.095819704 -0.10701727 -0.011864615 0.09479881 0.0074905953 0.05168235
0.06024937 -0.14790678 -0.1684276 -0.16353732 0.10163065 -0.12922625 0.017710289 -0.15478823
-0.026571667 -0.108967304 0.08452225 -0.027739128 0.02294638 0.13042128 -0.015987892 0.20246272
0.20552284 0.21466865 -0.18834534 -0.09950713 -0.19808121 -0.08121438 0.017363032 0.21246292
-0.20194066 0.09401231 -0.023830395 0.027077794 0.11875652 0.18353993 -0.1971008 0.09852918
0.10990811 0.002587439 -0.17975079 0.16043377 0.0905815 -0.057109 0.00034216556 0.14709201
