results/jugglingRobotV1/JugglingRobotV1/JugglingRobotV1-27520.pt (torch, 449887 bytes, 36 tensors)

network_body._body_endoder.seq_layers.0.weight f4 [128, 9]
0	0x3d18b855	0.037285168
1	0x3f08f142	0.5349313
2	0xbe27723a	-0.16352168
3	0xbe062476	-0.13099846
4	0x3be20617	0.0068976986
5	0xbe80a4a5	-0.25125614
6	0xbe9b8aa8	-0.30379224
7	0xbe07f096	-0.1327537
8	0xbf448e42	-0.7677957
9	0xbc350d0f	-0.011050477
10	0xbf047b60	-0.51750755
11	0x3e003292	0.12519291
12	0xbf302627	-0.68808216
13	0xbe6f1c2d	-0.23350592
14	0xbd18a68e	-0.037268214
15	0x3f3417ee	0.70349014
16	0xbd3492f3	-0.044085454
17	0x3da96ccc	0.082727045
18	0xbe12ad2c	-0.14323872
19	0xbe7e46dd	-0.2483172
20	0xbe747c33	-0.23875503
21	0xbe4eac09	-0.20182814
22	0xbf4fa4a9	-0.81110626
23	0x3e9d85e6	0.3076622
24	0x3eb414e2	0.35172182
25	0x3cc81070	0.0244219
26	0xbef226c3	-0.47295198
27	0xbcc167dd	-0.023609096
28	0xbdd9f70e	-0.10642825
29	0x3f1b1788	0.6058278
30	0x3d390f59	0.045180652
31	0x3e65a2fb	0.22425453
32	0xbe1cda6b	-0.15317695
33	0x3e87fcec	0.26560152
34	0xbe858207	-0.26075765
35	0xbd27ce02	-0.04096795
36	0xbf125f0e	-0.5717629
37	0x3e2c5a4c	0.1683132
38	0x3d296cd5	0.041363556
39	0xbe7d3c72	-0.2473009
40	0xbf020eea	-0.5080401
41	0x3e144733	0.14480285
42	0x3efaf7c4	0.49017155
43	0x3ea3d3e1	0.31997588
44	0x3eabb9fa	0.33540326
45	0xbed34c2f	-0.4126906
46	0xbe76110d	-0.24029942
47	0xbe01baa3	-0.12668853
48	0x3e1c29a1	0.15250255
49	0xbec70f1b	-0.38878712
50	0xbd118394	-0.035525873
51	0x3f1695fb	0.588226
52	0xbdb6d7e6	-0.08927898
53	0xbe6b49d6	-0.22977385
54	0xbefc7836	-0.49310464
55	0x3d8465c4	0.06464723
56	0x3e9a15a5	0.30094638
57	0x3e8f5a89	0.2799876
58	0xbe882a12	-0.26594597
59	0xbeb8cc25	-0.3609325
60	0x3ed1f1c7	0.41004774
61	0x3e281bdc	0.16416878
62	0xbd49ed84	-0.04929878
63	0xbee915d6	-0.45524472
64	0x3c219f6e	0.009864671
65	0xbea381fb	-0.31935105
66	0xbed02882	-0.40655905
67	0x3e0ea94b	0.13931768
68	0x3ea9789f	0.3309984
69	0x3c8b5026	0.017005991
70	0xbe811471	-0.25210908
71	0x3ef5157a	0.47867948
72	0xbf2d0570	-0.6758642
73	0x3f3766bc	0.71641135
74	0xbf37713f	-0.71657175
75	0x3ea5f6d3	0.32414874
76	0x3efd8c0c	0.4952091
77	0x3d8d67ef	0.069045894
78	0x3e169810	0.14706445
79	0xbdb8e1b7	-0.09027427
80	0x3ece3cfe	0.40280908
81	0xbf1dbda2	-0.6161748
82	0x3eca2964	0.39484704
83	0x3d440a10	0.04786116
84	0x3ddd3b61	0.10802341
85	0xbea6a6d0	-0.32549143
86	0xbda9b3e8	-0.082862675
87	0x3e8f8d0a	0.28037292
88	0xbe20ff70	-0.15722442
89	0xbe99b2f7	-0.30019352
90	0x3e666c5e	0.22502276
91	0x3ec66055	0.3874537
92	0x3dc8f4c0	0.09812307
93	0x3e8b2e5d	0.2718381
94	0xbebd170f	-0.36931655
95	0xbe0ea379	-0.13929547
96	0x3de6d992	0.11271967
97	0xbeb6a456	-0.35672253
98	0x3d5babea	0.053630747
99	0xbef9b421	-0.4877024
100	0xbdd86075	-0.10565273
101	0x3f058809	0.521607
102	0x3e9ffdab	0.3124822
103	0xbf431dc7	-0.7621731
104	0xbe7cff29	-0.24706711
105	0xbecf4d6e	-0.40488762
106	0x3e5baa9e	0.21451804
107	0xbd926a56	-0.07149188
108	0x3e266c3a	0.16252223
109	0xbc76cda3	-0.015063676
110	0xbeb09bd3	-0.34493884
111	0x3f0b6155	0.5444539
112	0x3dee8162	0.116457716
113	0x3cbeb8b2	0.023281429
114	0xbde27400	-0.110572815
115	0x3f206e72	0.62668526
116	0x3ec2a032	0.38012844
117	0xbf091c19	-0.535585
118	0x3e41fcde	0.18944117
119	0x3d7c0ccf	0.061535653
120	0x3ed1dddd	0.4098958
121	0x3e7a8291	0.2446387
122	0xbf193437	-0.598453
123	0xbf4759fc	-0.7787168
124	0x3e6ee378	0.2332896
125	0xbeee2484	-0.46512234
126	0x3dac0c34	0.08400765
127	0x3edb8f22	0.4288264
128	0xbd9b1e5b	-0.07574149
129	0x3e8646cf	0.26225898
130	0xbe9fbaf1	-0.31197312
131	0x3dd2d110	0.10293782
132	0xbe142329	-0.14466538
133	0xbe417e6b	-0.18895881
134	0x3da2245e	0.07917093
135	0x3e9aec5c	0.30258453
136	0x3e37f47c	0.17964357
137	0xbe891b45	-0.26778618
138	0x3e290fbe	0.16509911
139	0xbea71f3e	-0.32641023
140	0xbf188a27	-0.59585804
141	0xbe03c368	-0.1286751
142	0xbe05f842	-0.13082984
143	0x3f17f9f8	0.593658
144	0x3e1cd539	0.15315713
145	0xbf393f17	-0.7236189
146	0x3e4ef17a	0.20209303
147	0x3f1627f3	0.5865471
148	0xbda74e8b	-0.08169278
149	0xbef5e4d6	-0.4802615
150	0xbec05b42	-0.37569624
151	0xbe55bcf8	-0.20872867
152	0x3eb846d2	0.35991532
153	0xbe24066a	-0.16018072
154	0xbcbecb6d	-0.02329036
155	0x3ea45360	0.3209486
156	0xbec0f557	-0.3768718
157	0xbcfb14bf	-0.030649541
158	0xbcba6fc9	-0.022758381
159	0xbe363c4f	-0.17796443
160	0x3e76ae90	0.24090028
161	0xbd6e6be4	-0.05820836
162	0xbf0f9b62	-0.5609647
163	0x3e173f93	0.14770345
164	0xbd0f6538	-0.03500864
165	0xbef2edd0	-0.47447062
166	0x3ec769cb	0.389479
167	0xbf701982	-0.9378892
168	0xbe85b892	-0.26117378
169	0xbe5d9118	-0.2163738
170	0xbf29fbae	-0.6639966
171	0x3c1822f0	0.0092856735
172	0xbf174a24	-0.59097505
173	0xbd941fc8	-0.07232624
174	0x3ea67f0c	0.32518804
175	0x3df028f8	0.11726564
176	0x3e2adfc2	0.1668692
177	0x3e713d98	0.23558652
178	0xbdc235f0	-0.09482944
179	0xbd693a3e	-0.05694031
180	0xbd0f9e91	-0.03506333
181	0xbf2b9d48	-0.6703687
182	0x3e31e37c	0.17371935
183	0xbeaa3c3d	-0.33249083
184	0xbe32dcf0	-0.17467093
185	0xbe39739c	-0.18110508
186	0xbe82b035	-0.2552506
187	0xbe3160b0	-0.1732204
188	0xbe1bd938	-0.15219581
189	0x3e6b3976	0.22971138
190	0x3e28b047	0.16473494
191	0x3f8637c9	1.0485774
192	0xbeb0edf5	-0.34556547
193	0xbeae9f2f	-0.34105822
194	0x3e701797	0.23446499
195	0x3ea32426	0.31863517
196	0x3ef73222	0.48280436
197	0x3d0e60e0	0.034760356
198	0xbecb4e91	-0.3970838
199	0x3e19d1ae	0.15021393
200	0xbe1a85d9	-0.15090121
201	0xbec99360	-0.3937025
202	0x3e40db7d	0.18833728
203	0x3e63c697	0.22243725
204	0x3dd0087a	0.10157867
205	0x3d13dd9c	0.036100015
206	0x3df5fe8b	0.12011441
207	0xbeab026c	-0.33400285
208	0x3ddf3a71	0.10899819
209	0xbe1ce152	-0.15320328
210	0xbe80e24c	-0.2517265
211	0x3e627024	0.22113091
212	0xbe872f01	-0.2640305
213	0x3e4841ef	0.19556402
214	0x3a8ac64b	0.001058766
215	0x3e8ba733	0.27276
216	0xbdcfdc88	-0.10149485
217	0xbdefe65b	-0.11713859
218	0xbe6ce231	-0.2313316
219	0x3df5a8bc	0.11995074
220	0x3f280de6	0.6564621
221	0xbec8d264	-0.39223015
222	0xbea5873c	-0.32329738
223	0xbe4aa544	-0.19789606
224	0x3e2fcdbb	0.17168324
225	0x3e3a7708	0.1820947
226	0x3dc09eb0	0.09405267
227	0xbce88d2e	-0.028387632
228	0xbe23d5a9	-0.15999474
229	0x3e35fbad	0.17771788
230	0xbe220539	-0.15822305
231	0x3f1502ab	0.58207196
232	0x3d21b47e	0.03947877
233	0xbea4b9d7	-0.32173035
234	0xbcfd0e3e	-0.03089058
235	0xbd964974	-0.07338229
236	0x3d886ddf	0.06661581
237	0x3e5af897	0.21383892
238	0x3ed16581	0.40897754
239	0xbe91ae8f	-0.2845349
240	0x3f0bc20c	0.5459297
241	0x3e8abf01	0.2709885
242	0x3f00c8f6	0.5030664
243	0x3f0538ea	0.5203997
244	0xbdfc0726	-0.12306051
245	0xbf259813	-0.6468517
246	0x3ec96d6f	0.39341304
247	0xbe1f5b41	-0.15562154
248	0xbd6ffeb6	-0.05859252
249	0xbe3e9c03	-0.18614201
250	0x3eae7724	0.34075272
251	0x3ee052b7	0.43813106
252	0xbcb9fcc8	-0.022703543
253	0xbd603891	-0.054741446
254	0xbdd3be53	-0.10339036
255	0xbe8ca02c	-0.2746595

network_body._body_endoder.seq_layers.0.bias f4 [128]
0	0xb9dc3476	-0.00042000756
1	0x398ab703	0.00026457765
2	0xba36c030	-0.0006971387
3	0xb9758456	-0.0002341432
4	0x3ad2b953	0.001607696
5	0x398395a2	0.00025097752
6	0xbb513895	-0.0031924595
7	0x3a895791	0.0010478367
8	0x3b3fe7e9	0.0029282516
9	0x3a6253ba	0.0008633692
10	0x39bacb91	0.00035628353
11	0x39a22db7	0.00030933108
12	0xba7109b6	-0.00091948675
13	0xb7087901	-8.134405e-06
14	0x39b18dab	0.00033865622
15	0x3a56a1ee	0.00081875816
16	0xbb083349	-0.0020782521
17	0x3b115ca2	0.0022180458
18	0x3a41651a	0.0007377431
19	0x39128a79	0.0001397523
20	0x3aac566f	0.0013148318
21	0xbae64200	-0.0017567277
22	0x3af087d0	0.0018351022
23	0xbab0f232	-0.0013499914
24	0xbb97e650	-0.0046356097
25	0xbb29d7c1	-0.0025915953
26	0xbb0d5bb1	-0.0021569545
27	0x3816b77e	3.5933677e-05
28	0xbbaee283	-0.005337061
29	0xba4bf342	-0.00077800837
30	0xb9dc6ae8	-0.0004204132
31	0xba93233f	-0.0011225714
32	0xba48d484	-0.0007661062
33	0x3791fcfe	1.7403156e-05
34	0xbaadd323	-0.0013261776
35	0x3a024c16	0.0004970444
36	0x3a074ca1	0.000516126
37	0xba08b774	-0.0005215325
38	0xba505716	-0.0007947547
39	0xba4765fb	-0.0007606444
40	0x3b13f619	0.0022577106
41	0xb93b0792	-0.0001783653
42	0x3a1c4898	0.0005961745
43	0x3b3da54a	0.0028937631
44	0xbaaab98c	-0.0013025268
45	0xba5c3032	-0.00083995156
46	0x39ed9fe0	0.0004532328
47	0xbbb88f9d	-0.0056323544
48	0xbadb0419	-0.0016709595
49	0xbb42cd75	-0.0029724513
50	0x3aa68660	0.0012704842
51	0x3a189f5a	0.0005822085
52	0xb9a97f49	-0.00032329027
53	0xba084021	-0.0005197544
54	0xbbaf383a	-0.005347279
55	0x398ebb7a	0.00027224032
56	0x3a5ce64a	0.000842665
57	0xbb4dda66	-0.0031410693
58	0x3915475f	0.00014236335
59	0x3b26ba0c	0.0025440482
60	0x3b0cc27a	0.0021478222
61	0xb940613a	-0.00018346767
62	0x396f556f	0.00022824643
63	0xbb1d1e8e	-0.002397451
64	0xba7d0fb1	-0.0009653522
65	0xbae3bb5d	-0.0017374564
66	0xba514e90	-0.0007984424
67	0x3a6c8bb8	0.0009023505
68	0x3b71458e	0.003681514
69	0x3a8c4aa7	0.00107034
70	0x3a1c5570	0.0005963659
71	0xbb616264	-0.003439092
72	0xb9c38c8a	-0.00037298008
73	0x3a8ee231	0.001090115
74	0x3a6b0c16	0.00089663395
75	0x37376c41	1.0932855e-05
76	0x3a51b43a	0.0007999573
77	0x39aae0d0	0.00032592425
78	0xbb09b685	-0.002101333
79	0x3971e8a4	0.00023070216
80	0xb843b66d	-4.666152e-05
81	0x3ac09334	0.0014692307
82	0xbae99780	-0.001782164
83	0xb9e4694b	-0.00043565998
84	0xba278ad6	-0.00063912326
85	0x3a2acc65	0.00065154425
86	0xbb019f88	-0.0019778926
87	0xb7ba1a00	-2.2185035e-05
88	0xb9c5c884	-0.00037724164
89	0x38b4225b	8.589468e-05
90	0x39ce4cc6	0.00039348583
91	0xba15bf13	-0.0005712371
92	0x38ba83bd	8.893709e-05
93	0xbb01e40a	-0.001981976
94	0x3b2d55f4	0.0026448937
95	0xbb27c8a6	-0.0025601774
96	0x3b597e7f	0.003318697
97	0x3aff9ac2	0.0019501077
98	0x3ab626aa	0.0013897021
99	0xba2df0ea	-0.0006635325
100	0xb8b039a1	-8.403068e-05
101	0x3964c3c6	0.00021816706
102	0x38466953	4.730497e-05
103	0xbb6e6576	-0.0036376393
104	0x3b882202	0.0041544447
105	0xba7aeac1	-0.0009571724
106	0xb8ac9cc3	-8.230798e-05
107	0xba992d21	-0.0011686423
108	0x3b2cfd5c	0.002639613
109	0xb992ab52	-0.00027974934
110	0xbb0761cb	-0.0020657654
111	0x3a3eecba	0.00072832
112	0x3a90eb59	0.0011056467
113	0x3937d23d	0.0001753056
114	0x3b9558b1	0.004557692
115	0xb9a297d6	-0.00031012174
116	0xbaacfce9	-0.0013197932
117	0xb91081c3	-0.0001378125
118	0xba9a9670	-0.0011794101
119	0x3a08a9e7	0.00052133057
120	0xbab560ae	-0.0013838017
121	0xbaffe585	-0.0019523358
122	0xb93b27f3	-0.00017848592
123	0xbb05e0a0	-0.0020428076
124	0x391f4b81	0.00015191549
125	0x3ab45c16	0.0013760354
126	0x3951b32c	0.0001999854
127	0xba3eaf4d	-0.00072740467

network_body._body_endoder.seq_layers.2.weight f4 [128, 128]
0	0x3d994630	0.0748409
1	0xbd756e80	-0.059919834
2	0xbd6d3755	-0.057914097
3	0xbc90e64d	-0.017687941
4	0xbb46345b	-0.0030243609
5	0x3e0e1bb7	0.1387776
6	0xbdc9c009	-0.09851081
7	0x3de417f9	0.11137385
8	0x3d230ff1	0.039810125
9	0xbd21be38	-0.039488047
10	0x3df2736e	0.11838423
11	0x3e3b12ff	0.18268965
12	0x3da54165	0.08069114
13	0x3d646750	0.05576259
14	0x3d7aa9b2	0.06119699
15	0xbd7f60c6	-0.06234815
16	0xbe4d0c90	-0.20024323
17	0xbd553998	-0.05205688
18	0x3bd44dd2	0.0064790035
19	0xbc029272	-0.007969486
20	0x3da64d4a	0.081202105
21	0xbddd320c	-0.10800561
22	0x3c1b06c1	0.0094620595
23	0x3e319dcd	0.17345352
24	0x3d88e2fb	0.06683918
25	0xbdf35283	-0.11880972
26	0x3d912d0a	0.07088669
27	0x3da2b335	0.07944337
28	0x3d864942	0.065569416
29	0xbd47c45b	-0.048771244
30	0x3df4cb1b	0.11952802
31	0xbe3e4ec5	-0.18584736
32	0x3d06b5a4	0.03288807
33	0x3c4b2ff9	0.012401574
34	0xbe00783b	-0.12545864
35	0x3d783dc4	0.06060578
36	0xbe05de3c	-0.13073057
37	0xbda4205c	-0.080139846
38	0xbd119019	-0.035537813
39	0x3b60e599	0.0034316538
40	0x3dad06a3	0.084485315
41	0x3df836d6	0.12119834
42	0x3df30245	0.11865667
43	0xbe13279f	-0.14370583
44	0x3c70bd51	0.014693574
45	0xbc8fd01a	-0.017555285
46	0x3dc633fd	0.09677885
47	0x3db5dcbf	0.088799946
48	0xbd478908	-0.048714668
49	0x3b5e2f3c	0.0033902666
50	0x3c531fa5	0.012885963
51	0xbe17749a	-0.14790574
52	0x3ae603fe	0.0017548797
53	0xbe0ab1f1	-0.13544442
54	0x3c891bdd	0.016736919
55	0xbc1cf515	-0.0095799165
56	0xbbdfb717	-0.006827246
57	0xbdc52a66	-0.096272275
58	0xbdcb426f	-0.099247806
59	0x3db57742	0.08860637
60	0x3d12fe78	0.03588721
61	0xbd9e7397	-0.07736891
62	0xbcf5d739	-0.030009853
63	0x3e3d63c4	0.18495089
64	0xbd3915c2	-0.045186765
65	0xbde5d990	-0.112231374
66	0xbd15da99	-0.036585424
67	0xbd7dfd6a	-0.062009253
68	0xbde87b55	-0.11351649
69	0xbd786c99	-0.06065044
70	0xbe08e9b0	-0.13370395
71	0x3ca4049e	0.020021733
72	0xbe024ddf	-0.12725018
73	0x3cad1549	0.021128314
74	0xbc994c39	-0.018713104
75	0x3d8ac40c	0.06775674
76	0xbdd42e9a	-0.10360451
77	0xbcfdfe8e	-0.03100517
78	0x3c439f78	0.011939876
79	0x3e2e37de	0.17013499
80	0x3dd71446	0.10501914
81	0x3bf72f73	0.007543498
82	0x3d4d6c6c	0.050152227
83	0x3d3f3141	0.04667783
84	0x3b954213	0.004554996
85	0x3d418524	0.047246113
86	0xbe5a8227	-0.21338712
87	0xbd139424	-0.03602995
88	0xbddce3d0	-0.10785639
89	0x3d77f656	0.06053766
90	0x3d0e70d0	0.034775555
91	0x3d9fd9df	0.078052275
92	0x3de59a85	0.11211113
93	0x3de67278	0.11252302
94	0xbc779010	-0.015110031
95	0x3dee7ddc	0.116450995
96	0x3dc4195a	0.09575148
97	0x3daa8cb1	0.08327616
98	0x3e6a4950	0.22879529
99	0xbcd7c231	-0.026337715
100	0x3c80f189	0.015740173
101	0x3d3d8915	0.04627331
102	0x3dd8a4a7	0.1057828
103	0xbd759084	-0.059952274
104	0x3cce04a6	0.0251487
105	0x3e0df6c1	0.1386366
106	0xbcbe4eb7	-0.023230894
107	0x3d62f15d	0.055405963
108	0x3d4a1025	0.049331803
109	0x3a8eb68f	0.0010888147
110	0xbc30de9b	-0.010795261
111	0x3cb5c184	0.022187002
112	0xbd5766dd	-0.052588332
113	0xbca6a723	-0.020343369
114	0xbd421a05	-0.047388095
115	0x3c086d3a	0.008326823
116	0xbd8dd450	-0.06925261
117	0x3e2b52a3	0.16730742
118	0x3e033d4e	0.12816355
119	0xbd19eb48	-0.037577897
120	0x3e6d1cbc	0.23155493
121	0x3da43e26	0.080196664
122	0x3d261716	0.04054936
123	0xbc9a57bc	-0.018840663
124	0xbc9c1fd7	-0.019058151
125	0xbca4cc81	-0.020117046
126	0x3d57c508	0.052678138
127	0x3e064906	0.13113794
128	0x3d0484cc	0.032353207
129	0x3dd1b572	0.10239686
130	0xbdc764ed	-0.09736047
131	0xbd398918	-0.04529676
132	0xbda6ed93	-0.081507824
133	0xbcacc565	-0.021090219
134	0xbbb786c0	-0.0056007802
135	0xbd159baa	-0.036525406
136	0x3c9038f1	0.017605277
137	0xbd8f09c3	-0.06984284
138	0xbc913333	-0.017724609
139	0x3cc14a72	0.023595069
140	0xbc254262	-0.010086628
141	0x3cb9adfd	0.022665972
142	0xbe932e12	-0.28746086
143	0x3a46c33f	0.00075821945
144	0x3e5071a6	0.20355853
145	0x3ca4f2c2	0.020135287
146	0x3da2c5c1	0.07947875
147	0x3e1bf2f4	0.15229398
148	0x3ccb4638	0.024813756
149	0x3caf66ca	0.021411318
150	0x3e20b49b	0.15693896
151	0xbd98c617	-0.07459658
152	0x3d8b86b0	0.06812799
153	0x3d16903c	0.036758646
154	0xbe18aa5c	-0.14908737
155	0xbe03014d	-0.12793465
156	0x3d406ca7	0.04697862
157	0xbe3a4d4b	-0.18193547
158	0x3d0fa462	0.035068877
159	0xbd9e48ef	-0.07728755
160	0xbd912a47	-0.07088142
161	0x3e389ab3	0.18027763
162	0x3d85aee5	0.06527499
163	0x3cc725a1	0.024309935
164	0x3d3a8371	0.04553551
165	0x3d3eab97	0.04655036
166	0x3d1a654b	0.037694257
167	0xbe05bcd0	-0.13060308
168	0xbdb9f871	-0.090805896
169	0xbe0263fb	-0.12733452
170	0x3d30265c	0.043005332
171	0x3dde2f8c	0.108489126
172	0x3d1bdeba	0.038054205
173	0xbe3f51e2	-0.1868358
174	0xbc059203	-0.008152488
175	0xbd8c34fb	-0.06846043
176	0x3e4c8f0d	0.19976445
177	0xbcf8bc12	-0.030363116
178	0xbb09cdf3	-0.0021027296
179	0x3d2f67b3	0.042823505
180	0xbda89881	-0.08232213
181	0x3dbf8e6f	0.09353339
182	0x3d0870ab	0.033310574
183	0xbcd2b419	-0.025720643
184	0xbdb30efb	-0.08743092
185	0x3c83e84a	0.016101975
186	0x3d950862	0.072769895
187	0x3d8dd93b	0.06926199
188	0x3d74a0ad	0.059723545
189	0x3dbac21c	0.09119055
190	0x3d126c1b	0.03574763
191	0xbe174516	-0.14772448
192	0xbce26120	-0.027634203
193	0x3cdd944f	0.027048258
194	0xbd968205	-0.07349018
195	0x3e24e39e	0.16102454
196	0x3d38a285	0.045076866
197	0x3d61e442	0.055149324
198	0x3dab3283	0.08359244
199	0x3d6a98ed	0.057274748
200	0xbe01a37a	-0.12660018
201	0xbd14809f	-0.036255475
202	0x3daece2b	0.08535417
203	0xb9d0b42d	-0.00039807093
204	0xbe1c32f7	-0.15253817
205	0x3c20c0d7	0.009811602
206	0xbb91196c	-0.0044280794
207	0x3e1a59d2	0.15073326
208	0x3b5acd11	0.003338639
209	0xbddc1ebe	-0.10748051
210	0xbd7834c2	-0.06059719
211	0x3c9e82fc	0.019349568
212	0xbc600f94	-0.013675589
213	0x3b1470d5	0.002265026
214	0x3cabe7b4	0.020984508
215	0xbdbd2ce7	-0.0923708
216	0x3bd67eaf	0.0065458636
217	0x3d10160a	0.035177268
218	0x3d88cc1f	0.06679558
219	0xbcaca1e1	-0.021073284
220	0xbddd6f18	-0.10812205
221	0x3e15c326	0.14625224
222	0x3bf34d94	0.0074250195
223	0xbd67d063	-0.056595217
224	0xbcb0775e	-0.021541294
225	0xbe0e3fe1	-0.13891555
226	0xbc08c5af	-0.008347913
227	0xbceb8d98	-0.02875404
228	0x3e5ee1ee	0.21765873
229	0x3c67320c	0.014111053
230	0xbbc2d173	-0.0059453784
231	0xbe02b0b7	-0.12762724
232	0xbddf83f8	-0.10913843
233	0x3c739fff	0.014869689
234	0xb9434c0b	-0.00018624977
235	0x3b96f09b	0.004606319
236	0xbd2aca62	-0.041696914
237	0xbcee01c9	-0.029053586
238	0xbe1c0491	-0.15236117
239	0xbd3ff5c1	-0.04686523
240	0x3d1a800c	0.03771977
241	0x3d6f6c2f	0.05845278
242	0xbcfee882	-0.031116728
243	0xbb4d1ad4	-0.0031296508
244	0xbd5950df	-0.05305564
245	0xbb44e7b0	-0.0030045323
246	0x3dbc2d08	0.091882765
247	0x3e9c4932	0.30524594
248	0x3cc419f2	0.023938153
249	0xbd817c90	-0.063225865
250	0x3d1185dc	0.03552805
251	0x3da2e11d	0.07953093
252	0xbd77177b	-0.060325127
253	0x3dafa3cc	0.08576164
254	0xbc1093d5	-0.008824308
255	0x3e48c5b7	0.19606672

network_body._body_endoder.seq_layers.2.bias f4 [128]
0	0xb986e73c	-0.00025730755
1	0xbae44502	-0.0017415585
2	0xbb8f883d	-0.0043802545
3	0xb9e3ff76	-0.00043487147
4	0x39fed09e	0.00048602087
5	0xbbd4838c	-0.006485408
6	0xba227687	-0.00061974715
7	0xba570129	-0.0008201772
8	0xbb4ff63e	-0.0031732465
9	0xb8b628b0	-8.686015e-05
10	0xba72db04	-0.0009264203
11	0xbb829ad8	-0.003985744
12	0x3a9467c2	0.0011322426
13	0x3994ff30	0.0002841889
14	0x3a2b33a7	0.0006530829
15	0xba3bdf1d	-0.00071667304
16	0xbaf0a651	-0.0018360113
17	0xbb59bec4	-0.0033225277
18	0x398772fc	0.00025834877
19	0xb883ee93	-6.291005e-05
20	0xbaa9acf5	-0.0012945222
21	0x3a1452eb	0.00056581077
22	0xba5be5ff	-0.0008388459
23	0xba1ba80f	-0.00059378234
24	0x3b523c74	0.003207949
25	0xbb267346	-0.0025398298
26	0xba24fa3c	-0.00062933913
27	0x394a3f90	0.000192879
28	0xbb260ed1	-0.002533842
29	0xbb2a9509	-0.0026028773
30	0x3a010e3d	0.0004923081
31	0xba3d429e	-0.00072197046
32	0xbb8719f2	-0.004122966
33	0xb8f62e25	-0.00011738789
34	0xb940d4f8	-0.00018389884
35	0x3ab194da	0.001354839
36	0x3986de26	0.00025723985
37	0xb8f7bca1	-0.00011813013
38	0xbb3cdf54	-0.0028819637
39	0x3a9b0b90	0.0011829007
40	0x3b0ee84a	0.0021805936
41	0x3b8c930e	0.004289991
42	0xbbcd593e	-0.006266742
43	0xbaaa6686	-0.0013000525
44	0xbaa17241	-0.0012317376
45	0x3b19e4e0	0.0023482367
46	0x3b909de9	0.0044133556
47	0xbabfb831	-0.0014627037
48	0xbae8c30e	-0.0017758326
49	0xbb14a167	-0.002267921
50	0xba4ec795	-0.00078880164
51	0xb82572cf	-3.944599e-05
52	0x3a17689e	0.0005775782
53	0xbb412422	-0.0029471
54	0xba21fb03	-0.0006179066
55	0xba10a666	-0.00055179594
56	0xbba2fe08	-0.0049741305
57	0xbbd39420	-0.006456867
58	0xba347b42	-0.0006884822
59	0xbb6491ff	-0.003487706
60	0xb9bf105d	-0.0003644255
61	0x3a974b5b	0.0011542843
62	0x3ab3f35d	0.0013729144
63	0xbaa60e8b	-0.0012669129
64	0xba20084a	-0.0006104751
65	0xbafa5503	-0.0019098822
66	0xba097105	-0.00052429765
67	0x3aefc830	0.0018293913
68	0x3b119e42	0.0022219573
69	0xbac4d85b	-0.0015018092
70	0x38de443f	0.00010598497
71	0xba0f0298	-0.00054554036
72	0x3b7ecd09	0.0038879535
73	0x3abf4265	0.0014591931
74	0x3a0721da	0.00051548856
75	0x3b3d16fe	0.0028852816
76	0xba0bfe3a	-0.0005340312
77	0xbaf38997	-0.0018580434
78	0x3a0be78d	0.0005336933
79	0x3b164084	0.0022926638
80	0xbb963db4	-0.0045849923
81	0xb9be5a7d	-0.00036307043
82	0x3b972b51	0.004613318
83	0x3a79298a	0.0009504786
84	0xbb80c80c	-0.0039300974
85	0xba237988	-0.0006236066
86	0xbb0c68be	-0.0021424736
87	0x3abd960d	0.0014464274
88	0x3a1bb50c	0.0005939759
89	0xbb33f2e3	-0.0027458004
90	0x3918e447	0.0001458089
91	0xb97e917d	-0.00024277526
92	0xba16bfde	-0.00057506363
93	0xbaf5d02e	-0.0018754059
94	0xb85cb8e1	-5.262427e-05
95	0x3b2c32db	0.002627543
96	0xbb21799d	-0.0024639138
97	0xbb2f97b3	-0.00267933
98	0xbac081ac	-0.0014687083
99	0xbb51307f	-0.0031919775
100	0xbb94a9f0	-0.0045368597
101	0x3b23c414	0.0024988698
102	0x3995b393	0.00028553288
103	0x3b53b5bf	0.0032304374
104	0xbbde7f64	-0.0067900885
105	0x39a75752	0.0003191778
106	0x3a19ea3e	0.00058713916
107	0x3b0319de	0.0020004432
108	0xba3025f3	-0.0006719522
109	0xba48c526	-0.0007658772
110	0xbbbafaa6	-0.005706149
111	0x3ba0490b	0.00489152
112	0xba9ad97f	-0.0011814086
113	0xbba8a512	-0.005146631
114	0x3ac65c89	0.0015133779
115	0xbbabbb2a	-0.0052408176
116	0xbb551b09	-0.0032517335
117	0x3af9cb46	0.0019057773
118	0xba23bc14	-0.00062459824
119	0xba83f02d	-0.0010066085
120	0xba2eac91	-0.00066632876
121	0xbb230d0a	-0.0024879598
122	0xb905decb	-0.00012766865
123	0xb9c5f3b0	-0.0003775633
124	0xba11c254	-0.0005560268
125	0xba0b1a3f	-0.000530634
126	0xbb9946ad	-0.0046776147
127	0xbb75c355	-0.003750046

action_model._continuous_distribution.log_sigma f4 [1, 3]
0	0x3a3ccf35	0.0007202507
1	0x3b9058a8	0.0044051
2	0x3bbcf4aa	0.005766471

action_model._continuous_distribution.mu.weight f4 [3, 128]
0	0xbd404d4a	-0.04694871
1	0xbb05cff2	-0.0020418135
2	0xbd0c9973	-0.034326028
3	0x3c02219a	0.007942582
4	0x3bfd6628	0.0077331252
5	0xbcf337d2	-0.029689703
6	0xb990e000	-0.00027632713
7	0x3ba7c3de	0.0051197847
8	0xbc5ceff5	-0.013484945
9	0x3ccfdc81	0.0253737
10	0xbc93be43	-0.01803506
11	0x3b53cacd	0.0032316924
12	0xbbdad427	-0.0066781226
13	0x3bbc061f	0.0057380344
14	0x3b03e6f0	0.0020126663
15	0xbbe4534b	-0.006967937
16	0xbb48e07e	-0.0030651386
17	0xbb822744	-0.003971966
18	0x3b153987	0.0022769885
19	0x3c1c6241	0.00954491
20	0x3b67285b	0.0035271856
21	0x3cb4e0cb	0.022079846
22	0xbb48d535	-0.003064466
23	0xbd0afc51	-0.033932034
24	0x3c162d84	0.009166125
25	0xbaf0b21e	-0.001836363
26	0xbb8afcaa	-0.0042415457
27	0xbc5b0da5	-0.013369952
28	0xbc011d57	-0.00788053
29	0xbc824d39	-0.015905963
30	0x3cd482e9	0.02594133
31	0xbc8d4b6d	-0.01724788
32	0x3c9eca71	0.019383641
33	0xbd3503d7	-0.044193115
34	0x3bb8ec63	0.005643414
35	0x3c4256c5	0.011861508
36	0x3c0f7fa6	0.008758461
37	0xbc9f5565	-0.019449899
38	0xbcfcb8a6	-0.030849766
39	0x3cce1fc5	0.025161633
40	0x3c33d515	0.010976096
41	0x3d153b1f	0.036433335
42	0xbc0ac55b	-0.008469905
43	0x3c3d9631	0.011571453
44	0xbcd51864	-0.026012607
45	0x3b1a135a	0.002351007
46	0x3c7f9ae0	0.01560089
47	0xbcc8ab42	-0.024495725
48	0x3b7ea5ed	0.0038856224
49	0xbd872897	-0.06599539
50	0xba199ee0	-0.0005860161
51	0xbc3817c4	-0.011236135
52	0xbbfd05b6	-0.007721628
53	0x3ba67c89	0.0050807637
54	0xbbbeaf02	-0.0058192024
55	0xbc81cd9d	-0.015845114
56	0xbce41467	-0.02784176
57	0xbb8c1bc8	-0.0042757727
58	0xbc6a4480	-0.014298558
59	0xbc6df014	-0.014522571
60	0xbcfb2140	-0.030655503
61	0x3c622c92	0.013804572
62	0x3ce31c29	0.027723389
63	0xbc32bd6b	-0.010909419
64	0xbc3c1da9	-0.011481681
65	0xbba44086	-0.0050125746
66	0xba89ca7a	-0.0010512613
67	0x3c5ae2d0	0.01335974
68	0x3baabe42	0.005210669
69	0xbc68db84	-0.014212493
70	0x3c085371	0.008320675
71	0x3c958e60	0.018256366
72	0xbc68c8dd	-0.014208046
73	0xbcd49ee5	-0.025954673
74	0x3cecd059	0.028907942
75	0x3c4e1866	0.012579059
76	0x393b766f	0.0001787783
77	0xbb8cd799	-0.004298162
78	0x3c4ade32	0.012382077
79	0x3cc0f60e	0.023554828
80	0xbc6952ce	-0.014240934
81	0xbb9a6dfb	-0.0047128177
82	0x3d33659f	0.043798085
83	0xbcb58a57	-0.022160692
84	0xbcde1f68	-0.027114585
85	0x3c19781a	0.009367013
86	0xbb0b8142	-0.002128676
87	0x3b07865d	0.0020679452
88	0x3c9ce539	0.01915227
89	0xbd0d182d	-0.034446884
90	0x3c29f7e2	0.010374041
91	0xbbce7f62	-0.0063018063
92	0xbb891210	-0.0041830614
93	0xbc432dc8	-0.011912771
94	0x3c24c51d	0.010056761
95	0x3c237233	0.009975958
96	0xbc9f84ff	-0.019472597
97	0xbae1a0f8	-0.001721411
98	0xbcf0d3fc	-0.029397957
99	0xbba0782f	-0.0048971395
100	0xbb828d7d	-0.003984152
101	0x3d11c2b9	0.035586093
102	0x3c88f5ae	0.016718712
103	0x3b0cc8b5	0.0021481935
104	0xbc314ea1	-0.010821969
105	0x3c19751f	0.009366303
106	0x3bbcaf22	0.005758182
107	0x3c40cd17	0.011767647
108	0x3a263ea6	0.0006341733
109	0xbd35c693	-0.04437883
110	0xbcd97bba	-0.026548255
111	0x3c05ba7f	0.00816214
112	0x3c46f046	0.012142247
113	0x3b890f59	0.004182738
114	0x3b3f8846	0.0029225512
115	0xbc50c4fd	-0.012742278
116	0xbc68ea1a	-0.01421597
117	0x3cc9cc46	0.024633538
118	0xbcbc6c40	-0.023000836
119	0x39d4fc95	0.0004062398
120	0x3cf81475	0.030283192
121	0xbbcd5f33	-0.006267452
122	0x3b8875dc	0.0041644406
123	0xba876175	-0.0010328727
124	0x3c7e3173	0.015514719
125	0xbd134bae	-0.035960846
126	0xbc4b3edd	-0.0124051245
127	0xbc6d0efd	-0.0144689055
128	0xbcaa9c6a	-0.020826537
129	0x3c8263d5	0.015916744
130	0xbc600f12	-0.013675468
131	0x3cd5c2d6	0.026093882
132	0xbc849836	-0.016185861
133	0x3cbe9d9f	0.023268519
134	0xbbca60c0	-0.0061760843
135	0x3be983bd	0.0071263
136	0x3c33d705	0.010976558
137	0x3c9d46df	0.019198833
138	0xbc5e3fd0	-0.013565019
139	0xbbbc90b9	-0.005754557
140	0xbbcba31f	-0.006214514
141	0xbc68b80d	-0.014204037
142	0x3afb5bd0	0.0019177143
143	0xb6cd70fe	-6.12263e-06
144	0x3b171e69	0.0023058897
145	0xbba4a293	-0.005024263
146	0xbcd85e3e	-0.026412126
147	0x3c164d7d	0.009173748
148	0xbbf492d4	-0.0074637923
149	0xbb171c2e	-0.0023057568
150	0xbc9b3b55	-0.01894919
151	0xbcc99644	-0.024607785
152	0x3c5afef2	0.013366448
153	0xbba962e5	-0.00516926
154	0x3c276842	0.010217728
155	0xbc916252	-0.017747078
156	0x3cbd02b3	0.023072576
157	0xbac872f0	-0.0015293043
158	0xbd16569d	-0.036703695
159	0xbcf6f1a8	-0.030144528
160	0xbb66143f	-0.0035107282
161	0xbcbe90c1	-0.023262383
162	0xbbac9ffd	-0.0052680955
163	0xbd1730fb	-0.036911946
164	0xbc9fa042	-0.019485597
165	0xbc079d0b	-0.008277188
166	0xbbf5acdc	-0.007497413
167	0x3be5a930	0.007008694
168	0xbc22bdb7	-0.009932927
169	0xbb3ff3f1	-0.0029289688
170	0xbc4e1803	-0.012578967
171	0x3cdf5962	0.0272643
172	0xbd4d9489	-0.050190482
173	0x3c85772f	0.016292183
174	0x3ace6720	0.0015747286
175	0xbc1d7504	-0.009610418
176	0x3c201453	0.009770471
177	0xbc1a0572	-0.009400712
178	0x3ca3a071	0.019973965
179	0xbb6342be	-0.0034677233
180	0xbcd71894	-0.026256837
181	0xbc7b96f3	-0.015355813
182	0x3cfe7315	0.031060735
183	0x3d14bc68	0.03631249
184	0xbc8f6cca	-0.01750793
185	0x3add080c	0.001686336
186	0x3c2f5423	0.010701212
187	0xbc733771	-0.014844761
188	0x3ceed46a	0.029154021
189	0xbc383727	-0.011243618
190	0xbcc5bda3	-0.024138277
191	0xbd071873	-0.0329823
192	0x3cbfaa95	0.02339677
193	0xbb8c24c0	-0.004276842
194	0x3c0e9129	0.008701601
195	0xbcb1cb08	-0.021703258
196	0x3cb558e1	0.022137107
197	0x3c50919b	0.012730028
198	0xbcdac493	-0.026705062
199	0x3c562083	0.013069275
200	0xbcd5b7c5	-0.026088605
201	0xba5aebb2	-0.00083511614
202	0x3a93de70	0.0011281502
203	0xbc48afb6	-0.012248924
204	0x3c31e5da	0.010858024
205	0x3b12cccf	0.0022399907
206	0xbc5698fe	-0.013098
207	0x3c9a96fd	0.018870825
208	0x3c2db829	0.010602989
209	0x3b62717d	0.0034552508
210	0xbba4370a	-0.005011444
211	0xbd456fd0	-0.048202336
212	0xbb8795f7	-0.0041377502
213	0x3c81319b	0.015770724
214	0x3d0418c1	0.03225017
215	0xbbff2b29	-0.0077871275
216	0x3af67a6f	0.0018804799
217	0xbd1902a4	-0.037356034
218	0x3b3b309a	0.0028562904
219	0xbc8cd7ff	-0.017192839
220	0xbceb9448	-0.02875723
221	0x3af4728d	0.0018649861
222	0x3c6db783	0.014509085
223	0xbc932189	-0.017960327
224	0xbc890a38	-0.016728505
225	0x3b1a1504	0.0023511061
226	0x3c4d82ef	0.012543424
227	0x3cbaa7a3	0.022785014
228	0xbcf93453	-0.030420458
229	0x3cf8daaf	0.030377714
230	0x3b1ef381	0.0024254026
231	0x3d0037c2	0.031303175
232	0x3cd8e919	0.026478337
233	0xbcf9b68a	-0.03048255
234	0xbca5afaf	-0.020225374
235	0x3cbc2fad	0.022971952
236	0x3b170266	0.00230422
237	0x3c936c4d	0.017995978
238	0x3c3cc010	0.011520401
239	0x3b608c79	0.0034263416
240	0x3c67695f	0.0141242435
241	0x3cd54e5d	0.026038343
242	0x3c69d000	0.0142707825
243	0xbc496b2e	-0.01229362
244	0x3cfb86e5	0.030703971
245	0xba7c95c3	-0.00096353533
246	0x3c633fc0	0.01387018
247	0x3caaab7c	0.020833723
248	0x3ca1b70e	0.019740608
249	0x3ad8716b	0.0016513293
250	0x3b80d078	0.0039311014
251	0x3c2434b7	0.010022334
252	0xbc8709dd	-0.016484195
253	0x3c5d25bb	0.013497765
254	0x3bfbfe6d	0.007690242
255	0xbbb2cb49	-0.0054563624

action_model._continuous_distribution.mu.bias f4 [3]
0	0x3ac441f0	0.0014973264
1	0xba18d5f8	-0.00058302237
2	0xb9ab24c6	-0.0003264306

exp_avg f4 [128, 9]
0	0x39a4dfe9	0.00031447344
1	0xb83ea8b8	-4.545666e-05
2	0x363e177a	2.8325871e-06
3	0x39b69829	0.00034827113
4	0xb8caffe8	-9.679777e-05
5	0x379bbc0c	1.8565006e-05
6	0x00000000	0.0
7	0x00000000	0.0
8	0x00000000	0.0
9	0x37e15de9	2.686582e-05
10	0xb70e95e5	-8.49876e-06
11	0xba15138f	-0.00056868134
12	0x37a26a15	1.9361303e-05
13	0x359106e0	1.0805343e-06
14	0xba19201a	-0.00058412703
15	0x00000000	0.0
16	0x00000000	0.0
17	0x00000000	0.0
18	0xba509733	-0.0007957101
19	0x38fa8256	0.00011945206
20	0x3a89cff3	0.0010514244
21	0xba5f89ab	-0.0008527289
22	0x3985e9d4	0.00025541952
23	0x3a852171	0.0010157061
24	0x00000000	0.0
25	0x00000000	0.0
26	0x00000000	0.0
27	0xba551f86	-0.00081300025
28	0x3886f9f9	6.436179e-05
29	0x3a99daeb	0.0011738216
30	0xba5ac219	-0.0008344963
31	0x39601a3b	0.00021372076
32	0x3a98ea6e	0.0011666545
33	0x00000000	0.0
34	0x00000000	0.0
35	0x00000000	0.0
36	0xba13da8e	-0.0005640172
37	0x388e0e95	6.773804e-05
38	0x398ba68d	0.00026636236
39	0xba185854	-0.0005811502
40	0x39305ca5	0.00016819181
41	0x396650bb	0.00021964584
42	0x00000000	0.0
43	0x00000000	0.0
44	0x00000000	0.0
45	0x39021de4	0.00012408901
46	0xb789b7d8	-1.6417282e-05
47	0x3776b5af	1.4705044e-05
48	0x392ac32e	0.00016285173
49	0xb7916551	-1.7332526e-05
50	0x37dfc511	2.6675438e-05
51	0x00000000	0.0
52	0x00000000	0.0
53	0x00000000	0.0
54	0x357cdea6	9.420131e-07
55	0x3675759d	3.6576305e-06
56	0x39271741	0.00015935024
57	0x37a6e7a7	1.9896614e-05
58	0x37d4e3e6	2.5378493e-05
59	0x391f5dc8	0.00015198358
60	0x00000000	0.0
61	0x00000000	0.0
62	0x00000000	0.0
63	0x39b35aeb	0.0003420928
64	0xb8325553	-4.251797e-05
65	0xb92dc2f2	-0.00016571188
66	0x39beace5	0.0003636844
67	0xb904c340	-0.00012661237
68	0xb912622d	-0.00013960218
69	0x00000000	0.0
70	0x00000000	0.0
71	0x00000000	0.0
72	0xb992ccd3	-0.00027999896
73	0x37f19671	2.8799494e-05
74	0x373014cc	1.049526e-05
75	0xb99f0f75	-0.0003033836
76	0x38811276	6.154638e-05
77	0xb697c80d	-4.5234397e-06
78	0x00000000	0.0
79	0x00000000	0.0
80	0x00000000	0.0
81	0xb9eeb373	-0.00045528598
82	0x388c3d06	6.687087e-05
83	0xb844f69c	-4.6959714e-05
84	0xba05c85f	-0.0005103405
85	0x38b0bd44	8.4275875e-05
86	0xb8d28f80	-0.00010040309
87	0x00000000	0.0
88	0x00000000	0.0
89	0x00000000	0.0
90	0xb98de29a	-0.00027062447
91	0xb78f1ff4	-1.7061808e-05
92	0xb93cf2c5	-0.00018019516
93	0xb95c55d1	-0.00021012804
94	0xb842a663	-4.6408164e-05
95	0xb92df042	-0.00016588069
96	0x00000000	0.0
97	0x00000000	0.0
98	0x00000000	0.0
99	0xba535990	-0.0008062357
100	0xb84f87cd	-4.947912e-05
101	0xba687a0e	-0.0008868285
102	0xba4a1435	-0.00077086996
103	0xb8a5b8cb	-7.9022335e-05
104	0xba5fd13a	-0.0008537952
105	0x00000000	0.0
106	0x00000000	0.0
107	0x00000000	0.0
108	0xb961eeb4	-0.00021546596
109	0xb7b66c51	-2.174653e-05
110	0xb986c0b6	-0.00025702053
111	0xb9565c96	-0.00020443121
112	0xb8183688	-3.629041e-05
113	0xb98689fd	-0.0002566128
114	0x00000000	0.0
115	0x00000000	0.0
116	0x00000000	0.0
117	0xb905b430	-0.00012750993
118	0x382aa44d	4.0684175e-05
119	0xb6d96640	-6.4790074e-06
120	0xb93a563e	-0.0001777047
121	0x38b8c93f	8.811289e-05
122	0xb7fcb0cf	-3.0123074e-05
123	0x00000000	0.0
124	0x00000000	0.0
125	0x00000000	0.0
126	0xb8abcb7e	-8.191819e-05
127	0xb80d038c	-3.3620323e-05
128	0xb9f9e5a7	-0.00047664085
129	0xb80820a1	-3.2455315e-05
130	0xb892fbe9	-7.0087444e-05
131	0xb9f67fc3	-0.00047015966
132	0x00000000	0.0
133	0x00000000	0.0
134	0x00000000	0.0
135	0xb9f8762c	-0.0004739029
136	0xb880a461	-6.1341336e-05
137	0xb7738502	-1.4514897e-05
138	0xb9fe06b6	-0.00048451655
139	0xb8fbd6bf	-0.00012008612
140	0xb826a398	-3.9729843e-05
141	0x00000000	0.0
142	0x00000000	0.0
143	0x00000000	0.0
144	0x385057ab	4.967271e-05
145	0x37794b4a	1.4859086e-05
146	0xb91d3568	-0.00014992582
147	0x38691995	5.5575354e-05
148	0x37cf36b7	2.4701802e-05
149	0xb90d6e5a	-0.00013487917
150	0x00000000	0.0
151	0x00000000	0.0
152	0x00000000	0.0
153	0x39c8d6ac	0.00038306916
154	0xb8433bdb	-4.6547368e-05
155	0x389c7f0a	7.4623225e-05
156	0x39e632fa	0.00043907
157	0xb907b479	-0.00012941835
158	0x38d42a18	0.00010116788
159	0x00000000	0.0
160	0x00000000	0.0
161	0x00000000	0.0
162	0xb956319e	-0.00020427114
163	0x37a56d30	1.9720377e-05
164	0xb8424b2b	-4.632321e-05
165	0xb96ce243	-0.00022591003
166	0x38061f86	3.1977448e-05
167	0xb87e42dd	-6.062059e-05
168	0x00000000	0.0
169	0x00000000	0.0
170	0x00000000	0.0
171	0xb890ed39	-6.910641e-05
172	0xb7df3134	-2.6606584e-05
173	0xba0223e0	-0.0004964452
174	0xb6738c9e	-3.6291672e-06
175	0xb81e1f2e	-3.7699174e-05
176	0xb9f7bddc	-0.00047252967
177	0x00000000	0.0
178	0x00000000	0.0
179	0x00000000	0.0
180	0x398cf8a2	0.00026888127
181	0xb8309a19	-4.2105185e-05
182	0xba54565a	-0.00081000256
183	0x3988c1e5	0.00026084404
184	0xb8e1d25b	-0.00010768018
185	0xba4dd983	-0.0007852541
186	0x00000000	0.0
187	0x00000000	0.0
188	0x00000000	0.0
189	0xb9ac1beb	-0.00032827197
190	0xb7dfcf5d	-2.6680233e-05
191	0x39f81426	0.00047317258
192	0xb9b3fb01	-0.00034328553
193	0xb83ba63b	-4.473909e-05
194	0x39fbc94b	0.00048024426
195	0x00000000	0.0
196	0x00000000	0.0
197	0x00000000	0.0
198	0xb964dd88	-0.00021826301
199	0x384d7c89	4.899179e-05
200	0x39d8f3ee	0.00041380472
201	0xb9674cc7	-0.00022058478
202	0x387907ae	5.937338e-05
203	0x39d6e43a	0.00040987303
204	0x00000000	0.0
205	0x00000000	0.0
206	0x00000000	0.0
207	0xb8ddb4d7	-0.00010571785
208	0x3740412b	1.1459265e-05
209	0xb74d72ff	-1.2245727e-05
210	0xb901c49b	-0.0001237564
211	0x367d5e4d	3.7754828e-06
212	0xb755cb28	-1.274309e-05
213	0x00000000	0.0
214	0x00000000	0.0
215	0x00000000	0.0
216	0xb9ed4f74	-0.0004526336
217	0x38130787	3.505454e-05
218	0x352bf144	6.405355e-07
219	0xb9f05c8d	-0.00045845323
220	0x389da28c	7.51662e-05
221	0xb6647d95	-3.4047746e-06
222	0x00000000	0.0
223	0x00000000	0.0
224	0x00000000	0.0
225	0xb9229c79	-0.00015507815
226	0x37f3355d	2.8992707e-05
227	0xb62c2bfb	-2.5655597e-06
228	0xb91d916c	-0.0001502686
229	0x38c76087	9.507039e-05
230	0xb646ce9f	-2.9624568e-06
231	0x00000000	0.0
232	0x00000000	0.0
233	0x00000000	0.0
234	0x38022f91	3.1038715e-05
235	0xb6b2988d	-5.3225726e-06
236	0x39866bdd	0.00025638836
237	0x3803d90c	3.1434975e-05
238	0x37382b24	1.0977299e-05
239	0x39861c70	0.0002557966
240	0x00000000	0.0
241	0x00000000	0.0
242	0x00000000	0.0
243	0x36da9811	6.514609e-06
244	0xb72b9521	-1.0227116e-05
245	0xb8c2f322	-9.295928e-05
246	0xb68050d5	-3.8241074e-06
247	0xb696e6b0	-4.497204e-06
248	0xb8cbecdb	-9.723912e-05
249	0x00000000	0.0
250	0x00000000	0.0
251	0x00000000	0.0
252	0xb8f462ef	-0.000116532545
253	0x37a4e89b	1.9658639e-05
254	0x37145826	8.842011e-06
255	0xb90d2653	-0.00013461085

exp_avg_sq f4 [128, 9]
0	0x3418ec93	1.4242168e-07
1	0x314fc375	3.023357e-09
2	0x2df2ea77	2.7616338e-11
3	0x341bd2c1	1.4512172e-07
4	0x322a777f	9.922473e-09
5	0x2f4ac381	1.844125e-10
6	0x00000000	0.0
7	0x00000000	0.0
8	0x00000000	0.0
9	0x338a6c18	6.445788e-08
10	0x30e25905	1.6468965e-09
11	0x34df320c	4.15734e-07
12	0x338c38ba	6.5295765e-08
13	0x31c1211b	5.620803e-09
14	0x34e0d153	4.1875555e-07
15	0x00000000	0.0
16	0x00000000	0.0
17	0x00000000	0.0
18	0x349a616b	2.8755616e-07
19	0x31f5fae1	7.15896e-09
20	0x3577204c	9.206167e-07
21	0x349da8a7	2.936624e-07
22	0x32c4763d	2.2871172e-08
23	0x3578c389	9.267174e-07
24	0x00000000	0.0
25	0x00000000	0.0
26	0x00000000	0.0
27	0x3641ccaf	2.8878383e-06
28	0x332eacfa	4.0669853e-08
29	0x377eda58	1.5190417e-05
30	0x36419dd1	2.8851102e-06
31	0x340bab7e	1.3007772e-07
32	0x377ea0da	1.5177031e-05
33	0x00000000	0.0
34	0x00000000	0.0
35	0x00000000	0.0
36	0x3489d4ca	2.5673063e-07
37	0x31dda09b	6.4502053e-09
38	0x35598671	8.103444e-07
39	0x348bea4f	2.606125e-07
40	0x32ae67ff	2.0303558e-08
41	0x3559890e	8.103824e-07
42	0x00000000	0.0
43	0x00000000	0.0
44	0x00000000	0.0
45	0x335a5396	5.08331e-08
46	0x309993d8	1.1174235e-09
47	0x309dad13	1.1472444e-09
48	0x335be120	5.119466e-08
49	0x3176babd	3.590386e-09
50	0x30bb9212	1.3647556e-09
51	0x00000000	0.0
52	0x00000000	0.0
53	0x00000000	0.0
54	0x3311b3d2	3.392399e-08
55	0x304ac470	7.3766326e-10
56	0x32b18f98	2.067081e-08
57	0x3312aa85	3.414836e-08
58	0x3124aed4	2.396452e-09
59	0x32b0940c	2.055642e-08
60	0x00000000	0.0
61	0x00000000	0.0
62	0x00000000	0.0
63	0x33e1b7e6	1.051083e-07
64	0x3151cb97	3.052923e-09
65	0x34bc98d7	3.5128934e-07
66	0x33dff6cb	1.0429138e-07
67	0x32280f18	9.782319e-09
68	0x34bd158b	3.5219668e-07
69	0x00000000	0.0
70	0x00000000	0.0
71	0x00000000	0.0
72	0x33725723	5.6424266e-08
73	0x30a86cc6	1.2254524e-09
74	0x2df36620	2.7671254e-11
75	0x3379a31e	5.8123184e-08
76	0x318aa166	4.0346775e-09
77	0x2ebbd98c	8.5424195e-11
78	0x00000000	0.0
79	0x00000000	0.0
80	0x00000000	0.0
81	0x352c98de	6.4297444e-07
82	0x327412f7	1.4206981e-08
83	0x36200fff	2.3851169e-06
84	0x352f20e3	6.5240437e-07
85	0x3344205d	4.566424e-08
86	0x361e1b5a	2.3559755e-06
87	0x00000000	0.0
88	0x00000000	0.0
89	0x00000000	0.0
90	0x3658c564	3.2301405e-06
91	0x32be0689	2.2121883e-08
92	0x37046a05	7.892498e-06
93	0x36596efb	3.240012e-06
94	0x338f7c12	6.681525e-08
95	0x3704c568	7.913775e-06
96	0x00000000	0.0
97	0x00000000	0.0
98	0x00000000	0.0
99	0x35b1b49d	1.3240093e-06
100	0x32a207c6	1.8862817e-08
101	0x370b322b	8.296726e-06
102	0x35b19866	1.3231881e-06
103	0x337d9342	5.9040083e-08
104	0x370af8c0	8.283358e-06
105	0x00000000	0.0
106	0x00000000	0.0
107	0x00000000	0.0
108	0x34b848bf	3.43256e-07
109	0x314d90bf	2.9913705e-09
110	0x34dd1b78	4.1184444e-07
111	0x34b9beba	3.4597707e-07
112	0x3216466f	8.747164e-09
113	0x34de87a8	4.1449425e-07
114	0x00000000	0.0
115	0x00000000	0.0
116	0x00000000	0.0
117	0x33de13c2	1.03412745e-07
118	0x311ce8f8	2.2833415e-09
119	0x2e02f867	2.9779203e-11
120	0x33e01d75	1.0436171e-07
121	0x3204635a	7.706001e-09
122	0x2f683426	2.1118804e-10
123	0x00000000	0.0
124	0x00000000	0.0
125	0x00000000	0.0
126	0x356d146d	8.8319103e-07
127	0x321cbecf	9.12378e-09
128	0x368d21db	4.2060688e-06
129	0x356cc6b1	8.8205985e-07
130	0x32e3df46	2.6527811e-08
131	0x368dc9e9	4.225633e-06
132	0x00000000	0.0
133	0x00000000	0.0
134	0x00000000	0.0
135	0x35097fe2	5.122257e-07
136	0x31b0d28c	5.1462106e-09
137	0x325d1fa2	1.28710855e-08
138	0x35099ebd	5.126747e-07
139	0x32886c0d	1.588162e-08
140	0x3262374f	1.3167507e-08
141	0x00000000	0.0
142	0x00000000	0.0
143	0x00000000	0.0
144	0x33f3eb2a	1.13583454e-07
145	0x3053f8e1	7.711503e-10
146	0x343ad0cc	1.739856e-07
147	0x33f42d39	1.13703614e-07
148	0x311a85cb	2.2486002e-09
149	0x343c5c15	1.7542364e-07
150	0x00000000	0.0
151	0x00000000	0.0
152	0x00000000	0.0
153	0x342a0877	1.5835563e-07
154	0x31b0bd45	5.1437916e-09
155	0x35529d96	7.8460414e-07
156	0x342a908b	1.5885068e-07
157	0x328c6c99	1.634753e-08
158	0x35518e82	7.8065943e-07
159	0x00000000	0.0
160	0x00000000	0.0
161	0x00000000	0.0
162	0x331c7e0b	3.6436216e-08
163	0x3096d436	1.097425e-09
164	0x31d63cf9	6.2351515e-09
165	0x33223e29	3.77751e-08
166	0x317910cd	3.624382e-09
167	0x31df81b9	6.504902e-09
168	0x00000000	0.0
169	0x00000000	0.0
170	0x00000000	0.0
171	0x361848e5	2.2692195e-06
172	0x32c4dfcb	2.2919172e-08
173	0x36fa31d1	7.45638e-06
174	0x36184474	2.268961e-06
175	0x3396c32c	7.020421e-08
176	0x36fac8c2	7.473952e-06
177	0x00000000	0.0
178	0x00000000	0.0
179	0x00000000	0.0
180	0x339ca73d	7.2947365e-08
181	0x30cacde8	1.4755956e-09
182	0x34f24bdc	4.5131208e-07
183	0x339c3594	7.274062e-08
184	0x31a7c77e	4.8830193e-09
185	0x34f233cc	4.51137e-07
186	0x00000000	0.0
187	0x00000000	0.0
188	0x00000000	0.0
189	0x35ca5b5b	1.5076761e-06
190	0x323f4419	1.1133147e-08
191	0x36831d1f	3.9074944e-06
192	0x35ca35e1	1.5065854e-06
193	0x330f2572	3.332884e-08
194	0x36833149	3.909842e-06
195	0x00000000	0.0
196	0x00000000	0.0
197	0x00000000	0.0
198	0x33f0a6a5	1.12061834e-07
199	0x3179faee	3.6376906e-09
200	0x348cd22f	2.622996e-07
201	0x33f59f53	1.14376824e-07
202	0x32521e7d	1.2230541e-08
203	0x348cfca2	2.6260847e-07
204	0x00000000	0.0
205	0x00000000	0.0
206	0x00000000	0.0
207	0x32c21e7e	2.2598439e-08
208	0x30662db0	8.373844e-10
209	0x31023281	1.8946198e-09
210	0x32c536b3	2.2958693e-08
211	0x31445894	2.8572105e-09
212	0x310f2860	2.083219e-09
213	0x00000000	0.0
214	0x00000000	0.0
215	0x00000000	0.0
216	0x345277e9	1.9601397e-07
217	0x31c46c6b	5.7166765e-09
218	0x2c922e29	4.1546944e-12
219	0x3450c8ec	1.9444605e-07
220	0x329566cd	1.7392631e-08
221	0x30094055	4.993173e-10
222	0x00000000	0.0
223	0x00000000	0.0
224	0x00000000	0.0
225	0x34189d32	1.421329e-07
226	0x30f9d23e	1.8176889e-09
227	0x303a2f63	6.7733746e-10
228	0x3417aa26	1.412487e-07
229	0x31cf34b0	6.030483e-09
230	0x305ef28e	8.110782e-10
231	0x00000000	0.0
232	0x00000000	0.0
233	0x00000000	0.0
234	0x343cded9	1.7589936e-07
235	0x30b65c99	1.3268561e-09
236	0x330fde4a	3.3496953e-08
237	0x343d647c	1.7638553e-07
238	0x318dae9e	4.1234918e-09
239	0x330f954d	3.343057e-08
240	0x00000000	0.0
241	0x00000000	0.0
242	0x00000000	0.0
243	0x34a82901	3.1322273e-07
244	0x311edb39	2.311664e-09
245	0x33b6b659	8.508204e-08
246	0x34a740ac	3.115323e-07
247	0x31f4186b	7.1041106e-09
248	0x33b73ce8	8.53268e-08
249	0x00000000	0.0
250	0x00000000	0.0
251	0x00000000	0.0
252	0x33376696	4.270131e-08
253	0x30cbd86a	1.4831703e-09
254	0x2f896387	2.4990873e-10
255	0x333886da	4.2963485e-08

exp_avg f4 [128]
0	0xb7bea8b7	-2.2728329e-05
1	0xb68e95e6	-4.2493803e-06
2	0x387a8257	5.9726033e-05
3	0x3806f9f2	3.218087e-05
4	0x380e0e95	3.386902e-05
5	0xb709b7d6	-8.208639e-06
6	0x35f575a9	1.8288166e-06
7	0xb7b25555	-2.125899e-05
8	0x3771966e	1.4399744e-05
9	0x380c3d0d	3.343546e-05
10	0xb70f2007	-8.530921e-06
11	0xb7cf87c5	-2.4739546e-05
12	0xb7366c51	-1.0873265e-05
13	0x37aaa450	2.0342093e-05
14	0xb78d0388	-1.6810154e-05
15	0xb800a461	-3.0670668e-05
16	0x36f94b46	7.4295413e-06
17	0xb7c33bd9	-2.327368e-05
18	0x37256d2b	9.860184e-06
19	0xb75f3127	-1.330328e-05
20	0xb7b09a19	-2.1052592e-05
21	0xb75fcf3f	-1.3340089e-05
22	0x37cd7c84	2.4495886e-05
23	0x36c0413b	5.7296397e-06
24	0x37930791	1.7527289e-05
25	0x37733556	1.4496347e-05
26	0xb6329890	-2.661287e-06
27	0xb6ab9520	-5.1135576e-06
28	0x3724e89b	9.829319e-06
29	0xb60f759c	-2.1377118e-06
30	0xb7fa4282	-2.9833293e-05
31	0x37fda07a	3.0234678e-05
32	0x37c6d1dc	2.3701163e-05
33	0xb644de03	-2.9335504e-06
34	0xb6544f69	-3.1636685e-06
35	0xb7d281f1	-2.509446e-05
36	0x37b7d8c4	2.191624e-05
37	0xb5d2f9ea	-1.5718954e-06
38	0x37a3f5f8	1.9545652e-05
39	0xb7f8c1ed	-2.9654208e-05
40	0xb68cbb72	-4.1941466e-06
41	0x3700dd77	7.680958e-06
42	0x377df407	1.5136792e-05
43	0x369e375f	4.715213e-06
44	0xb728e0f7	-1.0065959e-05
45	0xb728c0f2	-1.0058504e-05
46	0xb78b6723	-1.6618118e-05
47	0x3704e59e	7.921275e-06
48	0xb58f6ee2	-1.0686601e-06
49	0x3764fd0d	1.3648777e-05
50	0xb79d2aee	-1.873585e-05
51	0xb7ee354e	-2.8396633e-05
52	0xb785364e	-1.5880123e-05
53	0x37836147	1.5661715e-05
54	0xb40bbacf	-1.3013344e-07
55	0xb68d2afa	-4.2071306e-06
56	0xb79feb94	-1.9063977e-05
57	0x3643b246	2.9161033e-06
58	0xb809e92b	-3.28805e-05
59	0xb80de12b	-3.3826724e-05
60	0xb71215b8	-8.707335e-06
61	0x376f6e3d	1.4271177e-05
62	0x3740337f	1.1456082e-05
63	0xb6caf233	-6.048265e-06
64	0xb4670805	-2.1516469e-07
65	0x37b90e68	2.2060427e-05
66	0xb798b018	-1.8201812e-05
67	0x370529ee	7.93718e-06
68	0xb6c09333	-5.739182e-06
69	0xb737f395	-1.0964363e-05
70	0xb624a896	-2.4536034e-06
71	0x37b21179	2.122739e-05
72	0x3534c431	6.734072e-07
73	0x3734df4a	1.0780825e-05
74	0xb6b0bb8c	-5.267042e-06
75	0x38060522	3.195287e-05
76	0x36c88520	5.9759623e-06
77	0xb452ea65	-1.9643046e-07
78	0xb797020a	-1.8001552e-05
79	0xb70dbdf4	-8.448482e-06
80	0xb5543b90	-7.906283e-07
81	0x377e3c00	1.515355e-05
82	0x3627e39d	2.5017428e-06
83	0x371de0e9	9.410295e-06
84	0xb80f4a71	-3.4163186e-05
85	0x3862f7dd	5.411344e-05
86	0x37a93d94	2.0175044e-05
87	0x377fa8a9	1.5238454e-05
88	0x3616e234	2.248341e-06
89	0xb7471acc	-1.1867563e-05
90	0x36e4d21a	6.8193885e-06
91	0xb59ac711	-1.153183e-06
92	0xb7c52c15	-2.3504757e-05
93	0x374614fa	1.1806604e-05
94	0x3402613f	1.2142571e-07
95	0xb70aa8c3	-8.264734e-06
96	0xb5c3d240	-1.4589823e-06
97	0xb7f79c59	-2.95175e-05
98	0x372efd01	1.0430115e-05
99	0x3723986a	9.751044e-06
100	0x37b5e716	2.168449e-05
101	0x374d3875	1.2232097e-05
102	0x37aaa946	2.0344403e-05
103	0xb751600d	-1.2479734e-05
104	0xb57528d5	-9.132903e-07
105	0x3730be49	1.0534722e-05
106	0xb6b842bc	-5.491396e-06
107	0xb82647c8	-3.9644336e-05
108	0xb5c4edf1	-1.4672388e-06
109	0x376fd8cb	1.4295986e-05
110	0xb761d0b1	-1.3459635e-05
111	0xb7d27e79	-2.5092844e-05
112	0xb81c5a1f	-3.727723e-05
113	0xb7d24fce	-2.5071113e-05
114	0xb720509e	-9.555513e-06
115	0xb6b38dda	-5.3511294e-06
116	0x36cdf081	6.1374744e-06
117	0x36b4d852	5.389601e-06
118	0xb6002c97	-1.909944e-06
119	0x37ee3d97	2.8400491e-05
120	0x35148de4	5.5340774e-07
121	0x37c28115	2.318671e-05
122	0xb7b6cf98	-2.1792759e-05
123	0x365bde5e	3.2762978e-06
124	0x36cb528b	6.0594807e-06
125	0xb5011c98	-4.8097854e-07
126	0xb7d6255d	-2.5528187e-05
127	0xb77ac639	-1.49473135e-05

exp_avg_sq f4 [128]
0	0x304fc374	7.5583917e-10
1	0x2fe25908	4.117242e-10
2	0x30f5fae1	1.78974e-09
3	0x322eacfc	1.0167465e-08
4	0x30dda099	1.6125511e-09
5	0x2f9993d8	2.7935587e-10
6	0x2f4ac473	1.8441586e-10
7	0x3051cb98	7.632308e-10
8	0x2fa86cc6	3.063631e-10
9	0x317412f8	3.5517456e-09
10	0x31be068b	5.5304716e-09
11	0x31a207c5	4.715704e-09
12	0x304d90be	7.4784257e-10
13	0x301ce8f8	5.708354e-10
14	0x311cbed0	2.2809452e-09
15	0x30b0d28c	1.2865526e-09
16	0x2f53f8e3	1.927876e-10
17	0x30b0bd48	1.2859482e-09
18	0x2f96d438	2.7435632e-10
19	0x31c4dfcc	5.7297935e-09
20	0x2fcacde9	3.6889894e-10
21	0x313f4419	2.7832867e-09
22	0x3079faed	9.094226e-10
23	0x2f662db2	2.0934612e-10
24	0x30c46c6a	1.429169e-09
25	0x2ff9d240	4.5442228e-10
26	0x2fb65c9a	3.3171405e-10
27	0x301edb38	5.7791594e-10
28	0x2fcbd868	3.707925e-10
29	0x2eea6839	1.0659602e-10
30	0x3156f6df	3.1281429e-09
31	0x3094c3d8	1.0824079e-09
32	0x308d0fb8	1.0263568e-09
33	0x2f34db73	1.6448869e-10
34	0x31c6f6f7	5.790635e-09
35	0x309c5574	1.1374781e-09
36	0x320eff95	8.3236005e-09
37	0x318b71d3	4.0583727e-09
38	0x2f846f65	2.408981e-10
39	0x31bcbc20	5.4929075e-09
40	0x2f4625ba	1.8021398e-10
41	0x30e585b7	1.6699947e-09
42	0x322cda6f	1.0061384e-08
43	0x2ffed67a	4.6354726e-10
44	0x30b3362f	1.3039364e-09
45	0x311cd5ea	2.2822584e-09
46	0x314f0bad	3.0129101e-09
47	0x30fe5100	1.8503954e-09
48	0x30cc4f45	1.4865483e-09
49	0x2ebd2ae7	8.602346e-11
50	0x318afd95	4.0451575e-09
51	0x30809777	9.356275e-10
52	0x318545e7	3.8787564e-09
53	0x31d2df80	6.1372134e-09
54	0x2ca3196b	4.6355606e-12
55	0x3138a0db	2.686696e-09
56	0x30ce62b7	1.5016529e-09
57	0x2db4a84b	2.0538368e-11
58	0x315241b9	3.059638e-09
59	0x312c3492	2.5059177e-09
60	0x3118c5fc	2.2231452e-09
61	0x2f47019e	1.8099519e-10
62	0x3289d9d8	1.6047963e-08
63	0x3091ea81	1.0616789e-09
64	0x30944024	1.0786647e-09
65	0x31043c01	1.9242636e-09
66	0x3033fa58	6.547558e-10
67	0x2f2e91bc	1.5876983e-10
68	0x3093cc0b	1.075365e-09
69	0x2f82dd0b	2.3803923e-10
70	0x30a37791	1.1893794e-09
71	0x30643d91	8.303341e-10
72	0x314e45ca	3.0016616e-09
73	0x30ddf168	1.6148478e-09
74	0x2f651902	2.0836313e-10
75	0x3256bbca	1.2499138e-08
76	0x2e2c9248	3.9238196e-11
77	0x31178553	2.2049178e-09
78	0x30a74927	1.217164e-09
79	0x2e8b1061	6.323898e-11
80	0x30e5ace1	1.6711078e-09
81	0x3164fef2	3.3323286e-09
82	0x2f879f17	2.4669397e-10
83	0x2ed737b8	9.786966e-11
84	0x31b225b7	5.1847695e-09
85	0x319471dc	4.320311e-09
86	0x2fcf46bb	3.7703338e-10
87	0x3030722e	6.4190686e-10
88	0x2f2e73c1	1.5866332e-10
89	0x318a00d5	4.016423e-09
90	0x3020c50a	5.848767e-10
91	0x32326254	1.0383321e-08
92	0x31b22da1	5.1856692e-09
93	0x30a04803	1.1661999e-09
94	0x2fb85bbd	3.353459e-10
95	0x3083a013	9.577e-10
96	0x2d1345e0	8.371498e-12
97	0x2f9d5204	2.861641e-10
98	0x2fe06313	4.081576e-10
99	0x2f981412	2.76629e-10
100	0x305e3f6b	8.085325e-10
101	0x2ff211e4	4.4032256e-10
102	0x302ef2ef	6.364606e-10
103	0x2f9d2739	2.8586003e-10
104	0x2d236413	9.287698e-12
105	0x3081bfc7	9.440492e-10
106	0x316e2eb5	3.4660108e-09
107	0x314466b1	2.8580127e-09
108	0x30464e8b	7.2143597e-10
109	0x32c54828	2.2966631e-08
110	0x2f45df68	1.7996415e-10
111	0x31b27b21	5.19448e-09
112	0x30d8b758	1.5768178e-09
113	0x31537881	3.077304e-09
114	0x311e528f	2.3038955e-09
115	0x2e2d26ec	3.9370215e-11
116	0x2ff1632a	4.3908105e-10
117	0x3192de32	4.27442e-09
118	0x318dc8d0	4.12647e-09
119	0x3087ea92	9.889212e-10
120	0x3132450e	2.5941662e-09
121	0x3000337e	4.6639304e-10
122	0x31a6c694	4.8538116e-09
123	0x2ce8242e	6.5978533e-12
124	0x2ec80efb	9.097608e-11
125	0x312c1828	2.5043025e-09
126	0x319521e1	4.3403223e-09
127	0x2fcfc9ae	3.7796383e-10
