results/jugglingRobotV1/JugglingRobotV1/JugglingRobotV1-21007.pt (torch, 449887 bytes, 36 tensors)

network_body._body_endoder.seq_layers.0.weight f4 [128, 9]
000000 c9 b6 0d 3e ab 14 cc 3d 45 4d c6 be e2 ae d7 3e
       0.13839258 0.099648796 -0.38730827 0.42125612
000010 4c 99 37 be b4 49 8d 3d 9d 96 5d be 05 8b 1c 3f
       -0.17929572 0.068988234 -0.21639486 0.61149627
000020 f3 4f 5c be 7a c5 14 3f 85 f5 f3 3e 85 a4 59 be
       -0.21514873 0.58113825 0.47648254 -0.21254165
000030 06 9b e1 be 97 cb b9 3e f8 aa 3e be 6d cc 75 3f
       -0.44063586 0.3628814 -0.18619907 0.96015054
000040 33 d0 c9 be 45 2b c9 bd 58 86 0c 3d 12 71 66 3d
       -0.39416656 -0.09822706 0.034307808 0.056260176
000050 9b cb 97 3e 86 76 18 3d 29 fa 00 bd 5f da 91 3d
       0.29647526 0.037222408 -0.03148857 0.07121729
000060 cb e7 9f 3e 38 c9 70 3e 0b fa d2 be aa ac 1b be
       0.31231532 0.23514259 -0.41206393 -0.15202585
000070 a7 c3 33 3e 39 fa 12 3e 20 26 ef be c7 2a ff 3e
       0.17555104 0.14353265 -0.46708775 0.49837324
000080 a0 f7 00 3f 18 ca 14 be 7a 12 fe be 1b 89 03 3f
       0.50377846 -0.14530218 -0.49623471 0.5138108
000090 b8 97 0f 3f 04 e0 0b 3d 6d c2 b8 be 76 c8 4f 3b
       0.5609088 0.034149185 -0.36085835 0.0031705177
0000a0 18 0d 54 bd c6 e8 0d 3e 31 0c f3 bd 2a 13 f8 3d
       -0.0517703 0.13858327 -0.1186756 0.1211303
0000b0 6f fd 80 bf 74 f9 12 bd c9 c8 56 be 75 d7 50 3e
       -1.0077342 -0.03588243 -0.20975031 0.2039469
0000c0 74 0e 27 3e b2 b3 3e be c7 23 bf 3e a3 77 1a 3f
       0.16314107 -0.18623236 0.37331983 0.603388
0000d0 eb fe 5d bd f0 a1 2f bf 74 51 a2 be bc df ee 3d
       -0.054198187 -0.6860647 -0.3170277 0.11663768
0000e0 73 26 64 bc 7f 20 bf 3e d7 21 20 bc b6 9a bd be
       -0.013925183 0.3732948 -0.009773693 -0.37032098
0000f0 58 40 46 3d 7a 84 35 3f ec d4 a1 3e f9 50 bd bc
       0.048401207 0.7090527 0.3160776 -0.0231099
000100 9d db d4 be 3d da a3 bd 9b 13 43 3e 7c 98 0c bf
       -0.41573802 -0.0800061 0.19050448 -0.5492017
000110 eb d2 07 3f 5f d8 73 3e 3f d9 df be 9e 31 ca 3c
       0.5305621 0.23813008 -0.43720433 0.024681862
000120 7b 15 28 bf 87 db e4 be c9 11 90 3e f9 19 01 bf
       -0.65657777 -0.44698736 0.2813857 -0.50430256
000130 4d d6 90 be 2d e3 12 3e c4 94 01 bd d5 b0 58 3d
       -0.282885 0.14344473 -0.031636015 0.052903015
000140 ba 18 ba be 95 eb 21 be 8d d2 98 3e 66 17 0f bf
       -0.3634699 -0.15812524 0.29848137 -0.5589508
000150 c5 4f 98 be 04 e9 0d bf 13 05 5f be 45 76 05 3f
       -0.2974836 -0.5543368 -0.2177928 0.5213359
000160 c4 5c 47 be 62 78 d1 3e e1 b6 c7 3e d3 df c0 3d
       -0.19468981 0.40912157 0.39006713 0.09417691
000170 2b 03 5e 3e f9 72 e2 be 3e e5 c5 bd 84 9a f6 3d
       0.21680896 -0.44228342 -0.09662865 0.1204119
000180 22 77 9d be ef 7f 06 bd 45 59 03 bf 6c 70 8c 3b
       -0.30754954 -0.03283685 -0.5130809 0.0042858627
000190 ce 1a 85 3e b3 37 4d 3f 0e b0 26 3e 08 d1 9f be
       0.25997013 0.80163115 0.16278097 -0.31214166
0001a0 4e c2 37 3e 7b e6 6e be 14 f5 4a 3e 53 d6 91 3d
       0.17945215 -0.23330109 0.19820052 0.07120957
0001b0 10 54 82 be c5 3c 01 be ec fe 01 3e 2d 21 2d 3e
       -0.2545476 -0.12620838 0.12694901 0.16907187
0001c0 18 75 aa be 11 78 30 3f d9 dd f9 3d fa a2 2f bd
       -0.3329246 0.68933207 0.12200517 -0.042880036
0001d0 9c 4a 42 bd de cc 70 be be 83 5e be 61 bb c3 bd
       -0.047434434 -0.2351565 -0.21729943 -0.09557224
0001e0 2e cf d3 bc d7 8d e9 3e bf a4 7a be db 91 ef 3c
       -0.025855627 0.45616028 -0.24476908 0.029244354
0001f0 a6 57 bb 3c cf 1a f6 be ef b4 17 be dc 5a 45 3f
       0.022868942 -0.48067328 -0.14815114 0.77091765
000200 5d 7a 1c 3f 27 2a 05 3f 9b ed 85 3d 6b 2a ce 3e
       0.6112421 0.52017444 0.0653946 0.40266737
000210 67 83 dd be 72 ba 1c 3e c9 c6 71 3e 50 6a 38 be
       -0.43264315 0.15305498 0.23610987 -0.18009305
000220 51 f0 a9 be 31 b2 0d 3e 39 0e b4 be b6 0a 8e 3e
       -0.3319116 0.13837506 -0.351671 0.27742547
000230 d7 a4 eb 3e fe f6 1a bf 5d dd 51 be 3f 1f 3b bb
       0.460242 -0.6053313 -0.204946 -0.002855256
000240 29 20 c0 be 15 1d 49 be 02 2b ac bd 86 7d a1 3e
       -0.37524536 -0.1964 -0.084066406 0.3154108
000250 37 d8 20 bf 77 1f ea be b8 c4 c4 3d bf 0a 83 3e
       -0.6282992 -0.4572713 0.096078336 0.25594136
000260 8a 77 2b bd 6f 26 ff be b1 64 45 be 76 a4 f7 3e
       -0.04186205 -0.4983401 -0.19276692 0.4836766
000270 30 be 11 bf de fc b4 be 3e 70 dd be 2e 59 1e be
       -0.5693083 -0.35349172 -0.43249696 -0.15463707
000280 a0 2a ca be 11 88 07 be 42 28 82 3e 73 23 bf 3e
       -0.39485645 -0.13235499 0.2542134 0.37331733
000290 d9 ca ff be fe d5 0a 3f 1e 4c 04 3d 08 6a 47 be
       -0.49959448 0.54232776 0.032299154 -0.19474041
0002a0 64 b8 99 3d 8d 76 83 be 5b 9c cf be 87 21 9e 3e
       0.07505873 -0.25676385 -0.40548977 0.30884954
0002b0 f4 c2 e3 3e e5 a9 f2 be 4b 04 ab 3e 20 28 cc 3e
       0.44484675 -0.47395244 0.33401713 0.39874363
0002c0 86 59 ea 3b a0 39 65 bd fb e0 91 3e 5a 95 85 be
       0.0071517853 -0.05596316 0.2849196 -0.2609051
0002d0 e2 94 d8 bd d6 ea 89 be 41 dc 21 3f b7 de a6 3d
       -0.10575272 -0.26936978 0.63226706 0.08147948
0002e0 1a 8d a9 be 25 5c 11 bf e3 28 80 be 1d b1 b5 3e
       -0.33115464 -0.56781226 -0.25031194 0.3548669
0002f0 5b ae 8e be 35 df 12 3d e1 0d 0b 3f 74 3d 2b 3e
       -0.27867398 0.035857398 0.5431805 0.16722661
000300 ce 4e ae 3d 39 98 3c 3e 00 0b 39 be b2 43 78 bd
       0.085111246 0.18417443 -0.18070602 -0.060611434
000310 5e 20 ed be c8 80 65 be ee 77 5a 3e 63 3a 4f bf
       -0.46313757 -0.22412407 0.21334812 -0.80948466
000320 a5 36 26 3e 5f bc f5 3e da 03 2e be a2 57 17 3c
       0.16231783 0.47995278 -0.16993657 0.009237202
000330 f7 d5 a4 3e 29 13 ad be d2 40 12 be 99 04 ea be
       0.32194492 -0.3380368 -0.1428254 -0.45706633
000340 9d cf 61 3e 7f 8b e9 be 7e 8f 37 3e ae 72 8f 3e
       0.22051854 -0.4561424 0.17925832 0.2801718
000350 e0 06 ab 3d 9b 5e ef 3e 3a 35 5d 3d 0e 1e eb 3e
       0.08350921 0.46751866 0.05400584 0.45921367
000360 7b 4c 81 3d 31 ab 79 be e9 70 88 3d 04 9e cc be
       0.063134156 -0.2438171 0.06662161 -0.39964306
000370 81 11 1b bf 88 f6 af be 1b df c2 be db b1 d6 3e
       -0.60573584 -0.34367776 -0.3806084 0.41932568
000380 4c 28 73 be 38 37 7b 3e f7 11 3e bd c8 3d 06 3e
       -0.23745841 0.24532783 -0.04640385 0.13109505
000390 18 a1 11 be 20 68 2d bf f2 f6 80 3e 88 e1 d6 bd
       -0.14221609 -0.6773701 0.25188404 -0.104922354
0003a0 72 8f c8 be fe 1e 63 3d f0 cd 99 3e 79 98 22 bf
       -0.3917194 0.05544948 0.3003993 -0.63513905
0003b0 87 1b 85 be 65 f7 21 3f 44 d6 21 be c8 e6 8d 3e
       -0.25997564 0.6326812 -0.15804392 0.27715135
0003c0 e7 70 f4 be 75 c9 96 3f 2e cc ae 3d 48 a0 24 be
       -0.47742388 1.178023 0.08535038 -0.16076767
0003d0 36 ca d6 3d 61 12 20 bf c5 5d bf be f2 bf d1 3e
       0.104877874 -0.62528044 -0.37376228 0.40966755
0003e0 54 75 89 bd 18 82 20 bb cc 8b f5 3e 59 b1 8b 3e
       -0.06711832 -0.0024491604 0.4795822 0.27283743
0003f0 fa 71 f5 3d b4 12 b4 be 39 16 d7 bd db 20 88 be
       0.1198463 -0.3517052 -0.105022855 -0.26587567

network_body._body_endoder.seq_layers.0.bias f4 [128]
000000 cb d6 27 bb 7c 10 82 ba aa 54 86 ba 56 df e9 3a
       -0.0025610204 -0.0009923126 -0.001024862 0.0017843049
000010 37 ea 06 bb ff ab 1b 3b 0b ce 8f 3b 84 95 1d 38
       -0.002058638 0.002375364 0.004388576 3.7570964e-05
000020 ea 96 0b 3a ef c9 8a 3a bb 1a 34 3b a0 cc 4c ba
       0.0005324917 0.0010588745 0.0027481753 -0.0007812474
000030 95 f9 ff 3a 06 7f d7 3a 5c ed 17 bb 3f f2 32 3b
       0.0019529337 0.0016441054 -0.0023182249 0.0027305034
000040 0e 3a 07 3b ec ad 98 b9 f8 0c e7 39 a9 5d 3c bb
       0.0020633969 -0.0002912128 0.00044069416 -0.002874235
000050 c0 76 d9 3a c6 0e 7f bb 51 64 80 ba ec 19 0f 39
       0.0016591176 -0.0038918718 -0.0009795522 0.000136472
000060 ab ca 9f 3a a7 07 ce ba 23 5a a2 3b 3c 5a 52 b5
       0.0012191137 -0.0015718833 0.004954593 -7.8362405e-07
000070 11 5a e8 39 8f 7e 61 3a bf b9 27 bb 9f 62 45 bb
       0.00044317593 0.00086019275 -0.002559289 -0.0030118597
000080 c0 03 8a b9 df d5 af ba ff 87 89 3a 7f f3 94 3a
       -0.00026324205 -0.0013415179 0.00104928 0.0011364071
000090 cc 6e 81 bb 4d 3d 82 bb 43 c2 f0 b7 fb 6d 53 bb
       -0.0039499756 -0.003974593 -2.870069e-05 -0.0032261598
0000a0 2e 9e 53 3a cd 39 50 ba e3 6c 0b 3a 4a 7c f9 3a
       0.0008072582 -0.00079431833 0.00053186546 0.0019034233
0000b0 02 e2 aa 39 fc b4 90 ba 0e 74 ae 3a c5 42 01 bc
       0.00032593316 -0.0011040266 0.0013309733 -0.007889454
0000c0 75 5e f6 3a f4 ce 07 bb f3 57 ab 3a 9f b0 41 3b
       0.0018796461 -0.002072272 0.0013072476 0.0029554737
0000d0 36 2e a4 3a 2c 6d 8c ba 00 f3 d9 ba 01 75 1f bb
       0.0012525979 -0.0010713688 -0.0016628206 -0.0024331214
0000e0 22 60 28 3b e5 8f 37 bb 77 e4 b4 3b fe d9 4e 3b
       0.0025692065 -0.0028009352 0.005520399 0.003156304
0000f0 44 8d e1 3a d8 e8 23 b9 30 6f 04 3b fe 40 cb 39
       0.0017208238 -0.00015631632 0.0020207874 0.000387676
000100 76 f2 64 3b 1e d3 87 3a 83 7f 4b 3a a6 03 56 38
       0.0034934557 0.00103626 0.0007762836 5.1024974e-05
000110 3e bf 2b 3a 57 49 da b8 6e ad 46 3a 0e 62 17 bb
       0.00065516296 -0.00010408711 0.00075789436 -0.0023099217
000120 22 f7 25 bb 2b 0e 93 b9 79 33 9c ba be aa 82 3a
       -0.0025324305 -0.0002804858 -0.0011917196 0.0009969098
000130 b3 91 8f 3a e5 17 5b 3b 8d f6 e3 38 18 03 49 ba
       0.0010953456 0.003343099 0.00010870127 -0.00076680025
000140 fd bd 57 3b ed 1f 0b bb 0c d7 7f 3a 4f 2e 77 39
       0.0032919638 -0.0021228746 0.00097595225 0.00023573007
000150 47 83 fa ba 2d 57 c0 3a d1 4e 53 ba 49 f2 e0 bb
       -0.001911261 0.0014674418 -0.0008060756 -0.00686482
000160 4e 6e a7 bb 5f 98 b1 39 f7 6d a2 3b fc ad 10 3a
       -0.005109585 0.00033873596 0.0049569565 0.000551909
000170 dc 2e 53 bb 1e 76 d6 bb da 8b 01 3b 0f a9 68 3b
       -0.0032223975 -0.0065448424 0.0019767196 0.0035501157
000180 24 a8 52 3b 1c 60 be ba 34 f7 ca ba d2 06 50 ba
       0.0032143677 -0.0014524492 -0.0015485049 -0.00079355866
000190 24 bc d8 ba e5 23 1e ba 73 de 86 3a 9a c9 51 3a
       -0.0016535562 -0.00060325704 0.0010289684 0.0008002758
0001a0 78 d0 da b9 6d 4f cc ba 69 71 df ba dd d6 72 3b
       -0.00041735522 -0.0015587636 -0.0017047349 0.0037054338
0001b0 b3 a6 11 3b 85 7b 7f 3b 3e ee e1 bb 8f 08 0b ba
       0.0022224605 0.0038983535 -0.0068948558 -0.00053037045
0001c0 27 2e 5d bb 3a 55 8c 3a ca 66 86 bb 9f 15 f5 b7
       -0.0033749433 0.0010706552 -0.004101609 -2.9216344e-05
0001d0 8f 51 bf ba d4 f0 43 b9 82 30 a6 3a 65 e2 57 bb
       -0.001459645 -0.00018686365 0.0012679251 -0.0032941338
0001e0 01 39 3c 3b 53 bf 62 ba 56 a6 c4 bb 81 42 d8 3a
       0.00287205 -0.00086497254 -0.006001274 0.0016499312
0001f0 f9 a0 1c 3b 62 fb 6a 3b e5 ba 89 bb d0 1c cc b9
       0.0023899658 0.0035855402 -0.004203188 -0.0003893138

network_body._body_endoder.seq_layers.2.weight f4 [128, 128]
000000 de 0c 47 3c c2 ce 36 3e 64 20 db 3d 34 46 a2 bd
       0.012149064 0.1785231 0.106995374 -0.079235464
000010 ab 00 88 bd 64 54 2e 3e 91 02 34 bd bd 68 03 3e
       -0.066407524 0.1702438 -0.04394776 0.12832923
000020 fe 31 f6 3d 34 aa 9c bc a8 2f 0c be 28 8f 97 bc
       0.12021254 -0.019124128 -0.13690054 -0.01850088
000030 31 a5 10 bc 83 8d 92 3c e1 aa 06 be ea 7e 0d bd
       -0.008828447 0.017889744 -0.13151123 -0.034544863
000040 6e 90 cb 3d a1 da 5c bc c8 e6 c1 3c 0f b6 1c bb
       0.09939657 -0.01347986 0.023669615 -0.0023912226
000050 de 63 16 bd eb ea 2c bd 35 63 a3 3c 09 e5 be bd
       -0.036716335 -0.042216223 0.019944767 -0.09321029
000060 70 df 46 3d a1 70 c5 bd 1f de 86 3c 1f 2c 8e 3b
       0.04855293 -0.09640623 0.016463337 0.0043387557
000070 bd 78 9f bd e9 64 30 3e ba b8 db 3c b2 a6 87 bd
       -0.07786701 0.17225994 0.026821483 -0.066235915
000080 09 19 1b 3d 6a 23 84 3b a2 2c 87 3d 17 07 25 be
       0.037865672 0.004032542 0.0660031 -0.16115986
000090 95 17 00 be 63 ad 42 bd 13 8b 6a 3c 57 d1 c4 bd
       -0.12508996 -0.047528636 0.014315384 -0.09610241
0000a0 59 03 22 3d 9b 97 1d 3d ef e4 26 3d 7d 3e 34 3e
       0.039553974 0.03847466 0.04074567 0.17601962
0000b0 85 e2 e6 bd a9 14 7b bd 5f bf 07 3e 1c 0b 7e bd
       -0.11273674 -0.061299 0.13256596 -0.062022313
0000c0 f0 15 0d bb a0 08 e1 bd 78 85 8e bc b6 85 95 bd
       -0.0021527968 -0.10987973 -0.017397627 -0.07300894
0000d0 8d 7b 95 bc 28 1d 1a 3d 52 e9 b2 3b bf 01 26 3d
       -0.01824739 0.03762546 0.005459943 0.04052901
0000e0 13 c9 81 bd b3 15 cc 3b dd ae 13 be 0a a8 81 3d
       -0.0633718 0.0062281727 -0.14422174 0.06330879
0000f0 8f 38 3e 3e 59 4a e2 bd 86 73 6a bd 47 91 b6 3d
       0.18576263 -0.11049337 -0.057239078 0.08914428
000100 4c 8d 30 3d 68 58 15 3e 07 c8 90 bd e9 e1 0e 3d
       0.0431035 0.14584506 -0.07069402 0.034883413
000110 8a 11 58 bb 2c 2d 9b bb c6 01 9a 3c a3 04 11 bc
       -0.0032969438 -0.0047356095 0.018799674 -0.008851203
000120 d9 b1 06 3e 65 c4 07 be 13 41 25 3e e5 94 cb 3d
       0.13153781 -0.13258512 0.16138105 0.09940509
000130 be b2 e5 bc c8 39 c5 bd 29 4d da 3c 13 fe d0 bb
       -0.028039332 -0.096301615 0.026648121 -0.0063779443
000140 f2 f5 de 3d cf db e5 3d 6d 5a 1e 3d 60 ce 7a bd
       0.10886754 0.11223566 0.038660455 -0.06123197
000150 e8 a3 4d 3c 4d 73 86 3b 24 bb 02 3e ad e9 1b bd
       0.012551285 0.0041031004 0.12766701 -0.038064647
000160 46 a1 1b be cf 41 a8 3d 13 9d 44 be 31 ff c6 3d
       -0.1519824 0.08215677 -0.19200544 0.09716643
000170 56 b8 f2 3c 7c 4d 35 3e ac f2 42 bd 7b 43 fd bd
       0.029628914 0.17705339 -0.04759471 -0.123663865
000180 a2 ee b1 3d 0b d0 0f be f7 79 b8 bd 43 0b 02 bd
       0.08688094 -0.14044206 -0.09007638 -0.03174902
000190 15 b6 23 3e 6e 5f 92 bd ce fa 79 3d b1 c5 07 be
       0.15987428 -0.07147108 0.0610302 -0.13259007
0001a0 48 25 da 3d e9 82 bd bd 19 60 a9 bd bd b7 17 bc
       0.10651642 -0.09253485 -0.08270282 -0.009260115
0001b0 f3 e3 90 bd 97 84 f1 bd ed b1 70 3c 65 37 77 3d
       -0.07074728 -0.11792868 0.014690858 0.060355563
0001c0 a0 ab 1b 3e c7 cf 95 3d 83 43 c3 3d e6 38 21 bb
       0.15202188 0.07315021 0.09534361 -0.0024600565
0001d0 4e 02 08 3e 5f c8 8b 3d 04 4f a6 3d 56 69 92 3d
       0.13282129 0.06825327 0.0812054 0.071489975
0001e0 e7 7b 01 3e 0d 03 a1 3c 2e 70 8b 3d c6 b8 84 3d
       0.12644921 0.019654775 0.06808506 0.06480555
0001f0 a9 2c 15 be 5a de 79 bd f8 dd d7 ba 60 0e bf 3d
       -0.14567818 -0.061003067 -0.001646935 0.09328914
000200 b1 ce b4 bd 25 68 58 3d 8f 6d 76 3d fa d9 1f 3e
       -0.08828486 0.052833695 0.060163077 0.15610495
000210 97 d7 97 3d ee 35 cd bc 9c 8e 80 bd f7 61 2f 3e
       0.074141674 -0.02505013 -0.062772006 0.17127214
000220 d4 fd 20 3d 98 e5 29 be 81 1d a8 3d fa 9e e1 3d
       0.03930457 -0.1659149 0.082087524 0.110166505
000230 ee 9e 84 3b 0d 0e 12 bc 66 99 a5 bd 09 da a2 bd
       0.004047266 -0.008914483 -0.08085899 -0.07951743
000240 4d f8 1a 3d fc 37 2d 3d 95 e0 c9 bd 9e 33 12 be
       0.037834454 0.04228972 -0.09857289 -0.14277503
000250 3c 8e ae 3c 2d 0f cf bd 1d 71 1e be ef 2d 1b bd
       0.021308057 -0.101103164 -0.15472837 -0.037885603
000260 fb bf 65 bc 44 93 a0 3d 2a 15 fc 3d 84 f7 f0 bc
       -0.0140228225 0.07840589 0.12308724 -0.0294149
000270 4d a9 b7 bd ef ed 8f bd 2d 78 85 3d 77 15 00 3d
       -0.089678384 -0.07027804 0.06517062 0.03127047
000280 bf b5 a1 3d 2a 7d df bc 8a 94 9e 3d cc 3c 5e 3d
       0.078959934 -0.027281363 0.07743175 0.0542572
000290 4b 23 0c 3d 9e ad 40 bd 5b 49 1f 3e 7f 84 4d bd
       0.034213345 -0.047040574 0.15555327 -0.050175186
0002a0 41 32 49 3e 01 59 2f be 0e 8f 59 3d ff 62 79 3d
       0.19648077 -0.17123796 0.053114943 0.060885426
0002b0 67 90 0c 3e 6f f3 f1 3d c1 b2 b0 bc 39 b4 e4 3c
       0.1372696 0.118140094 -0.021569612 0.027917968
0002c0 81 58 d6 3d d4 57 15 bd 90 32 06 be ba a5 34 3d
       0.104660995 -0.036460713 -0.13105226 0.04410336
0002d0 f5 a6 b5 3d af da 0d 3e e9 0a 91 3d 91 43 da 3c
       0.08869735 0.13852952 0.07082159 0.026643546
0002e0 46 18 03 be bf e5 7b bd e4 aa b0 3d e4 48 3a bd
       -0.12802228 -0.0614984 0.08626345 -0.04547967
0002f0 c2 f5 4f 3e b0 73 5f bc f9 54 fe 3c f2 ab e9 3d
       0.20308593 -0.013638422 0.031046377 0.11409749
000300 c9 8a 15 3e 1f 5d 9e bd 95 5f 10 3e d5 ec 1c 3e
       0.14603724 -0.07732605 0.14098962 0.15324719
000310 cd da a3 bb b9 9e 7f bc be ff 3f be 2d 6f ff bd
       -0.0050004483 -0.015601807 -0.18749902 -0.12472377
000320 40 4f 32 bd d0 cf 85 bd bd 14 14 bd 97 3f 66 3d
       -0.04353261 -0.06533778 -0.03615259 0.056212988
000330 67 c2 d9 3c a7 6d 24 bd 9d c1 e9 3b 67 af 73 3d
       0.026581956 -0.040143635 0.007133676 0.05949345
000340 2a 47 b2 3d f0 8a e9 bd bb 77 34 3d 26 95 71 3b
       0.0870498 -0.11403453 0.044059496 0.003686258
000350 f5 f5 5c 3d 5f 20 0c 3e e8 b8 83 3b 2b 27 6e 3d
       0.0539455 0.13684224 0.0040198453 0.058142822
000360 0c 08 2c 3d 1c b7 7f ba 68 f9 ad bd ba 9b 23 be
       0.04199986 -0.00097547635 -0.08494836 -0.15977374
000370 4c e9 a1 3d d2 3d 8b bc b3 4e 2c bc e8 e6 1f 3c
       0.07905826 -0.016997252 -0.01051681 0.009759642
000380 bc c1 ce 3d 9b c7 ed 3a 1c 42 07 bd 6f 12 7f bd
       0.10095546 0.0018141152 -0.03302203 -0.06227344
000390 41 33 6f bd b6 ed f6 3d c8 7b 13 bd 45 b7 05 3e
       -0.05839849 0.120570585 -0.03600672 0.13058193
0003a0 3a 5a d2 bd a8 78 1c 3d 20 a7 03 be 75 31 c8 3c
       -0.102711156 0.038201004 -0.12856722 0.024437645
0003b0 bf 7e 47 bd 54 2c e4 bd cc 7a da 3c 9d fb 47 3e
       -0.04870486 -0.111412674 0.026669882 0.19529577
0003c0 62 2f 04 3e c0 52 0d be dd ef 97 3d 5c c4 1c 3e
       0.129087 -0.13801098 0.07418797 0.1530928
0003d0 00 38 7f 3b 62 ea 2a bc 99 be 9d bd 50 3a a8 3d
       0.003894329 -0.010431858 -0.07702369 0.08214247
0003e0 a8 21 1c be 7c f5 a8 bd 6d 29 d5 bd 04 03 b6 3d
       -0.15247214 -0.082499474 -0.10408292 0.08887294
0003f0 2b e7 a4 bd 57 15 a6 bc 70 4b 11 3e 32 95 7c bd
       -0.08051904 -0.020273848 0.14188933 -0.06166572

network_body._body_endoder.seq_layers.2.bias f4 [128]
000000 05 ab 66 3a 45 dc 35 ba 1f fc 8b 3b 50 90 53 bb
       0.00087992876 -0.0006937425 0.0042719985 -0.0032282062
000010 79 76 e0 3a 5f 07 72 3a aa e7 77 ba fa 2f 82 3b
       0.0017125151 0.0009232666 -0.0009456823 0.0039730044
000020 4b 4d bc b9 32 1c ad 3a 97 7b 90 ba 5a 24 9e ba
       -0.00035915742 0.0013207255 -0.0011023161 -0.0012065277
000030 ba 72 11 3a a0 ed b6 3b 56 de 51 ba c2 ce 20 3a
       0.00055484066 0.0055825263 -0.0008005848 0.0006134325
000040 e4 e4 06 3b b3 62 44 b8 a4 24 9e ba 1c ee 88 39
       0.0020583207 -4.6821962e-05 -0.0012065363 0.00026117347
000050 25 71 2d bb 28 36 0a bb 95 d1 76 b9 81 c9 c6 39
       -0.0026465144 -0.0021089409 -0.00023538464 0.00037915635
000060 a1 13 a9 3b 35 8c 9d b8 3b d9 fc b9 df 1a 33 3a
       0.0051598107 -7.512459e-05 -0.00048227035 0.0006832312
000070 5e a0 70 3b d3 9e a4 b8 13 8f 9a bb 7a 37 a9 3a
       0.003671668 -7.849713e-05 -0.004716763 0.001291021
000080 19 2e db bb 8c 22 3f 38 d9 c4 3c 3a 13 cb 75 ba
       -0.006688845 4.5570123e-05 0.00072009634 -0.0009376269
000090 a0 a1 3f ba c9 99 04 3a b8 d6 8a 3b bb bb de 38
       -0.0007310156 0.0005058316 0.0042370223 0.000106207524
0000a0 13 d0 51 3b fc c3 3e 3a 06 b4 5d ba a6 e1 a0 b8
       0.003201489 0.0007277129 -0.00084573065 -7.671425e-05
0000b0 22 a4 60 bb 79 ef 24 bb 9c 8e d7 bb b3 bf b6 ba
       -0.0034277518 -0.002516715 -0.0065782797 -0.0013942629
0000c0 18 37 17 3a 83 a1 2c bb 6e 39 3e ba 0a 59 b7 3a
       0.00057684025 -0.0026341386 -0.00072564825 0.0013988328
0000d0 6f fb a4 3b 8f 7a 14 39 dd 05 81 3a 08 c2 14 3a
       0.005034856 0.00014160037 0.0009843666 0.0005674665
0000e0 05 93 9a ba 0c da 53 ba ef d8 e6 ba 83 d2 c3 ba
       -0.0011793083 -0.0008081503 -0.0017612259 -0.0014940057
0000f0 f7 3c 11 ba ac fe ec ba a5 74 ab bb 93 bf 3b 3a
       -0.00055403955 -0.0018081269 -0.005232411 0.00071620307
000100 99 0c f2 ba 30 98 bb 3b c4 77 a0 ba 78 32 a4 ba
       -0.0018466889 0.0057249293 -0.0012242724 -0.0012527248
000110 58 52 4b bb 6f d1 f8 b9 55 a4 d7 3a 5d 25 c4 3a
       -0.0031024422 -0.00047458286 0.0016452173 0.0014964748
000120 4d 8e 3d 3a 34 00 13 3a 57 f7 72 bb a6 ac 10 3a
       0.00072309823 0.0005607635 -0.0037073696 0.00055188907
000130 08 02 cf 39 bf 86 7c bb 29 aa 06 bb 12 61 31 3b
       0.0003948363 -0.0038532463 -0.00205482 0.0027065915
000140 d4 0c ff ba 04 a4 20 bb 49 7d 5b 3a 10 fa 5d 3a
       -0.0019458779 -0.0024511823 0.0008372856 0.0008467743
000150 17 75 28 bb 9a f4 8e 39 7c 6e 88 3a 58 fe 42 3b
       -0.0025704557 0.00027266593 0.0010408903 0.0029753651
000160 22 71 7a ba af 8a cf 39 2d e0 81 3b 58 99 da ba
       -0.0009553601 0.00039585444 0.0039634914 -0.001667778
000170 8b 15 59 bb 37 61 b6 3a df 6d ec ba 36 b7 5e bb
       -0.0033124413 0.001391447 -0.0018038115 -0.0033983714
000180 92 b9 be 3a 46 85 9c ba 96 7b 45 3b f9 08 06 bb
       0.0014551154 -0.0011941574 0.0030133477 -0.0020452125
000190 05 a7 17 ba 2f 51 f0 b9 d1 03 be 3b 7d 07 81 bb
       -0.0005785081 -0.00045836854 0.005798795 -0.0039376603
0001a0 5a 55 1e ba 49 98 15 bb 2e 75 87 3a 00 58 12 38
       -0.000603994 -0.0022826365 0.0010334605 3.489107e-05
0001b0 67 13 ab b9 61 09 89 3a cb fe 5c bb b5 0f 0b bb
       -0.00032630117 0.0010455066 -0.0033721204 -0.002121908
0001c0 40 0c a1 3b 17 1e 07 39 c1 d6 60 ba 3c a6 11 bb
       0.0049147904 0.00012885813 -0.00085769227 -0.0022224328
0001d0 c1 67 3e 3b 42 b7 0b 3b 41 02 d2 b9 e3 cb 5a b9
       0.0029053541 0.0021318947 -0.00040056 -0.00020866054
0001e0 fc 7b 05 3a e0 00 f4 ba 73 1f 1e bb 8a e7 e7 39
       0.00050920225 -0.0018615983 -0.0024127632 0.00044232263
0001f0 63 73 74 3b 23 f0 1c 3b d3 73 cb ba 15 39 e0 b9
       0.003730022 0.0023946844 -0.0015522189 -0.0004276714

action_model._continuous_distribution.log_sigma f4 [1, 3]
000000 bf e3 89 3a 66 d8 8c 3b e2 00 33 bb
       0.0010520144 0.0042982576 -0.0027313759

action_model._continuous_distribution.mu.weight f4 [3, 128]
000000 16 63 f8 3b 97 6c 97 3a 8f 20 84 3b 42 a9 12 3c
       0.0075801713 0.0011552748 0.0040322016 0.008951487
000010 81 cb ac bb f6 54 88 3c b8 83 9c 3c 90 a4 a1 3a
       -0.005273283 0.016642075 0.019105777 0.0012332369
000020 86 77 a8 3c 00 97 f5 3b 8c 8b 5d 3c 31 ab c9 bc
       0.020564806 0.0074948072 0.01352204 -0.024617763
000030 50 ab 06 3c c2 a0 c7 3a b3 82 57 bc be 6c 1b 3c
       0.008219555 0.0015230405 -0.01315372 0.009486375
000040 30 62 df bb 59 68 ca bc f0 cd b5 bc 7f 0e 09 bd
       -0.006817125 -0.02470796 -0.022192925 -0.03346109
000050 7e 7c c6 3c b3 78 82 3c 61 b2 e4 bb 98 c4 ec bb
       0.024229284 0.015926694 -0.0069792722 -0.0072255842
000060 d2 36 e0 bc 58 2c 99 3c fb 92 34 bb 63 4a 6b bc
       -0.02736989 0.018697903 -0.0027553427 -0.014360997
000070 90 94 8c bb 96 6b ec bc e2 de a9 bc d7 be 1c bc
       -0.004290171 -0.028859895 -0.020736162 -0.009566984
000080 ea 70 43 3c b2 bb 6e 3c 5a 07 8a 3b fb 50 93 3b
       0.011928776 0.014571117 0.004212302 0.0044957376
000090 b9 18 c9 bc 09 1e 38 bc 9d 0c 97 bc d1 ed 1e 3b
       -0.024547921 -0.01123763 -0.018438632 0.0024250636
0000a0 e7 91 9f bc 3d cf 09 3c d8 3c 8c 3c 43 46 59 3c
       -0.019478751 0.008411226 0.017118856 0.013261381
0000b0 a2 20 a6 ba 4c 6d cc bb ba fa e0 3c bf 48 52 3c
       -0.001267452 -0.006238615 0.027463306 0.012834727
0000c0 2e 15 83 bc d0 c5 55 3c 77 62 aa 3c 48 f8 91 bb
       -0.01600131 0.01304765 0.020798905 -0.0044546463
0000d0 0a 11 f1 b8 11 c1 1e bc c8 36 e4 b7 58 19 a4 bb
       -0.00011494949 -0.009689585 -2.7205228e-05 -0.005007904
0000e0 99 9a 01 bd d6 8e bd 3b a9 b2 e9 3c 57 76 81 3c
       -0.031641576 0.0057848496 0.028527575 0.0158035
0000f0 c9 fe d1 3b 68 41 3b 3b 3c e8 2c 3c 5e c0 3e bd
       0.0064085466 0.002857292 0.010553416 -0.046570174
000100 96 8b 15 3d 2f 59 79 39 18 83 d3 3b 72 b2 48 bc
       0.036510073 0.00023779714 0.0064548366 -0.012249576
000110 8c 1c aa bc ce 54 b7 bc cc 75 4f bc ec 24 be bc
       -0.020765565 -0.022379305 -0.012662362 -0.023210965
000120 91 78 10 3b df d6 9e 3c 70 d9 26 bc 4a 04 bf bc
       0.002204452 0.019389568 -0.010183677 -0.023317475
000130 83 97 10 3d 8e 0a ba 3c 2d 9f 8f 3b a9 4b 6a 3c
       0.035300743 0.022710111 0.004382989 0.014300265
000140 29 1b af bc 48 18 12 3c bb 99 33 3d 55 7d 50 3c
       -0.021375256 0.008916922 0.04384778 0.012725194
000150 74 09 d5 3c ca 66 98 3c 16 66 3e bc 72 f5 84 bc
       0.026005484 0.018603701 -0.011621019 -0.016230319
000160 9a d9 a2 3b 1d cf 1c 3c b2 17 bb bc 37 26 97 3c
       0.004969788 0.009570864 -0.022838447 0.01845084
000170 2f bc bc 3a dc fe 80 bc 3b d9 6e 3c 74 cf aa bb
       0.0014399345 -0.015746526 0.014578159 -0.0052127186
000180 dc 03 91 3c 90 4f 5e bc bc a5 19 bc d4 11 24 3b
       0.017702036 -0.013568774 -0.009377893 0.002503504
000190 1e 99 2d ba 4f 0c cc bc 3a 33 a8 3b 41 c8 76 3b
       -0.00066222425 -0.024908213 0.00513306 0.0037655982
0001a0 17 ba bf 3b d0 35 83 bc a2 a6 ca bb 62 5e 19 3c
       0.005851041 -0.01601687 -0.006184415 0.0093608815
0001b0 63 26 ef bb 44 1d 31 3c 4e 0e c1 3c f6 18 47 3c
       -0.007298277 0.0108102 0.023566391 0.012151947
0001c0 e2 57 2c bd 99 7e 81 3b 58 9c d9 bc da 1a c6 bb
       -0.042076 0.003951859 -0.026563808 -0.0060456814
0001d0 2a fb 50 bd c0 76 0e bd 1e 4e 24 bc 67 11 42 3c
       -0.05102078 -0.034781218 -0.01002839 0.011844969
0001e0 e7 a5 3a 3c 5b 51 a6 ba ff 88 d6 3b dc 71 4f bb
       0.011392093 -0.0012689041 0.006547093 -0.0031653559
0001f0 08 5b 0b 3c 2e 3f 5b 3b 74 ef 28 3c 0d 34 a9 bc
       0.00850559 0.0033454406 0.010310996 -0.020654703
000200 f1 ed c0 3c 1d 57 d1 bc ed 00 15 3d 99 71 c1 bb
       0.02355096 -0.025554234 0.036377836 -0.0059034345
000210 4c 3f 82 3c 64 0f 79 bc c0 5b 66 3c 67 e5 3a 3c
       0.015899323 -0.015201423 0.014059961 0.011407233
000220 ad 1d 08 3d 35 07 8e 3c bc 50 e4 3c c1 c2 be bb
       0.033231426 0.017337421 0.027870528 -0.0058215563
000230 05 b4 59 3c 80 6d 28 3c bf f1 26 bc 89 2d 31 3c
       0.013287549 0.010280013 -0.010189473 0.010814079
000240 ab b9 59 3c 51 96 4e bd fc fa b3 bc 17 2d b3 bc
       0.013288896 -0.05043632 -0.021970265 -0.021872086
000250 3f 2b 2c bc 61 43 20 bc 25 91 31 3c 59 bb 6a 3b
       -0.010508358 -0.009781689 0.010837828 0.0035817234
000260 10 c1 16 3d ec bc 10 bc 28 e7 da 3b 8b b2 00 bc
       0.036805212 -0.008834105 0.006680388 -0.007855068
000270 ff 09 cb 3b 17 f7 41 bc e7 7e 2b bc 1c 0d aa 3b
       0.00619626 -0.011838696 -0.010467268 0.005189551
000280 3f 0c f7 bc 89 fb f4 bc 55 d7 99 3c b0 c8 5a bd
       -0.030157207 -0.029905098 0.018779436 -0.053414047
000290 49 65 fc 3b 39 9b a9 3c d8 24 29 3c d4 8c 46 bc
       0.007702504 0.020703899 0.010323726 -0.012118537
0002a0 43 4b c8 3c d5 79 78 3c b3 cb 8e bb 45 78 ca bc
       0.02444995 0.015165766 -0.004357779 -0.024715552
0002b0 fa b7 b7 3a cb c7 6c bc b9 85 ef bb c1 c5 51 bc
       0.0014016621 -0.014451931 -0.007309642 -0.012803496
0002c0 25 d7 c5 3c c3 5f 92 bb 9c 79 c7 bb 4d 3f 83 bc
       0.02415044 -0.004466982 -0.006087495 -0.016021395
0002d0 cc f6 8f 3b ea 01 c1 bb 9c 15 66 3c e0 70 a2 bc
       0.004393434 -0.0058901208 0.014043238 -0.019829214
0002e0 1f e4 2f bc 46 f4 0a 3c 60 22 3d 3c ce c7 4a 3c
       -0.010735541 0.008481091 0.01154384 0.012376739
0002f0 6c 33 82 bc 3d d6 74 3c f2 c3 4f bc 94 8f 93 bc
       -0.01589366 0.0149436565 -0.012680994 -0.0180128
000300 6c be 61 3c c6 fa 7a 3b ec e4 2a 3c a6 d8 e5 bc
       0.01377831 0.0038296445 0.010430556 -0.028057408
000310 ea 1a 04 bc 41 14 bb bb 25 3a 2c bc cf 6a 8d bc
       -0.008063057 -0.0057092016 -0.01051191 -0.017262844
000320 b9 68 47 bb be 85 b2 3c 43 15 a0 3a 41 54 e6 ba
       -0.003042741 0.021792289 0.0012213368 -0.0017572717
000330 c2 ee e7 3b aa 8d 74 bb 6e 2d 2b bc 10 1d a7 3b
       0.0070780227 -0.0037315884 -0.010447843 0.0050999
000340 9c 0e e8 bb 2f 17 f9 bc d1 c5 0c 3b 7c 1e a9 bb
       -0.0070818197 -0.030406563 0.0021480212 -0.0051611047
000350 3c 78 55 bd 67 5a 45 3c 59 23 8b bc ea 94 cb 3c
       -0.052116618 0.012045479 -0.016984629 0.024851281
000360 6d 28 85 3c 43 07 c8 3b ec 74 ee 3c 3b 7a b6 3a
       0.016254628 0.0061043813 0.029108487 0.0013921926
000370 6e 43 06 bc d1 0d c0 3c 85 fb d6 bc de 9c 42 ba
       -0.008194787 0.023444088 -0.02624298 -0.0007423888
000380 11 31 7c 3c 0e 04 f7 3b f4 14 d8 3c b1 8d ed bc
       0.015392558 0.007538325 0.026377179 -0.028998228
000390 ab 4d 44 bc cf de 9b 3c 6f 8f f9 3c 6d 34 08 bb
       -0.011981408 0.019027142 0.030463902 -0.0020783201
0003a0 93 3c c8 bc 49 42 20 bc 31 f1 e6 3c 58 07 ff 3b
       -0.024442947 -0.009781429 0.02819118 0.007782858
0003b0 e6 2a 8f 3a 8c a7 1d 3b b8 37 69 3c bc b8 86 3a
       0.0010922819 0.0024056165 0.014234476 0.0010278444
0003c0 88 44 69 bc ac 8b bf 3c 77 56 7d bc 1b 43 0a bd
       -0.0142375305 0.02338203 -0.015462509 -0.033755403
0003d0 8a d9 b0 3c 95 2e a6 bc cc 80 90 bc 39 11 92 3c
       0.021588106 -0.020285884 -0.01763954 0.017830478
0003e0 d6 35 58 3c 2e 27 f0 bb 50 62 0f bb 99 66 91 3b
       0.013196429 -0.0073288893 -0.0021878667 0.0044372794
0003f0 b7 db 58 bc 9b f8 bc 3c f7 d7 34 bc 3d 53 24 bd
       -0.013235978 0.023067763 -0.011037818 -0.040118445

action_model._continuous_distribution.mu.bias f4 [3]
000000 52 d7 ff b9 f5 6f c4 3a 83 05 0a bb
       -0.00048797816 0.0014986979 -0.0021060414

exp_avg f4 [128, 9]
000000 f7 b5 33 36 cb 5d 15 38 ff 87 9d 35 af 11 b5 36
       2.6778996e-06 3.561172e-05 1.1736992e-06 5.396279e-06
000010 ec 73 32 38 92 cf 07 b7 eb 28 c4 36 c7 c5 a8 b7
       4.2546468e-05 -8.094956e-06 5.8460187e-06 -2.0119258e-05
000020 f0 58 e4 34 1e c3 be 37 1e be ab b8 cf dc 38 b7
       4.253302e-07 2.2740624e-05 -8.1893275e-05 -1.1018666e-05
000030 f3 ac 8e b8 e3 d8 14 b7 f7 84 2a b8 e7 05 08 38
       -6.803302e-05 -8.871985e-06 -4.065499e-05 3.2430424e-05
000040 f3 0c 23 39 e6 ff 90 b7 e6 14 1b 36 2c 19 b7 36
       0.00015549715 -1.72853e-05 2.3108964e-06 5.4567554e-06
000050 12 00 e8 35 66 67 dd 36 64 43 a2 b6 a2 dd 69 b7
       1.7285367e-06 6.5983504e-06 -4.8358215e-06 -1.3939485e-05
000060 82 4d 5e 36 19 e2 57 b7 c9 49 05 36 e2 42 a2 36
       3.3125693e-06 -1.2867641e-05 1.9861493e-06 4.8357624e-06
000070 7b a8 89 b8 7a b7 52 b7 7f b0 be b6 ac cb b7 b8
       -6.564051e-05 -1.2559694e-05 -5.682988e-06 -8.764057e-05
000080 a0 0e 44 35 4a a5 5f b6 f6 3e ee 38 28 d7 35 b5
       7.303697e-07 -3.33258e-06 0.00011360452 -6.774085e-07
000090 53 88 b7 b6 0f 8a 12 38 f3 cd d7 b6 ca 19 5c 36
       -5.469695e-06 3.493769e-05 -6.431475e-06 3.2797566e-06
0000a0 62 a9 ab 38 83 05 87 38 6e 39 18 b7 79 cb ec b7
       8.1854654e-05 6.438328e-05 -9.073277e-06 -2.8228142e-05
0000b0 d9 14 ba 35 a4 89 8d 37 dc 65 1c b8 83 0d 68 37
       1.3864147e-06 1.6872604e-05 -3.7288162e-05 1.38314235e-05
0000c0 14 50 64 b7 00 75 a8 b8 bd d8 05 b8 13 a3 be 37
       -1.3608504e-05 -8.032657e-05 -3.1911524e-05 2.2725702e-05
0000d0 5d e8 52 36 c5 22 82 b7 be c0 cf b4 58 a3 5d b8
       3.1427692e-06 -1.5513398e-05 -3.8696993e-07 -5.284263e-05
0000e0 dc 7d f1 b5 d7 71 fc b6 6b aa 96 b8 b4 95 84 b5
       -1.7992529e-06 -7.523438e-06 -7.1843e-05 -9.878336e-07
0000f0 71 28 b7 b6 34 17 f8 37 bc 36 9a 35 a9 f7 41 b7
       -5.458533e-06 2.9574709e-05 1.1489824e-06 -1.1561359e-05
000100 ba 25 4b b4 0a 34 03 b8 ae 7e b0 35 e3 8b 18 b8
       -1.8919573e-07 -3.12813e-05 1.314989e-06 -3.6369904e-05
000110 f4 93 0d b6 9f da 43 b7 84 60 36 37 84 e9 35 37
       -2.1096757e-06 -1.1673807e-05 1.0870517e-05 1.084281e-05
000120 eb b1 72 35 e2 7d b7 35 00 14 d6 34 d7 5c 65 36
       9.041093e-07 1.3671199e-06 3.9875158e-07 3.41777e-06
000130 0e 77 8e 36 c2 74 e3 36 fa a2 a3 36 0e fd 20 b7
       4.2457896e-06 6.7787196e-06 4.8767515e-06 -9.595662e-06
000140 58 9d 8e 34 5a 83 6d b7 0d 8f e1 37 dd 6d 7f b7
       2.6564044e-07 -1.41568835e-05 2.6888703e-05 -1.5224764e-05
000150 cb 82 4e 37 af c6 04 38 97 b2 f1 36 6f ae 90 b6
       1.2309009e-05 3.165629e-05 7.2031503e-06 -4.311841e-06
000160 76 2c f2 b7 e3 b8 07 36 50 22 8a b6 1d 8f 2f 37
       -2.8869352e-05 2.0224186e-06 -4.116715e-06 1.0464134e-05
000170 1f 49 14 37 68 ed 03 37 ad f0 98 b7 50 36 b2 37
       8.838512e-06 7.863484e-06 -1.8231885e-05 2.1244545e-05
000180 41 a0 66 b6 f8 72 8d b8 3a 17 11 37 c2 53 e8 33
       -3.436595e-06 -6.7448185e-05 8.648081e-06 1.0818577e-07
000190 f7 01 12 36 5f dc 79 36 22 b1 13 b6 cb 13 f9 b6
       2.175684e-06 3.7232164e-06 -2.2007812e-06 -7.4230825e-06
0001a0 5e 77 a7 b6 3d fc 09 b6 da 48 82 b7 8a 8f 22 b5
       -4.990884e-06 -2.0561413e-06 -1.5531132e-05 -6.055858e-07
0001b0 20 dd db b5 29 de ae b7 fe 2d 95 b6 a8 df e6 35
       -1.6381127e-06 -2.0845868e-05 -4.4459002e-06 1.7201428e-06
0001c0 3e d3 89 b7 60 78 82 b6 e0 9b e5 35 1d a3 8a 38
       -1.643004e-05 -3.8883154e-06 1.7107195e-06 6.610735e-05
0001d0 3d a6 d3 34 f9 42 8b b7 6f 88 b4 b7 cd 40 5e 36
       3.9422767e-07 -1.6601278e-05 -2.1521204e-05 3.3118297e-06
0001e0 1f 9c 16 38 df 71 ac 37 29 35 00 39 c3 bb 20 b7
       3.5908186e-05 2.0557023e-05 0.00012226835 -9.58046e-06
0001f0 f6 f2 47 39 6d 4b 72 37 7c 89 02 38 fe aa 80 b8
       0.00019068629 1.44418855e-05 3.1122458e-05 -6.1353654e-05
000200 a0 ef e9 36 8f 1e 6e b8 ea 36 ae b8 83 0e 8b b8
       6.971837e-06 -5.677208e-05 -8.307195e-05 -6.6307395e-05
000210 d3 63 9d 37 53 f9 42 b8 92 19 84 b7 f3 19 79 b6
       1.8762343e-05 -4.6485406e-05 -1.5747533e-05 -3.7118996e-06
000220 b5 d9 29 b8 e6 2b 23 36 e7 b3 36 38 4e 3b 83 b8
       -4.0495495e-05 2.4314445e-06 4.355973e-05 -6.257613e-05
000230 d3 4b d1 b7 55 82 42 b3 61 fd 42 39 08 10 62 37
       -2.495005e-05 -4.528768e-08 0.00018595673 1.3474382e-05
000240 98 2a 3e b6 f8 1b 17 b7 59 06 65 b6 ac 2f 2a 36
       -2.8337e-06 -9.006813e-06 -3.4127354e-06 2.5359723e-06
000250 14 25 ec b6 c1 7c b4 37 e5 0b d9 b5 fa 0b e1 37
       -7.0376645e-06 2.1515765e-05 -1.6171222e-06 2.6827667e-05
000260 b4 5f 8c 35 f9 03 0b 36 45 7c a8 38 0e 00 d9 37
       1.0458666e-06 2.0714926e-06 8.034011e-05 2.5868441e-05
000270 a4 fd c7 35 b3 d6 2d 38 98 91 0c b8 13 8d 45 b6
       1.4900475e-06 4.144637e-05 -3.3514196e-05 -2.9437404e-06
000280 5f c3 40 b9 e1 27 8e 37 55 02 bd 35 f6 6a 75 b9
       -0.00018383328 1.694629e-05 1.4082276e-06 -0.00023404867
000290 82 a0 78 b8 3b 9c 5d b8 49 58 31 b9 99 0f f9 38
       -5.9277292e-05 -5.2836007e-05 -0.00016912924 0.000118761505
0002a0 bd b5 2d 37 6c 1e 03 3a 40 76 ab b6 36 95 ec 37
       1.0353918e-05 0.00050017866 -5.1099632e-06 2.8202874e-05
0002b0 10 30 d5 b7 5a 4a 11 b7 af 6f a3 b8 08 28 95 b8
       -2.541396e-05 -8.659985e-06 -7.7932484e-05 -7.11233e-05
0002c0 53 e5 55 b8 a7 93 2f 37 6f 86 f1 b8 c2 a5 91 b7
       -5.0996732e-05 1.0465191e-05 -0.00011516816 -1.7362534e-05
0002d0 fd 36 03 b6 a3 b0 c0 b5 79 a8 ca b5 71 29 81 35
       -1.9552529e-06 -1.4356523e-06 -1.5099205e-06 9.62331e-07
0002e0 6f b3 11 b5 ec 04 85 37 4e 5a 2c b6 3a 0e bb 36
       -5.427782e-07 1.5857127e-05 -2.5682561e-06 5.5746905e-06
0002f0 50 16 40 35 7f b4 c0 36 52 4f 4a b7 78 92 de b6
       7.155804e-07 5.7430584e-06 -1.2058606e-05 -6.633167e-06
000300 01 ba 8b 37 3d c4 2f 38 c7 97 9c b6 c6 c9 23 37
       1.6656706e-05 4.1906012e-05 -4.6668315e-06 9.762536e-06
000310 34 17 1c 39 0e 5a 14 34 65 ed b0 b6 d2 47 57 37
       0.00014885963 1.3816336e-07 -5.272845e-06 1.2831721e-05
000320 2c dc 33 37 c2 2a 1c 37 72 01 38 38 06 f3 66 36
       1.0720494e-05 9.30828e-06 4.3870365e-05 3.441413e-06
000330 91 ad 8b 36 82 0a 67 36 df 7c 23 b7 f1 31 c2 37
       4.1627286e-06 3.4427799e-06 -9.744631e-06 2.3149858e-05
000340 46 6d bd b8 a9 5d 15 b7 ae b7 86 b8 d0 f8 e9 b8
       -9.032576e-05 -8.902899e-06 -6.423831e-05 -0.00011156651
000350 74 48 ea b7 e4 29 c3 37 d5 14 2d 36 c3 2d 87 b7
       -2.7928712e-05 2.3265318e-05 2.5791135e-06 -1.6114564e-05
000360 26 79 f3 b5 b6 7d f6 b4 da 9f af b5 2e 24 e7 35
       -1.814017e-06 -4.5912537e-07 -1.3085039e-06 1.7221371e-06
000370 72 05 0a b4 df 30 07 37 32 87 27 b6 a5 de f1 36
       -1.2854233e-07 8.058006e-06 -2.4963633e-06 7.208279e-06
000380 cf ff 51 35 eb 56 b2 b6 1a 72 43 b8 b2 7d 9d b7
       7.823082e-07 -5.314932e-06 -4.659789e-05 -1.877439e-05
000390 01 e7 76 37 ca 20 92 b6 2e 61 51 36 74 9e f0 36
       1.4716527e-05 -4.354956e-06 3.1199993e-06 7.1710037e-06
0003a0 1c 3b 27 39 7a 7c 37 b6 3c 9a 73 34 01 67 34 b6
       0.00015948381 -2.734158e-06 2.2687249e-07 -2.6882046e-06
0003b0 a8 42 db b4 95 15 cc b5 2d 8b d9 b5 3a 07 14 36
       -4.0840428e-07 -1.5205466e-06 -1.6208265e-06 2.2057925e-06
0003c0 a5 30 3e b5 ae cd 25 b6 ea 24 eb b4 9a 07 df b4
       -7.08513e-07 -2.4706637e-06 -4.379902e-07 -4.1542518e-07
0003d0 68 c4 eb b5 4d c6 ad b5 1c 83 76 b3 54 8d b6 b7
       -1.7566026e-06 -1.2947218e-06 -5.739558e-08 -2.1761902e-05
0003e0 4a 55 11 b8 4c b6 c5 33 49 69 e0 b6 4a 86 cc 34
       -3.4650126e-05 9.206687e-08 -6.687977e-06 3.809567e-07
0003f0 d0 08 a3 b6 1a ea ff 37 34 bd 25 36 67 41 df 35
       -4.8588045e-06 3.050738e-05 2.4697047e-06 1.6633829e-06

exp_avg_sq f4 [128, 9]
000000 f1 f4 2c 2c ed b0 a0 2f a0 3b 6c 2c 63 8e 8e 2d
       2.457864e-12 2.9229544e-10 3.3570716e-12 1.6206763e-11
000010 05 8e 28 30 0c 2e a4 2d 1e c5 25 2d 05 a6 df 2f
       6.1319866e-10 1.866509e-11 9.422933e-12 4.0681428e-10
000020 58 08 9d 2c 7a f2 e9 2f 75 65 97 32 e3 d8 ff 2f
       4.4631347e-12 4.2554743e-10 1.7624851e-08 4.6538337e-10
000030 d3 63 f3 30 66 cc 04 33 10 fc b8 30 d7 24 15 2f
       1.7708949e-09 3.0919544e-08 1.3459402e-09 1.3564559e-10
000040 d5 bb fe 33 51 49 ad 2f 9a 60 ef 2b 86 98 1c 2f
       1.1861963e-07 3.152061e-10 1.7008784e-12 1.4242305e-10
000050 de 59 07 2c 36 a2 75 2d bf d0 bc 2f f7 16 83 2d
       1.923454e-12 1.3962656e-11 3.4345324e-10 1.4903174e-11
000060 b3 f9 07 2d 09 8d bf 2f b2 ba ac 2c 96 7f ee 2e
       7.729306e-12 3.484291e-10 4.9092614e-12 1.0845651e-10
000070 71 a0 9c 31 19 c5 69 2f c1 24 d2 2f a2 8a a6 31
       4.5584376e-09 2.126125e-10 3.8224893e-10 4.8469966e-09
000080 95 e3 f5 2f 0e fe 46 2e 46 e9 53 33 8c 20 26 2e
       4.4726947e-10 4.5245634e-11 4.9339427e-08 3.7772938e-11
000090 37 30 84 2d 38 fc 8e 30 83 d3 d5 2d df 2c aa 2e
       1.5028074e-11 1.0403545e-09 2.4309227e-11 7.738676e-11
0000a0 fe a8 30 31 a3 11 74 2f 0e a5 23 2e 3d fb 55 31
       2.5707432e-09 2.2197937e-10 3.7208507e-11 3.1138392e-09
0000b0 ab e7 89 2e 54 06 8e 2e c9 50 ac 30 92 f9 e8 2e
       6.271191e-11 6.4585365e-11 1.2537608e-09 1.0594471e-10
0000c0 92 de 15 2f d2 fb 9f 30 d7 29 4f 2f a3 f5 8f 2e
       1.3630544e-10 1.1640344e-09 1.8841405e-10 6.546521e-11
0000d0 b7 e5 a1 32 db 83 24 2f 61 5f 3c 2c 82 5d 36 30
       1.8847329e-08 1.4962558e-10 2.6769353e-12 6.6344097e-10
0000e0 5d 6d 63 2c 93 45 0d 2e 1e 4d db 30 db 24 17 2e
       3.231935e-12 3.2121483e-11 1.5956265e-09 3.436616e-11
0000f0 c3 40 e1 2c 5b 19 8c 2f 29 17 b1 2c 22 41 29 2f
       6.4020746e-12 2.5483868e-10 5.033214e-12 1.53936e-10
000100 f2 ab 54 31 ea 7f 79 2f f7 94 8a 2f 8a b7 8c 30
       3.09478e-09 2.2691862e-10 2.52079e-10 1.0238506e-09
000110 8a 4a e1 2f 66 df 1d 2e 28 86 52 33 b7 d9 89 2e
       4.0980225e-10 3.5896085e-11 4.901645e-08 6.2687126e-11
000120 86 8c 70 2c 56 02 fc 2d ee ab 09 2c 40 bc 03 2d
       3.4184057e-12 2.865012e-11 1.9564311e-12 7.488288e-12
000130 3e c8 04 2e 3b c3 af 2c 57 86 17 2d 20 93 9c 2f
       3.0191176e-11 4.995474e-12 8.613186e-12 2.8480773e-10
000140 21 6f 65 2c 6c 4d df 2e 63 cb 45 31 97 a7 3e 2f
       3.2604546e-12 1.0154619e-10 2.8782885e-09 1.7339939e-10
000150 a5 44 9a 2f 72 f5 c5 30 67 1f 46 2f 72 60 14 2e
       2.8061212e-10 1.4403396e-09 1.8019151e-10 3.3736965e-11
000160 79 df 29 33 4e 85 84 2e e3 3c cf 2d f9 5e 87 30
       3.9551626e-08 6.026345e-11 2.3560215e-11 9.849536e-10
000170 e5 09 05 2e 46 89 b9 2e 9e 0e a5 30 a4 4d 9c 2e
       3.0249487e-11 8.4372107e-11 1.2009485e-09 7.1078504e-11
000180 ce 68 07 2e 0b 70 16 32 25 61 1c 2e a6 b8 10 2c
       3.078853e-11 8.756625e-09 3.5556575e-11 2.0566131e-12
000190 36 a1 49 2e e3 d6 65 2c a4 4a cd 2c 8c 05 9e 2e
       4.5845293e-11 3.2662143e-12 5.834737e-12 7.1859935e-11
0001a0 69 01 94 2c cc 02 da 2c 6b b9 9e 2f 17 c7 22 2c
       4.2065696e-12 6.196243e-12 2.887178e-10 2.3132102e-12
0001b0 ee 81 2b 2d 0e a0 38 2f 52 49 6e 2d 47 8f 8c 2d
       9.749075e-12 1.6791565e-10 1.3545014e-11 1.5979785e-11
0001c0 93 ec fa 2d be eb 9d 2d 31 ed 2b 2c 7e f9 33 31
       2.852677e-11 1.7953524e-11 2.443223e-12 2.6189748e-09
0001d0 13 e7 06 2d 86 a9 a3 2e 27 fc f0 31 69 13 04 2f
       7.668327e-12 7.442495e-11 7.0135857e-09 1.2012226e-10
0001e0 07 6c e5 2f f5 65 ac 32 55 6d 5b 30 9a d8 ac 2d
       4.1731615e-10 2.00698e-08 7.9827106e-10 1.9650327e-11
0001f0 c9 07 ae 32 40 f3 89 2e fe 17 4d 2f f7 73 e5 31
       2.0259806e-08 6.2732486e-11 1.8653165e-10 6.677961e-09
000200 f7 ad 69 2f 32 11 29 30 7e 79 70 32 4c 80 04 30
       2.1253031e-10 6.150628e-10 1.3997463e-08 4.820364e-10
000210 b4 3c 51 2e 5b 77 0a 33 58 5c 88 2e 32 01 8d 2e
       4.7575013e-11 3.2239182e-08 6.2009675e-11 6.41215e-11
000220 98 b9 a0 31 1a 7c 1b 2f 49 26 ec 2f e5 75 3e 32
       4.6777124e-09 1.4141258e-10 4.2955353e-10 1.1086262e-08
000230 7c 9f 80 2f 25 45 05 2e b8 ac c8 32 4a 7d 4a 2e
       2.3396385e-10 3.030211e-11 2.3361608e-08 4.604076e-11
000240 2b e4 34 2c 58 43 53 2f 5e d8 87 2c e0 27 0d 2d
       2.5706197e-12 1.9214264e-10 3.8609524e-12 8.023776e-12
000250 04 a2 aa 2f ff 0e eb 2d 01 33 8b 2b 2f 6c a7 30
       3.103794e-10 2.6723066e-11 9.8907e-13 1.2181597e-09
000260 39 f6 e4 2b 16 10 83 2f 1b 79 16 32 01 a5 9f 2f
       1.6268715e-12 2.384019e-10 8.758685e-09 2.9039174e-10
000270 dc fa ec 2f 90 ea c8 31 98 65 2a 30 28 49 8a 2e
       4.3106396e-10 5.8474328e-09 6.1990013e-10 6.2885086e-11
000280 58 e2 df 33 10 3d 22 2f f4 3d 00 30 30 b4 14 33
       1.04254184e-07 1.4755508e-10 4.665417e-10 3.4622815e-08
000290 c3 e6 56 30 05 5c c9 30 3c fb 64 33 a2 13 1a 31
       7.818068e-10 1.4650828e-09 5.3313883e-08 2.242111e-09
0002a0 5a 37 1b 2f 03 6d 58 34 73 62 77 2f 8b 52 19 2f
       1.4116833e-10 2.0156226e-07 2.2499495e-10 1.3944594e-10
0002b0 88 bf 06 32 42 18 1f 2f 27 51 5e 30 06 6f ae 32
       7.843376e-09 1.4469584e-10 8.0878454e-10 2.0306754e-08
0002c0 f9 30 ea 2f bf 10 1d 2e 33 3f aa 32 14 7c b6 2e
       4.259915e-10 3.571254e-11 1.9819344e-08 8.2984425e-11
0002d0 67 b3 f5 2b 21 d8 9c 2e 6c 3f 18 2c 04 59 8b 2c
       1.7458091e-12 7.132451e-11 2.1635705e-12 3.9605003e-12
0002e0 f1 9f fa 2e fd b3 84 2d 52 9e e0 2b cf 92 1d 30
       1.1397095e-10 1.5086593e-11 1.59601e-12 5.7324895e-10
0002f0 75 47 e1 2b 67 14 96 2e a2 85 44 31 6b 82 cc 2e
       1.6007045e-12 6.8248344e-11 2.8597715e-09 9.300013e-11
000300 e5 eb 31 2f 19 28 8c 31 4d 2b 37 2f 95 78 3d 2e
       1.6181863e-10 4.079095e-09 1.6659137e-10 4.3080723e-11
000310 c1 aa fe 32 5a 9c 03 2e 4b f1 8a 2e cb 7e ae 30
       2.9647142e-08 2.992482e-11 6.318376e-11 1.2696203e-09
000320 ad 6b fc 2e 5a fe 1b 2f 34 7f 59 30 1f d3 d6 2e
       1.147876e-10 1.4187532e-10 7.9124907e-10 9.769096e-11
000330 28 15 55 2d 70 bb b6 32 2f 93 dd 2d 3f fd 29 2f
       1.2112346e-11 2.1272825e-08 2.5190154e-11 1.5460432e-10
000340 e7 87 1e 32 46 c2 52 2f 09 74 58 30 54 f7 97 32
       9.227711e-09 1.9168409e-10 7.874524e-10 1.7691185e-08
000350 5f 3b f4 2f 91 83 52 2e 73 61 28 33 a9 70 88 2e
       4.4425527e-10 4.7865326e-11 3.9204178e-08 6.2045764e-11
000360 28 30 74 2b 68 6b 16 2e d7 5f 6b 2b 1c 71 69 2c
       8.6753044e-13 3.4201447e-11 8.3621776e-13 3.317408e-12
000370 01 b4 74 2e 0b 9e 96 2c 0b 11 69 2c a6 76 6b 2f
       5.5639052e-11 4.2808027e-12 3.3120752e-12 2.1415278e-10
000380 fc 78 10 2c 18 1b 1e 2f 96 62 95 31 7f 28 5d 2f
       2.053079e-12 1.4379642e-10 4.3476787e-09 2.011422e-10
000390 56 10 96 2f 4c 4c 03 31 b3 89 52 2f fe c6 76 2e
       2.7296448e-10 1.9106379e-09 1.914831e-10 5.6110665e-11
0003a0 df 47 8c 33 f4 2b a2 2e 00 c0 5c 29 7f ca d6 2c
       6.532331e-08 7.374715e-11 4.9016347e-14 6.1047274e-12
0003b0 a4 51 65 29 d1 50 0c 2b 68 16 80 2d 35 c3 01 2b
       5.0919026e-14 4.9850147e-13 1.4561866e-11 4.610091e-13
0003c0 18 bb ce 2a f6 41 2d 2c c9 da aa 2a ba 54 5d 2c
       3.6722773e-13 2.4621394e-12 3.034988e-13 3.1453022e-12
0003d0 3e 48 a1 2f 58 46 51 2c ab 67 a8 2d 47 b9 5a 30
       2.933706e-10 2.9739735e-12 1.9145427e-11 7.9571233e-10
0003e0 17 bc 61 2e d1 ea 0e 2c 3b 47 04 30 6e 48 75 2c
       5.1326134e-11 2.0309763e-12 4.8122545e-10 3.48568e-12
0003f0 ce 02 8a 2e d9 0f da 30 5e bb ca 2e 7e 64 03 2f
       6.276012e-11 1.5866092e-09 9.2191796e-11 1.1950083e-10

exp_avg f4 [128]
000000 98 07 80 37 8d 91 6a b7 b2 62 e2 33 bb b2 cc b7
       1.5262325e-05 -1.3981376e-05 1.0541898e-07 -2.4401923e-05
000010 a0 c3 b2 37 95 19 8b b7 79 9e d5 b7 e6 d5 a9 b6
       2.1310349e-05 -1.6582004e-05 -2.5465373e-05 -5.0614935e-06
000020 95 02 43 35 4f a5 05 37 67 56 07 b5 19 aa c4 35
       7.264692e-07 7.965907e-06 -5.041715e-07 1.4652643e-06
000030 6c e8 32 b7 a9 30 07 b7 ba dd bd b7 46 32 de b7
       -1.0663742e-05 -8.057957e-06 -2.2633805e-05 -2.6487873e-05
000040 c2 7c 53 b6 4e f0 d9 37 0a a0 9d b8 65 c9 f6 b6
       -3.1514069e-06 2.5980316e-05 -7.516153e-05 -7.3548167e-06
000050 37 3f 14 b5 78 8c 06 36 63 95 01 37 04 72 05 b8
       -5.5226286e-07 2.004932e-06 7.723781e-06 -3.1815856e-05
000060 f4 79 73 b4 97 1f 7a b7 d6 af 7e b5 f4 d7 27 b6
       -2.2675505e-07 -1.4908516e-05 -9.487825e-07 -2.501064e-06
000070 44 05 3f 37 d7 ae a7 b7 bc 21 92 36 cc ff 7d b6
       1.1385713e-05 -1.9989368e-05 4.3550663e-06 -3.7848831e-06
000080 23 73 26 34 43 4c 90 37 47 a1 ad b7 b5 a1 d9 b7
       1.5501841e-07 1.720165e-05 -2.0698308e-05 -2.5943717e-05
000090 f3 b4 70 38 87 30 8a 36 4d b7 a6 36 76 bb 6b 37
       5.738898e-05 4.11837e-06 4.9685245e-06 1.4050738e-05
0000a0 10 e8 3f b7 b9 12 30 b7 f1 ca 43 b6 1b 04 97 36
       -1.1438518e-05 -1.0494777e-05 -2.9175392e-06 4.5006286e-06
0000b0 b7 d9 c9 b6 28 73 8a 36 e2 f8 13 b6 da f8 4c 36
       -6.015612e-06 4.1261264e-06 -2.2049576e-06 3.054322e-06
0000c0 29 36 f9 b7 59 51 a0 37 61 a4 dd 37 72 a3 34 b6
       -2.9708333e-05 1.9111367e-05 2.6421798e-05 -2.6917228e-06
0000d0 49 bc 82 b7 16 f0 1b b8 af a6 85 b5 ff 6b 25 b4
       -1.5584885e-05 -3.7178477e-05 -9.957784e-07 -1.5406111e-07
0000e0 c7 be c5 b2 06 c8 66 b7 b3 89 57 b5 e9 a0 0a b7
       -2.3020574e-08 -1.375564e-05 -8.029412e-07 -8.262906e-06
0000f0 cf b5 54 b7 b0 09 9c 35 0e 09 c9 b5 02 67 08 b8
       -1.2678515e-05 1.1625725e-06 -1.4978302e-06 -3.252086e-05
000100 54 19 38 b8 12 83 7a b7 62 92 8c 35 4e f4 ba b7
       -4.3892607e-05 -1.4931678e-05 1.0473416e-06 -2.2286691e-05
000110 5e 9a 25 38 d7 8f 19 b7 fe 12 b5 b5 ed 04 aa b7
       3.948283e-05 -9.153001e-06 -1.3491078e-06 -2.0267873e-05
000120 88 45 19 36 76 86 d4 37 78 bd 55 38 cd 78 36 b7
       2.283925e-06 2.5334983e-05 5.0959614e-05 -1.08761715e-05
000130 f4 17 84 b7 22 31 04 b7 36 81 ad 37 e2 23 b7 36
       -1.574678e-05 -7.879253e-06 2.0683376e-05 5.4580023e-06
000140 7f 17 d4 36 3b 9a 2e 38 f8 dd bc 36 aa 6a ec 37
       6.3208277e-06 4.162847e-05 5.628677e-06 2.8183062e-05
000150 a5 56 d1 37 12 da 77 b7 e7 16 79 b7 75 5d fb 36
       2.4955089e-05 -1.4773121e-05 -1.4846889e-05 7.4912627e-06
000160 5d 92 d2 37 6f e0 ed b7 ac 8c 26 b8 d3 11 84 b7
       2.5102107e-05 -2.8357112e-05 -3.9708495e-05 -1.5743926e-05
000170 54 b1 75 36 50 18 c6 37 2b 42 ab b7 81 06 0e b7
       3.6611063e-06 2.361476e-05 -2.04156e-05 -8.465374e-06
000180 f0 33 3c b7 73 31 c1 37 15 7c bb 37 cf 4c c3 b6
       -1.1217766e-05 2.303042e-05 2.2349917e-05 -5.8203946e-06
000190 1d ca bb 36 b6 51 b7 b6 a2 eb 16 b8 7d 0b ef 37
       5.5965634e-06 -5.4633374e-06 -3.5982237e-05 2.849637e-05
0001a0 0c 20 d6 37 5b 62 e4 37 5b da 59 35 e4 e5 0c b8
       2.5525711e-05 2.7225518e-05 8.115655e-07 -3.3592703e-05
0001b0 01 74 91 b5 87 72 cb b7 cb 12 42 36 77 c0 e9 33
       -1.0837103e-06 -2.4252817e-05 2.8919192e-06 1.0884917e-07
0001c0 75 3b f1 37 ae 52 b7 b7 b9 02 31 38 c3 1e 54 b8
       2.8757126e-05 -2.18538e-05 4.2202624e-05 -5.0573388e-05
0001d0 b5 4e 19 b8 ed 4b 78 35 1d b1 69 36 cd 56 d4 36
       -3.6551344e-05 9.2497686e-07 3.48228e-06 6.3281973e-06
0001e0 31 8f 2f b8 06 e1 1e 37 35 ee fc 36 49 69 ee b6
       -4.185661e-05 9.469926e-06 7.537916e-06 -7.1052095e-06
0001f0 b2 3b a6 b6 54 7a 25 38 cb 3e a4 37 0a af f2 37
       -4.954135e-06 3.9452992e-05 1.9579564e-05 2.8930157e-05
