results/jugglingRobotV1/JugglingRobotV1/JugglingRobotV1-304132.onnx (onnx, 74695 bytes, 7 tensors)

action_model._continuous_distribution.log_sigma f4 [1, 3]
-0.022440843 -0.05042752 -0.0038340075
00000000: dcd5 b7bc 168d 4ebd f943 7bbb

action_model._continuous_distribution.mu.bias f4 [3]
-0.008106966 0.017914949 -0.00051218836
00000000: 14d3 04bc 5fc2 923c 6144 06ba

action_model._continuous_distribution.mu.weight f4 [3, 128]
-0.0039348532 -0.002184565 0.007178669 0.03693627 0.0024863107 -0.023988983 0.0025591296 0.000507734
0.010016018 0.017710865 0.008633967 -0.007928339 0.04407322 0.015289492 -0.0055112815 0.008209812
0.019645782 0.028320286 0.0069780312 -0.021897916 0.03111046 -0.000136207 0.00023719508 -0.024600161
0.039371025 0.013421026 0.0020032811 0.023913475 -0.0065566516 0.008356015 -0.01856006 0.008985325
0.01673843 0.025966141 -0.029700402 0.016695734 -0.04538504 -0.009351969 0.006095268 -0.018694019
-0.013580422 -0.015072664 0.017976316 0.0065756408 0.024633693 -0.008882566 -0.017901653 -0.012817224
0.0009751421 -0.0017718087 0.0029420198 0.017449131 0.019887866 -0.024031468 0.00372426 0.004658577
0.039312616 -0.0163825 0.024306627 0.019528372 -0.0038476496 0.037559006 -0.013315372 -0.012082615
0.041758567 -0.039894987 -0.014519616 0.018717246 0.03665355 0.002910393 0.00818028 -0.029161556
0.0033549413 0.0028093345 0.012132261 0.027609974 0.043850265 0.0017558689 -0.04034511 -0.029389845
-0.016686425 0.016030127 -0.0084623005 0.001701054 0.025192495 -0.002066525 0.022627257 -0.009048371
0.016928684 -0.020028621 0.049409345 0.043445073 0.009086432 -0.013555307 0.021190386 -0.03294249
0.008631321 0.0016186957 0.008440893 -0.016793964 -0.010674165 0.008988744 -0.0028813295 0.002182886
0.016091704 -0.02312878 0.00732201 0.027520005 0.011569327 -0.009144971 0.027320895 -0.0006112978
0.024733799 -0.0074143824 0.03565266 -0.0005007278 0.021650352 -0.003997173 -0.0056533082 -0.03332639
0.019865014 -0.0075915037 -0.034842335 -0.0076551684 -0.023440558 0.032618616 0.03304788 0.022030469
-0.042068426 -0.034431837 -0.0014566547 0.022533247 -0.07786123 -0.027064275 -0.010840497 -0.040142518
-0.0268989 0.036185626 -0.06358752 -0.045229826 -0.11143884 0.0024173835 0.00586646 0.014071271
-0.048577663 0.031597994 -0.020870393 0.018771064 -0.02696607 -0.014636158 -0.06556304 0.023715165
0.022132562 -0.027998371 0.0006370948 -0.056528382 -0.046322085 0.044838708 -0.028702669 -0.011443607
-0.06401107 0.0073702615 0.029845743 0.030969862 -0.015033369 0.030053752 -0.05188749 -0.009490945
0.035837602 -0.03830799 0.0073546194 0.03660672 0.00043194188 -0.00019774087 -0.013342729 -0.02896286
0.013019111 0.002259939 -0.06369836 0.053336315 0.005668938 0.0029032344 -0.007060911 -0.022777777
0.017094968 -0.05498199 0.0059148693 -0.024821755 -0.008996303 -0.03504919 0.03396432 0.002521734
-0.073899575 0.0270679 -0.021020912 -0.01642166 -0.12885246 -0.064288095 0.0108158635 0.014139758
-0.005755637 0.030714426 0.020154571 -0.0033774117 -0.02369478 -0.009919371 0.0076769134 0.028807603
0.013200169 -0.029520385 0.00082288246 0.023712143 -0.0362449 0.023442939 0.004677398 0.021635149
0.0020903868 -0.014101181 0.0102540385 0.02293848 -0.06157273 -0.030172067 -0.0786013 -0.04728122
0.0059687835 0.001986844 0.005393865 0.008489531 0.0082040075 -0.014286816 -0.022496268 -0.049561597
-0.025577366 -0.014743633 -0.0307786 0.016744921 -0.05195633 -0.027648894 0.0143628325 6.1580875e-05
-0.005386476 -0.007609659 -0.038293336 -0.019660221 -0.023980813 -0.019588705 0.014865981 -0.014426621
-0.008581835 0.019977054 0.04572493 -0.014121591 -0.031323932 -0.07854337 -9.71154e-05 0.012994703
00000000: f1ef 80bb eb2a 0fbb 0a3b eb3b 7c4a 173d
00000010: 5ff1 223b 8b84 c4bc 12b7 273b 7419 053a
00000020: 391a 243c 6016 913c 7b75 0d3c dde5 01bc
00000030: 1f86 343d c780 7a3c fb97 b4bb 7382 063c
00000040: 31f0 a03c f2ff e73c f8a7 e43b 4263 b3bc
00000050: 5ddb fe3c cad2 0eb9 92b7 7839 4786 c9bc
00000060: 8343 213d dde3 5b3c 7b49 033b 31e6 c33c
00000070: 2ed9 d6bb abe7 083c 440b 98bc 2f37 133c
00000080: 081f 893c f2b6 d43c 424e f3bc 7ec5 883c
00000090: aae5 39bd 0039 19bc d0ba c73b 3324 99bc
000000a0: 6b80 5ebc 56f3 76bc 1143 933c 7978 d73b
000000b0: 99cc c93c 2f88 11bc 7da6 92bc 55ff 51bc
000000c0: aea0 7f3a 093c e8ba e7ce 403b 7bf1 8e3c
000000d0: e1eb a23c a4dd c4bc b712 743b faa6 983b
000000e0: 4406 213d 9834 86bc b11e c73c f7f9 9f3c
000000f0: d928 7cbb 79d7 193d b828 5abc 29f6 45bc
00000100: 080b 2b3d ed68 23bd afe3 6dbc e954 993c
00000110: 0822 163d 4bbc 3e3b 9506 063c 37e4 eebc
00000120: 93de 5b3b d01c 383b 64c6 463c 502e e23c
00000130: 569c 333d 2f25 e63a ea40 25bd f9c2 f0bc
00000140: f8b1 88bc 9d51 833c 76a5 0abc e7f5 de3a
00000150: 7e60 ce3c 896e 07bb cc5c b93c 9e3f 14bc
00000160: 06ae 8a3c 1013 a4bc 7461 4a3d 76f3 313d
00000170: 42df 143c 1417 5ebc 7697 ad3c b4ee 06bd
00000180: 626a 0d3c 6a2a d43a ac4b 0a3c 7f93 89bc
00000190: b1e2 2ebc 8645 133c b0d4 3cbb c00e 0f3b
000001a0: c0d2 833c 9178 bdbc 79ed ef3b a271 e13c
000001b0: 468d 3d3c cad4 15bc 12d0 df3c 803f 20ba
000001c0: 899e ca3c 59f4 f2bb 8608 123d 4643 03ba
000001d0: 145c b13c b8fa 82bb 633f b9bb 4181 08bd
000001e0: f4bb a23c 26c2 f8bb d6b6 0ebd 35d8 fabb
000001f0: 6a06 c0bc 199b 053d 375d 073d 3e79 b43c
00000200: f14f 2cbd 6608 0dbd 39ed beba a597 b83c
00000210: b575 9fbd e6b5 ddbc 579c 31bc 7b6c 24bd
00000220: 155b dcbc 6137 143d 2c3a 82bd e942 39bd
00000230: 0c3a e4bd f76c 1e3b 6f3b c03b 308b 663c
00000240: 5ff9 46bd e66c 013d 63f8 aabc c6c5 993c
00000250: f3e7 dcbc 7fcc 6fbc ea45 86bd 4e46 c23c
00000260: 594f b53c d75c e5bc b502 273a 4e8a 67bd
00000270: 3abc 3dbd cba8 373d dc21 ebbc f77d 3bbc
00000280: 3c18 83bd 3c82 f13b 0f7f f43c 82b4 fd3c
00000290: 854e 76bc 4933 f63c fa87 54bd e97f 1bbc
000002a0: 73ca 123d d7e8 1cbd 05ff f03b eef0 153d
000002b0: 4276 e239 a958 4fb9 769b 5abc 8543 edbc
000002c0: 1c4e 553c 7c1b 143b 4974 82bd 2e77 5a3d
000002d0: 80c2 b93b 3144 3e3b 375f e7bb 7698 babc
000002e0: bf0a 8c3c cc34 61bd 85d1 c13b fe56 cbbc
000002f0: 3b65 13bc bd8f 0fbd 2c1e 0b3d ad43 253b
00000300: a958 97bd 80bd dd3c 0c34 acbc b886 86bc
00000310: e6f1 03be 7aa9 83bd 0535 313c 72aa 673c
00000320: c899 bcbb d29c fb3c 331b a53c 9157 5dbb
00000330: 8e1b c2bc dc84 22bc 9e8e fb3b ecfd eb3c
00000340: 8645 583c bcd4 f1bc b5b6 573a f83f c23c
00000350: 8875 14bd 680b c03c dc44 993b 323c b13c
00000360: dffe 083b a408 67bc 8e00 283c 7be9 bb3c
00000370: b033 7cbd 692b f7bc b8f9 a0bd f4a9 41bd
00000380: c995 c33b b635 023b 05bf b03b ad17 0b3c
00000390: 1a6a 063c 4013 6abc 184a b8bc 1a01 4bbd
000003a0: a087 d1bc 478f 71bc 6723 fcbc a52c 893c
000003b0: 29d0 54bd ef7f e2bc 1652 6b3c fb24 8138
000003c0: 0981 b0bb 725a f9bb 79d9 1cbd 790e a1bc
000003d0: 6973 c4bc 7e78 a0bc 7290 733c a25d 6cbc
000003e0: d39a 0cbc eba6 a33c 104a 3b3d 3f5e 67bc
000003f0: 864d 00bd 59db a0bd 6faa cbb8 bce7 543c

network_body._body_endoder.seq_layers.0.bias f4 [128]
0.006299456 -0.011883829 0.0108920485 -0.006287805 -0.010954678 0.0043843854 0.0008950783 -0.0038236496
0.002116777 -0.0017720652 0.019346701 0.0043738075 0.016376987 0.004988663 0.0114148315 0.037020102
-0.007516166 0.010304782 0.008345727 0.026912907 -0.010514397 -0.017064968 -0.0074258423 0.0017462601
0.032019526 0.00054896646 0.012072174 -0.0079743145 0.014633097 -0.006302105 0.01700966 0.0068613375
0.028792012 -0.0037050496 -0.0029452166 0.015496188 0.0045502367 0.008404546 0.0010254014 0.010761554
0.010429657 0.0048042345 -0.0017663407 0.013468061 -0.010616736 0.0009361707 -0.009614741 -0.0052631446
0.008994872 -0.0051053236 -0.004685042 -0.020004978 0.007750537 -0.0023347721 0.014993263 0.00718059
0.012078551 0.01451226 0.007986365 0.016683737 0.017659744 -0.003346688 0.016488193 -0.0066256844
0.018336449 0.019433308 -0.008528713 -0.003805216 -0.0049787387 0.014626452 0.0088105425 -0.013943451
-0.012742203 0.0089768665 -0.017280031 -0.0019081666 0.011714046 0.03271211 0.013101606 0.018550986
-0.0058433157 -0.002747752 0.017213423 0.0012542054 -0.02495515 -0.016787574 -0.009208698 0.020326024
0.008073155 0.0037685835 0.0012081595 0.0077011925 -0.008360457 0.009539502 0.008955236 -0.007635825
0.027787512 0.0077280113 -0.00889627 0.008532606 -0.001913249 0.017221907 -0.0012158612 0.023028037
0.0014402003 -0.011077536 0.00733849 0.0015826385 0.016573247 0.009842286 -0.0058742464 0.016003018
-0.009846784 0.0069214236 -0.011258262 -0.001937494 -0.017266093 -0.0049224203 0.009249859 0.01208455
-0.005139015 0.002038848 0.0011970599 0.010538933 0.018954393 -0.0031411697 -0.015175697 0.02048112
00000000: ab6b ce3b 64b4 42bc 9074 323c ee09 cebb
00000010: 407b 33bc e4aa 8f3b b0a3 6a3a 3296 7abb
00000020: a0b9 0a3b a444 e8ba f97c 9e3c 2852 8f3b
00000030: 0829 863c f077 a33b 4605 3b3c 64a2 173d
00000040: 2c4a f6bb 63d5 283c 84bc 083c 7578 dc3c
00000050: 9444 2cbc d5cb 8bbc 7b54 f3bb c4e2 e43a
00000060: e826 033d 84e8 0f3a 5eca 453c b3a6 02bc
00000070: a8bf 6f3c e381 cebb d857 8b3c 12d5 e03b
00000080: 3add eb3c 6bd0 72bb 8904 41bb b9e3 7d3c
00000090: 271a 953b 39b3 093c c366 863a 3b51 303c
000000a0: 27e1 2a3c d76c 9d3b 8f84 e7ba 24a9 5c3c
000000b0: d1f1 2dbc 5a69 753a 2687 1dbc 7576 acbb
000000c0: 3a5f 133c 8f4a a7bb fb84 99bb 7be1 a3bc
000000d0: 37f8 fd3b fa02 19bb 4ea6 753c 284b eb3b
000000e0: 1de5 453c d5c4 6d3c 3ed9 023c 55ac 883c
000000f0: 2bab 903c 1c54 5bbb 3f12 873c 451c d9bb
00000100: 5236 963c 9a32 9f3c 04bc 0bbc ee60 79bb
00000110: b024 a3bb c9a3 6f3c 185a 103c 1373 64bc
00000120: acc4 50bc b513 133c da8e 8dbc 721b faba
00000130: 45ec 3f3c 22fd 053d 1ea8 563c 3df8 973c
00000140: 4979 bfbb a113 34bb 2a03 8d3c 2664 a43a
00000150: be6e ccbc 1886 89bc 14e0 16bc c382 a63c
00000160: 4445 043c 57fa 763b 1b5b 9e3a 495a fc3b
00000170: 4cfa 08bc 924b 1c3c fbb8 123c f135 fabb
00000180: a3a2 e33c 423b fd3b a9c1 11bc 58cc 0b3c
00000190: fcc5 faba f514 8d3c 885d 9fba 4ba5 bc3c
000001a0: 1ac5 bc3a 8e7e 35bc b777 f03b 8970 cf3a
000001b0: 9ec4 873c 8a41 213c c07c c0bb c318 833c
000001c0: 6854 21bc 1ccd e23b 9374 38bc 83f3 fdba
000001d0: 9f71 8dbc 414c a1bb b88c 173c 47fe 453c
000001e0: 2f65 a8bb 319e 053b aae6 9c3a 7dab 2c3c
000001f0: 3e46 9b3c 15dc 4dbb 7da3 78bc 06c8 a73c

network_body._body_endoder.seq_layers.0.weight f4 [128, 9]
-0.24462359 -0.109718725 -0.5117527 -0.15115918 0.031423416 -0.32000342 -0.33698007 0.2670958
-0.6472323 0.110942125 -0.49533156 0.05133433 0.13153824 0.45246723 0.17817688 -0.28269923
0.042471413 -0.4563085 -0.36588004 0.44696903 -0.04289816 -0.41638425 -0.34299767 0.31416163
-0.2600696 -0.32810748 0.58561367 -0.53294045 -0.83937496 0.25736544 -0.43082795 -0.5694255
-0.14706331 -0.0674319 -0.42142877 -0.10580077 0.0789024 -0.20689319 -0.11692742 0.58680004
0.6943799 0.38057032 -0.012013063 0.057936125 0.32826823 -0.22468024 -0.31788802 -0.32380685
-0.5381861 -0.056675114 0.5336928 0.24524258 -0.043096222 -0.42776728 0.10205625 -0.0009975551
0.2777251 0.3852719 0.07730788 -0.4912725 -0.2874827 -0.7378776 -0.11673597 -0.25412267
0.34339353 0.31507045 -0.054239884 -0.22844627 -0.11357976 0.48775306 0.1864343 0.48577812
0.27322003 0.58224726 0.1530559 0.048792087 0.82045954 -0.8272852 -0.08514627 -0.22610007
0.14671977 -0.33067423 0.015782218 0.017308436 0.59744865 -0.1399849 -0.14171807 0.5465729
-0.011981077 0.38802773 0.025851745 0.5309661 0.10819038 -0.5087576 0.09152265 -0.63282645
-0.024833648 0.28463656 -0.2460477 0.5864968 -0.1486329 -0.03471962 0.2961091 0.0131167825
-0.24595322 -0.3195212 -0.3479415 0.14114282 -0.1906437 0.16207646 0.8153706 -0.35223743
0.24466912 0.19279382 -0.530696 0.25813836 -0.16960146 0.3179739 -0.39403084 -0.3509318
-0.6745718 -0.40161043 0.27450404 -0.10989312 -0.32888195 0.11428442 0.18126358 0.034726102
-0.033851296 0.07338344 -0.055373654 0.12536398 -0.94653577 0.11378684 -0.20164298 -0.0829319
0.050974373 -0.37655368 -0.19604273 0.67420775 -0.24432243 -0.2918144 -0.013611206 0.3736837
-0.2707345 0.19090475 0.1489568 -0.22311461 -0.5923661 0.60942596 -0.32743528 0.025194028
-0.04011932 0.06097425 0.36726794 -0.06306628 -0.20475055 -0.13763277 -0.19095638 -0.6865157
0.35007745 -0.07948827 0.1968041 0.2907375 -0.055893052 -0.025382647 0.46986046 0.13023442
-0.25614518 -0.21078753 0.4679437 0.12813872 0.25750515 -0.34393203 -0.40706104 0.18649568
0.5537364 -0.23218909 0.1201671 -0.026577368 0.18803068 0.3582325 0.08933265 -0.49928147
0.100365005 0.618072 -0.6089747 -0.15315817 -0.54396546 -0.054806635 -0.05103256 -0.19205432
-0.29531035 0.15266332 0.769098 -0.15501902 -0.3235895 0.3443056 0.0896496 0.40234005
-0.02741526 0.18560226 0.17730245 -0.14520979 0.16093339 -0.3986273 -0.60481083 -0.3205741
0.079998985 0.18293273 0.15050563 -0.40124843 -0.3004342 -0.3876883 0.29829717 -0.0650489
0.18363652 -0.089158684 -0.2579479 0.13395971 0.18324387 0.27156916 0.2764457 0.04505057
-0.19836518 -0.24029025 0.032846335 0.8084912 -0.25888798 0.5164457 0.30660906 -0.18371895
0.4961506 -0.13040829 -0.23704681 0.08536639 0.7149182 0.30112022 0.4134033 -0.14134316
0.19977395 -0.17200823 0.238868 0.013793936 0.10008135 -0.15127549 -0.1105875 0.096121244
-0.17516248 -0.1983602 -0.14281045 0.506015 -0.30643472 -0.23312658 -0.082093045 0.093503825
00000000: 9b7e 7abe 36b4 e0bd 3a02 03bf 79c9 1abe
00000010: d7b5 003d 7dd7 a3be a788 acbe c8c0 883e
00000020: 04b1 25bf a035 e33d 199c fdbe f243 523d
00000030: f6b1 063e c9a9 e73e 0074 363e f4bd 90be
00000040: 81f6 2d3d 45a1 e9be a154 bbbe 20d9 e43e
00000050: fbb5 2fbd 5130 d5be 649d afbe cbd9 a03e
00000060: d827 85be b4fd a7be c7ea 153f c96e 08bf
00000070: 47e1 56bf 67c5 833e 7b95 dcbe dfc5 11bf
00000080: c497 16be bc19 8abd 83c5 d7be 13ae d8bd
00000090: 9597 a13d cfdb 53be a577 efbd 8738 163f
000000a0: e2c2 313f 1dda c23e 70d2 44bc 6e4e 6d3d
000000b0: c612 a83e 9412 66be 38c2 a2be 03ca a5be
000000c0: 90c6 09bf 2a24 68bd 17a0 083f df20 7b3e
000000d0: aa85 30bd 5004 dbbe de02 d13d 65c0 82ba
000000e0: fc31 8e3e 5c42 c53e 9853 9e3d 1288 fbbe
000000f0: ef30 93be 8ce5 3cbf 4513 efbd 5e1c 82be
00000100: 47d1 af3e ea50 a13e a42a 5ebd d2ed 69be
00000110: 819c e8bd c5ba f93e a2e8 3e3e e9b7 f83e
00000120: 7fe3 8b3e 280e 153f b0ba 1c3e 36da 473d
00000130: a309 523f f6c8 53bf 2b61 aebd c786 67be
00000140: b53d 163e 224e a9be b649 813c 6cca 8d3c
00000150: 65f2 183f 3458 0fbe 8b1e 11be 34ec 0b3f
00000160: 474c 44bc 92ab c63e 0ac7 d33c 65ed 073f
00000170: eb92 dd3d f03d 02bf 3a70 bb3d ea00 22bf
00000180: ef6f cbbc e2bb 913e eef3 7bbe a724 163f
00000190: 3933 18be 2936 0ebd 9d9b 973e c6e7 563c
000001a0: 29db 7bbe 4898 a3be 6325 b2be be87 103e
000001b0: 1a38 43be 5ff7 253e 21bc 503f 7758 b4be
000001c0: 8b8a 7a3e be6b 453e b1db 07bf b62a 843e
000001d0: 01ac 2dbe 7acd a23e 69be c9be 55ad b3be
000001e0: bdb0 2cbf e29f cdbe cb8b 8c3e a50f e1bd
000001f0: 3763 a8be f30d ea3d 299d 393e f53c 0e3d
00000200: a8a7 0abd 0f4a 963d 7ccf 62bd 6a5f 003e
00000210: 2b50 72bf 1309 e93d 7f7b 4ebe 33d8 a9bd
00000220: 81ca 503d a5cb c0be 6dbf 48be e198 2c3f
00000230: a92f 7abe b268 95be 8901 5fbc 7853 bf3e
00000240: b69d 8abe 897c 433e 2288 183e 2878 64be
00000250: 4ea5 17bf 5703 1c3f 99a5 a7be b563 ce3c
00000260: 2854 24bd 23c0 793d 8b0a bc3e e528 81bd
00000270: 21aa 51be 9bef 0cbe 128a 43be 7ebf 2fbf
00000280: 5a3d b33e bfca a2bd 0487 493e 8cdb 943e
00000290: 1df0 64bd 45ef cfbc 8d91 f03e 2c5c 053e
000002a0: 7625 83be b0d8 57be 5196 ef3e cc36 033e
000002b0: b7d7 833e dc17 b0be 4e6a d0be b9f8 3e3e
000002c0: abc1 0d3f fac2 6dbe 2b1a f63d c8b8 d9bc
000002d0: 1d8b 403e 406a b73e 09f4 b63d d2a1 ffbe
000002e0: 2b8c cd3d f739 1e3f c4e5 1bbf 7fd5 1cbe
000002f0: 5241 0bbf ec7c 60bd 8507 51bd e3a9 44be
00000300: eb32 97be c653 1c3e 9be3 443f 4ebd 1ebe
00000310: 86ad a5be d348 b03e 369a b73d 84ff cd3e
00000320: f895 e0bc 850e 3e3e c68e 353e e0b1 14be
00000330: b9cb 243e e118 ccbe e2d4 1abf 4a22 a4be
00000340: 82d6 a33d b852 3b3e 261e 1a3e 6f70 cdbe
00000350: 83d2 99be 157f c6be 68ba 983e 5c38 85bd
00000360: 360b 3c3e d498 b6bd bf11 84be bc2c 093e
00000370: 48a4 3b3e 1d0b 8b3e 4a8a 8d3e f286 383d
00000380: 3e20 4bbe a60e 76be e189 063d 47f9 4e3f
00000390: f78c 84be c935 043f ddfb 9c3e d220 3cbe
000003a0: 7407 fe3e c089 05be 66bc 72be 93d4 ae3d
000003b0: e104 373f 6e2c 9a3e 99a9 d33e 43bc 10be
000003c0: 8b91 4c3e ed22 30be d099 743e f6ff 613c
000003d0: 73f7 cc3d f6e7 1abe b37b e2bd 37db c43d
000003e0: cb5d 33be f01e 4bbe e73c 12be 338a 013f
000003f0: 03e5 9cbe bcb8 6ebe 6620 a8bd ef7e bf3d

network_body._body_endoder.seq_layers.2.bias f4 [128]
-0.0056036008 -0.002372906 0.005684352 0.0039356337 -0.013819841 -0.010886448 -0.019674709 -0.019692719
-0.0046681645 -0.00034072725 -0.0034087598 0.0064469445 0.024073062 0.0028896881 0.009167895 0.01336765
-0.017549368 0.01185645 -0.009769856 0.020875536 -0.00456044 -0.0018245282 0.0050570937 0.012955689
0.0029898814 -0.016250452 -0.012194218 0.03502191 0.011317637 0.012602544 -0.0017575343 -0.014309656
0.018197658 0.00014395095 0.009588005 0.024200046 0.00017216025 0.00063829956 0.004097032 5.5829125e-05
0.018392941 -0.00054044416 -0.0012600502 0.014874505 -0.0025435514 -0.0023946618 -0.014295613 -0.0018631693
0.0070595564 0.0030645982 -0.007475459 0.051736336 -0.007264158 0.0060127694 -0.016778529 0.0019403738
-0.0009344849 -0.0068224645 -0.008568652 -0.017810542 -0.018993307 0.0013810674 0.021403374 0.005065763
0.0021207684 0.017489156 -0.0022843175 -0.019643681 0.00878318 0.006422547 -0.00058510277 0.0046771276
-0.005614265 0.0005953992 0.013186917 -0.008143706 0.00038251813 -0.016902555 0.0029161782 0.024306683
0.012689607 -0.01359863 0.0017787175 0.022465069 -0.006686956 0.01899079 -0.008919479 0.020068781
-0.0047611906 -0.0045149755 0.012872755 -0.0007495309 0.0031841851 -0.017361144 -0.017109698 -0.0028949077
-0.003024029 -0.004236554 0.0030495662 -0.0014016599 -0.0023017083 -0.01702429 0.002767526 0.0028838173
-0.009853648 0.0062138895 0.0008585079 0.0040622912 -0.010862348 -0.01166256 -0.0064538177 -0.0056899223
-0.0028295168 -0.0030892002 0.024854543 -0.018624233 -0.006212847 -0.0064030383 0.02107047 0.0018780034
-0.004639616 0.01715007 0.032020863 -0.0044720867 -0.012873281 -0.011439205 -0.0041273283 0.0031228478
00000000: 699e b7bb c282 1bbb cd43 ba3b 7df6 803b
00000010: 9d6c 62bc 135d 32bc db2c a1bc a052 a1bc
00000020: 67f7 98bb a3a3 b2b9 8065 5fbb e440 d33b
00000030: df34 c53c ec60 3d3b f034 163c fd03 5b3c
00000040: b1c3 8fbc 8e41 423c bf11 20bc 2c03 ab3c
00000050: be6f 95bb 0225 efba fab5 a53b 1944 543c
00000060: e3f1 433b ab1f 85bc 42ca 47bc 2273 0f3d
00000070: 9c6d 393c e77a 4e3c 115d e6ba 0c73 6abc
00000080: 4113 953c 8af1 1639 0217 1d3c 2d3f c63c
00000090: ea85 3439 8f53 273a 6540 863b 112a 6a38
000000a0: cbac 963c 98ac 0dba 4528 a5ba 32b4 733c
000000b0: b6b1 26bb c2ef 1cbb 2638 6abc 9635 f4ba
000000c0: da53 e73b 6dd7 483b b2f4 f4bb 7be9 533d
000000d0: 2d08 eebb c406 c53b 2073 89bc 2454 fe3a
000000e0: 38f8 74ba fb8e dfbb 8863 0cbc 6ae7 91bc
000000f0: da97 9bbc ef04 b53a 2156 af3c b3fe a53b
00000100: 97fc 0a3b 6b45 8f3c 7db4 15bb c9eb a0bc
00000110: 54e7 0f3c 3b74 d23b 9561 19ba 9742 993b
00000120: def7 b7bb 9014 1c3a f00d 583c 2e6d 05bc
00000130: b78c c839 3a77 8abc 5a1d 3f3b cf1e c73c
00000140: 12e8 4f3c cacc 5ebc db23 e93a aa08 b83c
00000150: 411e dbbb 9392 9b3c 0223 12bc 4967 a43c
00000160: c303 9cbb 5cf2 93bb 3fe8 523c 2b7c 44ba
00000170: c3ad 503b f538 8ebc a329 8cbc 7eb8 3dbb
00000180: ca2e 46bb cad2 8abb 3bdb 473b e7b7 b7ba
00000190: 42d8 16bb 8676 8bbc 625f 353b 6dfe 3c3b
000001a0: 3271 21bc e29d cb3b 7d0d 613a f81c 853b
000001b0: fdf7 31bc 5214 3fbc 8c7a d3bb 8772 babb
000001c0: 6a6f 39bb 2e74 4abb c19b cb3c d991 98bc
000001d0: 2395 cbbb 94d0 d1bb fa9b ac3c 5627 f63a
000001e0: eb07 98bb 4e7e 8c3c 4f28 033d 958a 92bb
000001f0: 74ea 52bc 816b 3bbc 8a3e 87bb b1a8 4c3b

network_body._body_endoder.seq_layers.2.weight f4 [128, 128]
-0.080750234 -0.048034675 0.080285475 -0.080483004 -0.122038335 0.054836497 -0.028446758 0.09850102
0.08824428 0.068287656 -0.016994316 -0.1307254 -0.12608732 0.07349651 0.008033501 0.1223569
-0.016103342 0.07522787 0.044758573 -0.036062784 0.055926293 0.0395552 -0.005631071 0.010816266
0.10160412 0.066012345 -0.12874408 0.06492291 -0.075516306 -0.09233992 -0.056575574 -0.26158008
-0.101574376 -0.043484654 0.068925686 0.029176282 -0.0266121 0.0038612224 0.06641733 0.036363386
-0.028433517 0.013894047 -0.0925238 0.017540786 0.041446775 -0.028938027 0.06427553 0.07279515
0.06775557 -0.03874201 -0.07231579 0.0017107431 0.075083375 -0.07324548 0.12943952 -0.023638884
0.100461975 0.028769987 0.03333625 -0.14063911 0.09631188 -0.059276324 -0.11589432 0.06426255
-0.108834535 0.13329741 0.09862742 -0.05979944 -0.05613691 -0.060601223 0.00509632 -0.046408966
-0.037354365 -0.14463009 0.09958631 0.08779781 0.12996677 0.061181255 -0.06449006 -0.04826219
0.09797002 0.015626218 -0.044925716 -0.16263758 -0.055422336 0.027512014 0.11471888 -0.0010220903
-0.14250416 -0.0020354993 0.088924505 -0.002356332 -0.07478624 -0.13174444 -0.019996576 0.038576804
-0.1608325 -0.018287871 -0.017297888 -0.2115251 0.0879207 -0.028123915 0.11240324 -0.017977586
0.05912668 -0.0682457 -0.08346759 0.038401004 -0.097006015 -0.01754943 0.038395807 0.11092356
-0.018290343 0.0821146 0.069977604 0.051526763 -0.035249475 0.06454916 0.07111813 -0.021004887
-0.05165404 -0.0095267985 -0.15979467 0.11057797 0.018141173 0.07801931 0.13177966 -0.07954137
-0.12183251 0.08640363 0.005175205 -0.020663854 0.099528715 -0.07164109 0.06786061 -0.028675303
-0.08835573 0.11627132 0.10833426 0.05814912 0.0151507445 -0.13274941 -0.003941042 -0.04817193
0.02763266 0.11639282 0.07371062 0.04504993 -0.037595373 -0.0013071107 0.07219053 -0.24446534
-0.0866075 0.00441422 -0.026777087 0.053720016 -0.12099721 -0.09490934 -0.06802311 -0.1042175
0.016359068 -0.1267289 0.057494476 -0.11203987 0.11499897 0.22955152 0.16545577 0.06983158
-0.03474372 -0.062078558 0.042717226 0.1331323 -0.079938054 0.045551967 -0.045573246 0.09132466
-0.047324255 -0.07561434 0.030602945 -0.029850826 0.1083167 0.17000906 -0.033765547 -0.11642199
-0.039820928 -0.010941327 0.11097186 -0.23170865 0.0033083996 -0.06395982 -0.020878969 0.030902376
-0.12430291 -0.036189966 -0.09982755 0.05136329 0.13003004 0.117227964 0.018657796 -0.16236697
-0.024585411 -0.07488794 -0.022075268 -0.051012073 0.10042846 0.02807286 -0.046421338 0.03677724
-0.121614106 0.20431377 0.036690067 0.06223912 0.027572662 -0.029291593 -0.00033877583 0.038764782
0.096590914 -0.066200495 -0.09217345 -0.02853504 -0.08429431 0.026316453 -0.020202935 0.009176575
-0.04697323 0.0656885 -0.050271917 -0.026423443 -0.121490255 -0.015103913 -0.225869 0.017290602
0.1066498 0.018098304 0.054372426 -0.106233746 0.044094246 0.050739188 -0.13370307 0.08528502
0.050276376 0.09869688 0.11871522 -0.06662247 0.08330733 0.17392045 0.049097948 0.120495975
-0.08501919 0.079538934 0.042284142 -0.011780653 -0.1861638 0.083977096 0.04405317 -0.10737739
00000000: 6160 a5bd 02c0 44bd b66c a43d 46d4 a4bd
00000010: 3cef f9bd 3c9c 603d 2d09 e9bc e7ba c93d
00000020: 6bb9 b43d 66da 8b3d aa37 8bbc e1dc 05be
00000030: 091d 01be 5785 963d f29e 033c 4196 fa3d
00000040: 28eb 83bc 1211 9a3d c454 373d 92b6 13bd
00000050: f812 653d a204 223d d984 b8bb b536 313c
00000060: d215 d03d 7b31 873d 7dd5 03be 4df6 843d
00000070: 4ba8 9abd b61c bdbd cabb 67bd d3ed 85be
00000080: 3a06 d0bd f71c 32bd e928 8d3d 1903 ef3c
00000090: 9e01 dabc 900c 7d3b cf05 883d c6f1 143d
000000a0: 68ed e8bc dba3 633c 1e7d bdbd b2b1 8f3c
000000b0: 18c4 293d 710f edbc e4a2 833d a015 953d
000000c0: 6fc3 8a3d f1af 1ebd 4d1a 94bd 033b e03a
000000d0: 50c5 993d ba01 96bd cb8b 043e 55a6 c1bc
000000e0: 02bf cd3d 09af eb3c 978b 083d b303 10be
000000f0: 2a3f c53d bbcb 72bd 005a edbd 159c 833d
00000100: a4e4 debd 1e7f 083e 2cfd c93d 42f0 74bd
00000110: d1ef 65bd fd38 78bd 08ff a63b 5417 3ebd
00000120: e400 19bd e919 14be e8f3 cb3d 57cf b33d
00000130: 0216 053e 3299 7a3d 5d13 84bd 93ae 45bd
00000140: 81a4 c83d 8e02 803c 0704 38bd 778a 26be
00000150: 8802 63bd e060 e13c bbf1 ea3d a9f7 85ba
00000160: 9cec 11be 0366 05bb 0d1e b63d b16c 1abb
00000170: 8729 99bd 04e8 06be dccf a3bc b602 1e3d
00000180: 46b1 24be 72d0 95bc 4db4 8dbc 099a 58be
00000190: c50f b43d 2064 e6bc ab33 e63d bb45 93bc
000001a0: d12e 723d 67c4 8bbd 0ef1 aabd 5f4a 1d3d
000001b0: 17ab c6bd d2c3 8fbc ec44 1d3d e42b e33d
000001c0: a1d5 95bc b32b a83d 6b50 8f3d ba0d 533d
000001d0: c161 10bd 5a32 843d 62a6 913d 7112 acbc
000001e0: 3093 53bd 4a16 1cbc 37a1 23be b476 e23d
000001f0: cc9c 943c 97c8 9f3d 3ff1 063e 96e6 a2bd
00000200: 5383 f9bd 63f4 b03d c494 a93b 3e47 a9bc
00000210: b6d5 cb3d 90b8 92bd 81fa 8a3d 78e8 eabc
00000220: d9f3 b4bd a81f ee3d 5ade dd3d c62d 6e3d
00000230: d43a 783c 76ef 07be db23 81bb ee4f 45bd
00000240: e35d e23c 5c5f ee3d 98f5 963d 4786 383d
00000250: 9bfd 19bd 5b53 abba a1d8 933d 1f55 7abe
00000260: 465f b1bd 29a5 903b 9f5b dbbc 8509 5c3d
00000270: 63cd f7bd d45f c2bd b34f 8bbd fc6f d5bd
00000280: 7403 863c 39c5 01be 547f 6b3d 2975 e5bd
00000290: 9484 eb3d 8e0f 6b3e 3d6d 293e dc03 8f3d
000002a0: 6e4f 0ebd 1646 7ebd 42f8 2e3d d553 083e
000002b0: 90b6 a3bd b394 3a3d 03ab 3abd 6c08 bb3d
000002c0: 14d7 41bd b1db 9abd 07b3 fa3c b889 f4bc
000002d0: 25d5 dd3d db16 2e3e be4d 0abd a76e eebd
000002e0: 451b 23bd 4043 33bc 3745 e33d 0845 6dbe
000002f0: bcd1 583b 5efd 82bd 5f0a abbc fb26 fd3c
00000300: 8692 febd ee3b 14bd 6372 ccbd 5062 523d
00000310: 9826 053e 3715 f03d 3cd8 983c 8743 26be
00000320: 5867 c9bc d95e 99bd 31d7 b4bc 09f2 50bd
00000330: 70ad cd3d 0ef9 e53c 4d24 3ebd bba3 163d
00000340: d110 f9bd a137 513e 5348 163d 73ee 7e3d
00000350: 10e0 e13c ecf4 efbc b99d b1b9 d2c7 1e3d
00000360: 75d1 c53d 2094 87bd 6fc5 bcbd 51c2 e9bc
00000370: 7fa2 acbd 9a95 d73c a080 a5bc 5859 163c
00000380: 0067 40bd b187 863d ede9 4dbd fa75 d8bc
00000390: e2cf f8bd 6776 77bc 344a 67be 05a5 8d3c
000003a0: 366b da3d e542 943c 9fb5 5e3d 1491 d9bd
000003b0: 2b9c 343d e5d3 4f3d 75e9 08be eaa9 ae3d
000003c0: 9aee 4d3d 9721 ca3d f720 f33d 5d71 88bd
000003d0: 099d aa3d 3418 323e ee1a 493d 98c6 f63d
000003e0: 8b1e aebd 4fe5 a23d 2332 2d3d a403 41bc
000003f0: b9a1 3ebe 2ffc ab3d 1971 343d ade8 dbbd
