results/jugglingRobotV1/JugglingRobotV1/JugglingRobotV1-8980.onnx (onnx, 74695 bytes, 7 tensors)

action_model._continuous_distribution.log_sigma f4 [1, 3]
000000 00 00 00 00 00 00 00 00 00 00 00 00
       0.0 0.0 0.0

action_model._continuous_distribution.mu.bias f4 [3]
000000 00 00 00 00 00 00 00 00 00 00 00 00
       0.0 0.0 0.0

action_model._continuous_distribution.mu.weight f4 [3, 128]
000000 f7 47 47 3c cf f3 89 bc d7 3a 41 bb f3 58 67 3c
       0.012163154 -0.01683989 -0.0029484534 0.014120328
000010 f6 93 07 3c 48 ec 21 bc 3b f3 82 3c 28 f5 cb ba
       0.008275023 -0.009882994 0.015985122 -0.0015560733
000020 63 fe c7 bc fa 9e fd bc 23 1c 73 bc e8 96 14 bc
       -0.024413293 -0.030959595 -0.014838251 -0.009069182
000030 b0 c5 cf b9 09 c6 c0 ba aa 3f 15 3b b7 fa 32 3c
       -0.00039629405 -0.0014707457 0.0022773542 0.010924033
000040 19 1f b4 3c 87 6b 82 bc 15 04 02 3d d3 67 32 bd
       0.021987485 -0.015920414 0.031742174 -0.043556046
000050 7c e5 bc bb 41 be bc 3b a6 14 8f bc 5a 2b 69 3c
       -0.0057646614 0.0057599847 -0.0174659 0.014231527
000060 5c cc 39 bb f7 b5 13 3d a1 7c 39 bc 0e 61 46 3c
       -0.0028350567 0.036062207 -0.011321218 0.012108101
000070 43 41 94 3c e0 f9 df 3c 85 2a 1e bb fa 70 c6 ba
       0.018097525 0.02734083 -0.002413423 -0.0015139871
000080 bb 08 ec bb 77 f5 a1 3c 7d 57 76 3c 36 d1 3c 3b
       -0.007203189 0.019770367 0.015035507 0.0028811223
000090 a4 e9 39 3b d7 aa a9 bc 32 74 0a 3c 92 a1 14 bc
       0.002836802 -0.020711346 0.008450555 -0.0090717245
0000a0 11 c7 9e 3b 73 fb 9b bc 0d 56 6e 3c f5 e9 70 3a
       0.004845508 -0.019040799 0.014546883 0.0009190136
0000b0 3b a9 a8 3c bd e5 25 3c 3b df 3d bc 1b 1a 60 3c
       0.020588508 0.010125575 -0.011588867 0.013678099
0000c0 38 cd 2b 3c 1f 94 9e bc c5 df f0 3b 6e 8d 2b bc
       0.01048594 -0.019357739 0.007350894 -0.010470731
0000d0 07 d5 71 bc 90 ae f7 ba 42 49 f2 bb 2c cd 86 bc
       -0.014760262 -0.0018896628 -0.007393987 -0.016455255
0000e0 19 ba aa ba a3 71 72 bc ef 50 dd 3b 13 01 cf 3b
       -0.0013025432 -0.014797601 0.006754033 0.0063172667
0000f0 99 8e 9b 3c b7 18 03 3d d6 03 aa bc 56 6e 20 bc
       0.018988894 0.03200599 -0.020753782 -0.009791931
000100 82 03 39 bc ab e4 39 3c 4a 27 cf bc 03 c0 52 3c
       -0.01129234 0.011346023 -0.02528729 0.012863162
000110 27 93 7a bc e3 a7 cd bb 8f 10 5e 3b 6a 14 16 3d
       -0.015293873 -0.006276117 0.0033884381 0.036640562
000120 2b 7a c0 bb e8 da 75 bc be 8b 90 3b 53 bd 1c 3c
       -0.0058739386 -0.015005805 0.00441119 0.009566623
000130 0a 61 a0 bc 8b 3a 50 bc 1d 1e a5 3c 8f ee 11 3d
       -0.019577522 -0.01270927 0.02015596 0.035627898
000140 67 32 e5 bb 12 bf 23 3c ed 53 77 b8 75 b5 c9 3c
       -0.006994534 0.009994285 -5.896755e-05 0.024622658
000150 1f 69 ea bb c4 c2 47 bc b2 c2 a0 bc fd c3 be bb
       -0.0071536447 -0.012192432 -0.019624088 -0.0058217035
000160 fb 73 a4 bc 67 f4 29 bd 6b 66 fe 3b 7c 11 4a bb
       -0.020074835 -0.041492846 0.007763674 -0.0030833175
000170 43 40 d3 b9 23 c2 bd bc f5 0e e6 bc 40 fa d5 bb
       -0.00040292935 -0.02316386 -0.028083304 -0.0065300763
000180 de 00 19 3d 83 4e 91 3b 1b 27 dd 3c 0f 59 af 3b
       0.037354343 0.004434408 0.026996186 0.005351193
000190 da 4e e5 bc 07 f8 21 3c 5f d5 7b 3c fc 3c 0b 3d
       -0.0279917 0.0098857945 0.015370696 0.033993706
0001a0 c3 6a 1b 3d 8e 07 0e 3b 1b a5 39 bc 9a 21 11 3c
       0.037943613 0.0021671983 -0.011330868 0.008858109
0001b0 fc a3 b6 bc d3 12 4b 3a 60 0e f3 bc 24 16 3f bc
       -0.02229499 0.00077466405 -0.02966994 -0.011662994
0001c0 03 a3 cf 3b 97 49 c1 3c ba d8 e8 3c 05 2f 98 3c
       0.006336571 0.02359466 0.028423656 0.018577108
0001d0 ce f7 c2 bb 00 bd 84 bc 9a 80 aa 38 22 42 3f bc
       -0.005949951 -0.016203403 8.1301856e-05 -0.011673482
0001e0 4f 80 78 3c 88 71 ad ba 1a 5c d8 bc bd c9 9a bc
       0.01516731 -0.0013232687 -0.026411105 -0.018895024
0001f0 f6 af 96 3c b3 ef 9e bc 0e 26 47 3b 74 dc be bc
       0.018394452 -0.019401407 0.0030387673 -0.02329848
000200 8b 9e 80 3c 22 b7 63 bc 9b 99 18 bc fc 2b 13 3c
       0.0157006 -0.013898643 -0.009313966 0.008982655
000210 cd 09 f3 3c ad 9d d7 bc 38 53 4d bb 73 b6 d3 3c
       0.02966776 -0.026320303 -0.003133012 0.025843835
000220 ac 66 ba 3b 90 e3 6a bb 48 7b 7f bc ad ac d9 bc
       0.005688509 -0.0035841204 -0.015593357 -0.026571596
000230 29 21 9d bc 93 5e 00 3c d7 7e 35 3d ff f4 cd bb
       -0.019180851 0.007835048 0.044310417 -0.0062853093
000240 1c 6f 0d bd fb 84 a2 3c ec 15 b6 bb 28 c6 1a b6
       -0.03452979 0.0198388 -0.0055568125 -2.306313e-06
000250 9b bc 41 3c ad 4d b9 3b b3 b1 a5 3a b0 1e 9c 3b
       0.011824752 0.0056550116 0.001264146 0.0047644004
000260 44 88 87 3b e7 5a 97 bb 62 be da ba 02 ad 3c ba
       0.004136117 -0.0046189907 -0.0016688819 -0.0007197411
000270 26 b6 0b bc 12 b6 84 38 0a 92 f4 3b 67 49 44 bd
       -0.008527314 6.328164e-05 0.0074636983 -0.047921564
000280 35 b4 58 3c b0 63 79 3c 68 d4 d6 3c 7b 6c d5 3c
       0.013226558 0.015221521 0.02622433 0.026052704
000290 fd 18 7a 3a f0 93 64 3b 40 9a 67 3b 9e 2b 3f 3c
       0.00095404667 0.0034878217 0.0035339743 0.011668114
0002a0 a1 e7 a1 3b 6f 06 43 3d 3f 47 aa 3c d0 bc f6 bc
       0.0049409424 0.047613557 0.020785926 -0.03011933
0002b0 e8 8d 00 bd 35 03 21 bc 47 91 8f bc 57 99 86 3b
       -0.031385332 -0.009827425 -0.017525328 0.004107635
0002c0 86 06 8d bc 37 6f 2c 3c 03 43 27 3c 69 02 29 bc
       -0.017215025 0.010524563 0.010208848 -0.010315516
0002d0 72 30 09 bd 35 9e 1f bc 1d e0 e4 bb e7 17 5d bb
       -0.033493467 -0.009742309 -0.006984724 -0.003373617
0002e0 3a ea dc 3c 01 95 30 bc 7d 68 53 3c 88 b4 87 3c
       0.026967157 -0.010777713 0.01290333 0.016565576
0002f0 fb bc b1 3c 33 66 31 bc 22 09 f8 bb 0d df 7a 3c
       0.021696558 -0.010827589 -0.007569448 0.0153119685
000300 41 5c bc 3a c7 f6 29 bc b3 a1 a7 3b 20 32 d5 bb
       0.0014370756 -0.010373778 0.0051157116 -0.0065062195
000310 c8 e4 00 bc 1a 28 30 bc 51 37 37 3c 59 e9 8f bc
       -0.007867046 -0.010751748 0.011182622 -0.017567324
000320 ab 08 c6 bb 2f 19 10 bd 9f 94 ae bc e8 5f be 3b
       -0.006043514 -0.035180267 -0.021311102 0.0058097728
000330 f6 4e 13 3d bf c9 a9 ba fb 10 22 bc 03 14 56 3c
       0.035963975 -0.0012953802 -0.009891744 0.013066295
000340 86 14 95 bb fb a4 f0 ba 9f 58 78 bc e2 d2 fb bc
       -0.0045495657 -0.0018359715 -0.015157848 -0.030740205
000350 c1 72 c5 3c 57 4c 65 3c 5c ce 02 bc cb c6 13 3d
       0.02410257 0.013995252 -0.00798377 0.036078256
000360 64 6c 85 3c ad 0d 21 bb 88 4b 8f 3a 1f 03 31 3c
       0.016287036 -0.0024574802 0.0010932544 0.010803967
000370 1a 72 e4 39 11 38 42 bb 1b db f0 3c 08 e7 db 3b
       0.0004357256 -0.002963547 0.029401353 0.0067108907
000380 67 39 c0 3c 87 19 97 bc 51 84 17 3c 0a 39 1f 3d
       0.023464872 -0.01844479 0.009247855 0.038872756
000390 6b d3 a7 3c 2e e8 ab bb 6c e1 9f 3c e3 a3 1f 3d
       0.020486554 -0.005246184 0.01951667 0.038974654
0003a0 c3 18 85 bc 58 e9 d9 ba ed d2 95 3c 04 c9 8b 3b
       -0.016247159 -0.0016625328 0.018289054 0.0042659063
0003b0 ad 36 1d 3d 9d c2 4d 3d fb b2 7b bc 6a 36 eb 3c
       0.03838222 0.050234426 -0.0153624965 0.02871247
0003c0 5e e2 11 3c e8 c8 e6 3a b4 bf b1 3b 5d a3 eb 39
       0.008904068 0.0017607482 0.005424464 0.00044944408
0003d0 e2 38 c0 3c ff a8 7d 3c 37 3c f3 bb 8b b0 1d 3c
       0.023464624 0.015482186 -0.0074229497 0.009624611
0003e0 0d 65 d9 bc 87 1b 7b 3c 97 f4 a2 bc b3 49 8d 3b
       -0.026537443 0.015326387 -0.01989202 0.004311764
0003f0 b3 0c 2d bb 3a fc 94 3c 4a 52 93 3c d4 59 a5 3c
       -0.0026405274 0.018186677 0.017983574 0.020184435

network_body._body_endoder.seq_layers.0.bias f4 [128]
000000 00 00 00 00 00 00 00 00 00 00 00 00 00 00 00 00
       0.0 0.0 0.0 0.0
000010 00 00 00 00 00 00 00 00 00 00 00 00 00 00 00 00
       0.0 0.0 0.0 0.0
000020 00 00 00 00 00 00 00 00 00 00 00 00 00 00 00 00
       0.0 0.0 0.0 0.0
000030 00 00 00 00 00 00 00 00 00 00 00 00 00 00 00 00
       0.0 0.0 0.0 0.0
000040 00 00 00 00 00 00 00 00 00 00 00 00 00 00 00 00
       0.0 0.0 0.0 0.0
000050 00 00 00 00 00 00 00 00 00 00 00 00 00 00 00 00
       0.0 0.0 0.0 0.0
000060 00 00 00 00 00 00 00 00 00 00 00 00 00 00 00 00
       0.0 0.0 0.0 0.0
000070 00 00 00 00 00 00 00 00 00 00 00 00 00 00 00 00
       0.0 0.0 0.0 0.0
000080 00 00 00 00 00 00 00 00 00 00 00 00 00 00 00 00
       0.0 0.0 0.0 0.0
000090 00 00 00 00 00 00 00 00 00 00 00 00 00 00 00 00
       0.0 0.0 0.0 0.0
0000a0 00 00 00 00 00 00 00 00 00 00 00 00 00 00 00 00
       0.0 0.0 0.0 0.0
0000b0 00 00 00 00 00 00 00 00 00 00 00 00 00 00 00 00
       0.0 0.0 0.0 0.0
0000c0 00 00 00 00 00 00 00 00 00 00 00 00 00 00 00 00
       0.0 0.0 0.0 0.0
0000d0 00 00 00 00 00 00 00 00 00 00 00 00 00 00 00 00
       0.0 0.0 0.0 0.0
0000e0 00 00 00 00 00 00 00 00 00 00 00 00 00 00 00 00
       0.0 0.0 0.0 0.0
0000f0 00 00 00 00 00 00 00 00 00 00 00 00 00 00 00 00
       0.0 0.0 0.0 0.0
000100 00 00 00 00 00 00 00 00 00 00 00 00 00 00 00 00
       0.0 0.0 0.0 0.0
000110 00 00 00 00 00 00 00 00 00 00 00 00 00 00 00 00
       0.0 0.0 0.0 0.0
000120 00 00 00 00 00 00 00 00 00 00 00 00 00 00 00 00
       0.0 0.0 0.0 0.0
000130 00 00 00 00 00 00 00 00 00 00 00 00 00 00 00 00
       0.0 0.0 0.0 0.0
000140 00 00 00 00 00 00 00 00 00 00 00 00 00 00 00 00
       0.0 0.0 0.0 0.0
000150 00 00 00 00 00 00 00 00 00 00 00 00 00 00 00 00
       0.0 0.0 0.0 0.0
000160 00 00 00 00 00 00 00 00 00 00 00 00 00 00 00 00
       0.0 0.0 0.0 0.0
000170 00 00 00 00 00 00 00 00 00 00 00 00 00 00 00 00
       0.0 0.0 0.0 0.0
000180 00 00 00 00 00 00 00 00 00 00 00 00 00 00 00 00
       0.0 0.0 0.0 0.0
000190 00 00 00 00 00 00 00 00 00 00 00 00 00 00 00 00
       0.0 0.0 0.0 0.0
0001a0 00 00 00 00 00 00 00 00 00 00 00 00 00 00 00 00
       0.0 0.0 0.0 0.0
0001b0 00 00 00 00 00 00 00 00 00 00 00 00 00 00 00 00
       0.0 0.0 0.0 0.0
0001c0 00 00 00 00 00 00 00 00 00 00 00 00 00 00 00 00
       0.0 0.0 0.0 0.0
0001d0 00 00 00 00 00 00 00 00 00 00 00 00 00 00 00 00
       0.0 0.0 0.0 0.0
0001e0 00 00 00 00 00 00 00 00 00 00 00 00 00 00 00 00
       0.0 0.0 0.0 0.0
0001f0 00 00 00 00 00 00 00 00 00 00 00 00 00 00 00 00
       0.0 0.0 0.0 0.0

network_body._body_endoder.seq_layers.0.weight f4 [128, 9]
000000 f8 71 45 3e 8a 17 9b be 48 a4 c0 3e 70 38 04 be
       0.19281757 -0.30291396 0.37625337 -0.12912154
000010 72 25 9c be ed aa 0b bf 52 cf 32 bf 18 b4 f9 3e
       -0.30497319 -0.5455769 -0.69847596 0.48770213
000020 78 34 60 3e c3 e3 8a be fc 44 a0 be 44 cc b9 3d
       0.21895015 -0.27126893 -0.3130263 0.09072164
000030 be 34 8e 3e 3f 74 da bd a7 2c 6d be 51 22 0c bd
       0.27774614 -0.106667034 -0.23161565 -0.034212414
000040 52 05 b5 3e 7e 41 0f 3f 7a 65 a7 be f2 52 33 3f
       0.35355622 0.5595931 -0.32694608 0.7004844
000050 38 4f 1c be f3 7b 35 3e f9 73 a2 3e ea 52 6b be
       -0.15264595 0.17723064 0.31729105 -0.22980848
000060 dc 90 e1 3d 2f 89 ca 3e 0f 71 af 3e 3d c5 a6 be
       0.11013958 0.39557788 0.34265944 -0.32572356
000070 8c e0 1e 3f f8 73 52 3e ce e5 e3 bd 5a d9 4d bd
       0.6206138 0.20552051 -0.11127816 -0.05025611
000080 3d 16 8d bc fe ca eb bd fc 8e 53 be 60 77 0b bf
       -0.017222518 -0.11513327 -0.20660013 -0.54479027
000090 7c fc 1a 3e 98 85 ce bd 62 3c 86 bd d8 1f 2a 3f
       0.15135378 -0.10084075 -0.06554486 0.6645484
0000a0 aa c8 64 be 4f 54 f4 bd 8e 7c 8d be cc e5 67 3c
       -0.22342172 -0.11930143 -0.2763409 0.014153909
0000b0 f6 2c 21 3e 6c e0 d3 3d e7 b8 37 3e 27 df b4 3e
       0.15739807 0.103455395 0.17941628 0.35326502
0000c0 06 94 26 3e 7a 46 c9 be 3a 1a 17 be fb 42 a5 bd
       0.16267404 -0.39311582 -0.14756098 -0.08069416
0000d0 57 e6 e4 be cf ea eb 3e 44 25 3c bc 28 dc 14 bd
       -0.44706985 0.46077582 -0.011483494 -0.03634277
0000e0 e0 2e 21 3f 8b 1b 79 3e df df 40 3e fc 55 05 3e
       0.6296215 0.24326913 0.188354 0.13021082
0000f0 8e d8 be 3e b3 88 0b bf c7 ab 0a 3d 14 47 b5 3e
       0.37274593 -0.5450546 0.033855226 0.3540579
000100 d8 78 5f 3e 64 65 19 3e 64 be b4 3d 23 d8 aa be
       0.21823442 0.14980084 0.08825377 -0.33368024
000110 ef ca c1 bd 8e 50 d9 bd c3 c7 9e be f4 8a bb bc
       -0.09462535 -0.10611068 -0.3101178 -0.022893406
000120 60 c3 f7 3e f6 44 b1 be 10 f1 39 3f ce a5 bc 3e
       0.48391247 -0.34622926 0.7263346 0.3684525
000130 04 5d fa 3e 24 fb 27 3f 2f 4e 78 3d 58 05 37 bd
       0.4889909 0.65617585 0.060621437 -0.04468283
000140 8a 1e c9 3e 33 d8 ad be 20 a9 ce be 4c 85 59 bd
       0.39281112 -0.3395401 -0.40363407 -0.053105637
000150 7e be 09 3e c8 9b ba be 48 8a 12 be 84 2b bc 3d
       0.13451573 -0.36446977 -0.14310563 0.091879874
000160 4c 41 57 bd 0e 64 21 3d 88 eb 2d 3e 6e ef eb 3d
       -0.052552506 0.03940206 0.1698438 0.11520277
000170 9a 86 af bd a2 dd 46 bf 69 ec a2 3e 8c 31 a2 be
       -0.08570595 -0.77681935 0.31820992 -0.31678426
000180 b8 63 87 be 0c ef 77 3e 30 f8 39 bf 5e 23 c7 3e
       -0.26443267 0.24212283 -0.7264433 0.3889417
000190 ce 91 22 bf bd e4 90 bd 83 6e 5c 3e 38 5f a7 3e
       -0.6350373 -0.07074878 0.21526532 0.32689834
0001a0 97 0e 4a be 00 9e 87 3e 44 9d ba 3e 97 21 83 be
       -0.19732128 0.26487732 0.3644811 -0.25611565
0001b0 6d eb 27 bf c6 ac ba 3c 77 04 b4 be 5b 85 7a 3d
       -0.65593606 0.022787463 -0.35159656 0.061162334
0001c0 64 05 76 3e 98 a9 9f bd cc d8 8b bd 52 1d 25 3e
       0.24025494 -0.07796019 -0.0682846 0.16124466
0001d0 62 ef 05 3e 93 27 c9 be 17 64 78 be 2f 80 df 3e
       0.13079599 -0.39288005 -0.24256931 0.43652484
0001e0 ff 6c a6 be db 7c a9 be cb 66 10 3f 24 28 78 3e
       -0.32505032 -0.3310307 0.5640685 0.24234062
0001f0 c8 fe 6c be 1e b5 73 3c 43 58 ec 3e 88 96 fc be
       -0.23144066 0.014874725 0.46161088 -0.49333596
000200 43 ef ca 3e 84 48 e6 bd da f4 8a 3d 64 bc 85 bd
       0.39635667 -0.112443 0.06784983 -0.06530073
000210 97 25 36 3e 66 12 f9 bd 88 16 39 3e 35 31 96 be
       0.17787777 -0.12161712 0.18075001 -0.29334417
000220 c3 42 79 be 8b 4f db 3e 40 a7 69 be 90 01 12 3e
       -0.24341874 0.42834124 -0.22817707 0.14258409
000230 8c 15 55 be c3 2c 38 3f 6f 80 59 be 8a a7 a9 bd
       -0.20809 0.719433 -0.212404 -0.08283909
000240 6a 4c 7e 3d 88 23 af bd 3f 3f 7a be 56 b1 92 bd
       0.062084593 -0.08551699 -0.24438189 -0.071627304
000250 3b 82 25 3e 23 6c f4 be aa 44 67 3e 20 0e b7 bd
       0.1616296 -0.47738752 0.22584787 -0.08938241
000260 37 40 78 be c4 2c 0f 3e d2 55 d5 3e 08 11 12 bd
       -0.24243246 0.1398192 0.41667038 -0.035660774
000270 df 43 d0 3e 84 71 85 bd 83 f1 96 3e d2 46 3a be
       0.40676782 -0.06515792 0.29481134 -0.18191078
000280 0d ff 9f be 40 bd de be 97 08 25 3e 6f 40 c8 3d
       -0.31249276 -0.4350376 0.16116558 0.09777915
000290 d2 5b b1 3e 9a b1 0f 3d 7a 2e 23 3e 9c 7b a1 be
       0.34640366 0.035081483 0.15935698 -0.3153962
0002a0 c0 7d 4e 3e 2f 0c 19 bf c3 4d ea 3e 96 53 db 3e
       0.20165157 -0.59784216 0.45762452 0.42837209
0002b0 87 0f ef 3e 4f 38 da 3e 5a eb 24 be 67 d4 a6 3e
       0.46691534 0.42621085 -0.16105404 0.32583925
0002c0 b0 ca 3e 3e b6 05 d0 be f6 ce ac 3e 6f 5c 34 bf
       0.18632007 -0.40629357 0.3375165 -0.7045354
0002d0 40 c6 9e 3b 0a 73 00 bf b5 91 88 be d4 a3 58 3e
       0.0048454106 -0.50175536 -0.26673666 0.21156245
0002e0 8e 90 1c 3e 56 51 c3 3d c4 99 f6 3e 23 6d 21 be
       0.15289518 0.09536998 0.4816419 -0.15764289
0002f0 2b ae 12 bf d4 1a 19 bf 3a d7 be be 98 da 34 3f
       -0.5729701 -0.5980656 -0.3727358 0.7064605
000300 96 1b f2 3d 54 c0 82 be ec 7d 37 be f2 ea 6e be
       0.11821668 -0.2553736 -0.17919129 -0.23331812
000310 2f d2 46 be 87 10 8a 3d cf 45 5d be ce f4 cc bd
       -0.19416116 0.067414336 -0.21608661 -0.1000763
000320 9f 65 da be e7 0b ac be 94 bb 15 bf 67 c0 1a bf
       -0.42655656 -0.3360283 -0.58489347 -0.6044983
000330 02 5a 8a bd 6c 31 3e 3e 0c 16 d4 be 2c e6 09 bd
       -0.06755449 0.1857354 -0.4142307 -0.033666775
000340 44 7e 9d 3e 40 00 23 bd e3 aa 72 3e 97 85 36 3d
       0.30760396 -0.03979516 0.23698 0.044560995
000350 ff 87 81 3c 56 ec d9 bd bb e9 6a 3e 77 6a 43 bf
       0.015811918 -0.10640781 0.22940724 -0.7633433
000360 7c 13 aa 3d bc 1d 1b 3f 50 be ab 3e 90 65 2c 3f
       0.083044976 0.60592246 0.33543634 0.6734247
000370 88 eb 8e be f5 ec 05 be 86 22 9f be fc 9c 00 bf
       -0.2791407 -0.13078673 -0.31081027 -0.5023954
000380 40 c2 87 be 5a bb af be d3 49 be 3e 04 19 f2 be
       -0.26515388 -0.34322625 0.37165698 -0.4728471
000390 d4 a8 ba 3e 3e 9e 6b bd 20 3c 16 3e 84 32 d7 bd
       0.3645693 -0.05752396 0.14671373 -0.10507682
0003a0 fb a3 03 3e b6 34 e0 3e d4 70 c6 3e 56 1b 44 3e
       0.12855522 0.43790215 0.38757956 0.19151053
0003b0 c0 3c df 3e da f4 8c be f4 89 f2 3d 5c 13 3a bf
       0.43601036 -0.27530557 0.11842719 -0.7268579
0003c0 3e 8c e3 3d 06 ee 84 3e 80 4c 8e be 94 cc 6d bd
       0.111107334 0.25962847 -0.2779274 -0.05805643
0003d0 94 0f 63 bc 92 2e e4 be 7b e3 f4 be 63 b4 b1 3e
       -0.013858695 -0.4456678 -0.47829804 0.34707937
0003e0 a4 c5 95 3e 28 e3 b6 3d c5 7a 1c bd 31 0e 80 be
       0.2925235 0.08930045 -0.03820302 -0.25010827
0003f0 ab db 74 3e e2 af e7 3e 20 73 69 bd 36 fb 11 3d
       0.23911922 0.45251375 -0.056994557 0.035639964

network_body._body_endoder.seq_layers.2.bias f4 [128]
000000 00 00 00 00 00 00 00 00 00 00 00 00 00 00 00 00
       0.0 0.0 0.0 0.0
000010 00 00 00 00 00 00 00 00 00 00 00 00 00 00 00 00
       0.0 0.0 0.0 0.0
000020 00 00 00 00 00 00 00 00 00 00 00 00 00 00 00 00
       0.0 0.0 0.0 0.0
000030 00 00 00 00 00 00 00 00 00 00 00 00 00 00 00 00
       0.0 0.0 0.0 0.0
000040 00 00 00 00 00 00 00 00 00 00 00 00 00 00 00 00
       0.0 0.0 0.0 0.0
000050 00 00 00 00 00 00 00 00 00 00 00 00 00 00 00 00
       0.0 0.0 0.0 0.0
000060 00 00 00 00 00 00 00 00 00 00 00 00 00 00 00 00
       0.0 0.0 0.0 0.0
000070 00 00 00 00 00 00 00 00 00 00 00 00 00 00 00 00
       0.0 0.0 0.0 0.0
000080 00 00 00 00 00 00 00 00 00 00 00 00 00 00 00 00
       0.0 0.0 0.0 0.0
000090 00 00 00 00 00 00 00 00 00 00 00 00 00 00 00 00
       0.0 0.0 0.0 0.0
0000a0 00 00 00 00 00 00 00 00 00 00 00 00 00 00 00 00
       0.0 0.0 0.0 0.0
0000b0 00 00 00 00 00 00 00 00 00 00 00 00 00 00 00 00
       0.0 0.0 0.0 0.0
0000c0 00 00 00 00 00 00 00 00 00 00 00 00 00 00 00 00
       0.0 0.0 0.0 0.0
0000d0 00 00 00 00 00 00 00 00 00 00 00 00 00 00 00 00
       0.0 0.0 0.0 0.0
0000e0 00 00 00 00 00 00 00 00 00 00 00 00 00 00 00 00
       0.0 0.0 0.0 0.0
0000f0 00 00 00 00 00 00 00 00 00 00 00 00 00 00 00 00
       0.0 0.0 0.0 0.0
000100 00 00 00 00 00 00 00 00 00 00 00 00 00 00 00 00
       0.0 0.0 0.0 0.0
000110 00 00 00 00 00 00 00 00 00 00 00 00 00 00 00 00
       0.0 0.0 0.0 0.0
000120 00 00 00 00 00 00 00 00 00 00 00 00 00 00 00 00
       0.0 0.0 0.0 0.0
000130 00 00 00 00 00 00 00 00 00 00 00 00 00 00 00 00
       0.0 0.0 0.0 0.0
000140 00 00 00 00 00 00 00 00 00 00 00 00 00 00 00 00
       0.0 0.0 0.0 0.0
000150 00 00 00 00 00 00 00 00 00 00 00 00 00 00 00 00
       0.0 0.0 0.0 0.0
000160 00 00 00 00 00 00 00 00 00 00 00 00 00 00 00 00
       0.0 0.0 0.0 0.0
000170 00 00 00 00 00 00 00 00 00 00 00 00 00 00 00 00
       0.0 0.0 0.0 0.0
000180 00 00 00 00 00 00 00 00 00 00 00 00 00 00 00 00
       0.0 0.0 0.0 0.0
000190 00 00 00 00 00 00 00 00 00 00 00 00 00 00 00 00
       0.0 0.0 0.0 0.0
0001a0 00 00 00 00 00 00 00 00 00 00 00 00 00 00 00 00
       0.0 0.0 0.0 0.0
0001b0 00 00 00 00 00 00 00 00 00 00 00 00 00 00 00 00
       0.0 0.0 0.0 0.0
0001c0 00 00 00 00 00 00 00 00 00 00 00 00 00 00 00 00
       0.0 0.0 0.0 0.0
0001d0 00 00 00 00 00 00 00 00 00 00 00 00 00 00 00 00
       0.0 0.0 0.0 0.0
0001e0 00 00 00 00 00 00 00 00 00 00 00 00 00 00 00 00
       0.0 0.0 0.0 0.0
0001f0 00 00 00 00 00 00 00 00 00 00 00 00 00 00 00 00
       0.0 0.0 0.0 0.0

network_body._body_endoder.seq_layers.2.weight f4 [128, 128]
000000 aa c9 a1 3a 63 d1 79 3d 9d 42 22 be ce bb 15 3d
       0.0012343426 0.060990702 -0.15845723 0.036556058
000010 59 98 0f be 35 56 b8 bc 50 84 66 bd 47 b1 9f 3d
       -0.1402296 -0.022502044 -0.056278527 0.07797485
000020 97 25 0c 3b 64 f3 e6 bb 76 6f a8 bc 6c 97 f3 bd
       0.002138471 -0.0070480574 -0.020560961 -0.11894116
000030 95 61 e9 bd c1 0f ec bc cd 2e 4c 3d 3b 15 d2 bd
       -0.113955654 -0.028816106 0.04984932 -0.10257956
000040 a0 7e c3 3d 78 a1 ef bd 6b 44 04 3d 9c 41 c6 3c
       0.09545636 -0.117007196 0.03229181 0.024201207
000050 bd f4 e4 3d 1f 1c e5 3c b8 00 6f bd 29 75 17 be
       0.111794926 0.02796751 -0.058350295 -0.14790787
000060 2d dc 2c bd d5 d0 44 bd 03 8f 14 be 49 b3 fa 3d
       -0.042202163 -0.04805072 -0.1450768 0.12241227
000070 e7 91 2c 3e 4d 43 c9 bd dd 86 b4 bd 06 2a ae 3c
       0.16852532 -0.0982729 -0.08814786 0.021260273
000080 7d d9 97 bc f7 1d 4d 3d 42 4c 8b 3d cd 97 0d be
       -0.018536324 0.050077405 0.068016544 -0.13827439
000090 d4 07 2b bd a3 e0 8f 3d 2e 61 0c be 0f 6e 8e 3d
       -0.041755512 0.07025268 -0.13708946 0.06954586
0000a0 49 32 05 3e 25 c0 c6 3c 08 6b 19 3c ec 85 a5 bd
       0.13007464 0.024261544 0.009363897 -0.08082184
0000b0 2f 9b 0d 3d b5 03 bb 3c c5 3f a7 3d 29 76 b0 3d
       0.034571823 0.022828916 0.0816646 0.08616287
0000c0 d7 f3 30 be df bc 24 3e 66 c0 e0 bc 21 18 db 3c
       -0.17280518 0.16087674 -0.027435493 0.026744904
0000d0 c7 c7 f9 bd 92 5e bc 3d 75 68 b7 3c 10 ff e7 3d
       -0.12196308 0.09197725 0.022388676 0.11327946
0000e0 0d 37 8e bd 7f 5d 3e 3e a5 ed 50 3e 75 e1 02 bd
       -0.06944094 0.18590353 0.20403154 -0.031953294
0000f0 6a 2b 05 3e 6a ea 8a bd 75 0e b0 ba 87 a3 fa 3d
       0.13004842 -0.06782992 -0.0013432043 0.122382216
000100 72 5c 64 3d 16 2b e8 bd 2d e0 e5 bd 2c 20 27 3d
       0.055752225 -0.11336343 -0.11224399 0.040802166
000110 ac 77 a5 bd ba 29 65 bc 1e a6 17 bd 01 c2 d8 3d
       -0.08079466 -0.013986999 -0.037023656 0.10583878
000120 f5 59 ba 3d b8 eb a2 3d d0 1c 27 3d 72 97 a2 bd
       0.09099189 0.07955116 0.040798962 -0.07939042
000130 df 77 cb bd a2 1f e9 3d 5f 02 3b 3d 18 c0 be 3d
       -0.09934973 0.113829866 0.045656558 0.09313983
000140 f5 87 ac bc de 97 d7 bb eb 7a 16 be 99 22 cd bb
       -0.021060923 -0.0065793833 -0.14695327 -0.006260228
000150 a0 3d 6c 3d 48 a9 2d bc 4c 82 19 3d db 30 98 3d
       0.057675958 -0.010599442 0.037477776 0.074311934
000160 99 4a 07 3d dd d9 84 bd 6e 41 a6 3d ad b0 82 bd
       0.033030126 -0.064868666 0.081179485 -0.063813545
000170 73 a6 09 be 37 71 a1 bd 55 1e df bd 3b 39 a5 3d
       -0.13442402 -0.07882922 -0.10894457 0.080675565
000180 f4 c9 d5 bd 99 e1 a9 3c d9 3b c8 bc 5c 45 31 3d
       -0.1043891 0.020737456 -0.0244426 0.043279037
000190 c5 a9 fe 3d c3 ca 71 be 74 d5 cc 3d 99 78 64 bd
       0.12434725 -0.23612504 0.100016505 -0.055779073
0001a0 0d 7e d2 3d 7f 38 e1 bd 6a e2 f7 bd 9f a4 02 bd
       0.102779485 -0.10997104 -0.12103732 -0.031895276
0001b0 81 46 96 3d d9 b8 2e 3c 2f f9 b5 3d 31 6f 76 3c
       0.07337666 0.010664188 0.088854186 0.015041159
0001c0 f5 15 fd 3d 22 54 0d bc 49 ca 9c 3e 15 75 cf bd
       0.123577036 -0.008626016 0.3062308 -0.101297535
0001d0 95 89 31 3d 85 ab 27 3e 2b 91 73 3d c7 ff ec bc
       0.0433441 0.16374023 0.059464615 -0.028930558
0001e0 25 a3 19 3d c2 83 ed bd 99 28 5e 3c bd 9c 67 bd
       0.037509102 -0.115973964 0.013559484 -0.05654596
0001f0 2e 1b f7 bc 62 c4 bf bd a3 d2 c1 bd 8c 38 20 bd
       -0.030164327 -0.09363629 -0.09464004 -0.039116427
000200 cd 9c e3 3d 6e 37 9b bd 67 2a c7 bd 1f bf 06 be
       0.11113892 -0.07578932 -0.097248845 -0.13158844
000210 bd 7b 4f 3d 23 19 df bc ec 4a e0 3c 52 e6 2f be
       0.050655115 -0.027233666 0.027379476 -0.17177704
000220 67 e4 37 3d a2 bc 4d bd 68 cd cf bd f5 55 a5 bd
       0.044895556 -0.050228722 -0.101466 -0.08073036
000230 7f 5c 35 3b 00 da 85 3c 5c 64 b2 bc 58 dc dc 3d
       0.002767354 0.016339302 -0.02177637 0.10784215
000240 d7 a4 72 3d 2d a9 9d bc b4 45 33 3e d2 c0 de bd
       0.059239235 -0.019245708 0.17507058 -0.10876621
000250 84 35 08 3c be c1 48 3d 0f 0d a6 3d 1c 88 51 bd
       0.00831354 0.049012892 0.081079595 -0.051155195
000260 ae 18 f7 bd dc ab f4 bd 17 e8 70 bd 49 e4 65 bc
       -0.12065254 -0.11946842 -0.058815088 -0.014031478
000270 80 fa a3 bc f0 2a e3 3c 17 71 5b bd b0 04 2c 3c
       -0.020016909 0.027730435 -0.053574648 0.010499164
000280 7f 12 8e bc e1 bd 28 be 0d 1b d3 bd 21 1d 93 bd
       -0.017342804 -0.16478683 -0.10307894 -0.0718329
000290 66 f7 59 ba 60 17 c3 bd d1 d1 d6 bc aa f3 87 bd
       -0.00083147583 -0.09525943 -0.026223095 -0.06638272
0002a0 7d 79 82 3d 45 f6 fc bd cd 39 8b 3e a0 8c 00 3e
       0.06370828 -0.1235166 0.27192536 0.12553644
0002b0 9d 45 f6 bd 13 cb e3 bd 0b 7f d7 3d 7e c5 da bc
       -0.120249964 -0.11122718 0.105222784 -0.0267055
0002c0 b1 f8 b0 3d 0c 6d b5 3d 03 a8 b4 3d 10 ec 38 3d
       0.08641184 0.0885869 0.08821108 0.045147
0002d0 08 c2 0d be 34 a3 63 bc fd 6b 79 bd 99 37 ae 3d
       -0.13843548 -0.013893891 -0.060894 0.08506698
0002e0 66 d8 8e bc cc 0a a8 3b 00 97 11 3e 0b 8e 59 bc
       -0.017437171 0.00512824 0.14217758 -0.013278495
0002f0 ce f6 66 3d 55 4b a6 bd eb 09 ce bd f3 78 a9 bd
       0.056387715 -0.08119837 -0.100604855 -0.08275022
000300 5f 93 04 bc ad f4 47 bd 42 e3 80 bd 6f b8 ef 3c
       -0.008091777 -0.048817325 -0.06293346 0.02926275
000310 a5 22 2f 3e cf a9 b5 bd 64 62 26 bd c1 f4 60 3d
       0.1710306 -0.08870279 -0.040621176 0.054920916
000320 1f ae 3b 3d 84 39 c5 bd 71 4a 74 3c a2 d2 c3 b9
       0.04582035 -0.09630111 0.014910326 -0.00037350232
000330 df 02 1b be c7 b7 cc 3d 10 5f 9e bc d1 a3 0f 3d
       -0.15137814 0.0999599 -0.019332439 0.035068337
000340 a2 d3 54 bd f9 e1 bc 3c 34 67 dc 3c ed e2 14 3e
       -0.05195964 0.02305697 0.02690468 0.1453969
000350 2c 71 8f 3d d4 7c 9e 3b f2 66 20 39 6c d5 d3 bd
       0.07004008 0.004836658 0.00015297139 -0.10343441
000360 30 85 2b bc 3b 38 93 3d 9c 33 2c bd 0c 57 9c bc
       -0.010468766 0.071884595 -0.042041406 -0.019084476
000370 21 59 15 be 50 91 80 3c 60 dc 8f 3d 47 46 40 3e
       -0.14584781 0.01569429 0.07024455 0.18776809
000380 e3 00 0f 3e 55 3d 0a be 10 ba 75 3d 00 bf 5d 3d
       0.13965182 -0.13499959 0.059991896 0.05413723
000390 fe 7f 95 bc 1d c5 97 3d 93 b9 2f be 84 0b 49 bd
       -0.018249508 0.07410643 -0.17160635 -0.049083248
0003a0 9f 10 6f 3d db 9f c9 3c a5 2b 88 bd 98 f1 b8 3d
       0.05836546 0.024612358 -0.066489495 0.09030455
0003b0 ed 5a 8b 3e e7 2e ca 3d 18 2f c8 bd f8 20 b7 3d
       0.27217808 0.09872227 -0.097746074 0.08941835
0003c0 dd 08 90 3d 9a 16 3f bc db cf 6b 3d 93 3c 0f 3e
       0.070329405 -0.0116631035 0.057571273 0.13987951
0003d0 49 15 67 bd bb 24 32 bd d8 73 3b 3d eb 97 28 3d
       -0.056416783 -0.04349206 0.045764774 0.041160505
0003e0 90 d6 bd bd 15 13 e7 3c 0f 1b 0b bd f8 b2 ac 3c
       -0.0926944 0.028207341 -0.033961352 0.021081433
0003f0 36 6a 9a bc b5 bb b4 3c f9 8f 9f 3d b0 8a 99 3d
       -0.018849473 0.022062162 0.077911325 0.07497156
