results/jugglingRobotV1/JugglingRobotV1/JugglingRobotV1-12679.pt (torch, 449887 bytes, 36 tensors)

network_body._body_endoder.seq_layers.0.weight f4 [128, 9]
-0.3114318 -0.2997722 -0.5325839 0.02722665 0.06180682 0.21361886 0.019689599 -0.2771292
-0.41225487 0.32355088 -0.13770533 -0.05593203 -0.3570389 -0.32605353 -0.005586122 0.55024594
-0.13178492 -0.7541494 -0.088475905 0.11469256 0.34856284 0.2565888 -0.18424965 0.13137671
-0.24076687 -0.42605332 -0.087879285 -0.17215052 -0.06839159 0.61277044 0.04214108 -0.4992327
0.07544731 -0.45188567 0.57835907 0.59580415 -0.06718022 0.299115 0.32954192 0.13019001
-0.07200936 0.27980646 0.08370776 -0.031745214 -0.716049 0.013573683 0.21791248 -0.17772478
0.053169973 -0.1527011 0.50545895 0.21151207 -0.0475592 -0.10504275 -0.1476843 0.48100898
-0.8349039 -0.068329 -0.5452571 0.16617814 -0.10885306 -0.06897017 0.079257905 0.33284852
-0.23128599 0.13170283 0.35735282 0.017677268 0.10824653 -0.028430153 0.08823091 -0.24263577
0.17974085 -0.37948844 0.24472086 -0.2637575 0.3794727 -0.27600607 -0.18050028 -0.9784866
-0.2704562 0.48469657 0.17432766 -0.88949984 -0.34642252 -0.2189097 -0.039083198 -0.30526897
0.30063844 0.035462297 -0.21091518 0.5993091 -0.077680446 0.20897213 -0.25919133 -0.23278219
0.29460496 -0.081381746 -0.4125284 -0.39384976 0.27972645 0.3946539 -0.30878907 0.7064705
-0.22846475 0.10687336 -0.45068267 -0.16371314 -0.13661286 -0.52389085 -0.23328468 -0.2619682
-0.31586877 -0.014529221 0.08108801 0.24676321 0.08000491 -0.19231251 0.15694703 0.78133625
0.37216762 0.5146507 -0.362224 0.13414644 0.63875836 0.24888907 0.32353804 -0.482782
0.19512612 -0.7608019 -0.010658553 -0.12688373 -0.35447875 0.3328499 -0.20702747 0.05823333
0.40831307 -0.24029745 0.09971585 0.17068423 0.21553537 0.2914465 -0.3500756 -0.8488392
0.5282487 0.05174251 -0.09450931 0.3577279 0.14026372 -0.40972918 -0.19574827 0.4918451
-0.11944217 0.14548875 -0.16758887 -0.06843886 0.37271234 -0.35662487 -0.28992862 0.02629575
0.12229774 0.06298796 0.20474769 -0.03177018 -0.13682969 0.6369184 0.44833475 -0.7108888
-0.121118605 0.5656755 0.54470783 0.38397795 -0.36411998 0.057836343 -0.33578685 0.19188821
0.14717403 -0.4894941 0.49698758 -0.44896135 0.08044216 0.58065313 0.076890014 0.17548333
-0.058170654 0.1429242 -0.30819502 -0.18055618 0.19341248 -0.7198938 -0.12048346 -0.17683665
-0.08066378 0.38117835 -0.0535467 0.4958036 0.37907323 -0.03697685 0.4266918 0.08079759
-0.54919046 0.22221535 0.046011463 -0.22011854 -0.084149055 0.082741715 0.60600543 0.23874375
-0.24773927 0.43772474 0.29391247 0.11746029 0.10299911 -0.23498027 0.7697823 0.19871596
0.1805501 0.2697469 0.05536104 -0.056714065 -0.17715704 -0.49503335 0.42699853 0.06692883
-0.04817793 -0.22316478 -0.3392099 0.11245609 -0.20141152 0.3645724 -0.27758953 0.6236048
-0.3830599 -0.47555178 -0.03892845 -0.30943185 0.33020917 -0.4225143 -0.07670626 -0.2752086
0.024944149 0.23082104 -0.6995501 0.1023711 0.21054767 0.5655456 0.16472813 0.28553233
0.23624547 -0.3534021 0.1327151 -0.38144764 0.08977642 0.02197959 -0.25589478 -0.25814378
00000000: fd73 9fbe be7b 99be 6b57 08bf 6c0a df3c
00000010: 2629 7d3d e7be 5a3e 154c a13c e1e3 8dbe
00000020: 1213 d3be 76a8 a53e a002 0dbe fc18 65bd
00000030: cdcd b6be 7df0 a6be ca0b b7bb ebdc 0c3f
00000040: a0f2 06be ef0f 41bf db32 b5bd efe3 ea3d
00000050: d476 b23e 9b5f 833e f1ab 3cbe 9e87 063e
00000060: 978b 76be a923 dabe 0efa b3bd 3a48 30be
00000070: e410 8cbd 86de 1c3f 209c 2c3d 6e9b ffbe
00000080: 1f84 9a3d 8f5d e7be 570f 143f 9f86 183f
00000090: c895 89bd 9a25 993e b8b9 a83e 8850 053e
000000a0: a579 93bd cb42 8f3e f96e ab3d 4507 02bd
000000b0: fd4e 37bf 2764 5e3c 7324 5f3e 7cfd 35be
000000c0: c2c8 593d ad5d 1cbe c265 013f 9f96 583e
000000d0: 70cd 42bd a720 d7bd 8e3a 17be cf46 f63e
000000e0: 43bc 55bf 13f0 8bbd f895 0bbf 9a2a 2a3e
000000f0: 5aee debd 3c40 8dbd f851 a23d 1f6b aa3e
00000100: 3cd6 6cbe 1bdd 063e f3f6 b63e ebcf 903c
00000110: 5bb0 dd3d 5ae6 e8bc 68b2 b43d 8375 78be
00000120: fc0d 383e 4f4c c2be 1b98 7a3e 390b 87be
00000130: 3f4a c23e ab50 8dbe 11d5 38be 197e 7abf
00000140: 3c79 8abe 262a f83e f382 323e 43b6 63bf
00000150: 4b5e b1be dd29 60be b415 20bd 374c 9cbe
00000160: 48ed 993e ea40 113d 26fa 57be 526c 193f
00000170: ed16 9fbd cafc 553e bab4 84be 745e 6ebe
00000180: 76d6 963e 79ab a6bd ec36 d3be ada6 c9be
00000190: 4e38 8f3e 1310 ca3e 9a19 9ebe 40db 343f
000001a0: aaf2 69be 6ce0 da3d e1bf e6be 6ba4 27be
000001b0: 3ee4 0bbe b61d 06bf 2ee2 6ebe b220 86be
000001c0: 8db9 a1be f80b 6ebc 7811 a63d 7faf 7c3e
000001d0: 9dd9 a33d 92ed 44be b9b6 203e a705 483f
000001e0: c18c be3e 26c0 033f 6d75 b9be af5d 093e
000001f0: ab85 233f c7dc 7e3e c7a6 a53e 342f f7be
00000200: 24cf 473e eac3 42bf 36a1 2ebc cfed 01be
00000210: 3d7e b5be 4d6b aa3e 02ff 53be 1286 6e3d
00000220: 690e d13e 8910 76be d337 cc3d d9c7 2e3e
00000230: 4eb5 5c3e 7a38 953e 1c3d b3be 874d 59bf
00000240: 4f3b 073f f4ef 533d 198e c1bd 1c28 b73e
00000250: 4ba1 0f3e 06c8 d1be 3c72 48be 1fd3 fb3e
00000260: 199e f4bd 01fb 143e 6b9c 2bbe ac29 8cbd
00000270: 27d4 be3e 8997 b6be 8671 94be 2f6a d73c
00000280: 3d77 fa3d d5ff 803d 61a9 513e 7321 02bd
00000290: 151d 0cbe 160d 233f 228c e53e cffc 35bf
000002a0: 080d f8bd 1cd0 103f f971 0b3f c298 c43e
000002b0: ef6d babe cde5 6c3d 41ec abbe 587e 443e
000002c0: cab4 163e f89e fabe 2875 fe3e 43de e5be
000002d0: dcbe a43d afa5 143f 8378 9d3d e7b1 333e
000002e0: 5a44 6ebd b95a 123e bdcb 9dbe b8e3 38be
000002f0: ec0d 463e f64a 38bf 08c0 f6bd ab14 35be
00000300: 0d33 a5bd cf29 c33e c953 5bbd f8d9 fd3e
00000310: e315 c23e 0a75 17bd 5977 da3e 3579 a53d
00000320: bf97 0cbf 6c8c 633e 8476 3c3d c166 61be
00000330: 5756 acbd 7d74 a93d 2c23 1b3f 3e79 743e
00000340: 5daf 7dbe 751d e03e b27b 963e 058f f03d
00000350: 33f1 d23d ab9e 70be 7410 453f 327c 4b3e
00000360: 20e2 383e 441c 8a3e 42c2 623d 024d 68bd
00000370: a868 35be 0375 fdbe 8d9f da3e fc11 893d
00000380: 3956 45bd 4f85 64be ecac adbe 614f e63d
00000390: d23e 4ebe 3ca9 ba3e 3720 8ebe 90a4 1f3f
000003a0: 6d20 c4be 867b f3be 7073 1fbd da6d 9ebe
000003b0: 2d11 a93e cb53 d8be 2c18 9dbd 24e8 8cbe
000003c0: ac57 cc3c 5a5c 6c3e b715 33bf f0a7 d13d
000003d0: cf99 573e 99c7 103f 7eae 283e 4b31 923e
000003e0: 55ea 713e 1ff1 b4be 78e6 073e 1b4d c3be
000003f0: b3dc b73d 8b0e b43c a404 83be 6c2b 84be

network_body._body_endoder.seq_layers.0.bias f4 [128]
0.0018542235 0.000637703 -0.0013078526 0.000540299 0.0014111623 0.0009986609 0.0032694752 -0.004106734
0.0025568528 0.0043341494 0.0009645368 0.0022543585 0.0011523389 0.0004045927 0.0015326703 -0.0019869744
-0.0011915553 0.0008569562 -0.0027778004 -0.00341499 0.003086717 0.0025455058 -0.0037258589 -0.0037213604
-0.0018268826 0.0043518324 -0.004238901 -0.00037268773 0.0027237753 -6.65355e-05 0.0016880666 0.0026633136
-0.0015236456 0.0001620803 -0.0019801552 0.0028983718 -0.0039019391 0.0033542197 0.0033282805 -0.0035514971
0.0020081475 0.0017195368 -0.003288314 0.0031975203 -0.0010800675 0.0022714208 0.0011189908 1.1326545e-05
-0.0009023279 0.0036751314 -0.00022253324 9.716896e-05 -0.002509067 -0.0012048591 0.0011468572 -0.0023934576
0.0032025732 -0.002761413 0.0005165932 -0.0033023716 0.0005477497 0.00027311733 -0.0020347207 0.0028235847
-0.0028443767 0.0002241206 0.0017761162 -0.0012420577 0.0034884894 0.0006886255 -0.0014183756 0.0015513806
0.0024266674 -0.0045500947 -0.0017631405 -0.004521278 -0.0037511364 -0.0006103093 -0.0024609272 -0.0019439408
-0.0013680717 0.0015419862 -0.0027091817 0.003953894 0.0016351248 -0.0008370522 -0.003434115 0.0003268826
0.0016085333 0.0013655772 0.0036243822 -0.0011913378 -0.0016724841 0.0026182842 -0.0037462693 0.0015827095
-0.005593309 0.0015469656 0.0031513162 0.0015612819 0.0023511196 -0.0015552811 0.002921005 0.0023151904
0.0043872306 0.0006094134 -0.0037530728 0.0019701927 -0.0013004687 0.005334023 -0.002122666 -0.0017814864
0.0013541309 0.0014394382 -0.0010656427 -0.0025808618 -0.0021249452 -0.0026669777 -0.0013558089 0.0024165283
-0.004140816 -0.002900927 -0.00019591277 -0.0012240683 -0.0025485053 -0.0017596836 0.0015894086 -0.004007878
00000000: 6b09 f33a 862b 273a 406c abba daa2 0d3a
00000010: c0f6 b83a 80e5 823a b144 563b c891 86bb
00000020: df90 273b 7b05 8e3b f8d8 7c3a dcbd 133b
00000030: 140a 973a 831f d439 e2e3 c83a e637 02bb
00000040: f62d 9cba 5ba5 603a c20b 36bb 06ce 5fbb
00000050: 854a 4a3b 80d2 263b 8a2d 74bb 11e2 73bb
00000060: 0274 efba d199 8e3b 7be6 8abb 4d65 c3b9
00000070: 5e81 323b f988 8bb8 1e42 dd3a fd8a 2e3b
00000080: 10b5 c7ba 19f4 2939 7ec5 01bb 9cf2 3d3b
00000090: adb7 7fbb 78d2 5b3b 481f 5a3b 3cc0 68bb
000000a0: 209b 033b 1562 e13a c180 57bb 7d8d 513b
000000b0: 0d91 8dba 1edc 143b 1aab 923a 2407 3e37
000000c0: 338a 6cba 79da 703b d057 69b9 30c7 cb38
000000d0: 296f 24bb 5dec 9dba 2452 963a 8edb 1cbb
000000e0: 43e2 513b d3f8 34bb fc6b 073a 9a6c 58bb
000000f0: dc96 0f3a 3031 8f39 f358 05bb e40b 393b
00000100: b968 3abb ea01 6b39 92cc e83a 8acc a2ba
00000110: 249f 643b e084 343a cae8 b9ba b257 cb3a
00000120: b908 1f3b f618 95bb 2e19 e7ba 3b27 94bb
00000130: a0d5 75bb 2afd 1fba 8247 21bb d4cb feba
00000140: de50 b3ba 791c ca3a 878c 31bb ab8f 813b
00000150: af51 d63a 9f6d 5bba e40e 61bb 7161 ab39
00000160: 6cd5 d23a 2bfd b23a 0b87 6d3b aa26 9cba
00000170: 4137 dbba 8597 2b3b f883 75bb eb72 cf3a
00000180: 1448 b7bb 8dc3 ca3a 5086 4e3b eda3 cc3a
00000190: 3e15 1a3b 93da cbba 556e 3f3b 73ba 173b
000001a0: c2c2 8f3b 0ac1 1f3a 1df6 75bb 591e 013b
000001b0: 7d74 aaba 07c9 ae3b 6d1c 0bbb c480 e9ba
000001c0: 187d b13a 88ab bc3a 09ad 8bba ad23 29bb
000001d0: aa42 0bbb 76c8 2ebb 66b5 b1ba 9e5e 1e3b
000001e0: afaf 87bb 7b1d 3ebb ef6d 4db9 eb70 a0ba
000001f0: d304 27bb 2fa5 e6ba b453 d03a 8454 83bb

network_body._body_endoder.seq_layers.2.weight f4 [128, 128]
-0.115027204 0.038348198 -0.043859784 -0.02802728 -0.115009405 0.014499523 0.099362195 -0.031455256
-0.017485611 -0.011164373 0.01395978 -0.03123986 -0.021654261 0.17721303 -0.008976888 -0.034536395
0.058030155 0.075083576 -0.018287942 0.016950686 -0.037470937 -0.08218424 -0.018312857 0.082797244
-0.006125874 -0.19315043 -0.1112728 -0.026657391 0.08987881 0.20037699 0.13227515 0.006247363
-0.11962264 0.12123464 -0.056852628 0.026127042 0.039154213 -0.00087466254 -0.036696564 -0.105867736
0.016315276 0.05431336 -0.054435115 -0.028319933 -0.074599124 0.16519251 -0.055792548 0.089319915
-0.07760729 -0.1515361 -0.07661768 -0.16360469 0.10461384 0.014585546 -0.08248158 0.029654967
-0.014828185 -0.049683616 -0.12830745 0.016330048 0.122840576 -0.029962579 -0.08758246 0.009391234
-0.008201477 -0.064011514 0.029882634 0.040399197 0.10943121 0.04188392 -0.0075409207 0.010787277
0.028366517 -0.0762353 -0.021632545 -0.0237403 0.056480322 -0.128878 0.14200763 -0.03877729
-0.002596946 -0.18745495 0.06060718 -0.0894493 -0.14073275 -0.009053573 -0.09013048 -0.015109824
0.027204165 0.033140723 0.19386217 -0.038231857 0.028027605 0.08726641 0.0061711874 0.0373152
0.0058290847 0.037059236 -0.13413487 0.02170409 -0.037695374 0.029629942 -0.015918944 -0.09643885
0.124088265 0.03643874 0.027473016 0.014986613 -0.01153335 -0.14115223 0.0135393 -0.04722268
0.13506992 0.049043927 -0.0073481994 0.0017679811 -0.16733234 -0.068793915 0.10532523 0.037775476
0.008907236 0.010087247 -0.03421807 -0.007824519 0.025492923 -0.13637047 0.15792415 -0.015209182
-0.08018453 -0.084447615 0.012765641 0.06409282 0.008782749 0.045929935 -0.07331232 0.0284951
0.151444 0.039988216 -0.106996536 0.10339426 0.15258709 0.014571625 0.2521488 -0.11288577
0.06849095 0.079763815 0.044731148 -0.029182604 0.06560048 -0.02873975 -0.09959986 0.1521344
0.035817936 -0.081686266 -0.054681696 -0.057724383 -0.026101213 0.2094722 -0.03753906 0.10805434
0.048619013 0.06603151 0.024503699 -0.011536883 -0.15795484 0.055342015 -0.001756125 0.012394657
0.03828843 -0.052479785 -0.038218565 -0.019048361 0.040654894 0.08003627 -0.11957779 -0.05376775
-0.052426025 0.048303083 -0.04150071 0.13129583 0.11810037 -0.09687459 0.103742644 -0.116708405
-0.010462668 0.20713714 0.07169988 0.1427833 -0.10397029 -0.089025624 -0.1281289 -0.07150725
-0.06586316 0.23816718 0.042731553 -0.010842777 0.19037214 0.056926947 -0.028305173 -0.09457184
-0.118094966 -0.031562097 0.0013517311 0.037026327 0.018057978 -0.0924852 0.09858203 -0.11053173
0.08598981 -0.06754839 -0.04042276 0.055189613 -0.0036286695 0.10722591 -0.08993595 0.06590338
0.023330027 0.10910933 0.24011907 -0.21272792 0.033068877 0.09318153 0.1065119 0.12669091
0.12816222 -0.014828704 -0.083339244 0.04442415 -0.051708348 0.032181036 0.005556804 -0.009866989
-0.05696488 0.13712229 0.026463514 0.08689713 0.17695832 0.05325447 -0.03873284 0.1588814
-0.11708391 -0.15430306 0.14421545 -0.124021664 0.04651573 0.042634327 0.089713104 -0.10799454
0.067854166 -0.021255543 0.011574212 0.028111113 0.058425963 -0.09945367 -0.023525583 -0.05195291
00000000: 6293 ebbd 0013 1d3d 51a6 33bd 7799 e5bc
00000010: 0d8a ebbd 688f 6d3c 687e cb3d 3ad7 00bd
00000020: fc3d 8fbc c6ea 36bc 90b7 643c bcea ffbc
00000030: 4764 b1bc 5577 353e cc13 13bc 0976 0dbd
00000040: 07b1 6d3d 6bc5 993d 98d0 95bc 2adc 8a3c
00000050: 207b 19bd 3650 a8bd d804 96bc 9a91 a93d
00000060: 8ebb c8bb 3ac9 45be fee2 e3bd 9a60 dabc
00000070: 6212 b83d a02f 4d3e 2373 073e aeb6 cc3b
00000080: b7fc f4bd de49 f83d 4dde 68bd 6108 d63c
00000090: 2b60 203d 9c49 65ba 234f 16bd 2fd1 d8bd
000000a0: 9da7 853c b077 5e3d 5bf7 5ebd 34ff e7bc
000000b0: 6dc7 98bd 3a28 293e ba86 64bd 5ced b63d
000000c0: 92f0 9ebd 482c 1bbe bbe9 9cbd fd87 27be
000000d0: c83f d63d 37f8 6e3c 1aec a8bd f9ee f23c
000000e0: eaf1 72bc 0c81 4bbd 0763 03be 98c6 853c
000000f0: d793 fb3d 1574 f5bc 6f5e b3bd b1dd 193c
00000100: 7d5f 06bc 7818 83bd 6dcc f43c a179 253d
00000110: 781d e03d 798e 2b3d d419 f7bb 1ebd 303c
00000120: e660 e83c 4121 9cbd bc36 b1bc 057b c2bc
00000130: e957 673d 98f8 03be 736a 113e f0d4 1ebd
00000140: 8631 2abb 31f4 3fbe 3c3f 783d 3231 b7bd
00000150: 3f1c 10be 7055 14bc 5496 b8bd 328f 77bc
00000160: 45db de3c 91be 073d ce83 463e 0299 1cbd
00000170: 269a e53c bbb8 b23d ac37 ca3b d3d7 183d
00000180: e801 bf3b 6dcb 173d a75a 09be c7cc b13c
00000190: 7766 1abd 7eba f23c 7268 82bc bb81 c5bd
000001a0: fd21 fe3d ca40 153d 170f e13c 698a 753c
000001b0: 60f6 3cbc 368a 10be f1d3 5d3c 926c 41bd
000001c0: c54f 0a3e 49e2 483d 2ac9 f0bb 9abb e73a
000001d0: 2b59 2bbe d3e3 8cbd c1b4 d73d 75ba 1a3d
000001e0: a8ef 113c fb44 253c 3f28 0cbd 6932 00bc
000001f0: 89d6 d03c b3a4 0bbe deb6 213e ef2f 79bc
00000200: c937 a4bd dff2 acbd fb26 513c 1943 833d
00000210: 85e5 0f3c 0721 3c3d c524 96bd 8e6e e93c
00000220: 2314 1b3e afca 233d 0021 dbbd 5fc0 d33d
00000230: ca3f 1c3e d3bd 6e3c a619 813e a830 e7bd
00000240: fc44 8c3d 365b a33d 0238 373d 5b10 efbc
00000250: 8b59 863d a06f ebbc 03fb cbbd 1fc9 1b3e
00000260: d4b5 123d 214b a7bd eaf9 5fbd 6770 6cbd
00000270: 36d2 d5bc e17f 563e 8fc2 19bd 984b dd3d
00000280: bb24 473d 873b 873d fbbb c83c 3205 3dbc
00000290: eabe 21be 4fae 623d c72d e6ba f612 4b3c
000002a0: 54d4 1c3d 0bf5 56bd 128b 1cbd 4f0b 9cbc
000002b0: bf85 263d 0eea a33d 33e5 f4bd 923b 5cbd
000002c0: acbc 56bd 74d9 453d a6fc 29bd 6a72 063e
000002d0: 9bde f13d 2f66 c6bd 0677 d43d d104 efbd
000002e0: 9c6b 2bbc c21b 543e 63d7 923d c935 123e
000002f0: 60ee d4bd 1153 b6bd 3934 03be 6572 92bd
00000300: 44e3 86bd 19e2 733e 4807 2f3d e7a5 31bc
00000310: eaf0 423e 3b2c 693d 40e0 e7bc e1ae c1bd
00000320: c6db f1bd 4247 01bd 922c b13a eba8 173d
00000330: 53ee 933c e168 bdbd 60e5 c93d 765e e2bd
00000340: 6d1b b03d cf56 8abd 5692 25bd 810e 623d
00000350: f9ce 6dbb 4299 db3d 5730 b8bd 5af8 863d
00000360: 9d1e bf3c b674 df3d c6e1 753e 59d5 59be
00000370: 3b73 073d f5d5 be3d e922 da3d 43bb 013e
00000380: f53c 033e 18f4 72bc c4ad aabd 19f6 353d
00000390: 22cc 53bd 43d0 033d da15 b63b 27a9 21bc
000003a0: 0254 69bd c969 0c3e 03ca d83c 1ff7 b13d
000003b0: 9034 353e 5c21 5a3d 54a6 1ebd ceb1 223e
000003c0: b0c9 efbd 9f01 1ebe 37ad 133e 12ff fdbd
000003d0: 4787 3e3d 55a1 2e3d 81bb b73d 3e2c ddbd
000003e0: 20f7 8a3d 1b20 aebc c4a1 3d3c 4749 e63c
000003f0: 1050 6f3d 5eae cbbd b9b8 c0bc 93cc 54bd

network_body._body_endoder.seq_layers.2.bias f4 [128]
-0.0018647613 -0.0014727103 -0.00019000121 -0.0057900986 -0.0020462333 0.0021024193 0.0018427246 -0.0025974526
0.0018346114 -0.0019695421 0.0024011473 0.0011797285 0.0043784906 0.0017933948 0.0014155537 -0.0031415464
-0.0001491014 -0.004667174 0.0031052893 0.0033860179 -0.0018883946 0.00026721315 0.00084607856 0.0026845045
-0.002498258 0.0032485265 0.0018299932 0.0024656886 0.0031648257 -0.002555013 0.0011084204 -0.0049526077
-0.0014856554 -0.0015176547 0.0046280026 0.0037883576 -0.0029100364 -0.0012366249 0.0026054238 -0.0033584735
0.0009424961 0.002115375 -0.0025869121 0.0031605142 0.0014045789 -0.0034081559 -0.0055621658 0.0012576851
0.0037138883 -0.0028188957 -0.0017976628 0.002690131 0.0060480684 -0.0030724618 -0.001514501 -0.0022443496
-0.0016570704 0.0034560182 0.0025193035 0.00071810134 0.00039819704 0.0014267119 -0.0013805582 -0.0029671816
0.0016285914 0.0011222344 0.0006693557 0.002696755 -0.0032130743 -0.0040007946 0.0022560798 0.0024809586
0.0015664425 -0.0018481379 -0.00033054574 0.0013516487 -0.0026867099 0.00024537655 -0.00093274924 0.0047679166
0.004136503 0.004026746 0.0008715358 0.002372009 -0.003975114 -0.0023172777 -0.0017647481 0.00051011215
0.0033864311 0.0071666827 -0.002698077 0.0054901554 0.0011943182 -0.00078553497 -0.003695828 0.0023280748
0.003742612 -0.0026051297 0.0037567706 -0.0021007047 -0.0016672602 -0.0025557803 -0.0023644469 0.0024883735
-0.00069533073 -0.0026231846 0.0020115592 -0.0026801995 0.0012731311 0.0012399167 -0.0011052565 -0.0033097228
0.002230461 0.0020708756 0.0001970467 -0.0026407908 0.00023745961 -0.003295159 0.00028452693 0.004190745
0.0031896194 -0.0020129473 0.0005393841 0.0007814912 0.0013116482 -0.0006508138 0.0040384154 -0.002887122
00000000: 026b f4ba f507 c1ba 103b 47b9 deba bdbb
00000010: 191a 06bb bec8 093b 9487 f13a 063a 2abb
00000020: 5877 f03a 6f13 01bb 915c 1d3b 1fa1 9a3a
00000030: 7179 8f3b 5810 eb3a 1a8a b93a 67e2 4dbb
00000040: 1a58 1cb9 18ef 98bb 1c82 4b3b f4e7 5d3b
00000050: 0284 f7ba be18 8c39 5fcb 5d3a 83ee 2f3b
00000060: d0b9 23bb 3be5 543b 62dc ef3a 6497 213b
00000070: f768 4f3b 0172 27bb 6b48 913a 7c49 a2bb
00000080: 53ba c2ba 0bec c6ba 80a6 973b 1846 783b
00000090: 4fb6 3ebb 3f16 a2ba c2bf 2a3b d619 5cbb
000000a0: d811 773a 1aa2 0a3b 2f89 29bb a120 4f3b
000000b0: d919 b83a 5e5b 5fbb d442 b6bb e9d8 a43a
000000c0: b564 733b 39bd 38bb 8e9f ebba e94c 303b
000000d0: e02e c63b 5b5b 49bb 3982 c6ba f015 13bb
000000e0: 0e32 d9ba 5d7e 623b e61a 253b f73e 3c3a
000000f0: 1ac5 d039 8200 bb3a d9f3 b4ba 0c75 42bb
00000100: 7676 d53a f017 933a b377 2f3a 0bbc 303b
00000110: 7192 52bb 1919 83bb bdda 133b 9497 223b
00000120: 1751 cd3a 383d f2ba 194d adb9 ce29 b13a
00000130: 8313 30bb e2a5 8039 be83 74ba 2f3c 9c3b
00000140: 818b 873b cbf2 833b c777 643a b573 1b3b
00000150: ac41 82bb 78dd 17bb 1f4f e7ba 0cb9 053a
00000160: e3ee 5d3b 7ed6 ea3b 38d2 30bb c3e6 b33b
00000170: ab8a 9c3a 5cec 4dba b435 72bb 9d92 183b
00000180: 9c46 753b d3ba 2abb 2734 763b faab 09bb
00000190: f887 daba e17e 27bb d6f4 1abb fb13 233b
000001a0: db46 36ba bce9 2bbb 5dd4 033b 49a6 2fbb
000001b0: 31df a63a b384 a23a 41de 90ba efe7 58bb
000001c0: ed2c 123b 87b7 073b 529e 4e39 1e11 2dbb
000001d0: 94fe 7839 98f3 57bb 8f2c 9539 8452 893b
000001e0: ef08 513b a7eb 03bb 7465 0d3a fddc 4c3a
000001f0: 9ceb ab3a 609b 2aba af54 843b df35 3dbb

action_model._continuous_distribution.log_sigma f4 [1, 3]
-0.001048429 -0.0032986284 0.002345994
00000000: 716b 89ba cd2d 58bb 40bf 193b

action_model._continuous_distribution.mu.weight f4 [3, 128]
0.019979464 -0.03504999 0.0026743875 -0.0062956135 -0.011008559 0.009591067 0.006889698 -0.0010892036
0.020127174 -0.029820174 0.012282907 -0.006376364 0.022426631 0.013408341 -0.0044422806 -0.014673315
0.01609702 -0.023570113 0.019258961 0.008009072 -0.018773077 -0.007497764 0.019262996 0.023465272
-0.023485037 0.00353491 -0.00019218658 0.0039921883 -0.004113603 -0.0015743242 -0.0008995417 -0.016818643
0.0010272734 -0.0019139186 -0.012540441 0.014023568 -0.020834032 0.024105715 0.0523074 0.011902537
-0.00083124614 0.02641894 -0.005139344 0.027724423 0.010794467 -0.011203069 -0.016044611 -0.0014702128
0.000650022 -0.007106164 -0.0029939425 0.0019578824 0.023260662 -0.027206184 0.012236917 0.0061520305
-0.022879504 0.0051609655 0.02269291 0.0106827365 -0.002454183 -0.038788598 0.003974663 -0.01759484
-0.0036937844 0.008671223 0.013844957 0.0024671194 0.0032279936 -0.00096625485 -0.014446726 0.026698537
0.013943192 -0.022047643 -0.027753908 0.0047049588 -0.018941699 -0.011841885 -0.021438183 0.032036815
0.014935022 0.005625049 -0.017677315 -0.006843444 -0.011862199 -0.018374346 0.014305408 0.0121426545
-0.007719408 0.017229626 -0.00052143994 0.011765561 0.024652885 -0.016001213 0.0011946814 -0.0026766083
0.04913953 -0.028267903 -0.0061080726 -0.0017452713 -0.0017430789 -0.02859831 -0.016028225 -0.011005577
-0.0009173261 -0.019785525 0.002596364 -0.0068126167 0.008370228 0.028507521 0.013073142 -0.027745092
0.014005742 0.01726257 0.011767894 -0.0369039 0.011894986 -0.01107324 -0.008978318 0.00692066
0.0054761902 0.010130629 -0.022331603 -0.00841429 0.008181435 -0.009650086 0.011806528 -0.016823664
0.027316358 -0.00031184725 0.021023925 0.04998495 0.0026988613 0.0055525694 -0.045005262 0.025357641
0.0017150096 0.013734983 -0.0019782707 -0.00857967 -0.021886466 0.008247647 -0.010736201 -0.0017200547
0.020618703 -0.00634298 -0.024479683 -0.021937156 -0.010389866 -0.0054744245 0.019157004 -0.020899387
-0.02422838 0.011599067 -0.012436308 -0.022721348 -0.0049180654 0.04139322 -0.033464424 0.00357109
0.005001645 -0.007029486 -0.015286689 -0.0195696 0.0010948543 0.023320777 -0.006413497 0.014909187
-0.011369559 0.0017256411 0.013150057 0.016079664 -0.007925661 0.03140685 0.013227877 -0.015261803
-0.008439219 0.022324607 0.0072181295 -0.03364825 -0.0036109278 0.027846802 0.041713104 0.005948585
-0.0109506305 -0.0046994537 0.00341293 0.008829122 0.02153132 -0.022000035 0.0012809649 -0.030196454
-0.016112344 -0.014015977 0.001968524 -0.021131694 0.018364603 0.035663944 -0.02517313 -0.010851405
0.0045741014 0.00086411776 -0.011827464 -0.01567493 0.022562321 -0.007104507 -0.00937086 -0.0005827188
-3.7099417e-05 -0.007889456 -0.03041839 -0.007670164 0.0074621867 0.008630507 0.018471675 0.011227525
-0.0028030523 -0.013346079 0.012954553 -0.008240888 0.0053981524 -0.012552793 0.034896493 -0.019816644
0.0028348619 -0.0041844486 -0.021718185 0.0001435235 0.0061501246 0.02876876 0.015730934 -0.02086628
0.010798289 0.019034727 -0.009257181 0.01933378 0.032593768 0.0024315692 0.021104354 -0.0055844514
-0.0021140445 0.004290445 0.007841636 -0.002349959 0.009577936 0.017359225 0.017866747 0.00728672
-0.018305453 0.014077648 -0.0088765845 0.0013283183 0.011573605 0.027473971 0.00023571486 0.020349065
00000000: f9ab a33c 9490 0fbd c744 2f3b 6f4b cebb
00000010: 3e5d 34bc da23 1d3c fac2 e13b 9cc3 8eba
00000020: bee1 a43c 7049 f4bc 3f3e 493c d1f0 d0bb
00000030: 0eb8 b73c a9ae 5b3c 8d90 91bb 5868 70bc
00000040: e6dd 833c 1c16 c1bc f8c4 9d3c 7c38 033c
00000050: ffc9 99bc ceaf f5bb 6ecd 9d3c 3e3a c03c
00000060: b163 c0bc f3a9 673b b185 49b9 e7d0 823b
00000070: 67cb 86bb 8e59 ceba 39cf 6bba 40c7 89bc
00000080: 93a5 863a 74dc faba 6c76 4dbc 1bc3 653c
00000090: 22ac aabc 5979 c53c 4940 563d dc02 433c
000000a0: fce7 59ba 886c d83c f167 a8bb 541e e33c
000000b0: 47db 303c 148d 37bc fd6f 83bc 28b4 c0ba
000000c0: 3d66 2a3a d3da e8bb 0536 44bb d14f 003b
000000d0: 258d be3c 81df debc 5a7d 483c f996 c93b
000000e0: cc6d bbbc 511d a93b 7be6 b93c a506 2f3c
000000f0: 5cd6 20bb cbe0 1ebd e43d 823b 0e23 90bc
00000100: 6b13 72bb bf11 0e3c f5d5 623c 65af 213b
00000110: bf8c 533b 444c 7dba f6b1 6cbc e4b6 da3c
00000120: fc71 643c 429d b4bc 2a5c e3bc 0e2c 9a3b
00000130: 9f2b 9bbc 7704 42bc 219f afbc 0939 033d
00000140: 06b2 743c 5552 b83b 04d0 90bc f83e e0bb
00000150: ab59 42bc cc85 96bc 3b61 6a3c fcf1 463c
00000160: 16f3 fcbb 2525 8d3c 3eb1 08ba 57c4 403c
00000170: d9f4 c93c fa14 83bc db96 9c3a 096a 2fbb
00000180: 8846 493d 1792 e7bc 3a26 c8bb 96c1 e4ba
00000190: 0678 e4ba 0147 eabc a04d 83bc bc50 34bc
000001a0: b678 70ba 4115 a2bc c227 2a3b 5f3c dfbb
000001b0: 4823 093c 9b88 e93c bb30 563c ad49 e3bc
000001c0: 5778 653c 3c6a 8d3c 20ce 403c 8b28 17bd
000001d0: 30e3 423c 896c 35bc cc19 13bc b4c6 e23b
000001e0: 9d71 b33b f0fa 253c c4f0 b6bc 17dc 09bc
000001f0: 6d0b 063c 651b 1ebc 2b70 413c c8d1 89bc
00000200: 8ec6 df3c 6e7f a3b9 5e3a ac3c 05bd 4c3d
00000210: 61df 303b 54f2 b53b 7057 38bd d4ba cf3c
00000220: 2cca e03a b208 613c e0a5 01bb bf91 0cbc
00000230: 3f4b b3bc 2421 073c e4e6 2fbc 7573 e1ba
00000240: 8ee8 a83c c6d8 cfbb 9e89 c8bc 8db5 b3bc
00000250: 423a 2abc cd62 b3bb 26ef 9c3c 3135 abbc
00000260: 987a c6bc 030a 3e3c a8c1 4bbc 1f22 babc
00000270: b927 a1bb f08b 293d fe11 09bd f308 6a3b
00000280: d7e4 a33b 9a57 e6bb 0575 7abc 6d50 a0bc
00000290: 3781 8f3a 370b bf3c 5028 d2bb aa45 743c
000002a0: 6347 3abc e82e e23a 5673 573c 80b9 833c
000002b0: a2da 01bc 78a4 003d bdb9 583c a40c 7abc
000002c0: a644 0abc 18e2 b63c 0f86 ec3b bfd2 09bd
000002d0: 51a5 6cbb fa1e e43c 5cdb 2a3d 59ec c23b
000002e0: 466a 33bc e0fd 99bb 77ab 5f3b 06a8 103c
000002f0: 7362 b03c 6b39 b4bc 0de6 a73a 8e5e f7bc
00000300: 09fe 83bc 45a3 65bc 5a02 013b 601c adbc
00000310: 5d71 963c 5b14 123d e137 cebc 17ca 31bc
00000320: 58e2 953b f685 623a fbc7 41bc b668 80bc
00000330: 9ed4 b83c edcc e8bb 3c88 19bc 99c1 18ba
00000340: 329b 1bb8 c742 01bc fd2f f9bc 0056 fbbb
00000350: 5c85 f43b f866 0d3c e951 973c a7f3 373c
00000360: 6ab3 37bb 83a9 5abc 553f 543c ca04 07bc
00000370: fce2 b03b 3baa 4dbc a0ef 0e3d 8456 a2bc
00000380: 17c9 393b b31d 89bb 56ea b1bc cc7e 1639
00000390: fc86 c93b 76ac eb3c 29de 803c c3ef aabc
000003a0: 4feb 303c b7ee 9b3c 6eab 17bc e061 9e3c
000003b0: 0b81 053d f65a 1f3b 0ae3 ac3c c6fd b6bb
000003c0: c88b 0abb dc96 8c3b 357a 003c c501 1abb
000003d0: c6ec 1c3c ef34 8e3c 495d 923c 70c5 ee3b
000003e0: 51f5 95bc efa5 663c 186f 11bc f71a ae3a
000003f0: 389f 3d3c 1811 e13c 3a2a 7739 15b3 a63c

action_model._continuous_distribution.mu.bias f4 [3]
0.0028383806 -0.0028018518 -0.0021294923
00000000: 2004 3a3b 469f 37bb f48e 0bbb

exp_avg f4 [128, 9]
2.073355e-05 -1.9219891e-05 -1.8336264e-05 2.9029336e-06 -2.950795e-05 1.1178193e-05 -4.1105045e-07 2.9620736e-07
2.939741e-06 2.1643639e-06 -2.1588126e-05 7.087865e-06 -1.7235882e-06 7.927836e-06 5.0361148e-05 3.1400992e-07
1.4861101e-06 6.1295095e-06 8.7762755e-06 0.000119124685 4.529949e-05 1.18363405e-05 7.8367186e-05 -4.546883e-05
-1.1433738e-06 2.0021345e-07 -6.3988555e-06 1.986961e-05 -1.9053077e-05 -2.8009299e-05 2.0422972e-06 -1.50459255e-05
-2.79387e-06 1.1324332e-06 -1.4159807e-06 -1.2122284e-06 -3.2129497e-05 5.2069867e-05 -1.4830988e-05 3.862426e-06
1.9235165e-05 5.4576384e-07 -2.6930404e-06 -5.735028e-07 5.0946464e-06 1.8259321e-06 3.7869988e-05 2.1508136e-05
9.303909e-06 1.2373819e-05 1.5004203e-05 1.2288789e-06 8.660543e-07 -8.6225475e-07 1.3359678e-05 -8.229824e-05
2.6287009e-05 -1.8903138e-05 -3.0249881e-05 4.1025098e-05 -3.995337e-07 3.5530104e-06 8.664657e-06 1.3805029e-05
-9.145815e-06 -1.8939694e-06 -2.5072552e-06 2.056351e-05 -9.4746465e-06 4.1902118e-07 -1.1966396e-06 -1.4878882e-06
1.0292097e-05 6.034066e-05 3.0816926e-05 -6.737302e-05 2.7706197e-05 -3.1937652e-06 -7.2167104e-06 4.772678e-06
2.3682003e-06 -0.00012769582 -0.00022118911 6.7231544e-05 -9.414901e-05 -0.00011551833 -0.00013566072 -1.2607023e-05
1.38115e-05 -1.4271735e-05 -9.2917435e-06 -5.6294815e-05 -1.4403669e-05 6.481187e-05 -5.0105835e-05 9.348334e-05
8.184109e-06 -6.700557e-07 2.0298407e-05 4.9024387e-05 7.248058e-05 -2.9526085e-05 -6.635924e-05 9.783354e-06
-8.564406e-06 -7.974877e-06 1.5867041e-05 1.7383958e-05 -2.1169544e-06 5.9718377e-06 1.5436302e-06 -1.8884499e-06
1.2705442e-05 8.004562e-06 -5.213048e-07 5.3378227e-07 1.1058604e-06 -1.37796005e-05 4.981255e-05 -6.9270795e-06
-0.00013239874 0.00012727178 -0.00013090193 -1.12851e-05 2.1027236e-05 4.2659094e-06 -2.9539393e-05 4.173604e-05
8.894819e-06 -6.442272e-05 7.27427e-05 -0.00016211292 -3.5743192e-06 5.573299e-06 -1.3842047e-05 -2.144539e-05
-0.00010721424 -4.8186095e-05 7.5129574e-05 -9.3423805e-05 6.033769e-05 7.969513e-06 -8.954106e-06 3.4100577e-07
1.9089168e-05 -9.52472e-05 -1.9084184e-05 4.8584494e-05 -0.00010037038 8.8188666e-05 5.875061e-06 -4.229129e-06
5.731937e-06 -1.3267796e-05 7.13406e-05 1.5946976e-05 -3.2093992e-06 5.3468724e-05 -9.618862e-05 -1.0537205e-07
6.759989e-07 -9.796492e-06 8.239243e-05 6.247152e-05 -1.6424723e-05 0.00013153297 8.84416e-06 0.00015795277
1.2259228e-05 -6.2883873e-06 2.436147e-06 -9.4247673e-07 -2.5358555e-05 4.9009355e-05 -1.50052365e-05 2.7801172e-05
-5.435717e-06 1.819218e-07 -1.2899019e-06 -9.214029e-06 3.132311e-05 -0.00015027162 -4.7324957e-05 -1.2892826e-05
-0.00010654724 0.0002663996 -5.3878233e-07 4.674279e-06 3.7203215e-05 7.800546e-06 0.0002402452 5.2192707e-05
-0.0001450628 0.00022124809 -0.00015456523 -1.8843253e-05 1.8829358e-05 4.5915694e-06 -1.9121382e-05 -8.824425e-05
-1.9732488e-05 0.00010554616 -9.915237e-05 6.6829365e-05 1.2090154e-05 -1.3862862e-05 -1.6180176e-05 4.8561742e-05
-8.193537e-05 -1.0859375e-05 -2.2350443e-05 3.0923442e-05 -2.9217297e-05 4.2274058e-07 -2.162151e-06 -2.3219188e-06
5.2045216e-05 -0.00015425285 -6.58708e-05 0.00023462514 -0.00022523197 0.00028674348 2.075946e-05 -1.8083552e-05
1.5550526e-05 -2.3437799e-05 1.564223e-05 -5.9781623e-06 -8.478817e-05 1.064625e-05 7.279874e-05 -1.0179003e-05
1.4824391e-05 2.3098355e-05 7.3332914e-05 -7.988416e-05 8.910008e-06 0.00020783588 -0.00017795972 0.00018011026
2.2532378e-05 -2.7369166e-05 1.837064e-06 -2.7066575e-05 0.00014292446 6.9346324e-06 -7.6954646e-05 0.00017602515
-0.00023693014 -1.4147194e-05 2.2111095e-05 -1.35616e-05 -2.060731e-05 -2.3659908e-05 3.057789e-05 -5.9231465e-06
00000000: f6ec ad37 673a a1b7 d4d0 99b7 05d0 4236
00000010: d787 f7b7 f989 3b37 58ae dcb4 6e06 9f34
00000020: 5e48 4536 7d3f 1136 2618 b5b7 4cd4 ed36
00000030: 0a56 e7b5 cc01 0537 df3a 5338 3295 a834
00000040: 5b76 c735 16ac cd36 d13d 1337 94d2 f938
00000050: f5ff 3d38 b294 4637 1059 a438 c9b5 3eb8
00000060: 0676 99b5 41fa 5634 c0b5 d6b6 aaad a637
00000070: 2cd4 9fb7 83f5 eab7 660e 0936 c26d 7cb7
00000080: 527e 3bb6 1cfe 9735 ba0c beb5 dab3 a2b5
00000090: c9c2 06b8 9865 5a38 9cd2 78b7 fd99 8136
000000a0: 345b a137 9b80 1235 15ba 34b6 d0f2 19b5
000000b0: aef2 aa36 8d12 f535 97d6 1e38 5f6c b437
000000c0: fc17 1c37 2699 4f37 90ba 7b37 f5ef a435
000000d0: cc7a 6835 b275 67b5 6123 6037 8897 acb8
000000e0: ec82 dc37 2e92 9eb7 20c1 fdb7 5d12 2c38
000000f0: 7e7f d6b4 4170 6e36 6b5e 1137 269c 6737
00000100: fa70 19b7 4b34 feb5 5142 28b6 cd7f ac37
00000110: 4cf5 1eb7 d5f5 e034 399c a0b5 73b3 c7b5
00000120: 38ac 2c37 4a16 7d38 6c41 0138 9d4a 8db8
00000130: 9b6a e837 7854 56b6 1227 f2b6 fe24 a036
00000140: 5fed 1e36 16e6 05b9 00ef 67b9 a9fe 8c38
00000150: dd71 c5b8 6e42 f2b8 2640 0eb9 c082 53b7
00000160: f1b7 6737 a370 6fb7 bce3 1bb7 191e 6cb8
00000170: 4aa7 71b7 9ceb 8738 bb28 52b8 7c0c c438
00000180: 7b4e 0937 e1dd 33b5 7f46 aa37 899f 4d38
00000190: b700 9838 c9ae f7b7 582a 8bb8 2f23 2437
000001a0: d8af 0fb7 d6cb 05b7 361a 8537 c4d3 9137
000001b0: 0011 0eb6 b261 c836 bb2e cf35 a576 fdb5
000001c0: 7529 5537 554b 0637 cbef 0bb5 3d49 0f35
000001d0: 136d 9435 ef2e 67b7 d1ed 5038 296f e8b6
000001e0: 84d4 0ab9 4274 0539 b842 09b9 2355 3db7
000001f0: a563 b037 e223 8f36 5dcb f7b7 bb0d 2f38
00000200: f53a 1537 af1a 87b8 718d 9838 dbfc 29b9
00000210: 56de 6fb6 4602 bb36 243b 68b7 a0e5 b3b7
00000220: 35d8 e0b8 6d1b 4ab8 e28e 9d38 86ec c3b8
00000230: 1a13 7d38 ccb4 0537 9839 16b7 7a13 b734
00000240: ad21 a037 73bf c7b8 f916 a0b7 34c7 4b38
00000250: f07d d2b8 eef1 b838 6422 c536 f1e7 8db6
00000260: f754 c036 c098 5eb7 b19c 9538 dfc5 8537
00000270: 0f61 57b6 9b43 6038 dfb8 c9b8 e648 e2b3
00000280: 4a76 3535 9d5b 24b7 19ca ac38 2403 8338
00000290: d3c7 89b7 1dec 0939 6161 1437 20a0 2539
000002a0: fcac 4d37 d600 d3b6 b07c 2336 82fe 7cb5
000002b0: 15b9 d4b7 658f 4d38 00bf 7bb7 9036 e937
000002c0: 7464 b6b6 4956 4334 b120 adb5 f495 1ab7
000002d0: ef60 0338 3b92 1db9 c97e 46b8 444e 58b7
000002e0: 1d72 dfb8 8dab 8b39 d7a0 10b5 c0d7 9c36
000002f0: a60a 1c38 17df 0237 54ea 7b39 7ee9 5a38
00000300: 001c 18b9 d5fe 6739 ca12 22b9 9411 9eb7
00000310: bdf3 9d37 4811 9a36 db66 a0b7 c50f b9b8
00000320: 3287 a5b7 aa58 dd38 06f0 cfb8 be26 8c38
00000330: d1d6 4a37 8a94 68b7 aaba 87b7 c6ae 4b38
00000340: b8d4 abb8 a930 36b7 367d bbb7 cbb3 0138
00000350: ab17 f5b7 06f5 e234 7919 11b6 43d2 1bb6
00000360: 204b 5a38 efbe 21b9 1e24 8ab8 b505 7639
00000370: 3f2c 6cb9 0f56 9639 9a24 ae37 22b2 97b7
00000380: 8072 8237 4a9c c4b7 6f37 8337 0698 c8b6
00000390: 4dd0 b1b8 4c9d 3237 87ab 9838 7cc6 2ab7
000003a0: 46b6 7837 57c3 c137 4fca 9938 7b87 a7b8
000003b0: 317c 1537 85ee 5939 b39a 3ab9 fbdb 3c39
000003c0: ea03 bd37 d696 e5b7 0a91 f635 070d e3b7
000003d0: fedd 1539 0ab0 e836 b662 a1b8 6493 3839
000003e0: 7370 78b9 bc59 6db7 377b b937 a186 63b7
000003f0: dcdd acb7 4479 c6b7 c240 0038 71bf c6b6

exp_avg_sq f4 [128, 9]
2.1552525e-11 1.8064525e-10 6.828634e-11 1.5235264e-11 2.557083e-10 1.13933966e-10 5.2495416e-13 1.118026e-12
4.95587e-12 2.179438e-12 1.1087733e-10 5.466758e-12 5.6636553e-12 1.828938e-11 3.1827677e-10 5.764578e-14
4.859616e-13 6.104997e-12 9.482988e-11 1.793316e-09 3.9618983e-10 2.8847258e-11 1.2485607e-09 1.3417385e-09
1.2078524e-12 6.856565e-12 2.4985642e-11 3.7343396e-11 1.2322397e-10 3.916753e-10 2.1275763e-12 2.2378856e-10
6.2486895e-12 2.0242017e-13 2.7631947e-13 4.559871e-13 5.460281e-10 1.1326752e-08 1.4169765e-09 3.1586458e-10
1.1844837e-08 8.069804e-09 6.2543044e-12 2.6795817e-11 1.6384359e-10 2.987126e-11 5.5795335e-10 8.0732816e-11
7.3010674e-11 6.3865985e-10 1.6011313e-10 3.154732e-12 4.1515897e-12 5.4666263e-12 1.8144887e-10 5.292662e-09
3.4954237e-10 4.036434e-11 3.2719347e-09 1.5626969e-09 2.6000204e-13 2.7226355e-12 2.418755e-11 6.0946755e-11
2.7285182e-10 4.5122522e-10 8.476603e-12 9.974602e-10 1.5715625e-11 1.5052057e-13 2.8508524e-13 7.568978e-13
4.8140875e-10 2.8603147e-09 9.216008e-10 2.1772213e-09 4.8901008e-09 9.8307416e-09 1.945552e-11 3.1865597e-11
7.152601e-11 8.760061e-10 1.0068335e-08 5.863257e-10 1.8036729e-09 9.507661e-09 8.1674685e-09 3.2720104e-11
3.7053777e-11 1.2262522e-10 1.6872256e-09 1.3058939e-08 8.235018e-10 6.634685e-09 1.4898018e-08 4.2918153e-08
5.914209e-11 1.0811222e-10 4.278847e-10 1.615639e-09 1.5069787e-08 3.0792089e-09 5.3173705e-09 1.7574958e-08
2.0951918e-08 5.8742816e-11 1.2006453e-10 2.6329963e-10 3.3211847e-12 9.133044e-11 1.1976336e-11 1.5075145e-12
1.02360107e-10 2.4583101e-11 3.8894757e-14 1.3373108e-13 3.5089087e-13 2.1602091e-09 2.1659465e-08 2.2716005e-09
5.9342926e-09 2.0944674e-08 4.1439822e-08 5.3869704e-11 1.2947611e-10 4.94467e-10 7.712556e-10 3.3327747e-09
5.5879185e-10 5.4587708e-09 8.12335e-09 1.7548437e-08 4.5840224e-11 4.751027e-11 1.4087533e-10 5.399294e-10
6.1405934e-09 1.0109786e-09 1.2630547e-09 7.353868e-09 8.7686285e-09 1.8430124e-11 2.4958017e-11 1.3267767e-10
8.1769275e-10 6.938295e-09 3.482694e-10 2.8720006e-09 7.502464e-09 2.5946537e-08 2.3521985e-11 4.2284336e-11
2.4627433e-10 3.538531e-11 1.1211337e-09 4.4151443e-11 2.322968e-11 5.4683696e-10 2.8375942e-09 1.0333693e-13
2.5348755e-12 2.3275293e-11 2.7670228e-09 2.1802846e-08 1.5733308e-09 9.851142e-09 2.3252923e-08 6.4896525e-08
8.475838e-11 1.3281432e-10 5.9855465e-10 2.365899e-10 1.5958235e-09 9.772897e-10 1.4692128e-09 4.935141e-09
3.5034584e-09 3.4025636e-11 3.0605487e-11 5.619862e-11 1.2521334e-09 2.675341e-08 1.2645541e-09 6.524967e-10
1.3693198e-08 8.020658e-08 5.8216656e-12 7.2926304e-11 4.95562e-10 1.5343751e-09 1.5598475e-08 1.0600996e-09
4.179832e-09 1.8043872e-08 3.2175976e-08 4.6580257e-11 8.34575e-11 3.6538625e-10 4.951294e-10 7.917194e-09
3.1077677e-10 1.7880037e-09 9.090228e-09 1.2814524e-08 2.5240936e-11 5.8124644e-11 2.2170425e-10 3.5245562e-10
2.853695e-09 3.964272e-09 2.0805448e-10 1.0752806e-08 3.7720607e-10 9.935356e-12 9.025048e-12 1.5495811e-11
2.7027027e-09 1.7263085e-08 1.5120394e-09 1.730702e-08 2.8991316e-08 7.0946555e-08 1.53209e-10 1.7703812e-10
6.28032e-10 1.1344764e-09 6.6425665e-09 1.0730362e-09 3.041454e-09 8.469148e-09 2.2962197e-08 2.819069e-11
8.052251e-11 3.0882716e-10 2.3237425e-09 1.5273532e-08 1.3346187e-09 1.17868275e-08 1.967954e-08 5.8919632e-08
1.068416e-10 1.4793843e-10 6.613181e-10 4.338231e-09 3.115742e-08 3.1705367e-09 1.6903781e-08 3.6622428e-08
9.40097e-08 1.2206766e-10 2.1373296e-10 6.736263e-10 3.5008073e-11 8.88858e-10 1.059567e-10 1.8245051e-11
00000000: f993 bd2d 1e9f 462f cb29 962e c402 862d
00000010: be93 8c2f 1f8b fa2e efc2 132b 2259 9d2b
00000020: 825e ae2c 445d 192c 63d2 f32e 2e58 c02c
00000030: ac45 c72c 06e0 a02d 79f9 ae2f 88ce 8129
00000040: 39c9 082b edcc d62c 7a88 d02e b378 f630
00000050: c3ce d92f 40be fd2d d399 ab30 3a68 b830
00000060: 78fd a92b 723e f12c aac6 db2d ed3c 242e
00000070: 777c 072f 6653 d72f 02b7 152c e10e 762f
00000080: 31db db2c a4e7 632a d58d 9b2a 5559 002b
00000090: 5017 1630 9597 4232 6ebf c230 fda5 ad2f
000000a0: 257e 4b32 60a3 0a32 c40d dc2c d1b2 eb2d
000000b0: df25 342f 0d60 032e 7a5e 1930 8988 b12e
000000c0: 5b8d a02e b18d 2f30 d70b 302f 99fe 5d2c
000000d0: 3212 922c fe56 c02c 5181 472f bfda b531
000000e0: b729 c02f 3586 312e 7cd8 6031 82c6 d630
000000f0: 3e5e 922a a496 3f2c 85c1 d42d f905 862e
00000100: 7b00 962f 4e10 f82f 3a1f 152d 0317 8930
00000110: 713c 8a2d 9a78 292a 1d7d a02a 3c0c 552b
00000120: 2154 0430 308f 4431 e453 7d30 159e 1531
00000130: c805 a831 0fe4 2832 f021 ab2d 7925 0c2e
00000140: 9049 9d2e 73cb 7030 01f9 2c32 012b 2130
00000150: 19e5 f730 2357 2332 e850 0c32 90e7 0f2e
00000160: d8f6 222e eed3 062f f9e3 e730 d259 6032
00000170: ca5c 6230 4ef7 e331 2df2 7f32 0255 3833
00000180: 090e 822e c5bd ed2e 6b3b eb2f 3e0d de30
00000190: d072 8132 049a 5331 16b4 b631 bef7 9632
000001a0: c1f9 b332 442d 812e 2903 042f 21c0 902f
000001b0: 25b5 692c 78d6 c82e 9fb0 522d ef29 d42b
000001c0: 9e17 e12e 393c d82d 9a2a 2f29 5c91 162a
000001d0: b488 c52a cd72 1431 ab0d ba32 6b1a 1c31
000001e0: 97e6 cb31 d3e9 b332 91fb 3133 e5eb 6c2e
000001f0: 495c 0e2f 06eb 0730 4a00 5430 cb06 6531
00000200: 7b99 1930 db8f bb31 df8e 0b32 6cbd 9632
00000210: 819b 492e cff3 502e e1e4 1a2f 276a 1430
00000220: 3bfd d231 a6f2 8a30 c997 ad30 4fad fc31
00000230: d6a4 1632 f31c a22d 7588 db2d 72e1 112f
00000240: 03c4 6030 e365 ee31 9076 bf2f c55c 4531
00000250: 30e4 0032 0ae1 de32 cde6 ce2d eef7 392e
00000260: 0864 872f 51a0 1b2e 6316 9a30 1b2e 422e
00000270: 9754 cc2d 3b50 1630 7cff 4231 afb1 e829
00000280: 4260 322c 4dbb cc2d fb25 3e31 f748 bb32
00000290: a83c d830 c83d 2932 b8bd c732 3e5d 8b33
000002a0: ba62 ba2e e807 122f 8a87 2430 1111 822f
000002b0: 0c54 db30 5351 8630 54ed c930 f691 a931
000002c0: 7ec1 7031 76a5 152e b79a 062e 052a 772e
000002d0: 8717 ac30 5fcf e532 8bcc ad30 605b 3330
000002e0: 523f 6b32 093e ac33 e7d4 cc2c dc5d a02e
000002f0: 1338 0830 06e2 d230 69fd 8532 f0b2 9130
00000300: 319e 8f31 e5fe 9a32 dc31 0a33 b5dc 4c2e
00000310: 6586 b72e 8bdf c82f a219 0830 3004 0832
00000320: f1d9 aa2f cabd f530 3f2b 1c32 df26 5c32
00000330: 8905 de2d 88a2 7f2e 33c4 732f b8c3 c12f
00000340: bc1a 4431 1b36 8831 21c2 642f 57bb 3832
00000350: 095f cf2f dec8 2e2d 34c5 1e2d 774d 882d
00000360: 73ba 3931 ed49 9432 28d0 cf30 8aaa 9432
00000370: 9408 f932 485b 9833 8074 282f cda7 422f
00000380: d3a1 2c30 d7eb 9b30 a23c e431 1b7a 9330
00000390: d301 5131 b57f 1132 683e c532 caf7 f72d
000003a0: 2512 b12e 8fc7 a92f b6af 1f31 da32 8332
000003b0: b96d b730 047f 4a32 c40b a932 d20e 7d33
000003c0: 79f2 ea2e f7a8 222f 20c8 3530 7c0f 9531
000003d0: f2d1 0533 ace0 5931 cf33 9132 c94a 1d33
000003e0: 61e2 c933 fe36 062f 7b00 6b2f 3d2a 3930
000003f0: 96f7 192e d253 7430 5200 e92e 347c a02d

exp_avg f4 [128]
-8.18506e-06 -1.2973713e-06 3.0023426e-05 -6.090006e-06 6.595779e-06 7.1403306e-06 -2.0290652e-05 6.8348377e-06
1.9387762e-06 -7.840598e-05 -2.2196095e-05 -1.9887559e-05 4.1282888e-06 -1.9696123e-05 -2.0157008e-06 -9.309517e-06
-1.9061952e-05 9.094142e-06 4.1450763e-05 9.433887e-06 -3.8399765e-05 2.402148e-05 1.0444583e-05 9.888734e-06
-7.173845e-06 -2.868159e-05 2.5282725e-05 2.4267e-06 -3.4040827e-06 2.7807573e-05 3.95836e-07 1.8532259e-05
-8.317745e-06 -1.9319734e-05 -5.019705e-06 2.7550218e-06 -5.4898514e-06 -6.893167e-06 -1.0457891e-05 2.7921456e-05
1.0341644e-05 -1.1642431e-05 1.8903535e-05 -8.241752e-06 1.0028801e-06 -7.006708e-06 3.1049905e-05 -2.8894796e-05
3.958771e-06 -6.976909e-06 7.351055e-06 -4.3237676e-05 8.66747e-07 -1.9251907e-05 9.812023e-06 2.3200753e-05
6.7019464e-06 2.6194633e-05 1.547735e-05 1.4909543e-05 -7.1764575e-06 -1.5370097e-05 5.8941278e-06 -1.8300968e-06
-1.7944432e-05 -6.970438e-05 4.935556e-06 1.6556467e-05 6.032524e-06 -3.6355984e-06 -3.31447e-05 -3.4663371e-06
-3.8036567e-06 1.4283154e-05 -1.1388495e-05 1.39949525e-05 2.2810305e-05 2.5899074e-06 1.1262507e-06 -8.932407e-06
6.353429e-07 6.6149114e-05 9.604718e-06 -3.858438e-05 -1.1606507e-05 2.9932095e-05 5.3038257e-06 -1.504988e-05
-4.6596213e-07 -3.1702446e-06 -1.8683058e-06 1.0875052e-05 3.2144387e-06 -1.3075921e-05 1.1284492e-05 -1.756407e-05
2.9607085e-05 3.9056416e-05 -3.5770702e-06 -4.840366e-06 2.8826831e-05 1.0669455e-05 1.068581e-05 -1.3321255e-06
-2.44529e-06 1.5983474e-05 9.0225285e-06 4.695091e-05 -4.756753e-06 -8.08179e-06 -1.9336971e-06 7.6008473e-06
1.50427395e-05 1.8629926e-05 -1.3140256e-05 -2.1329542e-07 -1.4079401e-05 1.870342e-05 -1.0868863e-05 -5.6650983e-06
1.2925687e-05 -5.494637e-06 -1.5420122e-06 -9.664083e-06 9.315268e-06 -2.556072e-05 3.6687226e-05 2.1860491e-05
00000000: 9152 09b7 5721 aeb5 d1da fb37 c158 ccb6
00000010: 4f51 dd36 f996 ef36 d835 aab7 cf56 e536
00000020: ec1b 0236 e46d a4b8 c031 bab7 35d4 a6b7
00000030: bb85 8a36 1a39 a5b7 7a45 07b6 1230 1cb7
00000040: 3be7 9fb7 0b93 1837 6bdb 2d38 3c46 1e37
00000050: 6f0f 21b8 bc81 c937 243b 2f37 cae7 2537
00000060: dcb6 f0b6 3f99 f0b7 3d16 d437 63da 2236
00000070: b271 64b6 4f44 e937 4983 d434 b975 9b37
00000080: 718c 0bb7 d010 a2b7 f06e a8b6 eae2 3836
00000090: 7735 b8b6 db4b e7b6 4d74 2fb7 df38 ea37
000000a0: 0681 2d37 dc53 43b7 0893 9e37 0e46 0ab7
000000b0: b39a 8635 2a1b ebb6 953b 0238 1a63 f2b7
000000c0: 95d5 8436 311b eab6 15a9 f636 1a5a 35b8
000000d0: 66aa 6835 287f a1b7 519e 2437 3d9f c237
000000e0: 48e1 e036 8cbc db37 5bd5 8137 0024 7a37
000000f0: 4dcd f0b6 08ef 80b7 2cc6 c536 a6a1 f5b5
00000100: 6087 96b7 412e 92b8 1a9c a536 bee2 8a37
00000110: fd6a ca36 1bfb 73b6 da04 0bb8 389f 68b6
00000120: 5342 7fb6 aea1 6f37 3711 3fb7 ddcb 6a37
00000130: c258 bf37 45ce 2d36 ae29 9735 65dc 15b7
00000140: 6e8c 2a35 89b9 8a38 f323 2137 aad5 21b8
00000150: 91b9 42b7 af16 fb37 84f7 b136 be7e 7cb7
00000160: 5929 fab4 63c0 54b6 80c2 fab5 fe73 3637
00000170: a3b7 5736 a760 5bb7 8652 3d37 8e56 93b7
00000180: bb5c f837 82d0 2338 990d 70b6 6d6a a2b6
00000190: 26d1 f137 f600 3337 3447 3337 7ccb b2b5
000001a0: c319 24b6 4014 8637 775f 1737 28ed 4438
000001b0: 329c 9fb6 0697 07b7 aac4 01b6 c80a ff36
000001c0: 1360 7c37 7647 9c37 f874 5cb7 3306 65b4
000001d0: 9136 6cb7 4ae5 9c37 6959 36b7 d316 beb6
000001e0: 67db 5837 935e b8b6 23f7 ceb5 ec22 22b7
000001f0: c548 1c37 3a6b d6b7 9ce0 1938 0c61 b737

exp_avg_sq f4 [128]
2.0515227e-11 3.598437e-12 1.2292817e-10 2.03371e-11 8.863472e-10 5.401284e-11 3.3504105e-10 7.111949e-11
1.3080464e-10 8.016052e-10 4.9027904e-10 1.1787944e-09 8.784537e-12 1.1775437e-09 4.52558e-11 4.284112e-10
2.31982e-10 1.3148353e-11 1.1237298e-09 2.4169794e-10 5.56277e-10 1.0413467e-09 4.3410917e-10 7.808302e-10
3.6948822e-10 3.245311e-10 2.572385e-10 9.509268e-10 8.568346e-11 5.270687e-10 4.8680414e-11 1.0261589e-09
2.433503e-10 1.204027e-09 4.045983e-10 2.2538953e-10 6.9844663e-10 1.7401369e-11 8.290403e-11 1.7557255e-09
7.0289954e-11 5.2541197e-11 7.938906e-10 1.9054416e-11 3.8974302e-10 9.54599e-10 3.40821e-10 1.428411e-10
8.149728e-12 9.512673e-11 1.4109613e-11 8.132914e-10 9.0431806e-10 8.696867e-11 6.936482e-10 4.3012843e-10
7.5848866e-10 1.1345894e-09 1.4897357e-10 3.928162e-10 1.7804777e-10 1.2017407e-10 8.4628124e-11 6.029773e-11
1.1620646e-10 9.081663e-10 1.00278306e-10 1.2266174e-09 2.931979e-10 2.4388455e-11 3.463846e-10 4.870991e-12
2.4082607e-11 6.176964e-11 7.5044815e-10 9.088056e-11 9.397818e-10 1.6167015e-12 2.0204545e-09 5.1704424e-10
2.2224132e-12 2.6018714e-09 8.5173757e-10 1.8089164e-09 1.6205363e-10 3.496249e-10 7.224334e-10 2.2016697e-10
2.478455e-12 1.8461834e-12 7.971443e-12 1.7489765e-10 3.3981427e-12 2.7143449e-10 4.2209923e-11 2.0192814e-10
2.2232849e-10 2.1004805e-09 1.0048681e-09 2.18329e-11 2.3429654e-09 3.6999356e-10 1.1485319e-09 2.062083e-11
6.785878e-12 1.6674394e-10 8.1034707e-10 1.9000745e-09 4.9605455e-11 2.1192648e-11 1.350978e-10 3.4057324e-10
3.816582e-10 1.2712558e-09 5.17621e-10 5.8146855e-11 1.5851451e-10 5.024396e-10 5.5451952e-11 2.797788e-10
1.504095e-10 1.9062467e-11 4.0427405e-12 4.2653027e-11 1.5357115e-11 2.9459749e-10 6.1611194e-10 5.6458926e-10
00000000: 2f74 b42d ae37 7d2c 3429 072f 14e3 b22d
00000010: 24a3 7330 0d8d 6d2e d630 b82f b764 9c2e
00000020: 3cd2 0f2f f457 5c30 52c4 0630 2403 a230
00000030: 0a8a 1a2d 23d7 a130 8009 472e 8485 eb2f
00000040: 2111 7f2f eb4e 672d ba71 9a30 f6df 842f
00000050: 84e8 1830 211f 8f30 6fa7 ee2f 0aa2 5630
00000060: d820 cb2f b169 b22f 1a6b 8d2f c3b1 8230
00000070: 806b bc2e 2ae1 1030 4619 562e c208 8d30
00000080: 83c8 852f ef7a a530 266e de2f 83d1 772f
00000090: d0fc 3f30 6610 992d d24e b62e 194e f130
000000a0: ba91 9a2e 2114 672e 1639 5a30 bb9a a72d
000000b0: 7443 d62f f732 8330 4b5e bb2f 320e 1d2f
000000c0: 1d5f 0f2d 972f d12e 0c38 782d 4b8e 5f30
000000d0: ba93 7830 023f bf2e 27ab 3e30 3277 ec2f
000000e0: e57d 5030 d1ef 9b30 55cc 232f f7f3 d72f
000000f0: fec3 432f fe21 042f 6619 ba2e 9b98 842e
00000100: 6c8a ff2e 86a2 7930 ab83 dc2e c395 a830
00000110: f02f a12f eb85 d62d 4c6d be2f fd61 ab2c
00000120: 36d5 d32d 37d5 872e 1848 4e30 35d9 c72e
00000130: a229 8130 cf87 e32b 36d8 0a31 c11f 0e30
00000140: 7063 1c2c 9bcc 3231 b41f 6a30 969d f830
00000150: 0b2e 322f 5535 c02f bb94 4630 7e13 722f
00000160: e067 2e2c e2e9 012c 303c 0c2d 504d 402f
00000170: 7f1f 6f2c 0239 952f 26a4 392e b805 5e2f
00000180: e873 742f 0b58 1031 a71b 8a30 520b c02d
00000190: e201 2131 f767 cb2f 60da 9d30 fb61 b52d
000001a0: c1c1 ee2c 3f56 372f 1bbf 5e30 7792 0231
000001b0: c72a 5a2e 9a69 ba2d a68a 142f 6c3b bb2f
000001c0: 9ed1 d12f 56b8 ae30 5748 0e30 8abb 7f2e
000001d0: de49 2e2f 0b1c 0a30 59e1 732e 5ecf 992f
000001e0: 8360 252f dcac a72d c53d 8e2c 0a97 3b2e
000001f0: 2615 872d e9f4 a12f 065b 2930 7031 1b30
